benchmarks/Taxi-v3/Train_Taxi-v3_DQN_20230426-194410/models/checkpoint.pt (torch, 300115 bytes, 7 tensors)

layers.0.layer.weight f4 [600, 8]
-0.97875124 0.36247376 0.36815545 -0.36260778 0.96283454 0.4890005 -0.18460222 -0.32661915
0.00829486 0.5582378 -0.11763356 -0.26584527 0.948204 0.7095707 -0.050463505 -0.75700414
-1.807227 -0.07681681 -1.3217889 1.4860331 -0.23219031 -2.2486675 -0.3368479 0.8772318
0.0037338457 -0.49832037 1.1748868 -0.59844834 1.9952835 -0.87981975 2.0074017 -1.4788206
0.38736302 -0.31647095 1.4821854 -1.0947989 -2.1895325 -0.78623414 -1.4972527 -0.42159387
-0.52216905 -1.0856661 1.9413037 1.1125069 0.10859219 -0.6356256 -1.8730636 1.2330424
0.50267255 -0.09450214 0.18635422 1.3978324 -1.6086884 -0.044987667 -1.0297472 -0.7671091
0.33636436 -0.47423732 0.01816785 -0.06153897 -0.7541449 -0.39749107 0.6882418 -2.2951014
-2.088814 -0.08178227 1.1275976 -0.3592297 -1.4089954 1.4706719 1.5675985 0.89948094
-0.042975724 1.6195494 -0.062076848 -1.8996881 -0.88247544 -1.5036355 0.10912839 0.96352965
0.88513446 0.067187615 -0.8227288 -0.12741798 -0.40344757 1.1030406 -0.22751787 -0.102292664
0.34764227 -2.7573292 0.3381927 0.017161258 -0.56900936 0.19970769 0.84680235 -0.8181998
1.008829 0.731135 0.65511745 -0.31253758 -0.5208692 -1.0762517 0.49653572 -0.20402302
0.4943415 0.65379333 -0.8740234 -2.0277488 -0.3863314 -0.48300728 0.12209189 -1.5167153
1.5318925 -0.17709242 -0.38243806 0.14514689 0.99139297 0.15881667 0.7891299 -0.35804346
1.4540753 -0.07963065 -0.034787357 -0.06697133 0.1868869 -0.9173621 0.3007907 -0.57265127
0.32211843 0.9878976 0.78926337 1.0623695 0.71396565 -0.6741011 -0.22105438 -0.70484835
0.5522982 -0.07681777 -0.033250093 1.0095637 -1.0730302 0.7805951 0.23312946 0.4314327
0.3156844 -0.47222105 0.6444386 -1.7719465 -0.5797754 0.45100132 1.0442498 0.98745745
1.9231625 0.7990643 0.14492194 -1.1556385 0.9443198 -0.5619514 -1.5955074 -0.29398817
-0.33950543 -0.22259767 1.4581054 -1.2704008 1.0723345 1.0028394 0.60754955 1.124167
-0.3813789 0.044140343 1.830508 0.07435011 0.9567272 -0.19404376 0.7322746 0.29289892
0.6476977 1.0342911 1.1405144 0.62606907 1.3796463 0.76448536 -0.8618902 1.1801666
-0.62740505 -0.82388854 -0.61567533 1.2053263 -0.534663 0.892195 0.65796727 1.7750865
0.39364013 -1.3420177 -0.29024366 -1.4926407 1.4370466 -0.11332309 0.048391126 -0.009012441
0.0675654 -1.0901871 -1.045412 -0.94104344 0.6563507 0.5901551 0.34640837 0.0958397
-1.6657801 -2.642765 0.10747021 2.1154377 -0.2838564 1.6619503 -1.468273 1.1526027
1.0382867 0.4693337 1.4144686 -0.427379 0.0917988 1.7426833 -1.2385545 1.6218139
0.7070093 -0.67768323 0.91960275 0.86055833 0.024198009 1.5106626 -0.54196846 1.3655852
-0.036384493 1.1889069 0.13628207 1.3512791 -1.3463545 1.4991584 0.7839262 -0.79118556
0.21444637 1.513654 1.199313 1.7708155 1.3775661 -0.5436603 1.2817909 -1.7931613
-1.3846077 -0.55908805 0.21131577 0.9367884 0.24843615 -0.059401024 -1.0278339 0.38930148
00000000: 718f 7abf 2996 b93e df7e bc3e baa7 b9be
00000010: 537c 763f 465e fa3e 5d08 3dbe a03a a7be
00000020: 2ae7 073c ace8 0e3f dde9 f0bd df1c 88be
00000030: 7fbd 723f 6da6 353f d2b2 4ebd 06cb 41bf
00000040: 3753 e7bf 2252 9dbd 6130 a9bf 5536 be3f
00000050: 4cc3 6dbe 2bea 0fc0 5477 acbe 4392 603f
00000060: 89b3 743b d923 ffbe b162 963f e933 19bf
00000070: 7365 ff3f de3b 61bf 4579 0040 fe49 bdbf
00000080: 7254 c63e 7b08 a2be 40b8 bd3f 5f22 8cbf
00000090: 4d21 0cc0 a446 49bf faa5 bfbf 27db d7be
000000a0: dfac 05bf 1bf7 8abf a47c f83f a066 8e3f
000000b0: 9565 de3d 5cb8 22bf 8cc0 efbf 55d4 9d3f
000000c0: 26af 003f 578a c1bd a4d3 3e3e 2cec b23f
000000d0: 80e9 cdbf fd44 38bd c2ce 83bf 4361 44bf
000000e0: f337 ac3e 3ccf f2be bed4 943c 4910 7cbd
000000f0: a40f 41bf f383 cbbe 9d30 303f f1e2 12c0
00000100: 21af 05c0 767d a7bd 1e55 903f f5ec b7be
00000110: f659 b4bf fa3e bc3f 11a7 c83f 6244 663f
00000120: 5007 30bd 654d cf3f 4b44 7ebd fb28 f3bf
00000130: e9e9 61bf 2177 c0bf b57e df3d e1a9 763f
00000140: 2c98 623f a999 893d 5b9e 52bf dc79 02be
00000150: ae90 cebe 6f30 8d3f 72fa 68be d17e d1bd
00000160: 2bfe b13e 1578 30c0 9827 ad3e c495 8c3c
00000170: 99aa 11bf 2c80 4c3e 0ac8 583f 8b75 51bf
00000180: 4f21 813f aa2b 3b3f c7b5 273f ed04 a0be
00000190: af57 05bf 9ec2 89bf ee39 fe3e 69eb 50be
000001a0: 541a fd3e 005f 273f ffbf 5fbf a3c6 01c0
000001b0: 3bcd c5be bb4c f7be 500b fa3d ba23 c2bf
000001c0: 0e15 c43f b757 35be ecce c3be 63a1 143e
000001d0: eecb 7d3f d6a0 223e 6b04 4a3f 7951 b7be
000001e0: 241f ba3f 6515 a3bd 307d 0ebd 4428 89bd
000001f0: 485f 3f3e 3ed8 6abf 3d01 9a3e 4699 12bf
00000200: b5ec a43e dbe6 7c3f 2a0d 4a3f b9fb 873f
00000210: 74c6 363f e491 2cbf 145c 62be f170 34bf
00000220: 6a63 0d3f a352 9dbd 4031 08bd 6239 813f
00000230: 0e59 89bf 15d5 473f 7db9 6e3e bfe4 dc3e
00000240: 63a1 a13e f5c6 f1be eef9 243f 25cf e2bf
00000250: 296c 14bf a5e9 e63e faa9 853f 03ca 7c3f
00000260: 302a f63f 7a8f 4c3f 6b66 143e f6eb 93bf
00000270: f1be 713f 0cdc 0fbf 9639 ccbf 9e85 96be
00000280: a8d3 adbe a5f0 63be 33a3 ba3f 7e9c a2bf
00000290: 4242 893f 0b5d 803f 5e88 1b3f b4e4 8f3f
000002a0: 1844 c3be 81cc 343d 164e ea3f df44 983d
000002b0: 13ec 743f 68b3 46be 5976 3b3f d9f6 953e
000002c0: 84cf 253f a763 843f 60fc 913f 1046 203f
000002d0: 4098 b03f 50b5 433f d6a4 5cbf b30f 973f
000002e0: 9e9d 20bf 5cea 52bf e69c 1dbf 2248 9a3f
000002f0: addf 08bf e466 643f 8b70 283f 0936 e33f
00000300: 338b c93e 3cc7 abbf d19a 94be da0e bfbf
00000310: 25f1 b73f f015 e8bd c635 463d eba8 13bc
00000320: ba5f 8a3d 408b 8bbf 0fd0 85bf 39e8 70bf
00000330: 9906 283f 6814 173f 705c b13e 9b47 c43d
00000340: 4838 d5bf 1023 29c0 5719 dc3d 5563 0740
00000350: a055 91be caba d43f 5ff0 bbbf 7c88 933f
00000360: 94e6 843f 824c f03e 4f0d b53f 6cd1 dabe
00000370: 0201 bc3d 3f10 df3f f488 9ebf 9997 cf3f
00000380: 90fe 343f a67c 2dbf 166b 6b3f 8d4d 5c3f
00000390: e73a c63c 645d c13f 72be 0abf 7fcb ae3f
000003a0: e807 15bd 1a2e 983f 878d 0b3e b7f6 ac3f
000003b0: 5855 acbf 6ce4 bf3f 63af 483f 238b 4abf
000003c0: d497 5b3e 6abf c13f 1783 993f 15aa e23f
000003d0: 1654 b03f 522d 0bbf b911 a43f 4f86 e5bf
000003e0: d33a b1bf 6520 0fbf 2963 583e 5dd1 6f3f
000003f0: 0c66 7e3e 7d4e 73bd 1090 83bf 8652 c73e

layers.1.0.weight f4 [256, 8]
-0.07466563 -0.10088151 -0.006758166 -0.023973363 -0.031979244 -0.08470173 0.050440706 -0.14844854
-0.17381617 0.18501927 0.35796493 -0.24419828 -0.24924047 -0.34102303 -0.0761399 -0.14232504
-0.08355383 0.23281023 -0.032584127 -0.24918717 0.1536745 -0.08934476 0.15342465 0.18796423
0.2639938 -0.046850976 -0.041224808 0.09449236 -0.14269304 -0.2254197 0.22228311 0.02729205
0.12630643 0.21093318 -0.1663627 0.3188924 0.15074918 -0.20610557 0.0033615658 -0.2186393
0.3220467 -0.20343769 0.118650414 0.20798701 -0.05884099 -0.20601511 0.2794005 -0.18931085
-0.45041955 0.031268675 0.111840904 -0.3209477 0.27369484 0.12593369 0.10333834 0.4322404
0.22022654 -0.05125582 -0.21452036 -0.15627076 -0.09086149 0.06670145 -0.008298459 -0.05112039
-0.030215895 -0.08240521 0.0074639493 0.03325802 0.07580975 0.039352622 0.13548446 0.0054338365
-0.12409961 -0.18865365 0.18460818 -0.013248047 0.0066532185 0.12325835 -0.11198847 -0.13811187
-0.26372114 0.16370472 0.32642114 -0.0235747 -0.2420186 0.09067728 -0.064906925 -0.07319041
0.16826254 -0.13249265 0.25958273 -0.12919576 -0.3809675 -0.04918521 0.2727733 -0.0961012
0.035290547 0.1924947 -0.28892568 -0.08541173 0.059970755 0.15665632 0.12525725 0.06702799
0.14692481 0.2693326 -0.3922107 0.18947949 0.1468126 0.2553915 0.34988412 0.21177693
-0.03452198 -0.3221504 0.010212847 0.3937034 0.03402055 0.2595947 0.26716337 0.022479119
-0.14387001 -0.19000825 0.09087606 0.19810337 0.1656548 0.18591405 -0.09479742 0.027703816
0.037293695 -0.3191278 0.14759985 0.07308427 -0.11234643 0.18791349 3.530754e-05 -0.13506824
0.106253274 -0.0019344293 -0.08198966 0.21768098 0.024414008 0.2664803 -0.16264269 0.017067121
0.21667784 0.30444995 -0.28483847 -0.26189378 0.021986805 -0.22832024 0.18042241 0.1927997
0.24140507 -0.19865642 0.26039243 0.30938467 0.07481259 -0.06869138 0.01938181 0.13227497
-0.2118178 0.31781694 0.40218705 0.008573539 -0.15520112 0.10369126 0.16465336 -0.30645424
0.12788776 0.20771664 -0.01766499 0.10374185 -0.11557197 -0.13728741 -0.07027957 0.122544244
0.28527582 -0.012790783 -0.05100402 -0.2271898 -0.13320862 -0.16700426 0.0055621504 0.22522607
-0.32002857 0.09126868 0.18426494 0.08511274 -0.08728237 0.024462229 -0.1740386 -0.07048206
-0.015719049 -0.11926454 0.11536693 0.11506526 -0.059983864 0.22185387 -0.021071784 0.08356315
0.5139458 0.2070853 0.33192846 0.70293665 0.38399413 -0.3693969 -0.043505114 -0.3840215
-0.2450499 0.06624963 0.08286877 -0.026440475 -0.10396099 0.115343824 -0.032002784 0.15887749
0.2767391 0.046551045 -0.32090038 -0.10904448 0.13329162 -0.102831 0.28278795 0.09941912
-0.344088 0.044269815 0.25066012 0.22958148 0.026402785 0.22435611 -0.066049404 -0.1441014
-0.11694523 0.20732124 -0.25803292 0.095657736 0.011046863 0.13821235 0.10492911 -0.038550865
0.17058726 -0.059150454 0.12882128 -0.041899454 -0.2350201 -0.035358705 -0.17939888 -0.13483278
-0.08754783 0.3106421 0.051458936 0.33504227 0.06301281 0.17440599 0.17261574 -0.13524362
00000000: 4bea 98bd f79a cebd 9b73 ddbb c963 c4bc
00000010: abfc 02bd 1a78 adbd ea9a 4e3d e502 18be
00000020: defc 31be b175 3d3e 2e47 b73e 1d0f 7abe
00000030: e538 7fbe 929a aebe 3cef 9bbd a8bd 11be
00000040: 451e abbd ce65 6e3e ef76 05bd ec2a 7fbe
00000050: d95c 1d3e 63fa b6bd 5a1b 1d3e b279 403e
00000060: 322a 873e cfe6 3fbd 58db 28bd 3685 c13d
00000070: 201e 12be 6cd4 66be 2f9e 633e 9493 df3c
00000080: 7956 013e defe 573e fc5a 2abe dd45 a33e
00000090: fe5d 1a3e 570d 53be b74d 5c3b fbe2 5fbe
000000a0: 4ee3 a43e f851 50be fdfe f23d 8cfa 543e
000000b0: 4003 71bd a0f5 52be 950d 8f3e b4da 41be
000000c0: 649d e6be 9513 003d d80c e53d 4253 a4be
000000d0: bb21 8c3e c3f4 003e 0da3 d33d 9d4e dd3e
000000e0: 1183 613e 9ff1 51bd 3aab 5bbe 7105 20be
000000f0: 9715 babd c59a 883d 43f6 07bc 9d63 51bd
00000100: 5387 f7bc 10c4 a8bd 2594 f43b 9039 083d
00000110: 2442 9b3d 3730 213d 70bc 0a3e 530e b23b
00000120: f027 febd 6c2e 41be ed09 3d3e 560e 59bc
00000130: 3e03 da3b e06e fc3d 365a e5bd 336d 0dbe
00000140: 7506 87be 36a2 273e ac20 a73e bb1f c1bc
00000150: b9d3 77be 03b5 b93d eced 84bd dbe4 95bd
00000160: 044d 2c3e 27ac 07be 07e8 843e e54b 04be
00000170: 2c0e c3be 6e76 49bd f1a8 8b3e b5d0 c4bd
00000180: d28c 103d 551d 453e 11ee 93be 58ec aebd
00000190: e5a3 753d 846a 203e 7043 003e f945 893d
000001a0: 7573 163e f6e5 893e d7cf c8be e906 423e
000001b0: 0b56 163e adc2 823e 0324 b33e 0ddc 583e
000001c0: eb66 0dbd e6f0 a4be c953 273c 7e93 c93e
000001d0: 2259 0b3d 99e9 843e a3c9 883e 2126 b83c
000001e0: a952 13be 8691 42be 3a1d ba3d 9cdb 4a3e
000001f0: 69a1 293e 4160 3e3e 2625 c2bd 1df3 e23c
00000200: 46c1 183d b864 a3be 6a24 173e 35ad 953d
00000210: e315 e6bd 656c 403e 2f17 1438 544f 0abe
00000220: 519b d93d ad8c fdba 32ea a7bd c3e7 5e3e
00000230: e3ff c73c 1b70 883e ce8b 26be 59d0 8b3c
00000240: cce0 5d3e dde0 9b3e 59d6 91be f116 86be
00000250: ac1d b43c c8cc 69be a7c0 383e 496d 453e
00000260: e432 773e 976c 4bbe 2852 853e ab67 9e3e
00000270: 5837 993d 11ae 8cbd 9ac6 9e3c 1773 073e
00000280: c4e6 58be e7b8 a23e 76eb cd3e 0778 0c3c
00000290: 0bed 1ebe 155c d43d e49a 283e 92e7 9cbe
000002a0: 02f5 023e acb3 543e 2bb6 90bc 9b76 d43d
000002b0: ffb0 ecbd 1295 0cbe bcee 8fbd 7af8 fa3d
000002c0: ac0f 923e 6f90 51bc 97e9 50bd 71a4 68be
000002d0: d767 08be 2a03 2bbe b342 b63b aaa1 663e
000002e0: c9da a3be 13eb ba3d f3af 3c3e 974f ae3d
000002f0: 19c1 b2bd 0365 c83c 2d37 32be e658 90bd
00000300: 3cc5 80bc f840 f4bd 7f45 ec3d 56a7 eb3d
00000310: a4b1 75bd a92d 633e bc9e acbc 2823 ab3d
00000320: f491 033f 2b0e 543e 87f2 a93e a8f3 333f
00000330: e19a c43e 9721 bdbe 6b32 32bd 779e c4be
00000340: 5cee 7abe e3ad 873d 1ab7 a93d b299 d8bc
00000350: 80e9 d4bd 6239 ec3d 5a15 03bd c8b0 223e
00000360: bfb0 8d3e 4fac 3e3d 0e4d a4be b652 dfbd
00000370: 997d 083e 0f99 d2bd 95c9 903e 409c cb3d
00000380: 4d2c b0be 4454 353d 8656 803e 6817 6b3e
00000390: a74a d83c 9cbd 653e e944 87bd 518f 13be
000003a0: fb80 efbd 054c 543e e41c 84be 34e8 c33d
000003b0: e7fd 343c 8a87 0d3e 13e5 d63d 83e7 1dbd
000003c0: 6dae 2e3e bf47 72bd bae9 033e c39e 2bbd
000003d0: 1ca9 70be 4ad4 10bd 57b4 37be 9b11 0abe
000003e0: 474c b3bd 7b0c 9f3e 9bc6 523d a98a ab3e
000003f0: dc0c 813d 7c97 323e 2ec2 303e 4e7d 0abe

layers.1.0.bias f4 [256]
-0.0762444 -0.27700794 -0.47540987 -0.27053243 0.12866148 0.058137827 0.03876241 0.19661291
0.035876457 -0.041477177 0.0295042 -0.322823 -0.37178078 -0.12183298 -0.08094574 -0.4574301
-0.33944345 -0.21936692 -0.33304662 0.124208756 -0.03262902 -0.052114353 -0.18943194 -0.1898955
-0.31071317 -0.19037023 0.07769077 -0.30397183 -0.0742069 -0.33222845 -0.40982988 -0.049366225
-0.31494617 -0.15803324 -0.1348161 -0.46745157 -0.23569992 -0.47553506 -0.105968945 -0.018683568
0.032082543 0.027968954 -0.49921653 -0.02043641 -0.31678247 -0.105744645 -0.26821002 0.2846865
-0.022823852 -0.19670542 -0.24093759 0.120205924 -0.11779719 -0.27462927 -0.52225673 -0.123272754
0.038062897 -0.32697028 -0.19318649 0.008451085 -0.29473484 -0.19012989 -0.2942679 -0.41974413
-0.18447365 -0.106395274 -0.14439286 -0.35902542 -0.23771764 -0.11676065 -0.069207385 -0.04620119
-0.07935512 -0.1518811 -0.32436004 -0.3007171 -0.16869053 0.28718537 -0.28861475 0.14667663
-0.12186249 -0.05458546 -0.2285231 -0.07083853 -0.202005 -0.08301039 -0.07250601 -0.32895795
-0.11533113 -0.26782012 0.08359211 -0.36868092 0.04537183 -0.022384191 0.14866583 -0.10590884
-0.18462445 -0.23245674 -0.06483513 -0.24163319 -0.2002202 0.03152361 -0.05433507 -0.43176615
-0.18580948 -0.015934085 -0.08023665 -0.1599819 -0.023711847 0.08704612 0.17535132 -0.052736502
-0.3323751 -0.12580511 -0.19287479 -0.20501085 0.03829472 0.09583266 -0.2201879 -0.054969132
-0.3573581 0.13302927 -0.29097387 -0.10687067 -0.1274834 -0.06686567 -0.33709273 -0.24953951
-0.1319861 -0.21047586 0.114331245 -0.27488258 -0.21255977 -0.41805345 -0.37458202 0.22314732
-0.12301915 -0.3387334 -0.2756253 0.045432635 -0.10775745 -0.40337455 -0.18631777 -0.27753085
-0.16110148 -0.21640533 -0.015067687 -0.021140695 -0.061761573 -0.18714222 0.45692885 -0.44508412
0.38510028 -0.11692068 0.06391995 -0.09581229 -0.011454831 -0.0920306 -0.28879428 -0.18329388
-0.087924585 -0.120485984 -0.042863004 0.2050883 -0.25454485 -0.30564028 0.21750464 -0.08787739
0.11162259 -0.13462955 -0.3057749 0.12444422 0.016543122 0.16900279 0.060806822 -0.18182936
-0.29552892 -0.37660235 0.06802191 -0.2984887 -0.21535213 -0.21490747 -0.13255382 -0.019763859
-0.2578396 -0.017854733 -0.15480082 0.071977854 -0.041535836 -0.4083034 -0.023189038 -0.18836324
-0.37491438 0.06663069 -0.11814977 -0.035736084 -0.35628477 -0.23329172 -0.31915128 0.16033559
-0.12017462 -0.1521747 -0.22164406 -0.02744548 0.07801582 -0.291849 0.11775832 -0.14045992
-0.36010328 0.074696645 -0.22944206 -0.3511996 0.050279625 -0.12319305 -0.18784986 -0.31881958
0.048189536 -0.46576336 0.015886396 0.075699955 -0.2960907 -0.16889592 -0.45488676 -0.4832779
0.11884459 -0.41050974 0.23550205 -0.03694226 0.0033883012 -0.19216697 -0.22592479 -0.12900463
-0.41360068 0.10101732 -0.18652652 -0.13796833 -0.07071205 -0.21009538 0.04072193 -0.37717855
0.0095186895 -0.48412785 -0.38958177 -0.03343161 -0.24918176 -0.1260056 0.3323934 -0.38380566
-0.2532447 -0.33244178 0.20877221 -0.3950337 -0.018385865 -0.3845231 0.18769144 0.011557412
00000000: 0626 9cbd fcd3 8dbe ec68 f3be 3a83 8abe
00000010: d6bf 033e ee21 6e3d 55c5 1e3d e554 493e
00000020: 31f3 123d f9e3 29bd cbb2 f13c 0e49 a5be
00000030: 0d5a bebe 9283 f9bd e1c6 a5bd 4734 eabe
00000040: 88cb adbe b9a1 60be 1685 aabe 2961 fe3d
00000050: 02a6 05bd dc75 55bd 72fa 41be f773 42be
00000060: cc15 9fbe 6af0 42be 571c 9f3d 32a2 9bbe
00000070: caf9 97bd d919 aabe 39d5 d1be 3d34 4abd
00000080: a040 a1be 77d3 21be 3b0d 0abe d055 efbe
00000090: 525b 71be 5579 f3be 3f06 d9bd 480e 99bc
000000a0: fc68 033d 261f e53c 4f99 ffbe 426a a7bc
000000b0: 5031 a2be a690 d8bd d352 89be 6ec2 913e
000000c0: 16f9 babc 256d 49be 58b8 76be 862e f63d
000000d0: a73f f1bd 359c 8cbe 9eb2 05bf 6d76 fcbd
000000e0: d7e7 1b3d a668 a7be aed2 45be 6b76 0a3c
000000f0: 7ce7 96be 69b1 42be 48aa 96be b4e8 d6be
00000100: a9e6 3cbe c4e5 d9bd b9db 13be 2ed2 b7be
00000110: 416c 73be 3520 efbd 9abc 8dbd 763d 3dbd
00000120: f084 a2bd b886 1bbe 8512 a6be 97f7 99be
00000130: 36bd 2cbe f609 933e 50c5 93be 6632 163e
00000140: 0b93 f9bd 0195 5fbd f601 6abe cb13 91bd
00000150: 66da 4ebe 5a01 aabd 087e 94bd 2d6d a8be
00000160: ba32 ecbd b81f 89be 5732 ab3d bfc3 bcbe
00000170: d0d7 393d 0d5f b7bc db3b 183e bce6 d8bd
00000180: 310e 3dbe 2409 6ebe 48c8 84bd b16e 77be
00000190: 8606 4dbe e71e 013d 738e 5ebd 7410 ddbe
000001a0: d744 3ebe 3388 82bc 1d53 a4bd 4cd2 23be
000001b0: 593f c2bc 3c45 b23d 4c8f 333e 3b02 58bd
000001c0: 122d aabe 0ed3 00be f880 45be 5dee 51be
000001d0: edda 1c3d ea43 c43d f078 61be 5027 61bd
000001e0: a4f7 b6be d338 083e 87fa 94be 03df dabd
000001f0: 028b 02be def0 88bd 6b97 acbe 4987 7fbe
00000200: 5d27 07be fc86 57be 8026 ea3d 69bd 8cbe
00000210: 45a9 59be 1a0b d6be 37c9 bfbe bb80 643e
00000220: 77f1 fbbd 776e adbe c21e 8dbe 9217 3a3d
00000230: f0af dcbd 1c87 cebe 16ca 3ebe 8618 8ebe
00000240: c9f7 24be 5c99 5dbe 76de 76bc 402f adbc
00000250: b4f9 7cbd 36a2 3fbe 94f2 e93e 11e2 e3be
00000260: dd2b c53e 1c74 efbd 76e8 823d 3c39 c4bd
00000270: 0bad 3bbc 8a7a bcbd d8dc 93be 64b1 3bbe
00000280: ce11 b4bd 5bc1 f6bd 1e91 2fbd ab02 523e
00000290: b453 82be e27c 9cbe 89b9 5e3e 10f9 b3bd
000002a0: 629a e43d 54dc 09be 878e 9cbe 9cdc fe3d
000002b0: 7185 873c 110f 2d3e 9310 793d 7a31 3abe
000002c0: 914f 97be 06d2 c0be 124f 8b3d 83d3 98be
000002d0: 4585 5cbe b410 5cbe 30bc 07be d1e7 a1bc
000002e0: 8d03 84be 1744 92bc 1b84 1ebe 2069 933d
000002f0: 7b21 2abd 250d d1be f0f6 bdbc 4be2 40be
00000300: c7f4 bfbe ac75 883d 82f8 f1bd 0060 12bd
00000310: f56a b6be 06e4 6ebe cc67 a3be 032f 243e
00000320: 1c1e f6bd afd3 1bbe a9f6 62be 58d5 e0bc
00000330: c2c6 9f3d 3b6d 95be 462b f13d bad4 0fbe
00000340: 755f b8be 8efa 983d dcf2 6abe 6fd0 b3be
00000350: 02f2 4d3d a34c fcbd b75b 40be 523c a3be
00000360: 6462 453d 8978 eebe 3024 823c 9408 9b3d
00000370: 3399 97be 0df3 2cbe ebe6 e8be 3370 f7be
00000380: cb64 f33d 552e d2be 7327 713e c450 17bd
00000390: 430e 5e3b 6bc7 44be d458 67be ca19 04be
000003a0: 78c3 d3be 2be2 ce3d cf00 3fbe 9247 0dbe
000003b0: 7bd1 90bd 3e23 57be 0acc 263d 8c1d c1be
000003c0: 47f4 1b3c 9bdf f7be 4377 c7be 95ef 08bd
000003d0: 8129 7fbe 9d07 01be 782f aa3e 2d82 c4be
000003e0: 4aa9 81be cf35 aabe 62c8 553e db41 cabe
000003f0: f49d 96bc 36e0 c4be 2f32 403e 4d5b 3d3c

layers.2.0.weight f4 [256, 256]
0.1095871 0.25882423 -0.08339804 -0.0076157185 -0.09769274 -0.09461421 -0.06681652 0.0067241895
-0.07540712 0.016511343 -0.06829781 0.030456541 -0.05712612 -0.08669239 0.04871654 0.04399294
-0.043933045 0.14624025 -0.00067952333 -0.04589357 -0.060018133 -0.1023948 0.04755596 -0.034351714
-0.08577286 -0.36002955 -0.23372154 -0.021262467 -0.07247262 -0.050119035 -0.03150757 -0.01863508
-0.12746125 0.04985496 -0.06662941 -0.060729392 -0.040535696 0.22078463 -0.06778175 -0.10715651
-0.08197399 -0.10475146 -0.086250976 0.05494189 0.23382446 0.023243608 -0.08990135 -0.079481415
0.0073050717 0.074675545 -0.15438274 -0.029726064 0.07160692 0.039949313 0.07064688 -0.09821549
-0.14817008 -0.19494176 0.035802007 -0.015103654 0.09552573 -0.10386523 -0.17643459 -0.035007473
-0.16645841 -0.09398152 0.059454184 -0.058999375 -0.09137328 0.034024328 0.012380223 0.0022154446
-0.08917577 -0.08091385 0.009472559 -0.08216797 -0.00747645 0.014439492 0.091103286 -0.061955594
0.20175536 0.07584022 -0.075210884 0.103034824 0.121629074 -0.10305562 0.1425378 -0.04333808
0.10155202 -0.05812237 0.009813455 0.04477347 0.026671553 -0.02946194 -0.046710487 -0.03630237
0.03459236 -0.073622525 -0.06349821 0.040222567 0.027510026 -0.003375689 0.19921966 -0.066372395
-0.011541366 -0.12371427 -0.09492838 0.15548207 -0.023013204 -0.019832704 -0.06440727 -0.033826794
-0.19587779 -0.13520333 0.23396362 -0.01554885 -0.09535624 -0.15571731 -0.008477827 -0.062906004
-0.067932464 -0.0030281479 0.031895153 0.12966757 -7.27123e-05 0.0075627696 0.04784446 -0.13523175
0.091083765 -0.15631537 0.07840879 0.06644877 -0.040307667 0.008849966 0.025336124 -0.09513398
-0.025175298 -0.043415885 0.022953762 0.0738397 0.037970632 0.069288254 0.1692793 -0.099514626
-0.07583616 0.00767159 0.06429888 0.028135955 -0.31737813 0.059004948 -0.09127481 -0.051443648
0.04268374 -0.07918558 -0.00058564724 -0.07544882 -0.1381164 0.025696702 -0.16531584 0.0005311743
-0.08479759 -0.09571244 0.043199975 0.10016926 -0.07948555 -0.092743546 -0.078461595 -0.13013792
0.026295371 -0.08631588 0.03160601 0.074436694 -0.06709537 -0.21144186 -0.07802858 -0.007250166
0.07817466 0.10895554 -0.0074082557 -0.109857805 -0.0036527321 -0.13164853 -0.12835899 0.15621318
0.23577219 0.0285469 -0.019123955 0.027465137 0.13099106 0.018039608 -0.12272578 -0.08281099
0.07682968 -0.12998043 0.06407933 -0.021337777 0.18452106 0.10377763 -0.08845114 -0.0047460604
-0.10521057 0.073323235 0.010912062 -0.041587938 0.009780679 -0.11469115 0.027760964 -0.17981002
0.015966231 0.04516993 -0.16597041 0.15002382 -0.115366794 -0.11111633 0.062013846 0.066526346
-0.109468736 -0.019175876 -0.013912491 -0.08128782 -0.22471742 0.017684337 -0.09434767 0.23987015
-0.12494761 0.09135293 -0.18130583 -0.09625471 -0.048961677 -0.0382541 -0.1622523 -0.15450013
-0.029927982 -0.1818258 -0.09224482 -0.13080792 -0.0323405 -0.03546763 0.053185754 -0.0045562866
-0.065453164 0.07604662 -0.100556895 -0.052820005 -0.103456736 -0.1666938 -0.0061687026 0.07787673
-0.03086254 0.017056186 -0.1392543 -0.12018934 -0.11523129 -0.104554854 -0.178233 0.05941634
00000000: 346f e03d 9c84 843e 97cc aabd 478d f9bb
00000010: 2213 c8bd 18c5 c1bd 1ad7 88bd 9756 dc3b
00000020: 0c6f 9abd cc42 873c b9df 8bbd ff7f f93c
00000030: 14fd 69bd c88b b1bd ff8a 473d f131 343d
00000040: 23f3 33bd 01c0 153e 0a22 32ba e5fa 3bbd
00000050: 93d5 75bd 5db4 d1bd 0aca 423d 62b4 0cbd
00000060: aea9 afbd cb55 b8be b354 6fbe a02e aebc
00000070: 866c 94bd 9e49 4dbd 150e 01bd 98a8 98bc
00000080: 3485 02be b734 4c3d 0075 88bd 62bf 78bd
00000090: c208 26bd 5e15 623e 28d1 8abd df74 dbbd
000000a0: fbe1 a7bd ef87 d6bd 5aa4 b0bd bf0a 613d
000000b0: ae6f 6f3e 6169 be3c 331e b8bd 27c7 a2bd
000000c0: 625f ef3b 7eef 983d 8216 1ebe 1384 f3bc
000000d0: a6a6 923d e4a1 233d 50af 903d 3425 c9bd
000000e0: e6b9 17be d09e 47be 20a5 123d 5175 77bc
000000f0: fea2 c33d 4bb7 d4bd 45ab 34be ff63 0fbd
00000100: 1374 2abe 6279 c0bd 3b86 733d 54a9 71bd
00000110: ea21 bbbd 185d 0b3d 6bd6 4a3c fe30 113b
00000120: c9a1 b6bd 29b6 a5bd cb32 1b3c ae47 a8bd
00000130: 02fd f4bb 9e93 6c3c 5c94 ba3d 26c5 7dbd
00000140: f598 4e3e 1e52 9b3d 2a08 9abd ec03 d33d
00000150: aa18 f93d d30e d3bd 6ef5 113e 4583 31bd
00000160: 81fa cf3d b911 6ebd 9dc8 203c 6364 373d
00000170: 4d7e da3c 2b5a f1bc 7f53 3fbd cbb1 14bd
00000180: b8b0 0d3d 68c7 96bd 590b 82bd 6bc0 243d
00000190: b55c e13c aa3a 5dbb 3d00 4c3e 40ee 87bd
000001a0: ff17 3dbc e85d fdbd cf69 c2bd b136 1f3e
000001b0: 3086 bcbc 3278 a2bc f5e7 83bd f78d 0abd
000001c0: 3094 48be be72 0abe 2994 6f3e 9bc0 7ebc
000001d0: 224a c3bd 5c74 1fbe 95e6 0abc ddd4 80bd
000001e0: 2d20 8bbd e473 46bb 7ea4 023d 93c7 043e
000001f0: 1e7d 98b8 1cd1 f73b 8df8 433d 317a 0abe
00000200: 208a ba3d 2311 20be ca94 a03d 4b16 883d
00000210: a719 25bd 73ff 103c b48d cf3c 9bd5 c2bd
00000220: 6d3c cebc dbd4 31bd 8709 bc3c 4539 973d
00000230: 1887 1b3d 00e7 8d3d 8e57 2d3e 53ce cbbd
00000240: fd4f 9bbd f661 fb3b 22af 833d 607d e63c
00000250: 637f a2be 2caf 713d 4aee babd 93b6 52bd
00000260: 25d5 2e3d 0d2c a2bd 1f86 19ba e984 9abd
00000270: 636e 0dbe e481 d23c 8e48 29be 813e 0b3a
00000280: 5caa adbd e204 c4bd 75f2 303d 8a25 cd3d
00000290: 52c9 a2bd 54f0 bdbd 79b0 a0bd e042 05be
000002a0: 6469 d73c 61c6 b0bd 4e75 013d 4472 983d
000002b0: 4c69 89bd 3784 58be 73cd 9fbd cd92 edbb
000002c0: 091a a03d 1524 df3d f4c0 f2bb 21fd e0bd
000002d0: ad62 6fbb dfce 06be 8a70 03be 59f6 1f3e
000002e0: 446e 713e 30db e93c d7a9 9cbc 91fe e03c
000002f0: 8522 063e cdc7 933c a757 fbbd cf98 a9bd
00000300: e158 9d3d 9719 05be 063c 833d 90cc aebc
00000310: 17f3 3c3e 5e89 d43d df25 b5bd d784 9bbb
00000320: a478 d7bd 7e2a 963d 81c8 323c 1d58 2abd
00000330: 243f 203c 32e3 eabd f66a e33c 1e20 38be
00000340: 9dcb 823c 1b04 393d 26f4 29be d89f 193e
00000350: 6d45 ecbd f590 e3bd 3b02 7e3d f73e 883d
00000360: 2531 e0bd ba16 9dbc 37f1 63bc 3b7a a6bd
00000370: 531c 66be bede 903c 5a39 c1bd 85a0 753e
00000380: 88e4 ffbd 3f17 bb3d 3ca8 39be 3021 c5bd
00000390: 0a8c 48bd 55b0 1cbd 7825 26be 4835 1ebe
000003a0: 872b f5bc 8b30 3abe daea bcbd 83f2 05be
000003b0: 7977 04bd 8146 11bd 4ed9 593d e74c 95bb
000003c0: 4f0c 86bd 55be 9b3d c6f0 cdbd ca59 58bd
000003d0: 20e1 d3bd c8b1 2abe d422 cabb d67d 9f3d
000003e0: 70d3 fcbc 6ab9 8b3c ae98 0ebe d425 f6bd
000003f0: 62fe ebbd db20 d6bd b682 36be 8c5e 733d

layers.2.0.bias f4 [256]
-0.020764168 0.020437917 0.029080108 0.012114288 -0.049069997 0.048302673 0.03980819 0.03382159
0.01982902 -0.067392066 -0.0076627773 -0.0068107457 -0.09642252 0.045288924 -0.07592292 -0.07253296
-0.0018660973 0.13158317 -0.047113862 -0.07046521 -0.08792034 0.00073137967 0.091948435 -0.04764668
0.0162638 -0.034080517 0.12908538 0.19538692 -0.17863867 -0.073671415 -0.015224098 0.04111749
-0.05507668 0.0073225964 -0.010699856 -0.036956754 0.008656784 0.019962741 0.053391654 0.06122098
-0.053854067 -0.02696919 0.029683989 -0.09025389 0.060646884 -0.020914903 -0.07813525 0.009747936
-0.077533625 -0.025464302 0.008654448 -0.017025687 -0.06842069 -0.026342677 -0.048487246 -0.021067327
-0.056015067 0.026673589 -0.01835952 -0.068834275 -0.065546945 0.0070961993 0.03286494 0.01920907
-0.039153796 0.030314686 -0.021883925 -0.042834826 -0.0361156 -0.14694108 -0.086265355 -0.059698038
-0.05445916 -0.048623215 -0.017180955 -0.023686491 -0.025228525 -0.030819625 0.08719292 0.09208495
0.00065008644 -0.1069524 0.31620935 -0.03692048 0.017524146 0.038387086 0.10499671 0.110778205
0.36801866 0.035115648 -0.062837765 0.12733027 -0.027450297 -0.001530484 -0.04655387 -0.05183797
-0.093555905 -0.061066184 -0.052895468 0.0012325115 -0.023751754 0.058903173 0.059831265 0.033041462
-0.06351471 0.018234015 -0.07763417 0.2050947 -0.09643917 -0.046419617 -0.064337626 -0.07609497
0.11770689 -0.053217463 -0.02714448 -0.07565562 0.0020457353 -0.044803273 0.04775243 0.2872735
-0.0057160296 0.019721504 0.0019839127 -0.01594008 0.016968478 -0.04219948 -0.0005119291 0.089796856
-0.061692495 0.010241151 0.00021075428 0.041262407 -0.018469412 0.20665224 0.085574195 -0.014933705
0.011225303 -0.04295611 0.3897828 -0.081543185 -0.023693189 -0.022847742 0.26257867 0.11194391
-0.062335387 0.039333038 0.040736854 -0.0032893994 0.179087 0.050563302 0.21406832 -0.0176029
0.12125143 0.041822053 -0.044482253 -0.0010391996 0.025185358 -0.016471738 -0.13292208 0.02974208
0.0013333232 -0.018349899 -0.08681707 0.0006311562 0.34498593 0.03675343 -0.030587208 -0.013541924
-0.06398321 0.16546841 0.04087894 0.03210243 -0.065460026 -0.055788822 -0.06270387 0.09244633
-0.05253949 -0.0026731752 -0.062356334 0.048016842 -0.045724303 -0.001289023 -0.047134303 0.059779968
0.03383578 -0.018676793 -0.01445179 0.013102281 -0.009604496 0.24875487 -0.11401324 -0.04675742
-0.048936732 -0.035378408 -0.07171914 0.02758494 -0.04569421 -0.05001286 0.33482566 -0.08753843
-0.029473849 -0.04678768 0.0030279025 0.14533873 -0.016485894 -0.07987896 0.01608625 0.016976027
0.012451374 0.07548671 0.021704016 -0.03743794 -0.05103233 -0.06746263 -0.038297597 -0.04385147
-0.031265598 -0.04543424 -0.09247742 0.043484278 0.025505539 0.119906634 0.033197492 0.009067787
-0.061774887 0.0236905 -0.048118282 -0.11282304 0.08768274 -0.10193159 0.08141483 0.002214423
-0.046233848 0.07817215 0.08552873 -0.0606192 0.0133474 -0.05432415 -0.07899033 0.13574429
0.035412055 0.15431128 0.12249634 0.16212927 0.22138162 -0.10695704 0.0073677097 -0.012787184
0.2550085 -0.048269406 -0.03369963 -0.039002836 0.061028656 -0.07294236 -0.07446926 -0.08350137
00000000: 9e19 aabc 6b6d a73c 6839 ee3c 027b 463c
00000010: 9ffd 48bd 06d9 453d ea0d 233d 8288 0a3d
00000020: 7870 a23c da04 8abd 0918 fbbb ad2c dfbb
00000030: 2c79 c5bd e180 393d 7a7d 9bbd 298c 94bd
00000040: d697 f4ba bdbd 063e 77fa 40bd 1050 90bd
00000050: 940f b4bd 0fba 3f3a 764f bc3d 2a29 43bd
00000060: a93b 853c 0398 0bbd f52e 043e 8213 483e
00000070: 0eed 36be 0ae1 96bd 7f6e 79bc d06a 283d
00000080: 1698 61bd 64f2 ef3b 734e 2fbc f75f 17bd
00000090: 2fd5 0d3c e788 a33c 35b1 5a3d dac2 7a3d
000000a0: 1596 5cbd 7eee dcbc d62b f33c 08d7 b8bd
000000b0: de68 783d bb55 abbc 6005 a0bd cfb5 1f3c
000000c0: f3c9 9ebd 839a d0bc 63cb 0d3c 7479 8bbc
000000d0: 2620 8cbd 99cc d7bc 909a 46bd 6395 acbc
000000e0: 0e70 65bd 9282 da3c b466 96bc fcf8 8cbd
000000f0: 7a3d 86bd 3c87 e83b 639d 063d 575c 9d3c
00000100: bb5f 20bd 8156 f83c eb45 b3bc 9273 2fbd
00000110: f4ed 13bd b977 16be e4ab b0bd ee85 74bd
00000120: 9110 5fbd 2329 47bd 13bf 8cbc 2c0a c2bc
00000130: 0dac cebc 7079 fcbc 3492 b23d 0997 bc3d
00000140: 906a 2a3a dc09 dbbd 31e6 a13e ee39 17bd
00000150: cc8e 8f3c c73b 1d3d 8408 d73d afdf e23d
00000160: f16c bc3e 6dd5 0f3d 16b1 80bd de62 023e
00000170: 72df e0bc 859a c8ba 45af 3ebd 0d54 54bd
00000180: 3d9a bfbd 8920 7abd eba8 58bd 398c a13a
00000190: 0a93 c2bc 7444 713d a111 753d 7c56 073d
000001a0: 0014 82bd 805f 953c aafe 9ebd 5804 523e
000001b0: e681 c5bd 7f22 3ebd 72c3 83bd aed7 9bbd
000001c0: 4f10 f13d 8efa 59bd 1a5e debc 55f1 9abd
000001d0: be11 063b a383 37bd 0d98 433d 8315 933e
000001e0: 884d bbbb fe8e a13c 8804 023b c594 82bc
000001f0: 7a01 8b3c 5dd9 2cbd fb32 06ba 6ae7 b73d
00000200: 45b1 7cbd 80ca 273c ecfd 5c39 c502 293d
00000210: 2a4d 97bc a59c 533e 8641 af3d 80ac 74bc
00000220: 55ea 373c bff2 2fbd 9c91 c73e 1d00 a7bd
00000230: 3818 c2bc 302b bbbc b670 863e d942 e53d
00000240: 6453 7fbd ae1b 213d b0db 263d f792 57bb
00000250: 9562 373e 771b 4f3d ba34 5b3e f533 90bc
00000260: ab52 f83d 9a4d 2b3d 0633 36bd c135 88ba
00000270: 8651 ce3c bdef 86bc ba1c 08be aaa5 f33c
00000280: e7c2 ae3a 8752 96bc 26cd b1bd 2d74 253a
00000290: ffa1 b03e c48a 163d 0692 fabc f2de 5dbc
000002a0: a109 83bd 8d70 293e ad70 273d d67d 033d
000002b0: e80f 86bd d282 64bd e36a 80bd 8054 bd3d
000002c0: a633 57bd 7030 2fbb 5b69 7fbd 4fad 443d
000002d0: 6849 3bbd 6ff4 a8ba e60f 41bd d7db 743d
000002e0: 6397 0a3d 1300 99bc 33c7 6cbc f3aa 563c
000002f0: 2d5c 1dbc 99b9 7e3e c67f e9bd b584 3fbd
00000300: e271 48bd f3e8 10bd 7ce1 92bd d0f9 e13c
00000310: da29 3bbd 49da 4cbd 456e ab3e 5947 b3bd
00000320: 2473 f1bc 70a4 3fbd c66f 463b add3 143e
00000330: 6d0d 87bc 9597 a3bd 50c7 833c 4f11 8b3c
00000340: d900 4c3c c798 9a3d 9fcc b13c 8658 19bd
00000350: 4707 51bd d929 8abd f1dd 1cbd 999d 33bd
00000360: 5b10 00bd 4119 3abd cd64 bdbd 921c 323d
00000370: fef0 d03c 9c91 f53d 18fa 073d 0e91 143c
00000380: aa07 7dbd 9412 c23c ad17 45bd c40f e7bd
00000390: 0293 b33d 82c1 d0bd d2bc a63d da1f 113b
000003a0: b45f 3dbd b818 a03d b029 af3d d74b 78bd
000003b0: 0eaf 5a3c 0083 5ebd afc5 a1bd 8d00 0b3e
000003c0: 3b0c 113d c703 1e3e 5cdf fa3d 3705 263e
000003d0: ddb1 623e 4b0c dbbd d46c f13b 5681 51bc
000003e0: 7990 823e 24b6 45bd a008 0abd 70c1 1fbd
000003f0: 2ff9 793d ce62 95bd 5783 98bd c402 abbd

layers.3.0.weight f4 [6, 256]
0.1273763 0.01821581 -0.002051024 -0.054857332 0.021510415 0.020595241 0.0026217774 0.0426094
0.00041416852 -0.06318745 -0.066443495 0.07418735 -0.012379611 0.017290741 0.026598506 0.004550108
0.018954858 0.037303634 -0.0066227783 -0.15567483 -0.07977728 0.040996194 -0.033793062 -0.07923563
0.015737297 -0.061969955 0.7350853 0.04743312 -0.06727503 0.012395959 -0.047796786 -0.037865333
0.046381466 -0.0018633271 0.024113683 -0.022571538 0.04272393 -0.0071010105 6.234275e-05 0.015602736
0.0040010703 0.032770205 0.036175143 -0.1302648 0.025021588 0.03620711 -0.067950085 -0.04982718
0.03736468 -0.049495436 -0.052272104 0.06492517 -0.0038002091 -0.038625278 -0.03177774 0.054699145
-0.014089152 0.0066975793 -0.06933605 -0.00814291 -0.009635823 0.0047879796 -0.06615493 -0.00781996
-0.05684472 0.00012965493 0.051682796 -0.030698998 -0.00947055 0.055603087 -0.24453177 -0.010148992
0.008295715 -0.030960744 0.0068193274 -0.045056872 -0.06726854 0.01111612 -0.12635909 -0.10355511
0.03522746 -0.06585258 -0.13417587 -0.05334567 0.003478229 0.03095648 0.0043230443 0.0016617611
0.3587962 0.04914347 -0.05891798 0.07035906 -0.055745922 -0.05682464 -0.022476917 -0.00017436029
0.016711922 -0.009931774 -0.012791556 -0.14959767 -0.02942439 -0.001590426 -0.0589691 0.001814452
-0.0111983055 -0.050086323 0.063776925 0.091681086 -0.0125299925 -0.054520823 -0.037795946 -0.01932144
0.03993353 0.03827586 -0.05827156 0.025432808 0.0045270096 0.02917163 0.0011009765 0.0148436995
-0.032536972 -0.1442733 0.007152013 0.0023743063 -0.06840264 -0.026672408 0.011750785 0.4732328
0.019954009 0.0035638274 0.040280033 0.01250115 0.007857152 0.027472062 0.010195425 -0.114475615
0.022671685 -0.0017513484 0.23279108 0.02202538 -0.1615892 -0.0106407 0.14351875 0.005856358
0.019852813 0.000112892885 -0.04207045 0.045281485 0.013144915 -0.008607736 0.057082117 -0.07506644
0.019862145 -0.029019557 -0.013278732 0.010900723 0.012871236 -0.005851893 0.012690949 -0.4404753
-0.0050401124 0.014124686 0.02578496 0.004687974 0.21349002 -0.04005962 0.014568496 -0.007512882
0.025738683 0.16692095 0.041212134 0.0842744 0.015565907 -0.10780234 -0.006780245 -0.069869146
-0.0018568083 0.016669855 0.0012078434 0.025392197 0.032539994 -0.0029366289 -0.025922474 0.021694485
0.029037407 0.28603607 -0.22389615 0.003060481 0.035110272 0.13893807 0.00796243 -0.095958725
-0.0058830404 0.012735036 -0.04313539 -0.18410335 -0.045730725 -0.05100216 0.28387088 0.045775212
0.02086039 -0.05319821 0.062386513 0.037919965 -0.0019119586 -0.0014558022 0.023663498 0.0042144796
0.03980924 -0.0076203435 0.020677308 -0.007593899 -0.009144219 -0.008156508 0.042085502 0.04815495
-0.0010443443 0.046324406 -0.052659675 -0.04324764 0.030214073 0.15615338 -0.032388594 -0.050241437
0.004728161 0.0143413115 0.01741452 -0.08819133 0.07309937 -0.051260073 0.6196506 0.03849847
0.003105066 0.07427138 0.008903535 0.007714011 -0.020172874 0.0026139554 0.008069985 0.05791993
0.036710307 0.01979882 0.015814725 0.23944497 0.034393914 -0.10056405 -0.039049044 -0.094337225
0.053064402 -0.27975646 0.045851383 0.020792864 -0.028511114 0.14387096 -0.040778846 -0.085238606
00000000: ef6e 023e 5339 953c 796a 06bb 15b2 60bd
00000010: 9c36 b03c 5ab7 a83c 20d2 2b3b 3287 2e3d
00000020: c224 d939 6c68 81bd 8713 88bd 8aef 973d
00000030: dad3 4abc 50a5 8d3c 1ce5 d93c 1319 953b
00000040: 3847 9b3c b2cb 183d e403 d9bb 3969 1fbe
00000050: 4562 a3bd a0eb 273d 986a 0abd 4a46 a2bd
00000060: 81eb 803c 35d4 7dbd 8d2e 3c3f 3b49 423d
00000070: 7ec7 89bd 6c18 4b3c 90c6 43bd ae18 1bbd
00000080: 7efa 3d3d e23a f4ba 0f8a c53c f2e7 b8bc
00000090: 4aff 2e3d 98af e8bb 02be 8238 9ea2 7f3c
000000a0: 691b 833b 0d3a 063d 632c 143d 2364 05be
000000b0: 13fa cc3c e84d 143d 6a29 8bbd 9617 4cbd
000000c0: b50b 193d babb 4abd 461b 56bd 7df7 843d
000000d0: ee0c 79bb 8a35 1ebd 6029 02bd 360c 603d
000000e0: 30d6 66bc 5e77 db3b 0f00 8ebd d769 05bc
000000f0: 92df 1dbc 7ce4 9c3b 3c7c 87bd 4a1f 00bc
00000100: 02d6 68bd fbf3 0739 57b1 533d 777c fbbc
00000110: 5e2a 1bbc 10c0 633d 8966 7abe f547 26bc
00000120: c0ea 073c 63a1 fdbc aa74 df3b 8e8d 38bd
00000130: 17c4 89bd 6320 363c 4764 01be b414 d4bd
00000140: ab4a 103d b8dd 86bd 6665 09be fd80 5abd
00000150: 00f3 633b 7298 fd3c 53a8 8d3b 73cf d93a
00000160: 23b4 b73e aa4a 493d fb53 71bd 6918 903d
00000170: d655 64bd f4c0 68bd 8321 b8bc 7cd4 36b9
00000180: 71e7 883c e1b8 22bc ad93 51bc 2230 19be
00000190: 6b0b f1bc d775 d0ba 9589 71bd e8d2 ed3a
000001a0: 1979 37bc 5127 4dbd 7a9d 823d 4bc3 bb3d
000001b0: 994a 4dbc 3a51 5fbd eccf 1abd ff47 9ebc
000001c0: 5791 233d 26c7 1c3d 29ae 6ebd 7758 d03c
000001d0: 4f57 943b 58f9 ee3c a44e 903a fd32 733c
000001e0: 7d45 05bd 61bc 13be 6f5b ea3b 409a 1b3b
000001f0: af16 8cbd 1880 dabc 5d86 403c 924b f23e
00000200: 9776 a33c 1a8f 693b adfc 243d a0d1 4c3c
00000210: 49bb 003c 170d e13c b60a 273c 3172 eabd
00000220: f8b9 b93c 808d e5ba c960 6e3e 926e b43c
00000230: a477 25be 5556 2ebc 94f6 123e b1e6 bf3b
00000240: 5ea2 a23c e8c0 ec38 1052 2cbd 1479 393d
00000250: c55d 573c 7607 0dbc f0ce 693d 6fbc 99bd
00000260: f0b5 a23c 6cba edbc 0a8f 59bc f298 323c
00000270: e0e1 523c 3dc1 bfbb b3ed 4f3c fb85 e1be
00000280: 8727 a5bb 3a6b 673c fb3a d33c 949d 993b
00000290: 219d 5a3e 8e15 24bd b3b0 6e3c 9f2e f6bb
000002a0: eed9 d23c 53ed 2a3e 0ece 283d 0e98 ac3d
000002b0: 2508 7f3c 79c7 dcbd d12c debb 8e17 8fbd
000002c0: 2660 f3ba 388f 883c 8050 9e3a 4c03 d03c
000002d0: a848 053d 7574 40bb 5e5b d4bc a2b8 b13c
000002e0: dbdf ed3c 5273 923e 0845 65be 5a92 483b
000002f0: cacf 0f3d c845 0e3e da74 023c 0286 c4bd
00000300: 85c6 c0bb 9da6 503c bcae 30bd 9785 3cbe
00000310: 2450 3bbd a4e7 50bd 8657 913e ca7e 3b3d
00000320: 69e3 aa3c 5ee6 59bd 0089 7f3d f751 1b3d
00000330: af9a faba 9ed0 beba f4d9 c13c 9e19 8a3b
00000340: 030f 233d 13b4 f9bb 7563 a93c 3ed6 f8bb
00000350: a2d1 15bc e0a2 05bc d961 2c3d 203e 453d
00000360: 61e2 88ba a9be 3d3d acb1 57bd 7024 31bd
00000370: 8183 f73c ace6 1f3e e7a9 04bd f7c9 4dbd
00000380: b0ee 9a3b d2f7 6a3c e5a8 8e3c a89d b4bd
00000390: 1fb5 953d 15f6 51bd 6ca1 1e3f 92b0 1d3d
000003a0: 5d7e 4b3b 981b 983d 22e0 113c d0c5 fc3b
000003b0: 9541 a5bc e54e 2b3b f837 043c 733d 6d3d
000003c0: 8c5d 163d 2331 a23c e28d 813c 1031 753e
000003d0: a2e0 0c3d 86f4 cdbd e4f1 1fbd e033 c1bd
000003e0: 0f5a 593d 3d3c 8fbe a9ce 3b3d cc55 aa3c
000003f0: 2490 e9bc e952 133e b807 27bd 9491 aebd

layers.3.0.bias f4 [6]
0.37572846 0.18889807 0.14860396 0.12310406 0.04342882 -0.31196788
00000000: 7b5f c03e 7f6e 413e a32b 183e fb1d fc3d
00000010: 6be2 313d 41ba 9fbe
