benchmarks/Pendulum-v1/Test_gym_TD3_20230416-113300/models/critic_1.pth (torch, 271191 bytes, 5 tensors)

fc1.weight f4 [256, 4]
000000 1d 6a a9 bd 38 24 43 bf 1e 1b 23 3c 15 1c 14 bc
       -0.082721926 -0.7622714 0.009955196 -0.009039898
000010 4d 6b 0b 3f 56 fe 18 3e 26 6c 8e bb ea b4 76 3e
       0.54460603 0.14940771 -0.0043463884 0.2409245
000020 41 ab 0c 3f 82 fd a7 bd 1d bb fd bd 0d 8b 90 bc
       0.5494881 -0.0820265 -0.12389205 -0.01764443
000030 33 52 99 be 17 c6 bd 3e fb 4d ed be 44 2c 41 3e
       -0.29945526 0.37065193 -0.46348557 0.18864542
000040 07 dc 4c 3e 9e 14 1a be ba 07 1a 3e 92 37 e1 bd
       0.20005809 -0.15046927 0.1504201 -0.10996927
000050 9e 3b 20 bf 17 12 00 bf 7c 87 5e be e1 e1 12 be
       -0.6259097 -0.500276 -0.2173137 -0.14343978
000060 32 61 8e bd 5e f6 32 bf 13 15 9c be f9 f2 1b be
       -0.06952132 -0.69907176 -0.30484828 -0.15229405
000070 a8 f7 69 3e f1 f2 0e 3f bd 42 01 bf 93 77 1f be
       0.2284838 0.5583945 -0.5049246 -0.15572958
000080 f9 64 d4 be 31 37 3b bf 60 18 da bd 28 38 68 bb
       -0.41483286 -0.7313109 -0.106491804 -0.0035433862
000090 7b fe 0b bf 40 44 70 be 49 40 d6 bd 2e 80 dd 3d
       -0.5468518 -0.23463535 -0.1046148 0.10815464
0000a0 db 6f f8 bd dd b8 3e 3e 40 8a 97 be 68 09 54 3e
       -0.1213071 0.18625207 -0.29597664 0.20706713
0000b0 01 53 17 bf e4 a0 8d 3d 9c d9 ef 3e f3 24 47 be
       -0.5911103 0.06915453 0.4684571 -0.19447689
0000c0 d3 bc 15 be b8 73 b2 3e 6c 90 d6 3e 20 03 cf be
       -0.14622812 0.3485391 0.4190706 -0.40432072
0000d0 18 29 f5 bd 82 d7 11 3f 24 68 54 3e 74 bc 7a 3e
       -0.11970729 0.56969464 0.20742851 0.24485952
0000e0 c5 9c 15 be 18 da 39 3f 37 ff c0 3d 5c 81 37 3e
       -0.14610584 0.7259841 0.09423678 0.1792044
0000f0 0f 29 52 be ab 43 12 bd 49 57 12 bd 21 bd ec 3e
       -0.20523475 -0.035709064 -0.035727773 0.46238044
000100 cf d2 f8 3d 69 4b cd 3e 29 74 e5 bd 31 fb 42 be
       0.121495835 0.40096596 -0.112037964 -0.19041134
000110 7e db 14 3f 98 a6 7a 3e 52 6b 27 be a8 df f2 bd
       0.5814742 0.24477613 -0.16349533 -0.11859065
000120 90 d0 6a 3c 97 e8 cd be f9 75 e9 3e 95 8d 03 3e
       0.014331952 -0.40216514 0.45597818 0.12846978
000130 cb ec a7 be 28 24 10 3f ce be d2 3e 81 f2 ac 3d
       -0.32797846 0.5630517 0.41161197 0.084446914
000140 5c f7 f4 3e 8d b5 56 3e 36 ab 90 3d 15 3d 38 be
       0.4784497 0.20967694 0.07063906 -0.17992051
000150 68 0e 16 bf e4 b7 05 bf cc e3 36 be 36 94 ba 3e
       -0.5861573 -0.5223372 -0.17860335 0.364412
000160 4a b1 8b bd 61 b1 0a be e5 47 d4 be b3 61 ab be
       -0.068209246 -0.13544227 -0.414611 -0.33472976
000170 f3 8d 9f be 85 7f 5d 3e 6b f1 c2 be 77 c5 06 3e
       -0.31162986 0.21630676 -0.38074812 0.13161264
000180 bd e2 56 3e 98 68 cd 3e 6e d9 7e be 30 64 81 3e
       0.20984931 0.4011886 -0.2488763 0.2527175
000190 bb 81 02 bf 57 83 e2 bd 9b cf a0 be d0 ee a6 be
       -0.50979203 -0.11060207 -0.3140839 -0.32604074
0001a0 1d 69 8e 3e 34 f6 88 be 37 b9 6e 3e a6 b9 ae be
       0.2781457 -0.26750338 0.23312841 -0.34126014
0001b0 98 a6 26 bf d1 bd b1 3d 0b b7 cb 3e 73 13 30 3e
       -0.6509795 0.08678783 0.39788088 0.1719492
0001c0 f3 83 20 bd bb da d9 be 64 0b d4 bd fb 8a d3 3d
       -0.039188337 -0.4254969 -0.10353735 0.10329243
0001d0 c5 a1 e6 3e 02 b8 ed be 1f 79 f8 3d be 13 92 3e
       0.45045295 -0.4642945 0.12132477 0.28530687
0001e0 93 e7 ac 3e 0c e5 99 be 49 f5 f5 bd 5a 72 c5 be
       0.33770427 -0.3005756 -0.12009675 -0.38563806
0001f0 14 f8 e8 3d ae 8f ed 3d 10 b8 ca be 39 f9 5e bd
       0.11375442 0.1159967 -0.39593554 -0.054436896
000200 50 35 1a 3e fc 19 72 be f0 3b 5c 3e 50 89 df 3d
       0.150594 -0.23642725 0.2150724 0.10914862
000210 7f fc 1b be 11 0a da be 7e 50 63 be 91 d1 7f bd
       -0.15233038 -0.42585805 -0.22198674 -0.062455717
000220 9a 1a 00 bd c6 41 6b be 55 ef 8f be 2c 17 e5 be
       -0.03127537 -0.2297431 -0.28112283 -0.4474424
000230 09 b1 07 bf ff 28 e9 3e 18 b3 bd 3e 5c 5c 71 be
       -0.5300451 0.4553909 0.370507 -0.23570389
000240 30 54 07 bf 76 7c 15 bf 96 e4 26 be ea f1 8d be
       -0.52862835 -0.5839304 -0.16298136 -0.27723628
000250 a2 df ca 3d 25 96 3f 3f eb ff ef 3e 4f ed 47 3c
       0.09905936 0.7483848 0.46874937 0.012202575
000260 17 74 60 3e 57 36 6b 3e 6a c8 97 be 7e 71 bd be
       0.21919285 0.22969948 -0.2964509 -0.3700065
000270 40 d3 e3 3e 3b 0c 46 3e 14 c9 0b be c9 69 a4 3d
       0.44497108 0.19340603 -0.13650924 0.080279894
000280 3a cc e1 be 89 35 0a bf 8d 59 af be 6a 3f bf 3e
       -0.44101125 -0.5398794 -0.3424801 0.3735307
000290 bf ec 11 3e 8e a5 0e 3f e7 70 01 3d ec 7f 4e 3d
       0.14250468 0.55721366 0.031601813 0.050414965
0002a0 0f 02 cf 3e 35 28 f5 3e 4f 78 1d be 6d ba 91 be
       0.40431258 0.47882238 -0.15377925 -0.28462544
0002b0 e8 ce 19 3d 87 58 bd 3d f1 62 99 3e e8 e2 d7 be
       0.037550837 0.09245401 0.299583 -0.42165303
0002c0 b2 88 03 3c 0c 56 ed bc ba d2 cf 3e ec 1e a5 3e
       0.008028196 -0.028971694 0.4059046 0.32250154
0002d0 70 a2 f5 bd c6 bc 3a 3f ea 36 a5 3e bc 71 51 bd
       -0.11993873 0.72944295 0.3226846 -0.051133856
0002e0 da 17 02 3f e7 60 b4 3d 09 80 9f be 8c 96 0d 3d
       0.50817645 0.08807545 -0.3115237 0.0345674
0002f0 1f 6e 42 bd e3 f6 64 3f 0e da 30 3e 60 fd 8f 3e
       -0.0474683 0.8943922 0.17270681 0.28122997
000300 3d 60 9a 3e 17 ca e7 be 19 18 df be e0 20 e4 bd
       0.3015155 -0.4527137 -0.43573073 -0.11139083
000310 2a af 85 3e a0 42 63 be 55 85 eb 3e 3e f7 01 3e
       0.26110202 -0.22193384 0.46000162 0.12691972
000320 67 6b e4 be b4 fb e4 bb 29 89 38 3e db d7 45 bd
       -0.4461319 -0.006988013 0.18021072 -0.04830156
000330 5b 6d e2 3e 97 8d 2e be 12 d3 c7 3e 76 08 00 3f
       0.44224057 -0.170462 0.3902822 0.5001291
000340 f0 ea ce 3d f8 c5 d8 3e 41 cc fa 3e c5 57 d1 be
       0.101034045 0.42338538 0.48983958 -0.40887275
000350 60 d6 31 3e 77 db 39 3f c9 ad b7 3c 50 49 52 be
       0.17366934 0.726005 0.022421734 -0.20535779
000360 e8 cf 09 3e 2b 32 7b 3e dd 27 ce be 2c 6e c2 bd
       0.13458216 0.24530856 -0.40264788 -0.0949367
000370 53 5b 28 bf a5 e1 c1 3e 56 52 93 3e 02 e1 0c bd
       -0.6576435 0.37867466 0.28773755 -0.03439427
000380 fd b4 0b be 13 a8 1b bf e7 98 33 be 6d 3f 18 3d
       -0.1364326 -0.60803336 -0.17538796 0.037169863
000390 04 b0 f7 3e 67 d8 1c bd ec d9 83 be ad b6 86 3e
       0.48376477 -0.038292315 -0.257522 0.26311246
0003a0 a4 b1 1e 3e 44 e8 48 be 4b 29 d6 3e 7c e6 80 be
       0.15497452 -0.19619852 0.4182838 -0.25175846
0003b0 3e 19 1f bf d5 f2 1b 3e 19 1d 41 3e d7 ae 29 3e
       -0.6214789 0.15229352 0.18858756 0.16570602
0003c0 92 96 2e be c1 2a ad be 43 f6 78 3e a3 0a 29 3e
       -0.17049626 -0.3382168 0.24312691 0.16507964
0003d0 2b c8 19 3d a8 2e e1 3e 59 27 c9 3e 78 9f a2 bd
       0.03754441 0.43980908 0.39287832 -0.079405725
0003e0 c0 88 7f be 32 dc b3 3c f1 95 a8 be 35 da be 3e
       -0.2495451 0.021955583 -0.32926896 0.37275854
0003f0 b7 ec d6 be 6d 41 5c 3e e0 e0 ca be 02 d2 10 bd
       -0.41977474 0.21509333 -0.3962469 -0.03535653

fc1.bias f4 [256]
000000 b6 01 a7 bd 0f 58 24 3e e1 88 81 be cf cf 57 3e
       -0.08154623 0.16049217 -0.25299743 0.21075366
000010 ab 25 e0 bd 34 22 fe 3d 34 1f 05 bf 00 72 04 3f
       -0.109446846 0.124088675 -0.5200074 0.5173645
000020 00 40 b3 bd 10 de 81 be 30 9b 2a 3d 18 83 f5 bd
       -0.087524414 -0.25364733 0.041651905 -0.11987895
000030 1a 85 27 be 39 a0 7b be e9 9d e4 3e 60 a3 a9 bd
       -0.16359368 -0.24572839 0.44651726 -0.082831144
000040 9c 38 cc be 07 16 70 be a7 3d c4 3e 69 66 e2 3d
       -0.3988694 -0.23445903 0.38328287 0.110546894
000050 e7 73 93 3e b9 1e e0 be e1 37 f8 3e 71 4b 6a be
       0.28799364 -0.4377344 0.48480132 -0.22880341
000060 78 08 e7 bd b3 de 50 be dd 04 c0 be 0e ae 94 be
       -0.11280912 -0.20397453 -0.3750371 -0.29039043
000070 88 1c d5 be 4e 46 03 be 8e 6e c5 3c c0 19 9d be
       -0.4162333 -0.12819788 0.024100568 -0.30683708
000080 7e 53 65 3e e9 8a bc bc 8a 99 2b 3e 82 0a fb 3e
       0.22395131 -0.023015456 0.16757789 0.49031454
000090 dd 51 e9 be 84 1a 19 3e 63 63 a4 be 67 33 2a 3d
       -0.4557027 0.14951521 -0.32107076 0.041552927
0000a0 2b 2e cb be 03 69 ea 3e 6c 89 8a be b2 93 67 be
       -0.3968366 0.45783243 -0.2705797 -0.22614935
0000b0 ec 01 98 3e f1 c5 58 3e 3f b5 a4 3d b8 fd fc 3e
       0.29688966 0.21169259 0.080423824 0.49412322
0000c0 2e 2b 2d 3e 17 4d bc 3e 11 b8 0c 3f 37 12 c5 3e
       0.16911003 0.36777565 0.54968363 0.3849046
0000d0 e4 87 07 3e 10 08 97 3e 82 bb 78 bd 41 be 1b be
       0.13235432 0.2949834 -0.060725696 -0.15209295
0000e0 bb b0 d4 3e e4 6a 6c be 74 a9 e2 bd 49 40 ec be
       0.41541085 -0.2308765 -0.11067477 -0.46142796
0000f0 de f7 9e be d0 e7 a5 3e 38 a8 75 be 25 2b b1 3e
       -0.31048483 0.3240342 -0.23989952 0.3460323
000100 df 44 dc be 43 5c 29 3e 14 ba b2 3e cc 35 30 3e
       -0.43021294 0.16539101 0.3490759 0.17208022
000110 ce 46 aa 3e 47 be cd be 4f 9b c4 3e 3e 2a a9 3e
       0.33257145 -0.40184233 0.3839974 0.3304004
000120 15 46 06 bf fd f7 67 3e cf 62 b0 be 55 96 c8 3e
       -0.52450687 0.22653194 -0.34450385 0.39177194
000130 fd fb 80 3c 27 dd fa 3b db 35 e7 3e d1 bc bb be
       0.015745157 0.007655758 0.45158276 -0.36667493
000140 5e 0b b5 3e b4 7d 74 3e cd 36 ce be 5c 7f b6 be
       0.35360235 0.23876077 -0.40276185 -0.35644042
000150 9a 37 69 be dc 0b ba 3e e0 59 a7 be 89 cc 94 be
       -0.22775117 0.36337173 -0.32685757 -0.29062298
000160 24 1b b7 3e db dc cd 3e 59 36 e5 be 7b 00 8d 3e
       0.35762894 0.40207562 -0.44768026 0.2753943
000170 87 fe fb be f0 c4 bf be 54 99 e5 3e da 2e df be
       -0.49217626 -0.3745494 0.44843543 -0.43590432
000180 80 0c 8b 3d 85 cf 00 3e 70 97 8a bc e2 f1 85 3e
       0.067894936 0.12579162 -0.016917914 0.26161104
000190 6a b2 4d bd 3e fa 11 be d8 51 c9 be e2 e8 6e 3e
       -0.050218977 -0.14255616 -0.39320254 0.23331025
0001a0 87 83 ef 3e 0a d2 28 3e 9c 89 80 3d 4d 93 f9 3e
       0.46780035 0.16486374 0.06276247 0.48745194
0001b0 e6 a3 a2 3e 86 49 99 be 57 cd 91 bc f5 f7 ac be
       0.3176567 -0.29938906 -0.017798109 -0.33782926
0001c0 fe 6b 44 be 32 7e 5f 3d 7b 85 e3 be f0 a0 db be
       -0.19181821 0.05456371 -0.44437775 -0.42896223
0001d0 21 e1 f5 be ae ff d4 be 58 6f 92 3e 08 6b 71 3d
       -0.48023322 -0.41601318 0.28600574 0.058939964
0001e0 c8 f7 ec 3b 1a d1 23 3e 12 18 19 3d b0 e9 4c 3d
       0.0072316863 0.15997735 0.03737647 0.05002755
0001f0 1d 62 f8 3e 3d ef fb bd 63 cd a4 be e8 85 02 bf
       0.48512354 -0.123014905 -0.32187948 -0.50985575
000200 65 29 b8 be 93 b9 ed be 1e d3 bc 3e 36 7a 08 be
       -0.35969082 -0.46430644 0.3687982 -0.1332787
000210 ca d1 51 be f6 f3 c8 3e 99 26 b6 be cb 85 89 3d
       -0.20490184 0.39248627 -0.35576323 0.06714972
000220 be e8 94 bd 3b aa d3 3e fe d5 81 be fd 19 e4 3e
       -0.072709545 0.41340813 -0.25358576 0.44551077
000230 5b 4b 7e be 4b 2d 6d 3c 85 e7 cf 3d 47 da fb bd
       -0.24833433 0.014476131 0.10151581 -0.122974925
000240 e3 b6 19 3e 6b 4f 55 3e 4b f4 79 3d e5 f3 05 3f
       0.15011172 0.20831077 0.06102399 0.5232528
000250 f2 1b 74 be a2 5c c1 3e 1b c0 ba be 28 c6 7f 3e
       -0.23838785 0.37765986 -0.3647469 0.24977934
000260 59 df 9e be 8c 05 95 be 57 4a 03 3f 48 4d fa be
       -0.31029776 -0.29105794 0.5128531 -0.48887086
000270 20 b0 3e be d8 5c 86 3e d9 c6 b3 bc 68 e7 3c be
       -0.18621874 0.2624271 -0.021945404 -0.1844765
000280 60 04 bf 3e e7 11 0e 3e 5c d9 a3 3e 84 a9 e2 be
       0.37308025 0.13874017 0.3200177 -0.44269955
000290 fe 0f 1f be 1e 1e b8 3d 28 b9 92 3e 73 35 fa 3e
       -0.15533444 0.089901194 0.28656888 0.48868904
0002a0 19 4d e9 3e 0e c0 8f 3e cb 92 9b be ca 74 43 3e
       0.45566633 0.28076214 -0.30385432 0.1908752
0002b0 a9 8a 23 3e d0 be d0 be 55 92 1f 3e a4 18 b7 bd
       0.15970863 -0.40770578 0.15583165 -0.08940247
0002c0 a4 3b c8 be a9 a1 ef bc 43 73 00 3f 15 54 da be
       -0.39108002 -0.02925189 0.50175875 -0.42642274
0002d0 f0 10 f3 3e 86 49 a3 bd 6c 31 fd be 5b 14 6f be
       0.4747386 -0.07973008 -0.49451768 -0.23347609
0002e0 6f 19 2a 3d a4 c6 b0 be 33 7b 8f be a1 49 47 3e
       0.04152816 -0.3452655 -0.2802368 0.19461681
0002f0 53 9d a1 3d 8c a9 a2 be 6f 24 ce 3e b0 12 88 3e
       0.07891335 -0.3176998 0.40262172 0.26576757
000300 8d ea fe be af 42 51 be 16 62 e0 be 28 e9 f4 be
       -0.49788323 -0.20435594 -0.43824834 -0.47834134
000310 57 3d aa 3d 2b 72 08 bf 0c e0 54 3e 2b f5 06 3f
       0.08312481 -0.53299206 0.20788592 0.52717847
000320 75 6e 3d be 67 cc 03 bf 60 23 2a be 09 c2 7a be
       -0.18499167 -0.5148377 -0.16615057 -0.24488081
000330 dc 67 bb 3e 2a 78 6e be 9f 94 6f be 43 b9 b0 3e
       0.36602676 -0.23288026 -0.23396538 0.34516343
000340 55 4c 49 bc 9a 80 40 3e a2 48 ab be 4f 4a cb be
       -0.012286265 0.18799058 -0.33453852 -0.3970513
000350 a9 91 e1 bd 60 96 97 bd 43 be 9d 3d 34 2e 21 be
       -0.110141106 -0.07401729 0.07702305 -0.15740281
000360 73 a9 7d 3e 7a c6 c6 3e a7 77 0b 3f cc 29 fd 3d
       0.24771671 0.388233 0.5447945 0.12361488
000370 08 a2 10 3c ee 77 f5 bc 89 6e 89 3e f3 03 bc 3d
       0.008827694 -0.029964413 0.26842144 0.09180441
000380 5a 40 77 bd 6b ae b2 3e 09 cc d3 3c 50 e0 a8 3d
       -0.060364105 0.34898695 0.025854127 0.08245909
000390 e9 07 9f be d9 b7 5f 3d 0d d5 a5 bd bc df 49 3e
       -0.31060722 0.05461869 -0.08097277 0.19714254
0003a0 8a 31 29 bd 31 89 6a 3d 6e 42 07 3f 36 29 6f be
       -0.04130701 0.057259742 0.5283574 -0.23355564
0003b0 d9 43 b4 3e a2 a6 a0 3e 8f 3c 89 3d bc bb da 3e
       0.35208014 0.3137713 0.06701004 0.42721355
0003c0 d6 4a de bd a4 ef d1 be 61 c5 d4 be 43 8b df 3e
       -0.108541176 -0.41003144 -0.41556838 0.43660936
0003d0 8a de 47 be e8 92 b8 be 86 23 53 be 1f 0f b5 bd
       -0.19518486 -0.3604958 -0.2061902 -0.08840775
0003e0 1f 4c 34 be d1 2d 06 bf 4d 2e 99 3e 09 fa 7e 3d
       -0.17607163 -0.5241366 0.29918137 0.06225017
0003f0 dd cc bc 3e 02 9c dc 3e 49 aa 6f 3e 93 5f 11 3e
       0.36875048 0.43087775 0.23404802 0.14196615

fc2.weight f4 [256, 256]
000000 d1 65 d8 be a9 5d 0c bc ad 9f 20 bd ac a7 9b 3c
       -0.4226518 -0.008567252 -0.03921478 0.01900085
000010 7f 81 5a bd 57 56 1b 3d 30 54 c3 3a 92 6f 29 bd
       -0.053346153 0.037924137 0.0014902409 -0.041366167
000020 0c ea 21 3d 48 a0 ea 3c 79 fa c7 3c 8f 4a 09 bc
       0.039529845 0.028640881 0.024411427 -0.008379593
000030 dd 44 af bc d9 fe 46 3d 9b a2 11 3d ac c5 2b 3d
       -0.021395141 0.048582885 0.035555463 0.04193656
000040 66 06 73 3b 50 c1 69 3b f1 be 9e 3c 75 58 69 3d
       0.0037082671 0.0035668202 0.019378157 0.056969125
000050 05 08 83 bb b9 f5 a1 3d c9 09 82 3c 05 4c 81 3b
       -0.0039987587 0.07908196 0.015873807 0.00394583
000060 99 71 92 bd 6c 3f b3 3b 0c 0b 41 3b 75 e1 85 3c
       -0.07150573 0.005470207 0.0029456047 0.016342858
000070 1b 42 a8 bb e5 70 6e bd 3c ab 8a bd 12 3a 39 3c
       -0.0051348335 -0.058213133 -0.067709416 0.011305349
000080 e4 7f 7e 3c 18 2d 03 3d 3f 25 3c 3d 6a 62 a3 3d
       0.015533421 0.032025427 0.04593396 0.07977755
000090 d1 54 f0 3d 7a ec a0 bc 16 f0 53 bc db dc 12 bd
       0.117349274 -0.01964401 -0.012935659 -0.035855155
0000a0 ce c5 82 bc 57 eb 46 3a e8 34 ec 3c 26 c0 a0 3c
       -0.015963461 0.0007588169 0.028833821 0.019622874
0000b0 a6 5e 1f 3d 4a 90 c8 3c 95 ad b3 bd 49 4f 10 bc
       0.038908623 0.024482865 -0.087733425 -0.008807966
0000c0 4e 39 30 3d d4 b1 07 3d ab 7f a1 bc eb 5e ee bc
       0.0430234 0.033128574 -0.019714197 -0.029097995
0000d0 28 77 2d 3d 6a a9 59 3d 26 b9 3b 3c 7d ea ce 3c
       0.042349964 0.05314008 0.011457717 0.025258297
0000e0 1b f7 cf 39 d0 c2 03 3c 5f 99 4a bd e9 22 d2 3c
       0.00039666225 0.008042052 -0.049462672 0.025651412
0000f0 6d 55 7f bc f5 33 7e 3b f7 38 0f 3b 28 37 12 3c
       -0.015584332 0.0038788293 0.0021854022 0.008924283
000100 18 57 18 bb 3c 73 1e bd 3a 3e bd 3d 1a f1 d8 3c
       -0.0023245271 -0.038684115 0.092403844 0.026482154
000110 2a f8 98 3d 38 b8 75 bd b6 57 a2 3c 3e 52 03 bd
       0.074692085 -0.059990138 0.019817214 -0.032060854
000120 b7 2d 01 bd 50 d3 3b 3d 9a ce bc bd 0d 0b 65 3d
       -0.031537738 0.04585582 -0.092190936 0.055918742
000130 ab 32 cc bd d4 d8 c0 bb 5f 0e 06 bd 11 78 3e 3c
       -0.09970602 -0.005885223 -0.03272855 0.011625306
000140 63 32 a9 bc 03 4f 5d 3d 79 7b 8d 3d cd e6 c9 3a
       -0.02065391 0.05403043 0.06908316 0.0015403867
000150 06 e0 58 bc 23 85 40 3d 20 3e 2e bc c8 72 16 3d
       -0.013237005 0.04700197 -0.010634929 0.036730558
000160 70 09 59 bd 7f 2d b2 3c 2d 74 a3 3d fe 50 3b 3c
       -0.052987516 0.02175021 0.07981143 0.011432884
000170 0b 8e 43 bd 72 8f 83 3d e0 a1 2f 3b ef 13 24 3a
       -0.047742885 0.064238444 0.0026799366 0.0006259074
000180 69 f5 bc 3c 95 85 26 3d 77 2c 09 bd 59 2b a3 bb
       0.02306624 0.040654738 -0.03348967 -0.0049795327
000190 4d 2b b8 3c 0b 94 91 3d 11 ca e7 3c 8f db 86 3c
       0.022481585 0.07108315 0.028294595 0.016462116
0001a0 55 81 d4 3c 9b fb 92 3d 67 5c 9b bd 67 8e 26 bc
       0.025940577 0.07176896 -0.07585984 -0.010165787
0001b0 ff d8 6a 3d e6 3b 7e bd 4a 05 77 bd f8 7e 85 bd
       0.05733585 -0.062068842 -0.06030778 -0.06518358
0001c0 91 34 7c 3d b8 bb 74 bd 6e e3 d4 bb c7 c2 17 bd
       0.06157357 -0.059749335 -0.0064968383 -0.03705099
0001d0 6b b2 8c 3d bf b2 0c bd aa 4b fb bc 9e de 78 bd
       0.06869968 -0.034350153 -0.030675728 -0.06075918
0001e0 5f 35 c7 bc 69 da 99 3d 27 d9 af 3c 03 5d d0 3c
       -0.024317442 0.075123616 0.021465851 0.025434976
0001f0 51 17 ae bb f0 c4 c6 3d a7 5d 12 3d ff a9 2f bd
       -0.005312838 0.097055316 0.035733845 -0.04288673
000200 7e 88 32 bd c9 0c 93 3d 64 61 89 3c c1 be 0e 3d
       -0.0435872 0.07180173 0.016770072 0.034849886
000210 20 0a 33 3d 38 48 66 3d 06 ee 48 bc ce 50 f3 3c
       0.043710828 0.056221217 -0.01226378 0.029701617
000220 8a 84 b4 bd 2d 85 2c 3c 3e 03 14 bc b6 18 0a bd
       -0.08814342 0.010529798 -0.009033976 -0.033714972
000230 60 b0 f9 bd 82 1d c0 3c 33 12 5c bd b6 c2 89 3d
       -0.12191844 0.02345157 -0.053728294 0.06726591
000240 2f 56 f0 3c 83 7d 10 3d 75 be c5 bc 59 6e 53 3b
       0.02933797 0.035275947 -0.024138669 0.0032261817
000250 0e 45 9e bc 0e 34 bc 3c 51 6c 0c 3d 2b 17 c9 bd
       -0.019320037 0.02297404 0.034282986 -0.09818872
000260 d4 78 4e bc 93 47 75 3c b9 05 13 bd 28 bb b7 bd
       -0.01260205 0.014970678 -0.03589413 -0.08971244
000270 14 2e a7 3d 09 a8 98 bc 78 5d 1a 3d 3b 9d de 3d
       0.081630856 -0.018634813 0.037686795 0.10869833
000280 13 00 56 ba b4 b8 31 bc cc 43 51 bc 3e f2 96 bc
       -0.0008163463 -0.010847259 -0.012772512 -0.018426057
000290 64 04 0a 3d 4c 63 62 3c 68 d3 a9 3d 80 f8 65 bd
       0.033695593 0.0138176195 0.08292276 -0.05614519
0002a0 37 96 83 bd 44 50 b0 bd e4 60 fa 3c be 8e ce 3a
       -0.064251356 -0.086090595 0.03056378 0.0015759093
0002b0 9d 18 23 bc 8a 98 aa 3c 6f fa 26 be 97 60 7b 3d
       -0.009954599 0.02082469 -0.1630647 0.061371412
0002c0 40 7f e8 bc 81 e7 71 3b 1d 10 fb 3a a1 76 42 3d
       -0.02838099 0.0036911669 0.0019154582 0.047476415
0002d0 e1 3e 81 bd 74 bc 6c bc 8d 75 41 3c a2 23 74 3c
       -0.06310821 -0.014449228 0.011807811 0.014901074
0002e0 ca 12 56 3c 09 2b 8c bd 46 28 42 bb 39 af 78 3d
       0.013066003 -0.06844146 -0.0029626056 0.06071398
0002f0 5a 36 4a bd e5 01 06 3e e2 3d 2c bc 2c 6e 76 3d
       -0.04936824 0.1308666 -0.010512801 0.06016366
000300 18 51 60 bc 53 aa c3 3d 94 84 ab 3c 2d 57 c2 3d
       -0.013691209 0.09553971 0.020937242 0.09489284
000310 4c 41 0f bd f7 0f 79 3d 39 db 80 bc 81 20 bf bc
       -0.03497438 0.06080624 -0.015729534 -0.023330929
000320 e4 88 6b 3d f5 04 6b bc 2d 43 1c bd 04 0d c9 3d
       0.057503596 -0.014344444 -0.03815 0.09816936
000330 73 23 bb bc e9 35 95 bd ad db 3b 3d e2 68 7e 3d
       -0.022844052 -0.07285673 0.045863796 0.062111743
000340 32 68 c1 bc 1e 14 81 bd 27 a7 d7 3c 82 9a 8b 3c
       -0.023609255 -0.06302665 0.026324822 0.017041449
000350 c1 5f 12 3b d7 48 b4 3c 04 b2 21 bd fa e8 ab 3c
       0.0022334906 0.022007389 -0.03947641 0.020985115
000360 f8 15 01 3c 79 22 45 3c e3 be b6 3c bc 1f 3a 3b
       0.007878773 0.012032145 0.022307819 0.0028400263
000370 39 f7 9f bc 96 25 69 ba 59 2a 06 3d a1 36 a4 bd
       -0.019527065 -0.00088938454 0.03275523 -0.08018232
000380 79 7f c1 3c 41 f2 0b 3c 94 e9 83 bd bc c1 06 3e
       0.023620354 0.008541645 -0.06441036 0.13159841
000390 21 44 c9 3d db 1f 85 bd 36 e4 53 3d fa e3 6e 3d
       0.09827448 -0.065002166 0.05173131 0.058322884
0003a0 b2 31 6b 3d 83 f4 15 bc 26 1f a3 3c 42 2f 01 bd
       0.05742044 -0.009152534 0.019912314 -0.03153921
0003b0 92 07 79 37 c8 90 72 3d 03 c8 5f bc 41 9f c8 3d
       1.4843319e-05 0.059220105 -0.013658526 0.09796
0003c0 e2 b9 62 bb e5 a8 87 3d 2d 39 59 bb 15 59 13 3d
       -0.0034595658 0.06624011 -0.0033145652 0.035973627
0003d0 60 4c 59 bd e6 56 30 3d 44 d1 b1 3c bb c9 7e 3e
       -0.053051353 0.043051623 0.021706231 0.24881642
0003e0 a7 12 df bc 29 50 14 3d 7d 63 2b bd 97 09 e2 3c
       -0.027230574 0.03620926 -0.041842926 0.027592463
0003f0 a2 f1 93 bb aa f8 c2 bc 31 da 80 3d 8b ca 9c bd
       -0.004514889 -0.023800213 0.06291617 -0.076558195

fc2.bias f4 [256]
000000 74 09 1d 3d 0b 19 93 bd fb 9c 9d 3d b0 5c 6d 3d
       0.038339093 -0.07182511 0.07695957 0.05794972
000010 dc 45 60 bd f7 61 d1 bb 2c 30 7f bc 4b be b5 3c
       -0.054754123 -0.006389852 -0.01557545 0.022185465
000020 c8 2c 17 bd bf b7 5a 3d b7 92 fb bc f2 05 27 3d
       -0.03690794 0.05339789 -0.030709608 0.040777154
000030 59 41 87 3d 38 ea 44 bc bc ab 85 3c f3 1c 24 3d
       0.06604261 -0.012018733 0.01631724 0.04006667
000040 64 42 b0 bd 5c 81 8e bc c1 ac 84 3c cc 1b 5e bd
       -0.08606413 -0.017395668 0.016195657 -0.054225728
000050 a4 95 af bc 32 ba a6 3d ee 7a 3f bd 1c 9e 8a bc
       -0.021433659 0.08140983 -0.046748094 -0.016921096
000060 72 39 7d bd 8b 2f fc bb 33 ea fd bc 0f 25 2e 3d
       -0.061822362 -0.0076960973 -0.030995464 0.04251581
000070 94 4b 11 bb ce fb c3 3d 4e a4 79 bd 2b 46 a6 bd
       -0.0022170292 0.09569512 -0.06094771 -0.08118852
000080 42 b2 f7 bc b5 47 cf bc 29 69 87 bd 96 1f e2 bb
       -0.030236367 -0.025302747 -0.066118546 -0.006900738
000090 3c c0 05 3c 0c 76 9b 3d fd 79 68 bd 36 42 1e 3d
       0.008163508 0.07590875 -0.056756962 0.038637362
0000a0 34 bc ca bc c6 5d d2 bc 58 48 37 bd 62 8a 27 bd
       -0.024747945 -0.02567948 -0.044746727 -0.040903457
0000b0 58 4d 85 bd 5f 0a 84 3d 32 9e ed bc e6 e1 8a bd
       -0.06508893 0.06447291 -0.029006097 -0.06781368
0000c0 b9 40 a1 bd 0f 46 a6 bc 18 b8 94 3d f0 54 26 3d
       -0.07873673 -0.020297078 0.072616756 0.040608346
0000d0 3c 67 da bc 8e 2f bb 3b 7a 8c e2 3c 0f e8 2c 3c
       -0.026660554 0.005712456 0.027654875 0.010553374
0000e0 43 f7 ea 3c 80 8c 84 bd 8b 34 12 3d 7d 30 a9 bd
       0.028682357 -0.06472111 0.03569464 -0.082612015
0000f0 b8 15 8f 3d 2e 1a fa 3b 4e e9 1c 3c 72 f0 1f 3c
       0.069865644 0.0076325154 0.009577109 0.0097619165
000100 35 34 54 3d 58 c0 df bc 21 c8 4f 3d 0d f2 cb 3c
       0.0518076 -0.027313396 0.050727967 0.024895692
000110 f4 d1 63 bd eb e9 35 bd 21 c6 ed 3c f9 d7 f9 3c
       -0.05562015 -0.044412535 0.02902514 0.030498492
000120 34 7b c4 bc 59 1a 5b 3d 6e db 6b bd f5 05 97 bd
       -0.02398453 0.053491924 -0.05758231 -0.07374183
000130 09 7a 3a bd f6 a9 f0 3c 8c ac 81 3d 75 6e c6 3a
       -0.045526538 0.029377919 0.06331739 0.001513912
000140 52 b9 ac bd 34 6c 4a bd 7f f3 3d 3d 84 00 86 bd
       -0.084337845 -0.049419597 0.046374794 -0.06543067
000150 70 a0 ad 3c 6e 86 81 3c 34 11 58 bd 5e ad fe bc
       0.021194667 0.015811171 -0.05275078 -0.031088527
000160 3f ed eb bb a4 ce a3 3b 18 a3 ce 3b 20 03 8a 3d
       -0.007199913 0.0049989987 0.0063060634 0.06738877
000170 c2 29 47 3e 4b ee d1 3c 3e ee e3 3a a8 a1 00 bd
       0.19449523 0.025626322 0.0017389727 -0.031404167
000180 f4 e3 7d 3d 9f 03 9b 3c a5 c6 8d 3d 55 90 2f 3d
       0.06198497 0.018922625 0.06922654 0.042862255
000190 ca 60 c0 3a fb 40 12 3d 66 1f ef 3c 71 43 96 bd
       0.0014677283 0.0357065 0.029189777 -0.07337082
0001a0 d6 aa f4 bc 26 43 ac bd bf 9c 5a 3d 2c 31 be bc
       -0.029866617 -0.08411245 0.05337214 -0.023216806
0001b0 12 06 b4 bc 2f 08 1c 3d d3 5a d3 3c ab 5f 92 bc
       -0.02197555 0.038093742 0.025800144 -0.017867884
0001c0 51 01 72 3c 41 62 b5 bc c5 32 30 bb ed 95 f4 3c
       0.014770822 -0.022141578 -0.002688573 0.029856646
0001d0 ce 53 6a 3b 08 bc a1 bd 6d ef 31 bd ca 90 12 3d
       0.0035755518 -0.07897192 -0.043441225 0.035782613
0001e0 e1 d4 00 3d 57 3a 40 3d 60 bc 14 bd bd cb 00 bc
       0.031453017 0.046930637 -0.03631246 -0.007861075
0001f0 ad ba 1c bd c2 f1 3f 3d 20 ce 4e bd 40 5f b3 bd
       -0.038263965 0.046861418 -0.050489545 -0.08758402
000200 80 48 72 3c 54 f5 0d bd c8 6b 01 bd 31 5b 2e bd
       0.014787793 -0.03465779 -0.03159693 -0.042567436
000210 75 6b a6 3d 58 c3 9f 3d 0f 3b 2f 3d 22 4a f4 bc
       0.081259646 0.07800931 0.042780932 -0.029820506
000220 3a e2 ec bc f5 89 87 bc e5 cb b0 bc 59 73 6b bd
       -0.028916467 -0.016545275 -0.0215816 -0.05748305
000230 d1 d2 17 3d fa cc 87 bd 8f 4a 8a bc f4 23 8b 3d
       0.037066285 -0.06630893 -0.016881255 0.06793967
000240 10 1b 5c bd 56 80 38 bd 06 f3 f5 bc 67 34 51 3c
       -0.053736746 -0.045044266 -0.03002311 0.012768841
000250 2b b5 57 3b 2b 23 1e bd 19 31 64 3c 94 46 04 3d
       0.003291438 -0.038607758 0.013927721 0.03229387
000260 5f cf 05 bd 3a ab 51 bd 6d 4e 55 3d 6b 71 47 3d
       -0.032668468 -0.051188685 0.052076746 0.04869215
000270 21 12 59 3d 9c a8 49 bd c2 63 c9 3b ce 5d 75 3d
       0.052995805 -0.049233064 0.0061459253 0.059903912
000280 f9 7c 56 3d f5 0e c8 bb 46 79 0a 3d c4 79 68 bd
       0.052365277 -0.0061052986 0.03380706 -0.05675675
000290 7e 7d e5 bc bd 65 fc 3c b8 5e 37 bd bf e6 e1 bb
       -0.02801394 0.030810231 -0.044768065 -0.006893962
0002a0 7c 16 25 bd c6 1a 8b 3d 73 16 34 3b 9c 9d 02 3d
       -0.040304646 0.06792216 0.00274792 0.03188859
0002b0 6c 1b 97 bd f0 bd 59 bd 00 40 84 bd 02 81 7e bd
       -0.07378277 -0.053159654 -0.064575195 -0.06213475
0002c0 01 90 6a bc 4b c5 93 3d 62 c3 06 bd 15 fa 96 3c
       -0.01431656 0.07215365 -0.032901175 0.018429795
0002d0 e2 7e f6 bc 49 31 ab 3c b9 a1 6c bd 4e f9 3d bb
       -0.0300898 0.020897524 -0.05777142 -0.0028987709
0002e0 b6 78 b6 3b 07 d8 2c bb 9a 26 d9 3c 2f 2c 89 bd
       0.005568589 -0.002637388 0.026507664 -0.066978805
0002f0 ee 7f b5 3c 47 e6 b9 3c a7 2b b0 bb 79 c7 49 3d
       0.022155728 0.022692813 -0.0053762975 0.049262498
000300 ae 00 87 bc e4 7b 82 3d 7f 3c f6 bc 80 00 ad bc
       -0.016479816 0.063712865 -0.030058144 -0.021118402
000310 a2 39 f5 3a 2c 92 d8 bd 98 e2 19 3d 04 86 cc 3c
       0.0018709193 -0.10574755 0.037569612 0.024966247
000320 25 cc 6c 3d 48 3a 47 3d 05 59 f5 bb 60 e3 40 bb
       0.057811875 0.048639566 -0.0074874186 -0.00294324
000330 8a a1 35 bd 93 a5 51 3c 06 ff f5 bc 9a b3 06 3d
       -0.04434351 0.012795824 -0.030028831 0.032886125
000340 32 81 8a 3c f5 c0 15 3d bb a4 ac bc 9f f7 ec 3c
       0.016907308 0.03656097 -0.021074643 0.028926669
000350 1b c4 39 bd c7 46 2b 3d 91 d2 00 bd cc f5 40 3e
       -0.045353036 0.041815545 -0.03145081 0.18843764
000360 ff 2a 87 bd 3b 32 0a bd 3c 91 7f 3c a1 84 9b 3c
       -0.06599998 -0.03373931 0.015598591 0.01898414
000370 3f 48 26 bd 80 75 9a 3d 84 c5 82 3d e9 fe c3 39
       -0.040596243 0.075419426 0.06385329 0.0003738322
000380 2c f7 38 bd 93 86 31 3b 93 1f 94 3b d6 04 a7 3d
       -0.045157596 0.002708827 0.0045203655 0.08155219
000390 1f 77 43 3c 2a dc f4 bc e8 c4 cc bc 74 a0 86 bd
       0.011930256 -0.029890139 -0.024996236 -0.06573573
0003a0 ee c9 ad 3d 27 b7 6b bc 6b e2 3f 3d c2 9c 33 3d
       0.08485781 -0.014386929 0.04684679 0.043850668
0003b0 80 66 b4 3b 78 ce 95 bd f1 c2 44 3d 71 62 47 3d
       0.005505383 -0.073147714 0.048037473 0.048677865
0003c0 59 05 17 bd dd a3 28 3d 85 7c 0e 3c d9 cd c0 bc
       -0.036870334 0.041171897 0.00869668 -0.023535656
0003d0 8c 7b 00 3b f3 a5 b2 bd 03 a4 2f 3d 7f 4a a8 3d
       0.001960489 -0.087230586 0.042881023 0.08217334
0003e0 05 6f 48 3d dd 12 23 3d ec bc 49 3c 98 4a 6d 3d
       0.048934 0.03981291 0.012313109 0.057932466
0003f0 52 ac 90 bd 0b 65 9a bd ff 57 3e bd cb df 77 3d
       -0.070641175 -0.07538804 -0.04647064 0.06051616

fc3.weight f4 [1, 256]
000000 69 3c ac bd e1 2b e3 3a 7c c3 71 bd 84 e5 60 bd
       -0.0840996 0.0017331803 -0.05902432 -0.054906383
000010 47 1b 87 3b 0a 78 91 bd 80 d7 68 bd 25 22 46 3d
       0.0041231248 -0.07102974 -0.05684614 0.048372407
000020 ed 45 d3 3c e8 b2 05 3d db 64 93 3c 25 73 47 bd
       0.02579018 0.03264132 0.017992428 -0.048693795
000030 d6 fd d2 bd b8 4f e1 bd 23 35 41 3c 4e 12 84 bd
       -0.103023216 -0.11001533 0.011792454 -0.06448804
000040 57 74 64 be 10 0f 8e 3c de a9 9a bd 9f 28 a1 bd
       -0.22310005 0.017341167 -0.07551931 -0.07869076
000050 9a 32 c3 bd a1 6b 91 bd b6 86 82 3e 55 f4 af bd
       -0.09531136 -0.07100607 0.254934 -0.085915245
000060 da 71 e3 bd 67 c8 77 3c 99 bb 70 bb 79 f5 03 3d
       -0.111057 0.015123463 -0.003673291 0.032216523
000070 27 e1 55 bd a1 d8 0c bd ae 0b 5b 3d 3c ad 37 bd
       -0.052216675 -0.03438628 0.053477935 -0.044842944
000080 bd e2 b0 bd a1 b6 f4 3d fb af 60 3c db 39 95 bd
       -0.08636997 0.11948896 0.013713832 -0.07286426
000090 d1 06 cf bb 9a 02 66 bd d2 4c 9c 3d 04 45 a1 bc
       -0.0063179513 -0.056154825 0.0763184 -0.01968623
0000a0 0b 06 0a 3d 63 06 53 bd d8 bb a6 3c e3 8a 07 3d
       0.03369717 -0.051519763 0.020353243 0.033091437
0000b0 db 51 4a 3d 77 0b 5c bd 6e 18 0d be c9 fd 39 3c
       0.04939447 -0.05372187 -0.1377885 0.011352011
0000c0 ac b3 92 3d a2 27 8b 3b 29 a7 b9 bd 39 9a 7f 3c
       0.07163176 0.004246668 -0.090650864 0.015600734
0000d0 81 f7 7b bd c6 60 0b 3a bf 3c a7 3b 31 15 09 3d
       -0.061515335 0.00053168496 0.005103677 0.033467475
0000e0 0f 48 86 bd dd 18 fb 3c 49 9a 55 3d a3 68 f3 bd
       -0.06556713 0.030651504 0.05214909 -0.11885192
0000f0 fc bb 2c bd e3 09 80 3c 6e ef 76 3c da 54 d6 bd
       -0.042171463 0.015629714 0.015071733 -0.10465403
000100 70 30 20 3d 62 9d 03 3d 62 80 51 bd 34 74 d1 bd
       0.039108694 0.032132514 -0.051147826 -0.10227242
000110 77 0b 5f 3d bd 13 38 bd 16 36 a6 bd c6 42 94 bd
       0.054454293 -0.0449407 -0.08115785 -0.072392985
000120 74 d4 a4 bd e6 84 60 bd e6 18 b5 bd 26 43 ac 3b
       -0.08048335 -0.05481424 -0.088426396 0.005257028
000130 2f 56 93 3c b5 c3 35 bd 0f 62 65 bd fa 62 cf bd
       0.017985431 -0.044376094 -0.05600172 -0.101263
000140 21 23 c1 bd 7c ee 26 3d 22 08 04 3c 63 37 52 3d
       -0.094305284 0.04075478 0.00805858 0.051322352
000150 be f5 56 bd 4c 64 ab bd fe fb 1f bd cc f7 d3 3c
       -0.05248045 -0.083687395 -0.039058678 0.025874995
000160 ad b7 11 3d fa cd f8 3c 4f a0 50 3a bd 42 3e bd
       0.035575558 0.030371655 0.0007958458 -0.046450365
000170 1b df 23 be f5 f1 df 3c de 9f af bd 85 6e 0c 3c
       -0.16003077 0.027337054 -0.08575414 0.008571272
000180 14 36 87 bd 4a c8 a6 bd 8a 3f 55 bd 64 3b 66 bd
       -0.066021115 -0.08143671 -0.05206255 -0.056208983
000190 82 a6 6b 3d 32 44 99 bd bf 93 29 bd 9e 74 ca bd
       0.05753184 -0.0748371 -0.041400667 -0.09885524
0001a0 6c f6 87 3c 69 44 a5 bd b7 77 ae bd 54 7c 24 bd
       0.016596995 -0.08069689 -0.085189275 -0.04015763
0001b0 bc 20 24 bd b3 76 5c bc 40 be 8b 3c 38 49 1b ba
       -0.04007028 -0.0134560345 0.017058492 -0.0005923691
0001c0 8a 1d 92 bd d6 09 69 3c 42 ba ed bd 88 ec e2 3d
       -0.071345404 0.0142235365 -0.116077915 0.11080271
0001d0 27 9f b0 3d d3 a1 79 3c 7d 53 be bd 2a df 43 3d
       0.08624106 0.015236336 -0.09293268 0.047820248
0001e0 76 5b e1 3d 8f 63 99 bd a9 44 3f 3d cd 75 05 3d
       0.11003773 -0.074896924 0.04669634 0.032583047
0001f0 ed 2d 3f bd a9 8e a1 bd 12 cc 95 bd bf 8c be 3d
       -0.046674658 -0.078885384 -0.07314314 0.09304189
000200 4d ab 97 bd 09 09 37 3d 5f c1 86 bd b8 01 14 3d
       -0.0740572 0.04468635 -0.06579851 0.03613445
000210 45 11 34 bd 9e e5 86 bd 8c 36 3e bd 1e ac 9e 3d
       -0.043961782 -0.06586765 -0.04643874 0.077476725
000220 67 fd 90 bd 55 26 cc bd e9 2f c0 bd f4 f5 be bd
       -0.07079583 -0.09968249 -0.09384138 -0.093242556
000230 9b ba 3f 3d 91 1a c5 bd f0 3a 8c bd 75 43 68 bd
       0.04680882 -0.09624208 -0.06847179 -0.056704957
000240 4f 03 38 3d d1 af 4b 3d 49 26 bc bb 46 6f b1 bd
       0.04492503 0.04972822 -0.0057418686 -0.08663802
000250 64 55 da bd 96 6c 89 bd 71 06 81 bd a0 6b 8a bb
       -0.10660818 -0.06710164 -0.06300057 -0.0042242557
000260 d6 a1 60 bd 67 90 a0 3a 69 08 95 bd 19 62 aa 3b
       -0.05484184 0.0012250067 -0.07276995 0.0051996824
000270 e3 0a 00 3d 28 f3 aa bc df f5 86 bd f1 bc 14 bd
       0.031260382 -0.020867899 -0.06589865 -0.036313
000280 25 0f 20 bb f1 ed 8b bd 36 e8 8d 3c 86 91 3c 3d
       -0.002442309 -0.06832493 0.01732264 0.04603722
000290 d8 c5 34 3c 2b 97 a2 bd a5 8f 52 be dd 23 b8 bd
       0.011033498 -0.07938989 -0.20562609 -0.089912154
0002a0 a3 dc c6 bd 9a ed d2 bc 6c ed 36 3d 53 b3 a1 bd
       -0.09710052 -0.025748063 0.044660017 -0.078955315
0002b0 e6 e0 14 bd 62 41 d1 3c 21 4d b3 3c 45 a8 7e bd
       -0.036347292 0.025543872 0.021887364 -0.062172193
0002c0 55 2f 5b 3d 35 0a a6 bd 13 29 d8 bd 17 38 ff 3c
       0.053511936 -0.081074156 -0.10554709 0.031154675
0002d0 ee 5a 86 bb aa d7 aa bd e6 74 8b 3c 8b dd 64 3b
       -0.004100195 -0.08341916 0.017023515 0.003492209
0002e0 9d 47 6a bd 7a 21 11 3d 88 83 b5 bd ee c5 1e bb
       -0.057197202 0.035432316 -0.08862978 -0.0024226862
0002f0 5e f9 9b bd d5 bf ae bd 11 db 91 bd 62 f9 8e bd
       -0.076159224 -0.08532683 -0.07121862 -0.0698116
000300 26 22 91 bd 2a c1 10 bd f2 de 10 be be 17 88 bd
       -0.070865914 -0.035340466 -0.14147547 -0.066451535
000310 77 aa a4 bd b7 88 b7 bd 56 62 07 3b 1c f9 94 bd
       -0.08040326 -0.08961623 0.0020657978 -0.07274076
000320 b8 cd 7f bd 03 94 dc 3c 12 1a 77 bd 72 bd 3c bd
       -0.062452048 0.026926046 -0.060327597 -0.046079107
000330 a0 78 d4 bc ff 8c 57 bd 89 56 6b bd 93 0c 1f 3d
       -0.025936425 -0.0526247 -0.057455573 0.03883035
000340 b9 fa 02 3d 7b 2e 99 bd 8b ec 9d bd 0d cd 96 bd
       0.03197739 -0.074795686 -0.077111326 -0.07363329
000350 91 e7 81 3a 24 34 4c bd 08 a5 7d bd cc b6 22 be
       0.0009910931 -0.049854413 -0.061924964 -0.15890044
000360 c0 4c dc 3c 82 38 d8 3c fe 2f 28 3d df cd 47 bd
       0.026892066 0.026394133 0.041061394 -0.04878032
000370 d3 24 12 3d 5e 83 a8 bd 36 ec 65 bd 38 64 66 bc
       0.03567965 -0.08228181 -0.05613347 -0.01406198
000380 8f 05 2e 3d 94 f1 91 bc 67 59 45 bd bf b3 a3 bd
       0.04248577 -0.017815389 -0.048180964 -0.07993268
000390 bc 97 21 bd 83 a9 bc bd ac 26 83 b9 82 f0 08 3d
       -0.039451346 -0.09212019 -0.0002501508 0.03343249
0003a0 e4 4e 78 bd c9 b2 36 3d 72 95 76 bb 11 54 66 3d
       -0.06062211 0.044604097 -0.0037625697 0.056232516
0003b0 f2 a4 94 bd 61 6e 98 bd f3 c5 0a 3d 9c 82 7d bd
       -0.07258023 -0.07442928 0.033880185 -0.061892137
0003c0 34 0c cd bd 50 b1 76 bd e1 27 51 bd 4e c0 14 bb
       -0.10012093 -0.060227692 -0.051063422 -0.002269763
0003d0 9e d9 96 bd 2a f0 59 bd 0a ff 85 bd 20 75 a4 bd
       -0.07365726 -0.053207554 -0.065427855 -0.08030152
0003e0 d4 db 91 bd b3 02 be bd dd 5f af bd 6b a8 3c bd
       -0.07122007 -0.092778586 -0.08563206 -0.046059053
0003f0 d0 90 4e 3c c1 9d 84 bd 77 00 81 bd c2 c0 a0 bd
       0.012607768 -0.06475402 -0.06298917 -0.07849266
