benchmarks/Train/Train_CartPole-v1_NoisyDQN_20230318-162139/models/checkpoint.pt (torch, 804667 bytes, 14 tensors)

fc1.weight f4 [256, 4]
0.31201035 -0.196022 -0.17419061 0.24866374 -0.5590396 0.37332866 0.1370022 0.2968041
0.101349205 -0.04781611 0.062009294 0.0198549 0.18261409 -0.1948505 -0.03645438 -0.045013666
0.07247198 -0.0019974113 0.43708336 0.15559506 -0.10257531 -0.37585256 -0.18300235 -0.14644027
-0.3264865 0.08889939 0.6144753 0.3472938 -0.58546096 0.386154 0.4540977 0.53884566
0.43934813 -0.4366868 -0.6154429 -0.25078097 0.37125808 -0.1292034 0.17870626 -0.19779982
0.53003365 -0.1881565 0.28616762 -0.011055983 -0.36901438 0.33927974 -0.22145522 0.024212062
0.006962946 -0.06852181 -0.76561135 -0.36796176 0.20426749 -0.05043157 0.7348922 0.43174824
-0.23702566 -0.32412878 0.5643745 0.22098407 -0.4584656 0.37780726 0.54625 0.48540917
-0.27885708 -0.08087991 -0.011108802 0.07160565 -0.31829515 -0.31718162 0.2007114 -0.124847345
0.2833627 0.058842223 0.16327505 0.1191373 0.21055318 0.2599591 -0.5297721 0.2561557
-0.2333549 -0.33126208 -0.053812735 -0.088460214 0.3483706 -0.28645825 -0.5575766 0.35962325
-0.19220361 0.31960782 0.26410347 -0.34734 -0.010703382 0.15196027 -0.2322188 -0.18948539
0.18982781 0.061959535 -0.3600317 -0.16789591 0.42632404 -0.03712336 0.46510115 0.24072786
-0.5634957 -0.39963305 0.7715543 0.0982785 0.1852513 0.11126848 0.4965602 0.4898699
0.5412766 -0.3047723 -0.04460287 0.35871723 0.31611705 0.29354313 -0.4483203 -0.37799358
-0.37961793 0.048342485 0.48510844 -0.30276474 0.4327517 -0.27151448 -0.5104907 -0.013150289
0.22956446 0.42099985 -0.292752 0.17887451 0.2132007 0.27846628 0.6192533 0.44912007
0.35975724 0.0871035 -0.59115833 -0.5155697 -0.15934184 -0.02260791 -0.39346075 0.16835962
0.1878961 -0.0977384 0.13305405 0.16804433 0.30165535 0.38602445 -0.19545275 0.46286124
0.07618206 0.0075188386 -0.73392326 -0.4478938 -0.22466588 -0.2105314 0.3021235 -0.15436713
-0.5820326 0.18541846 0.52505183 0.46610948 -0.21788287 0.029181568 -0.37228283 -0.17310932
-0.5707397 -0.16896018 0.055830546 0.23911265 -0.07333581 0.16333807 0.82023937 0.5706091
0.14687032 -0.032244507 -0.13406473 0.48180234 -0.020491304 -0.03870105 -0.470101 -0.03898025
-0.43638533 0.44580656 -0.33621976 -0.31954473 0.028042743 -0.25847808 0.07140144 -0.20565118
-0.12472758 0.011544488 0.16373613 -0.42048687 0.18675368 0.35542718 0.5256719 -0.38231328
0.12109494 -0.36971343 0.4268751 -0.19395316 0.359901 0.0742559 0.0076359687 0.03389082
0.01868428 0.22992851 0.3194135 0.25275287 -0.45412403 0.40815488 0.46317178 0.42287424
0.2746324 -0.34068784 0.0032310388 0.47997504 -0.4510235 0.5254261 -0.2865788 -0.36036405
0.30541936 -0.33342233 -0.22163995 0.34445918 0.28365338 0.53724563 0.043040786 -0.35704654
0.5262255 -0.10546959 -0.30169478 0.12077806 -0.43403298 0.38130075 0.41478676 -0.37494633
-0.41152486 -0.04883925 0.14133498 -0.009343894 -0.16977431 0.01378267 -0.5055671 -0.3116945
-0.17156915 0.48390403 0.3352781 -0.25339955 0.10995567 0.24210703 -0.10812459 -0.30112052
00000000: d2bf 9f3e feb9 48be 065f 32be b5a1 7e3e
00000010: 381d 0fbf ef24 bf3e 4e4a 0c3e b5f6 973e
00000020: 2c90 cf3d d3da 43bd 75fd 7d3d bea6 a23c
00000030: 30ff 3a3e e486 47be 3051 15bd 4060 38bd
00000040: 306c 943d 00e7 02bb 64c9 df3e 5054 1f3e
00000050: 0113 d2bd bf6f c0be f864 3bbe 70f4 15be
00000060: 3d29 a7be e210 b63d 414e 1d3f 7ed0 b13e
00000070: c5e0 15bf fab5 c53e 7e7f e83e caf1 093f
00000080: 3df2 e03e 6a95 dfbe aa8d 1dbf 5d66 80be
00000090: 8a15 be3e e54d 04be c6fe 363e 098c 4abe
000000a0: 49b0 073f 19ac 40be 9084 923e 2724 35bc
000000b0: 74ef bcbe 13b6 ad3e 28c5 62be 6058 c63c
000000c0: 6d29 e43b 2a55 8cbd 1bff 43bf 7c65 bcbe
000000d0: 7f2b 513e 5591 4ebd e521 3c3f 1b0e dd3e
000000e0: dbb6 72be 35f4 a5be d97a 103f a649 623e
000000f0: 01bc eabe f46f c13e 0ad7 0b3f 8d87 f83e
00000100: 5bc6 8ebe 5ea4 a5bd b101 36bc fca5 923d
00000110: 95f7 a2be a165 a2be 4a87 4d3e f7af ffbd
00000120: ea14 913e 8b04 713d 9331 273e 42fe f33d
00000130: 419b 573e 5c19 853e 259f 07bf d726 833e
00000140: 96f4 6ebe 2f9b a9be be6a 5cbd a12a b5bd
00000150: a25d b23e a8aa 92be 57bd 0ebf 8a20 b83e
00000160: 06d1 44be a3a3 a33e 9238 873e 8cd6 b1be
00000170: 3d5d 2fbc 799b 1b3e c4ca 6dbe 7508 42be
00000180: 3962 423e 48c9 7d3d 1356 b8be e8ec 2bbe
00000190: 2547 da3e aa0e 18bd bd21 ee3e 5d81 763e
000001a0: 4141 10bf b49c ccbe 9584 453f 3d46 c93d
000001b0: 84b2 3d3e bbe0 e33d 233d fe3e 3ad0 fa3e
000001c0: 1a91 0a3f 1d0b 9cbe 80b1 36bd c9a9 b73e
000001d0: 18da a13e 494b 963e 3d8a e5be 6088 c1be
000001e0: 485d c2be c502 463d 2260 f83e fb03 9bbe
000001f0: a191 dd3e f203 8bbe 85af 02bf 4f74 57bc
00000200: f212 6b3e 4b8d d73e 97e3 95be e12a 373e
00000210: 4951 5a3e 2293 8e3e 6287 1e3f 11f3 e53e
00000220: 1a32 b83e 5263 b23d 2756 17bf 60fc 03bf
00000230: 822a 23be 3934 b9bc b073 c9be 7766 2c3e
00000240: d667 403e 122b c8bd 523f 083e d013 2c3e
00000250: 9272 9a3e ffa4 c53e c424 48be 26fc ec3e
00000260: 5705 9c3d 9760 f63b 65e2 3bbf 5652 e5be
00000270: d00e 66be 8b95 57be eeaf 9a3e 6b12 1ebe
00000280: 1700 15bf 56de 3d3e cc69 063f e7a5 ee3e
00000290: b01c 5fbe 2f0e ef3c db9b bebe 9243 31be
000002a0: ff1b 12bf e603 2dbe 92ae 643d f2d9 743e
000002b0: 1631 96bd 1842 273e 35fb 513f 7013 123f
000002c0: 2c65 163e d112 04bd 4448 09be ccae f63e
000002d0: 61dd a7bc fe84 1ebd 14b1 f0be c1a9 1fbd
000002e0: e66d dfbe c240 e43e ff24 acbe 5e9b a3be
000002f0: e5b9 e53c 3d57 84be eb3a 923d 3996 52be
00000300: 2c71 ffbd 1825 3d3c 72aa 273e 0e4a d7be
00000310: 5b3c 3f3e 8dfa b53e 6f92 063f 91be c3be
00000320: a000 f83d 144b bdbe 608f da3e a89b 46be
00000330: f244 b83e 7a13 983d 2637 fa3b 1ad1 0a3d
00000340: c60f 993c 6172 6b3e 2b8a a33e d368 813e
00000350: f282 e8be adf9 d03e da24 ed3e f982 d83e
00000360: 9e9c 8c3e a36e aebe d6bf 533b 4abf f53e
00000370: 8dec e6be 5382 063f 75ba 92be a381 b8be
00000380: ed5f 9c3e 55b6 aabe 95f5 62be f45c b03e
00000390: 043b 913e ee88 093f 894b 303d cece b6be
000003a0: b7b6 063f 7100 d8bd bd77 9abe 7d5a f73d
000003b0: 9239 debe da39 c33e ee5e d43e f7f8 bfbe
000003c0: 63b3 d2be aa0b 48bd 1eba 103e 2217 19bc
000003d0: 51d9 2dbe b5d0 613c d86c 01bf 6c96 9fbe
000003e0: d3af 2fbe 45c2 f73e 92a9 ab3e 96bd 81be
000003f0: 7030 e13d e8ea 773e 6d70 ddbd 782c 9abe

fc1.bias f4 [256]
0.11541675 0.0821903 0.15386961 -0.27984387 -0.48974425 0.11991332 -0.16233443 -0.16367267
0.46093926 0.18987015 0.30555212 -0.056228623 -0.23747957 0.13947007 -0.2762742 0.059302475
-0.3916341 0.4643097 -0.3181678 0.5038371 0.44698817 0.4467956 0.38608497 0.23011294
0.12204029 0.01110077 -0.14145888 -0.33458525 0.5198899 0.13679537 0.30229962 0.19174673
0.2396978 -0.24177705 -0.31854302 0.46226385 0.26283148 0.34030646 -0.3505586 0.11995059
-0.28094628 0.022666777 0.013004114 -0.3001754 -0.4247887 0.17484109 0.5512887 0.5199167
-0.25352713 -0.024889013 -0.4181217 -0.33042708 -0.09902131 0.5533571 -0.10601289 0.10615212
0.530992 0.17820102 0.4781959 0.4151727 0.5380731 0.24994515 -0.33087727 -0.40147772
-0.16233961 0.4840235 0.37854788 0.21462844 -0.3380192 -0.36825234 0.47908217 -0.002227412
-0.45288092 0.019855848 -0.02275681 0.12964317 0.28006032 0.27973244 -0.26386878 -0.017231995
-0.13386425 0.41669512 0.31414816 0.3538692 0.53826326 0.31637612 -0.40000278 0.22933058
-0.28682348 0.16138865 0.04193901 0.5703345 -0.29682565 -0.42723078 -0.015156518 0.17191127
0.43650934 0.47690386 0.46385118 0.27209696 -0.09396049 -0.044113893 -0.21069385 0.15739673
-0.30761194 0.31255943 0.433066 0.50903314 -0.3952243 0.47859675 -0.26296052 -0.052578527
0.524019 0.35706455 -0.056343358 0.36830658 -0.4256258 0.4701985 0.5560711 0.07614059
0.15652892 -0.10498272 -0.22720699 -0.23710898 0.039057963 -0.2392127 -0.24471784 0.12076848
-0.29827392 -0.2599056 0.05375961 -0.2225191 0.5337767 -0.09489973 -0.23279086 -0.037149213
-0.279075 0.3358969 0.49703497 -0.1560021 -0.10276663 0.54611665 -0.36169708 0.20963934
-0.40738255 -0.32985082 0.046235587 -0.19988087 0.35789153 -0.09527982 -0.013807175 -0.22145629
0.29302716 0.52117485 -0.09604985 -0.21877396 -0.43903792 0.5632997 0.28848276 0.34734544
0.11974817 0.3189526 0.26118475 0.34708822 0.38624352 0.14449443 0.50177526 0.39114544
-0.02334748 -0.22332358 0.12058716 0.4739832 0.41728404 -0.12293612 -0.07183634 0.26787606
0.23904347 0.5538093 0.31677818 0.2607253 0.21446025 -0.4657953 -0.14348504 0.11563263
-0.34783125 -0.38634884 0.42456052 0.24938552 -0.3841225 0.1157806 0.39448333 0.35541177
0.53408504 -0.11689512 0.33600676 -0.40559113 -0.011414959 -0.17223577 -0.090980776 0.3692144
0.37362376 -0.19372863 -0.0639185 -0.06880265 -0.16272667 -0.22432213 0.43410397 0.4146737
0.49694958 -0.30975407 0.44314805 -0.14755742 -0.08383311 -0.07851649 0.028925713 -0.17245848
0.15475358 -0.25671026 0.2863023 -0.32720774 -0.14874364 -0.3045241 0.4140004 0.4492043
-0.3805085 -0.17905037 0.5224424 0.21636054 0.4120159 -0.32309258 0.29816186 0.3880159
-0.07829738 0.12050775 0.4410425 0.26613098 0.22839554 0.11402799 -0.1574186 -0.23673189
0.6194387 0.094784066 0.518219 0.5102846 -0.21553038 0.04927851 -0.09482726 0.046288494
0.38550368 0.3459502 -0.1355342 -0.21426275 -0.30981323 -0.3442211 0.43130818 -0.20872349
00000000: 9e5f ec3d 6353 a83d ff8f 1d3e b247 8fbe
00000010: c2bf fabe 1d95 f53d ff3a 26be cf99 27be
00000020: 3b00 ec3e 526d 423e 5471 9c3e fc4f 66bd
00000030: d82d 73be 3ed1 0e3e d073 8dbe 27e7 723d
00000040: 4484 c8be 00ba ed3e e4e6 a2be 78fb 003f
00000050: a2db e43e 65c2 e43e eeac c53e baa2 6b3e
00000060: 42f0 f93d 01e0 353c 99da 10be c24e abbe
00000070: 8117 053f 1614 0c3e 04c7 9a3e 4159 443e
00000080: 5773 753e 6794 77be 1218 a3be d9ad ec3e
00000090: d991 863e a63c ae3e 6b7c b3be a8a8 f53d
000000a0: 31d8 8fbe adaf b93c 350f 553c 97b0 99be
000000b0: e87d d9be 8b09 333e 4221 0d3f 4319 053f
000000c0: 4fce 81be 0be4 cbbc 0c14 d6be bd2d a9be
000000d0: afcb cabd d0a8 0d3f 491d d9bd 4866 d93d
000000e0: 17ef 073f 547a 363e 18d6 f43e 8491 d43e
000000f0: 29bf 093f 9ff1 7f3e bf68 a9be 7d8e cdbe
00000100: 5b3c 26be eed1 f73e 07d1 c13e 8fc7 5b3e
00000110: da10 adbe 928b bcbe 424a f53e c6f9 11bb
00000120: 02e0 e7be bba8 a23c 7d6c babc 2ec1 043e
00000130: 1164 8f3e 1739 8f3e cf19 87be 1d2a 8dbc
00000140: b613 09be 1059 d53e 07d8 a03e 582e b53e
00000150: 9fcb 093f 0dfc a13e 2acd ccbe a3d5 6a3e
00000160: 87da 92be 1143 253e 3dc8 2b3d 7101 123f
00000170: 88f9 97be febd dabe 0b53 78bc 8209 303e
00000180: 277e df3e be2c f43e e77d ed3e 4b50 8b3e
00000190: 5b6e c0bd c5b0 34bd 21c0 57be 9c2c 213e
000001a0: 507f 9dbe ca07 a03e d4ba dd3e ff4f 023f
000001b0: d75a cabe a20a f53e c3a2 86be 955c 57bd
000001c0: 1c26 063f 2ad1 b63e 4bc8 66bd ae92 bc3e
000001d0: a0eb d9be dcbd f03e ad5a 0e3f 99ef 9b3d
000001e0: 1e49 203e 2e01 d7bd f3a8 68be b2cc 72be
000001f0: 3efb 1f3d 2df4 74be 5097 7abe 7755 f73d
00000200: 5cb7 98be 5912 85be 0933 5c3d 0cdc 63be
00000210: 97a5 083f ca5a c2bd ba60 6ebe c629 18bd
00000220: ebe2 8ebe aefa ab3e 5e7b fe3e 04bf 1fbe
00000230: 5077 d2bd 4dce 0b3f 5c30 b9be b2ab 563e
00000240: 7294 d0be 35e2 a8be 8761 3d3d 92ad 4cbe
00000250: 8f3d b73e 1122 c3bd 7d37 62bc 70c5 62be
00000260: a807 963e b76b 053f c9b5 c4bd 4806 60be
00000270: 94c9 e0be 6934 103f 03b4 933e 43d7 b13e
00000280: 873e f53d c14d a33e 02ba 853e 8cb5 b13e
00000290: b6c1 c53e 59f6 133e 5874 003f 3744 c83e
000002a0: 3743 bfbc f0ae 64be 67f6 f63d edad f23e
000002b0: 41a6 d53e efc5 fbbd ee1e 93bd 0d27 893e
000002c0: d0c7 743e 72c6 0d3f c030 a23e c97d 853e
000002d0: 789b 5b3e b97c eebe beed 12be cdd0 ec3d
000002e0: f016 b2be 84cf c5be ff5f d93e eb5e 7f3e
000002f0: b4ab c4be 611e ed3d b8f9 c93e 88f8 b53e
00000300: ccb9 083f b566 efbd 1409 ac3e a4a9 cfbe
00000310: cf05 3bbc 935e 30be 2154 babd ab09 bd3e
00000320: 9d4b bf3e cc60 46be b4e7 82bd 67e8 8cbd
00000330: d2a1 26be b3b4 65be e042 de3e 1c50 d43e
00000340: 2d70 fe3e 1698 9ebe 4de4 e23e 4b19 17be
00000350: b2b0 abbd 41cd a0bd 9ef5 ec3c f598 30be
00000360: b977 1e3e 876f 83be 3796 923e c687 a7be
00000370: 4150 18be 95ea 9bbe dcf7 d33e 1bfe e53e
00000380: 03d2 c2be fb58 37be c9be 053f 9e8d 5d3e
00000390: bff3 d23e 646c a5be aca8 983e 05aa c63e
000003a0: 605a a0bd c4cc f63d 53d0 e13e 5242 883e
000003b0: 85e0 693e 8287 e93d 5732 21be d869 72be
000003c0: 8993 1e3f 261e c23d 00aa 043f 03a2 023f
000003d0: ffb3 5cbe 43d8 493d cb34 c2bd 0199 3d3d
000003e0: bd60 c53e 6220 b13e 7ac9 0abe b267 5bbe
000003f0: d79f 9ebe bf3d b0be 6dd4 dc3e 9cbb 55be

noisy_fc2.weight_mu f4 [256, 256]
-0.021990392 0.069479756 0.019383917 -0.0036567375 0.03243357 -0.003796888 0.049337782 0.044985317
-0.0124924835 0.004365467 0.04175705 0.05176169 0.09585229 0.0049121226 -0.012214746 0.09630661
-0.060405765 0.030632874 0.059766375 -0.029441772 0.004075783 -0.009870587 0.030048735 0.012915596
-0.007309305 0.016920133 -0.021375831 -0.056379113 -0.020998772 0.020520281 0.024875177 -0.095923394
-0.0015354613 -0.0013155051 0.0062667443 0.012472906 0.006141449 0.03785721 0.043381315 -0.0296162
-0.09712177 -0.00013022734 -0.013507629 0.039198272 -0.07813684 0.03613771 -0.048732497 -0.045640696
-0.00037200883 -0.069633186 -0.018226497 0.010961862 -0.0931355 0.07052487 -0.054044027 0.055006832
0.021267097 -0.018387139 -0.057711232 0.032504443 -0.008645924 0.032575868 -0.062259134 -0.03215926
-0.11236054 -0.038212847 -0.025273636 -0.02341646 -0.009297568 0.010587126 0.054479107 -0.041637134
-0.038369242 -0.04719571 0.05473349 0.01699245 -0.060996253 0.047452677 0.062132668 0.08095654
0.041045677 0.042408556 -0.0028135583 0.03891154 0.07888203 -0.019696305 0.03705034 0.04975842
0.050566774 -0.01693436 -0.0492943 -0.02725648 -0.095096216 -0.11951954 0.08737968 0.058314905
0.07214336 0.016911875 0.018206665 0.055699788 0.011628683 0.0057463907 -0.04186463 0.011630451
-0.017334625 -0.0065887882 -0.031737834 0.055793896 0.049477395 -0.013377796 0.066283405 -0.011083954
-0.0084057795 0.061987996 0.014253551 0.032407884 -0.065535575 -0.022604028 -0.0019430459 0.013312875
-0.027002474 -0.053332943 -0.079668626 -0.045462806 -0.09737704 0.08709208 0.124719985 -0.06717279
-0.07472419 0.014425683 0.032552175 0.02988218 -0.048533652 -0.07158863 -0.08093605 -0.10083868
-0.051351525 0.04428672 0.032320675 -0.030521013 0.04649852 -0.036416605 0.014366254 0.011293108
0.01000198 -0.059570577 -0.03267293 -0.062479053 0.0167977 0.052956756 0.023578508 -0.033648964
0.067847505 0.020221703 0.10475164 -0.035261504 -0.053804774 -0.017686369 0.030286726 -0.05100397
0.05880651 0.009427416 0.040938627 -0.060507987 -0.045204632 0.042979103 -0.020242615 0.0418078
0.0027235849 -0.019320965 -0.011340769 0.04772841 0.049837016 -0.00056199083 -0.015462861 0.0018192178
0.04710945 -0.051865548 -0.034580395 -0.045326512 0.0076202354 -0.02117427 0.04204532 0.056886084
-0.05343958 -0.06042612 0.019894198 0.009703763 -0.031733427 -0.054386754 -0.0031997515 0.007111423
0.057551887 -0.055504467 0.029435838 -0.05052188 0.008109827 -0.11120194 -0.041993342 0.00054263783
-0.0053471257 0.043348644 0.083604544 -0.06771821 -0.05731125 -0.122600324 -0.030692743 -0.026719278
-0.014104581 0.01392042 0.011070294 0.0026194963 -0.03391067 0.03135705 0.011643799 -0.037313685
0.005505871 -0.121713065 0.0029720468 0.0003461095 -0.021936327 -0.037302326 0.0032004223 -0.046522994
0.0019830982 0.025703333 -0.016881084 0.088137195 0.05198786 -0.018651009 -0.023414724 0.007998832
-0.07655005 0.0481345 0.06583022 0.036194753 0.018429372 0.0879558 -0.052495915 -0.08689005
-0.0021056018 -0.0025284588 -0.051156294 0.011017869 -0.028868072 0.0753046 0.0018212008 0.04240194
0.041139968 -0.022864845 0.11714339 -0.019351285 -0.029090751 -0.14492923 -0.002824525 0.046990465
00000000: 3225 b4bc 674b 8e3d 05cb 9e3c e0a5 6fbb
00000010: 10d9 043d 36d5 78bb 6a16 4a3d 8642 383d
00000020: 46ad 4cbc 310c 8f3b 7109 2b3d 1104 543d
00000030: 354e c43d dff5 a03b 5c20 48bc 663c c53d
00000040: 096c 77bd cbf1 fa3c 96cd 743d df2f f1bc
00000050: 258e 853b 3eb8 21bc c428 f63c f09b 533c
00000060: e582 efbb 179c 8a3c 5e1c afbc c9ed 66bd
00000070: 9e05 acbc 261a a83c 07c7 cb3c 7c73 c4bd
00000080: 8841 c9ba 076d acba 4359 cd3b 295b 4c3c
00000090: 353e c93b 2910 1b3d 9bb0 313d ac9d f2bc
000000a0: c7e7 c6bd a38d 08b9 1a4f 5dbc 5e8e 203d
000000b0: 3506 a0bd 2305 143d ba9b 47bd bdf1 3abd
000000c0: 2e0a c3b9 d89b 8ebd bc4f 95bc 6299 333c
000000d0: d3bd bebd 586f 903d 455d 5dbd d84e 613d
000000e0: 5638 ae3c a0a0 96bc 9d62 6cbd 6123 053d
000000f0: a2a7 0dbc 466e 053d 6f03 7fbd 6eb9 03bd
00000100: 481d e6bd 1385 1cbd a80a cfbc e0d3 bfbc
00000110: d454 18bc a075 2d3c 7c25 5f3d b38b 2abd
00000120: 1129 1dbd 4a50 41bd 3930 603d c033 8b3c
00000130: 35d7 79bd bd5d 423d d37e 7e3d 8bcc a53d
00000140: 831f 283d 98b4 2d3d ad63 38bb b561 1f3d
00000150: e78c a13d 255a a1bc 19c2 173d 7ccf 4b3d
00000160: 1b1f 4f3d edb9 8abc d2e8 49bd fb48 dfbc
00000170: cec1 c2bd a9c6 f4bd 1ef4 b23d 9cdb 6e3d
00000180: e6bf 933d c68a 8a3c 2526 953c 7625 643d
00000190: 3b86 3e3c 384c bc3b 3f7a 2bbd a68d 3e3c
000001a0: 5801 8ebc c3e6 d7bb 88ff 01bd 2488 643d
000001b0: cfa8 4a3d 8b2e 5bbc 98bf 873d 7999 35bc
000001c0: 65b8 09bc 20e7 7d3d ba87 693c 21be 043d
000001d0: 8437 86bd 152c b9bc cdad feba 3f1e 5a3c
000001e0: 4b34 ddbc a573 5abd 4e29 a3bd 3537 3abd
000001f0: 9d6d c7bd 555d b23d 316d ff3d e391 89bd
00000200: ff08 99bd b359 6c3c 6e55 053d 79cb f43c
00000210: 39cb 46bd 0f9d 92bd cdc1 a5bd 8384 cebd
00000220: fa55 52bd fe65 353d af62 043d 3407 fabc
00000230: 3b75 3e3d 9429 15bd 7060 6b3c ba06 393c
00000240: 58df 233c 4700 74bd 0dd4 05bd 09ea 7fbd
00000250: 559b 893c 2fe9 583d b727 c13c 7fd3 09bd
00000260: a2f3 8a3d fca7 a53c 0788 d63d 5e6e 10bd
00000270: 6562 5cbd 01e3 90bc de1b f83c 8ae9 50bd
00000280: 18df 703d 7375 1a3c 43af 273d 39d7 77bd
00000290: 7e28 39bd db0a 303d d7d3 a5bc a83e 2b3d
000002a0: 2c7e 323b 0047 9ebc a2ce 39bc de7e 433d
000002b0: e621 4c3d 9152 13ba f157 7dbc d272 ee3a
000002c0: d7f5 403d f870 54bd 2ca4 0dbd 4ba8 39bd
000002d0: 2bb3 f93b aa75 adbc b737 2c3d 6201 693d
000002e0: 76e3 5abd 6181 77bd 28f9 a23c 88fc 1e3c
000002f0: e9fa 01bd a5c4 5ebd ecb2 51bb f106 e93b
00000300: 87bb 6b3d a758 63bd 6d23 f13c 08f0 4ebd
00000310: 14df 043c d8bd e3bd 3601 2cbd cf3f 0e3a
00000320: f136 afbb 598e 313d dc38 ab3d d8af 8abd
00000330: 34bf 6abd e115 fbbd 596f fbbc 63e2 dabc
00000340: e716 67bc 7912 643c 2e60 353c dbab 2b3b
00000350: eae5 0abd 4070 003d a2c5 3e3c 3cd6 18bd
00000360: 986a b43b b344 f9bd acc6 423b 0876 b539
00000370: d0b3 b3bc 53ca 18bd 2dbe 513b e58e 3ebd
00000380: def6 013b cc8f d23c 334a 8abc 4681 b43d
00000390: 39f1 543d 00ca 98bc 3cd0 bfbc 880d 033c
000003a0: 46c6 9cbd ae28 453d ffd1 863d f340 143d
000003b0: 32f9 963c 2c22 b43d f505 57bd 69f3 b1bd
000003c0: 23fe 09bb 80b4 25bb 4389 51bd 4b84 343c
000003d0: bc7c ecbc 4c39 9a3d 5cb5 ee3a a8ad 2d3d
000003e0: 6282 283d 0e4f bbbc e0e8 ef3d 9686 9ebc
000003f0: ba4f eebc 5468 14be ab1b 39bb 1379 403d

noisy_fc2.weight_sigma f4 [256, 256]
0.023651266 0.017880775 0.009574627 0.025 0.025 0.028751682 0.034113225 0.015671171
0.01941252 0.010805151 0.022318905 0.019619813 0.037227206 0.016712975 0.0220875 0.020121774
0.023615628 0.016803034 0.02990719 0.021104101 0.018538984 0.02986218 0.01950809 0.0321102
0.013896922 0.030020192 0.01604464 0.02419871 0.02325911 0.025896743 0.019078663 0.026394043
0.0330625 0.026918435 0.035266493 0.02058161 0.018900659 0.02308562 0.03201602 0.02999651
0.027429061 0.025490139 0.024692057 0.038528528 0.022736574 0.023934964 0.019990103 0.025894837
0.032478325 0.023072105 0.025 0.035125036 0.018866193 0.02035302 0.037959177 0.015971432
0.023622619 0.0045320205 0.0140912235 0.035689447 0.032719433 0.023573786 0.021292644 0.024799507
0.016468182 0.02370409 0.016178131 0.014349005 0.01775076 0.025 0.019450337 0.017669672
0.02669911 0.015310347 0.023951622 0.020100739 0.025946304 0.023091735 0.03217076 0.035394996
0.014626723 0.02493269 0.03383954 0.027566863 0.023324732 0.027765667 0.029447038 0.03848264
0.016079577 0.017628158 0.021242319 0.026627567 0.021158535 0.022992168 0.023978777 0.03936754
0.007599612 0.017612126 0.017790172 0.033960424 0.004294174 0.021062879 0.038029008 0.025418038
0.027928691 0.027111568 0.024041276 0.02964131 0.022748914 0.020956025 0.027391538 0.026236558
0.032660615 0.017067859 0.046696268 0.018136099 0.018178614 0.030984506 0.021141937 0.0068281475
0.014992209 0.020277282 0.018286278 0.029006083 0.017015278 0.029678533 0.039586652 0.026606182
0.020922787 0.0148603935 0.023801118 0.018080313 0.030306714 0.024168793 0.032552183 0.013710877
0.03840802 0.038748626 0.01551621 0.0293215 0.025531027 0.014690255 0.025 0.023701321
0.025 0.026629636 0.021593709 0.028220939 0.015738036 0.033436485 0.033804145 0.0208166
0.03453948 0.020754283 0.039319955 0.012440239 0.03868735 0.0063980226 0.017428046 0.027441619
0.02317953 0.021211555 0.03156547 0.013045696 0.006703846 0.035324387 0.019039197 0.026247025
0.025769308 0.025 0.030836945 0.03750205 0.026278157 0.008266491 0.007257248 0.014794333
0.017910982 0.017426662 0.025404591 0.03690782 0.04210592 0.025056204 0.0047446624 0.001947073
0.025 0.025254129 0.026305407 0.029727863 0.015073545 0.011779473 0.023431266 0.032451876
0.013444957 0.038015056 0.026261969 0.025 0.033827562 0.0075251074 0.028849486 0.008095384
0.022632228 0.028304879 0.035985526 0.013691425 0.023321778 0.024819922 0.019620871 0.035358984
0.03342512 0.02215883 0.019503387 0.010009943 0.02203682 0.042394046 0.016241807 0.029487532
0.034639005 0.018972082 0.013062995 0.033488546 0.020249953 0.034338966 0.017387178 0.018842475
0.023261283 0.018595647 0.023082154 0.028251035 0.022233363 0.019069094 0.029821306 0.029883295
0.025335044 0.018824562 0.037316967 0.023056919 0.026298055 0.032725994 0.025557688 0.028102813
0.03681303 0.023188056 0.028591357 0.028083583 0.0150662325 0.032333612 0.033514224 0.027381917
0.030330518 0.03185297 0.024851637 0.02473218 0.02936032 0.032726876 0.028856365 0.01952979
00000000: 4dc0 c13c b47a 923c e5de 1c3c cdcc cc3c
00000010: cdcc cc3c a688 eb3c 4fba 0b3d d460 803c
00000020: 0107 9f3c 1708 313c 23d6 b63c bbb9 a03c
00000030: 8e7b 183d a6e9 883c d8f0 b43c 6bd6 a43c
00000040: 9075 c13c 84a6 893c ecff f43c 82e2 ac3c
00000050: 11df 973c 88a1 f43c 6ecf 9f3c fc85 033d
00000060: eaaf 633c e8ec f53c 0d70 833c 603c c63c
00000070: e489 be3c 6825 d43c db4a 9c3c 5238 d83c
00000080: 8b6c 073d 0d84 dc3c 9973 103d c49a a83c
00000090: 8ed5 9a3c 0e1e bd3c 3b23 033d 3ebb f53c
000000a0: e9b2 e03c b2d0 d03c ff46 ca3c 17d0 1d3d
000000b0: 0d42 ba3c 4213 c43c 49c2 a33c 6921 d43c
000000c0: fe07 053d b601 bd3c cdcc cc3c 45df 0f3d
000000d0: 468d 9a3c 60bb a63c 157b 1b3d 85d6 823c
000000e0: 3984 c13c 5881 943b e0de 663c 192f 123d
000000f0: d004 063d d01d c13c e96d ae3c 5628 cb3c
00000100: 48e8 863c 142f c23c 0088 843c 1718 6b3c
00000110: 0b6a 913c cdcc cc3c 5056 9f3c fdbf 903c
00000120: 18b8 da3c 40d8 7a3c 3136 c43c 4eaa a43c
00000130: 588d d43c e12a bd3c 7dc5 033d 58fa 103d
00000140: eca4 6f3c a43f cc3c 549b 0a3d e7d3 e13c
00000150: 8213 bf3c d374 e33c ea3a f13c f99f 1d3d
00000160: 51b9 833c ed68 903c 5f04 ae3c 0e22 da3c
00000170: aa54 ad3c 125a bc3c 246f c43c dc3f 213d
00000180: 2b06 f93b 4e47 903c b2bc 913c 161a 0b3d
00000190: 24b6 8c3b 0f8c ac3c 4ec4 1b3d 7d39 d03c
000001a0: b6ca e43c 1419 de3c 36f2 c43c 55d2 f23c
000001b0: ee5b ba3c f8ab ab3c 3864 e03c 0dee d63c
000001c0: 23c7 053d e5d1 8b3c 9644 3f3d 2892 943c
000001d0: 51eb 943c 38d3 fd3c db31 ad3c a7be df3b
000001e0: e2a1 753c 8b1c a63c 1bcd 953c 2a9e ed3c
000001f0: a063 8b3c 6520 f33c 9d25 223d 35f5 d93c
00000200: 4466 ab3c 0279 733c 90fa c23c 2a1d 943c
00000210: c945 f83c a2fd c53c 7055 053d 96a3 603c
00000220: ba51 1d3d e1b6 1e3d b437 7e3c a433 f03c
00000230: 7226 d13c 65af 703c cdcc cc3c 4629 c23c
00000240: cdcc cc3c 6526 da3c 4ae5 b03c 992f e73c
00000250: 0eed 803c b2f4 083d 3776 0a3d 9387 aa3c
00000260: 4579 0d3d e304 aa3c f60d 213d 25d2 4b3c
00000270: a076 1e3d 81a6 d13b 43c5 8e3c 3fcd e03c
00000280: ffe2 bd3c dbc3 ad3c cb4a 013d 9dbd 553c
00000290: f0ab db3b 4eb0 103d 17f8 9b3c 0004 d73c
000002a0: 281a d33c cdcc cc3c c39d fc3c c09b 193d
000002b0: 4a45 d73c 2d70 073c 35ce ed3b ee63 723c
000002c0: 0dba 923c 5cc2 8e3c 4a1d d03c a72c 173d
000002d0: 4277 2c3d ab42 cd3c 1d79 9b3b ee34 ff3a
000002e0: cdcc cc3c bfe1 ce3c 707e d73c d987 f33c
000002f0: 08f7 763c b1fe 403c edf2 bf3c 42ec 043d
00000300: 3d48 5c3c adb5 1b3d 5723 d73c cdcc cc3c
00000310: c58e 0a3d 2d95 f63b c255 ec3c 80a2 043c
00000320: 3967 b93c a2df e73c 8f65 133d 0052 603c
00000330: 500d bf3c 2653 cb3c f3bb a03c 95d4 103d
00000340: c7e8 083d 6f86 b53c 91c5 9f3c be00 243c
00000350: 9086 b43c 61a5 2d3d 8a0d 853c d68f f13c
00000360: a1e1 0d3d 576b 9b3c 2c06 563c 492b 093d
00000370: 3be3 a53c 04a7 0c3d 8e6f 8e3c 895b 9a3c
00000380: 728e be3c e655 983c c916 bd3c b76e e73c
00000390: be22 b63c ca36 9c3c d04b f43c d0cd f43c
000003a0: 708b cf3c f835 9a3c add9 183d dde1 bc3c
000003b0: 056f d73c b10b 063d 5b5e d13c df37 e63c
000003c0: 42c9 163d e1f4 bd3c 6c38 ea3c 8b0f e63c
000003d0: 5cd8 763c 4070 043d 3646 093d 0b50 e03c
000003e0: b577 f83c 4378 023d a995 cb3c 249b ca3c
000003f0: 0e85 f03c 9e0c 063d 2f64 ec3c f0fc 9f3c

noisy_fc2.bias_mu f4 [256]
0.06504566 0.014257016 -0.0042960574 0.10794103 0.06913317 -0.009942063 -0.04352877 -0.0017074201
0.03815932 0.11104896 0.07041662 -0.03568095 0.051852714 0.019186422 0.017906524 0.08162298
0.11604405 0.008221966 0.06595656 0.059949137 -0.012092221 0.06935558 0.003694378 0.05876941
-0.009789447 0.05337401 0.09042489 0.098035805 0.098086424 0.093065165 0.08232107 -0.006598692
0.09874131 0.06418036 -0.0032053858 0.04805896 0.033558067 0.0378736 0.00033977441 0.009846903
0.07395275 0.008601028 -0.038516715 0.08295529 0.054025203 0.02850402 0.044906802 0.044149097
0.07648006 0.07347733 -0.016402205 -0.028894303 0.036904693 0.03534255 -0.05031623 -0.04098827
-0.00067671825 0.056261588 0.001373413 -0.033407733 0.03313665 -0.049712036 0.041898865 -4.841651e-05
-0.016306909 -0.029728293 0.02063216 0.058755472 0.014768963 0.09237266 -0.010374799 0.021259096
0.037169132 0.0022381747 -0.010160578 -0.0131071145 0.04302587 0.01434685 0.07639608 0.06040963
-0.0642532 0.029276244 -0.037728976 0.010579088 0.05734324 -0.0018979909 -0.017011192 -0.0036321664
0.008440314 0.003964976 0.08288511 -0.030332716 0.086225554 0.073244035 0.097538106 0.029995922
-0.042838987 0.0059246137 0.095957644 0.070740834 0.005838058 0.03179618 0.0027544803 -0.0014421534
0.001016209 0.103501946 0.047856744 0.013670015 -0.03315351 -0.04308641 0.03544551 -0.01748557
-0.020360783 0.11871383 0.020934189 0.102656916 0.010724457 0.006155759 0.009009493 0.06486426
0.10386496 -0.020642916 0.058424294 -0.046857595 -0.010928039 0.0420395 -0.0078941565 -0.025020797
-0.011395358 0.041643526 0.013623092 0.026544267 0.079330206 0.08257191 0.10831205 0.047361348
0.020551294 -0.014165164 -0.012086058 0.051995486 0.04939539 0.047947396 -0.010877969 0.061944366
0.054509897 -0.019105997 0.11003149 0.046147782 -0.011591317 0.0758065 -0.0020737278 0.020942999
0.045527127 0.015409063 0.03135746 0.026232088 0.05796277 0.047459453 -0.01060339 0.040951636
-0.020180468 0.09316564 0.040327083 0.029822534 0.052187048 0.022536365 0.024978299 0.04623255
0.108188994 -0.037404016 0.044801407 0.029678479 0.12237038 0.021442413 0.018934464 0.09871411
-0.018966313 0.058361795 0.0308153 -0.048152097 0.0069368756 0.023352439 0.030458014 0.11173641
0.079761274 -0.0135624595 -0.011388274 -0.041941326 0.032247953 0.0918571 -0.008368373 0.061688937
0.05945023 0.01890657 0.001353498 0.021879029 0.008463498 0.113413356 0.0427823 0.07572463
0.034552827 0.035100948 0.034613922 0.03435955 -0.009040459 0.026340893 0.06627578 0.047932327
-0.036321733 -0.031757284 0.0020356635 -0.0425456 0.095441744 0.10829924 0.037077267 -0.019996554
0.0704908 -0.010684063 0.11189499 -0.0019198025 0.040963903 0.0057816748 0.016570628 0.06304513
-0.009831717 -0.003815611 -0.0066179885 0.01098445 0.06468195 -0.010592558 0.11384104 0.0346898
0.08819098 0.053926595 0.03221245 0.05692898 -0.022188447 0.10675122 0.043973163 0.031804632
0.013434086 0.0027582827 0.06918305 0.05085375 -0.04220164 0.058327086 0.04548118 -0.02778686
0.061925676 0.0416342 0.0034570247 0.039710812 0.02244133 0.013023763 -0.071155764 0.04141797
00000000: a936 853d 4296 693c f1c5 8cbb 3010 dd3d
00000010: b195 8d3d 09e4 22bc 394b 32bd 83cb dfba
00000020: f24c 1c3d a36d e33d 9736 903d 3026 12bd
00000030: 8363 543d d82c 9d3c b4b0 923c f329 a73d
00000040: 81a8 ed3d 6db5 063c 3c14 873d 3a8d 753d
00000050: 731e 46bc 4c0a 8e3d 611d 723b 31b8 703d
00000060: eb63 20bc b59e 5a3d af30 b93d ffc6 c83d
00000070: 89e1 c83d f398 be3d f397 a83d d739 d8bb
00000080: e238 ca3d fe70 833d 7311 52bb 79d9 443d
00000090: 2f74 093d 5921 1b3d c023 b239 e854 213c
000000a0: 8a74 973d 53eb 0c3c b4c3 1dbd 77e4 a93d
000000b0: 8849 5d3d 4381 e93c 32f0 373d afd5 343d
000000c0: 94a1 9c3d 487b 963d eb5d 86bc bfb3 ecbc
000000d0: 6029 173d 5ac3 103d 6418 4ebd 51e3 27bd
000000e0: cb65 31ba 8d72 663d 1804 b43a 8cd6 08bd
000000f0: 4cba 073d d99e 4bbd 259e 2b3d d512 4bb8
00000100: 1196 85bc c088 f3bc c704 a93c 94a9 703d
00000110: 85f9 713c e12d bd3d 10fb 29bc 8e27 ae3c
00000120: a93e 183d 57ae 123b 8e78 26bc 39bf 56bc
00000130: e53b 303d 0d0f 6b3c 8c75 9c3d 1770 773d
00000140: 2f97 83bd bcd4 ef3c b389 1abd e953 2d3c
00000150: bfe0 6a3d 02c6 f8ba 0e5b 8bbc a409 6ebb
00000160: 3e49 0a3c a1ec 813b abbf a93d 517c f8bc
00000170: 0697 b03d f800 963d 0fc2 c73d 02ba f53c
00000180: ef77 2fbd 4323 c23b 7185 c43d 92e0 903d
00000190: 2e4d bf3b b63c 023d 8384 343b a306 bdba
000001a0: 5132 853a d4f8 d33d 6f05 443d 33f8 5f3c
000001b0: facb 07bd 607b 30bd 502f 113d e63d 8fbc
000001c0: a8cb a6bc 3d20 f33d 2d7e ab3c ca3d d23d
000001d0: a2b5 2f3c 40b6 c93b 8d9c 133c 8ed7 843d
000001e0: 27b7 d43d 551b a9bc 504e 6f3d c0ed 3fbd
000001f0: 850b 33bc 9c31 2c3d 7e56 01bc 6af8 ccbc
00000200: 98b3 3abc 6792 2a3d 6433 5f3c 5d73 d93c
00000210: e077 a23d 761b a93d b5d2 dd3d f9fd 413d
00000220: 305b a83c 0115 68bc 9a04 46bc 38f9 543d
00000230: d252 4a3d 7d64 443d 8239 32bc 60b9 7d3d
00000240: c545 5f3d 2e84 9cbc 3158 e13d 7505 3d3d
00000250: 82e9 3dbc 7040 9b3d 61e7 07bb a790 ab3c
00000260: a77a 3a3d 4b76 7c3c ae70 003d ade4 d63c
00000270: 5f6a 6d3d d864 423d d7b9 2dbc e7bc 273d
00000280: 8251 a5bc a1cd be3d 032e 253d 634e f43c
00000290: 16c2 553d 2f9e b83c 4a9f cc3c 585e 3d3d
000002a0: 3192 dd3d f434 19bd ae81 373d 4820 f33c
000002b0: 529d fa3d 00a8 af3c 731c 9b3c a02a ca3d
000002c0: 3e5f 9bbc c70c 6f3d 5e70 fc3c 223b 45bd
000002d0: bb4e e33b 9d4d bf3c 1683 f93c 0fd6 e43d
000002e0: e159 a33d 1435 5ebc e295 3abc abca 2bbd
000002f0: 6e16 043d 931f bc3d 801b 09bc 8aad 7c3d
00000300: 1682 733d f3e1 9a3c db67 b13a a63b b33c
00000310: 7caa 0a3c 4345 e83d 7e3c 2f3d 8415 9b3d
00000320: 4487 0d3d 03c6 0f3d 54c7 0d3d 99bc 0c3d
00000330: 6f1e 14bc dbc8 d73c 99bb 873d b054 443d
00000340: 19c6 14bd ed13 02bd c468 053b 4c44 2ebd
00000350: f676 c33d fecb dd3d 55de 173d d0cf a3bc
00000360: 7b5d 903d 350c 2fbc 3329 e53d e2a1 fbba
00000370: c4c9 273d 3474 bd3b 20bf 873c ce1d 813d
00000380: 3615 21bc 540f 7abb b6db d8bb 1ff8 333c
00000390: f877 843d 698c 2dbc 7e25 e93d e416 0e3d
000003a0: 799d b43d 22e2 5c3d 34f1 033d 5d2e 693d
000003b0: 8cc4 b5bc 62a0 da3d 341d 343d 9345 023d
000003c0: a41a 5c3c 4ec4 343b d8af 8d3d 064c 503d
000003d0: a0db 2cbd 62e8 6e3d 794a 3a3d 45a1 e3bc
000003e0: c7a5 7d3d 9f88 2a3d 408f 623b cea7 223d
000003f0: e1d6 b73c 9f61 553c 1dba 91bd e4a5 293d

noisy_fc2.bias_sigma f4 [256]
0.02313443 0.014651035 0.021550214 0.013458639 0.016343912 0.011922426 0.0154321855 0.019665439
0.016871708 0.021060854 0.021522772 0.023327738 0.011793406 0.024032518 0.013711272 0.016193146
0.019205203 0.02472259 0.015231782 0.017724868 0.014123788 0.016406363 0.030357199 0.017216519
0.015386437 0.016238457 0.022379233 0.02278254 0.012401065 0.01590886 0.020932753 0.00801813
0.013982668 0.022004515 0.019776829 0.022435892 0.015021687 0.008565877 0.0075306715 0.013498216
0.023443826 0.02704936 0.029010216 0.009439248 0.0062015615 0.010927506 0.021236101 0.022203755
0.016952598 0.028978962 0.015943754 0.0185107 0.016122604 0.011734712 0.009672613 0.009191671
0.017227035 0.033644143 0.016734028 0.013302955 0.021941887 0.011435463 0.0138858855 0.014557345
0.03555939 0.0058955806 0.009191541 0.010969567 0.018068856 0.006466185 0.027769508 0.026240408
0.030308869 0.02933666 0.008202194 0.009252126 0.0010568005 0.017195353 0.017220689 0.020375619
0.022104507 0.015121899 0.012493385 0.00890815 0.012748217 0.019612668 0.016232183 0.0174108
0.033814017 0.013777602 0.0062163104 0.016431399 0.022110024 0.027379453 0.020066885 0.023847159
0.021856118 0.017116603 0.016640117 0.011220313 0.022160629 0.0062625264 0.027783904 0.011805127
0.023869958 0.017040482 0.019933345 0.0017784414 0.020871345 0.02777049 0.01551917 0.017059576
0.004019282 0.02749385 0.011758645 0.03017649 0.020782596 0.021628227 0.0078713605 0.015350414
0.027265111 0.014130472 0.020204473 0.019062826 0.015415479 0.023206854 0.028762748 0.023513205
0.021579096 0.008642661 0.007632554 0.0056082266 0.023512173 0.028490704 0.029719425 0.019200895
0.013123745 0.010438626 0.016597286 0.023828072 0.016544 0.016732724 0.010982701 0.01387166
0.017878374 0.0035379336 0.007907323 0.01094713 0.02467939 0.014018451 0.00022531647 0.016346827
0.018115217 0.007912568 0.0096849175 0.022343453 0.015907878 0.016357323 0.011849109 0.023649005
0.025202919 0.030582584 0.01735954 0.02590088 0.013253359 0.020395333 0.016974237 0.03304226
0.011886818 0.011842231 0.013445727 0.026063843 0.033953637 0.0159315 0.012109154 0.025195844
0.0079113245 0.03188226 0.02701467 0.016151536 0.027996775 0.006169789 0.02507005 0.025385147
0.01940277 0.011550076 0.015045076 0.016050452 0.02128793 0.0060850577 0.022856943 0.02907529
0.028864937 0.01618399 0.019114511 -0.0029635753 0.013312731 0.020412037 0.022157783 0.009183032
0.017789735 0.024868427 0.016637355 0.013285271 0.020573782 0.026497133 0.024083683 0.014891878
0.00933335 0.010420944 0.019056806 -0.003392129 0.03515469 0.029178837 0.021273842 0.011190837
0.02098965 0.030806994 0.009841852 -0.0021277114 0.025749817 0.02816744 0.011949746 0.02126647
0.012966437 0.01648466 0.019359224 0.020658076 0.008500191 0.015254122 0.03867481 0.027016314
0.031044861 0.031645544 0.019395327 0.029685413 0.031134209 0.02718965 0.01868457 0.01787602
0.019286187 0.018975167 0.02082949 0.02309417 -0.0031685128 0.015969684 0.01527954 0.022781566
0.04216744 0.026189025 0.027926879 0.024571778 0.009375416 0.01270519 0.022445716 0.005775519
00000000: 6b84 bd3c e50a 703c 138a b03c a081 5c3c
00000010: abe3 853c 4756 433c 47d7 7c3c 6a19 a13c
00000020: 8936 8a3c d087 ac3c 8650 b03c d019 bf3c
00000030: 2139 413c d8df c43c 3ea5 603c 7da7 843c
00000040: 3b54 9d3c 0787 ca3c b98e 793c be33 913c
00000050: 7667 673c a366 863c a9af f83c a809 8d3c
00000060: 6517 7c3c 8306 853c a754 b73c 73a2 ba3c
00000070: d62d 4b3c 4c53 823c 2a7b ab3c 7a5e 033c
00000080: 8f17 653c d042 b43c 0403 a23c 7acb b73c
00000090: 861d 763c e457 0c3c dac3 f63b 9f27 5d3c
000000a0: 440d c03c 9f96 dd3c d5a6 ed3c 13a7 1a3c
000000b0: 7836 cb3b 4809 333c 55f7 ad3c a6e4 b53c
000000c0: 2de0 8a3c 4a65 ed3c 7a9c 823c c0a3 973c
000000d0: 8d13 843c f342 403c e179 1e3c aa98 163c
000000e0: b61f 8d3c 71ce 093d cd15 893c a3f4 593c
000000f0: 79bf b33c cf5b 3b3c a081 633c ee81 6e3c
00000100: b9a6 113d b72f c13b 1e98 163c b3b9 333c
00000110: 2305 943c 4be2 d33b e17c e33c 20f6 d63c
00000120: 4e4a f83c 6f53 f03c 7f62 063c 3b96 173c
00000130: 5784 8a3a 45dd 8c3c 6712 8d3c c5ea a63c
00000140: 8314 b53c d7c1 773c 0eb1 4c3c 7df3 113c
00000150: e6dd 503c bfaa a03c 5bf9 843c 18a1 8e3c
00000160: 9180 0a3d 74bb 613c 31b2 cb3b 249b 863c
00000170: 1520 b53c e04a e03c 4f63 a43c 1e5b c33c
00000180: 9a0b b33c 1e38 8c3c db50 883c 67d5 373c
00000190: 358a b53c e135 cd3b 129b e33c 4b6a 413c
000001a0: ee8a c33c 7b98 8b3c 414b a33c 971a e93a
000001b0: 62fa aa3c f07e e33c 1e44 7e3c 86c0 8b3c
000001c0: 2eb4 833b c83a e13c 55a7 403c b034 f73c
000001d0: 4340 aa3c ae2d b13c e1f6 003c 4e80 7b3c
000001e0: 155b df3c 7f83 673c da83 a53c a529 9c3c
000001f0: 3591 7c3c 4d1c be3c db9f eb3c c49e c03c
00000200: a5c6 b03c f399 0d3c 811a fa3b 37c5 b73b
00000210: 9a9c c03c 5665 e93c 2776 f33c 324b 9d3c
00000220: fa04 573c c506 2b3c 08f7 873c 1733 c33c
00000230: 4887 873c 1113 893c c9f0 333c f645 633c
00000240: ab75 923c addc 673b b78d 013c 975b 333c
00000250: 6f2c ca3c a5ad 653c ee42 6c39 c8e9 853c
00000260: 5d66 943c b7a3 013c 7dad 1e3c 9e09 b73c
00000270: 3d51 823c cbff 853c c422 423c 8fbb c13c
00000280: 5a76 ce3c 5488 fa3c 9835 8e3c 152e d43c
00000290: 9e24 593c 1d14 a73c 8e0d 8b3c 5257 073d
000002a0: eec0 423c eb05 423c 774b 5c3c d783 d53c
000002b0: f812 0b3d c782 823c 7965 463c 8467 ce3c
000002c0: 809e 013c f996 023d df4d dd3c 3a50 843c
000002d0: 7e59 e53c f12b ca3b b55f cd3c 83f4 cf3c
000002e0: 8ff2 9e3c 883c 3d3c 9f7f 763c 3d7c 833c
000002f0: 0664 ae3c 2a65 c73b 7c3e bb3c 4d2f ee3c
00000300: 2976 ec3c 4994 843c 0996 9c3c 8b38 42bb
00000310: a41d 5a3c 2537 a73c 3d84 b53c 6e74 163c
00000320: c7bb 913c dfb8 cb3c 104b 883c 77aa 593c
00000330: 598a a83c 8410 d93c 254b c53c 10fd 733c
00000340: e8ea 183c 9bbc 2a3c 051d 9c3c 7b4e 5ebb
00000350: 5dfe 0f3d 7508 ef3c 7b46 ae3c c659 373c
00000360: 7df2 ab3c f35e fc3c b83f 213c 1371 0bbb
00000370: 48f1 d23c 67bf e63c dec8 433c 0537 ae3c
00000380: 2e71 543c d60a 873c 3c97 9e3c 203b a93c
00000390: 6344 0b3c 6dec 793c 7a69 1e3d 5151 dd3c
000003a0: cb51 fe3c c29e 013d f3e2 9e3c d32e f33c
000003b0: 2b0d ff3c d4bc de3c 6210 993c bb70 923c
000003c0: 11fe 9d3c cf71 9b3c 9ba2 aa3c fc2f bd3c
000003d0: d3a6 4fbb dbd2 823c 0957 7a3c 68a0 ba3c
000003e0: c4b7 2c3d 5e8a d63c e9c6 e43c c14a c93c
000003f0: 589b 193c 6e29 503c 14e0 b73c 9140 bd3b

noisy_fc2.weight_epsilon f4 [256, 256]
-1.1172105 1.3130162 -1.5606666 -1.675805 -2.008424 -2.0243804 -1.049979 -1.3641528
1.4609611 0.6420614 1.87206 1.6390742 -1.1545919 0.8945288 -1.3259274 0.526874
1.021362 2.5606563 -1.2830235 0.5542957 -2.2813501 -1.4501936 2.0960212 0.86338913
1.9086936 -1.3225293 -1.6272136 -2.459903 1.1261762 0.7578812 1.3682326 1.1503297
-1.8433179 -2.368311 0.84641993 0.4267881 1.5102885 1.3130051 0.6582066 1.1791335
-0.9961964 -1.2377322 1.1076434 -1.6027256 1.1564028 -2.424574 0.6718169 1.6951301
1.5248705 1.3130752 -1.4392002 -0.8716465 1.6321628 -0.5720225 1.6836107 0.79221654
-1.7761041 1.1441956 0.77486366 1.9516016 2.2907863 2.645068 1.4089085 -2.2290673
-2.0537083 0.14938852 1.0486524 -1.593484 -0.956065 0.32803965 -1.4282728 -1.8622584
-1.6283506 1.6063212 -1.3834411 1.9998488 -0.6283172 -0.9293289 -1.8678256 -1.7539575
1.537458 1.9751681 1.0426878 -2.1286035 1.3799025 1.8819926 -1.5980518 -0.7516316
1.0640074 1.592837 1.3748115 2.1521623 2.0490396 -1.8845811 1.8167839 1.3835465
1.3908817 1.1603485 1.5478048 0.7460136 -1.8290882 1.5226619 -0.9066283 -1.2728295
-0.39453214 -0.5999012 -1.2767276 -1.021246 1.8237592 -0.9944996 -1.6123201 0.9305672
0.15266782 -1.4496316 1.5981627 -1.3889996 1.0090967 1.693369 -1.1603936 -1.7982622
-1.3234808 -0.15968251 -1.787818 -0.7228686 -1.6269113 1.1035129 1.8355691 1.0812235
1.4523169 -1.079076 0.4271769 -2.0958056 2.8106794 -0.8057836 -1.8600804 -1.8989686
-1.3769873 -1.6113635 1.0556979 1.115592 -0.5835687 -1.0540751 -1.8156477 -0.89944416
-0.6973465 -0.8953372 -1.5518172 -1.3415093 0.8269895 1.1556747 1.8474907 2.0296829
-0.6985343 -1.1043632 1.2562526 2.5560865 1.9563199 -1.5031937 -0.4421414 -1.7345932
-1.2736609 -1.1180843 1.2615936 0.53240556 1.8958197 1.0326612 1.4134625 -1.4066586
2.3953831 -2.0225508 1.3243412 2.3154457 -0.500955 1.6476341 1.3995291 1.609629
-0.61742204 1.0103558 2.1201878 -1.2422398 1.5699755 0.8163105 -2.0906677 -1.8040856
1.9318382 1.4721842 -1.2083488 -0.67553866 -1.6817672 -0.81280106 -0.6534143 -1.5150341
1.2807351 -1.9119092 1.5800345 -1.4246275 -0.65315485 -1.7498503 1.9171671 -1.0895884
-1.5624815 -2.1554177 1.4438727 0.91107166 0.6394768 1.2133744 -1.7248367 -1.0783064
-1.2292114 -1.3324459 1.3173213 -1.7947977 -1.3200083 -1.5646999 -0.97820395 2.1683683
1.0311574 2.2787144 -0.9588179 1.781271 1.0901867 -1.2227668 -0.4122857 -1.7581152
-1.7816865 1.8743722 1.3391418 1.0396352 -1.7334856 0.78626174 1.8780463 0.5664542
-1.4738064 -0.73046243 1.4045757 1.5091673 -0.25008187 -1.4214057 -1.4149287 -0.45033842
2.0473282 -0.7693401 -1.751234 -2.2158895 1.2990172 -1.7589295 -0.8600511 2.1094058
1.7437624 -1.2667305 0.73388386 0.31066105 0.13820502 1.1018108 -2.0798328 -1.0616293
00000000: c100 8fbf ea10 a83f ecc3 c7bf c780 d6bf
00000010: 058a 00c0 738f 01c0 b665 86bf 8f9c aebf
00000020: c600 bb3f 235e 243f a99f ef3f 2fcd d13f
00000030: abc9 93bf d7ff 643f fdb7 a9bf 37e1 063f
00000040: fdbb 823f cbe1 2340 1d3a a4bf 53e6 0d3f
00000050: a401 12c0 f29f b9bf 3625 0640 1207 5d3f
00000060: 1250 f43f a448 a9bf 8948 d0bf 0d6f 1dc0
00000070: 8b26 903f 8104 423f 3f22 af3f 013e 933f
00000080: d7f1 ebbf 6892 17c0 faae 583f f883 da3e
00000090: 2251 c13f 8d10 a83f 3a80 283f d9ed 963f
000000a0: ba06 7fbf 026e 9ebf 42c7 8d3f 1d26 cdbf
000000b0: 0205 943f 382c 1bc0 31fc 2b3f 06fa d83f
000000c0: f52e c33f d912 a83f b637 b8bf 3a24 5fbf
000000d0: b6ea d03f 1170 12bf 8e80 d73f b4ce 4a3f
000000e0: 6157 e3bf 0075 923f 775d 463f 15ce f93f
000000f0: 3e9c 1240 cb48 2940 1d57 b43f 0aa9 0ec0
00000100: f56f 03c0 4ef9 183e 3e3a 863f 49f7 cbbf
00000110: adc0 74bf d0f4 a73e a5d1 b6bf 7c5e eebf
00000120: cb6d d0bf ef9b cd3f 9914 b1bf 0cfb ff3f
00000130: 65d9 20bf 80e8 6dbf e914 efbf ae81 e0bf
00000140: 6ccb c43f 4fd2 fc3f cb76 853f 0a3b 08c0
00000150: a5a0 b03f 22e5 f03f f68c ccbf ee6a 40bf
00000160: 6531 883f 15e2 cb3f d3f9 af3f 07bd 0940
00000170: 7723 0340 f439 f1bf 608c e83f 0d18 b13f
00000180: 6908 b23f 4d86 943f 781e c63f bffa 3e3f
00000190: 901f eabf 96e6 c23f cb18 68bf 14ec a2bf
000001a0: 1e00 cabe 2093 19bf cf6b a3bf 30b8 82bf
000001b0: f170 e93f 8797 7ebf 8160 cebf a739 6e3f
000001c0: f454 1c3e 878d b9bf 9890 cc3f bdca b1bf
000001d0: 152a 813f 51c0 d83f c787 94bf 752d e6bf
000001e0: d267 a9bf d083 23be 38d7 e4bf eb0d 39bf
000001f0: a13e d0bf e93f 8d3f eef3 ea3f 8865 8a3f
00000200: 85e5 b93f 2a1f 8abf eeb6 da3e ae21 06c0
00000210: 2ce2 3340 d647 4ebf 1d17 eebf 6711 f3bf
00000220: 1f41 b0bf 2941 cebf 1c21 873f b8cb 8e3f
00000230: c264 15bf efeb 86bf 2567 e8bf f941 66bf
00000240: 4d85 32bf d234 65bf f2a1 c6bf 94b6 abbf
00000250: 95b5 533f 26ed 933f 937a ec3f 53e6 0140
00000260: 25d3 32bf c65b 8dbf e3cc a03f ec96 2340
00000270: b168 fa3f a768 c0bf 5c60 e2be 2607 debf
00000280: 5207 a3bf 631d 8fbf e67b a13f bb4b 083f
00000290: 38aa f23f 3e2e 843f 57ec b43f 640d b4bf
000002a0: f54d 1940 7971 01c0 0384 a93f 4330 1440
000002b0: 963e 00bf ade5 d23f c523 b33f 5308 ce3f
000002c0: 5f0f 1ebf 5753 813f 28b1 0740 b701 9fbf
000002d0: f5f4 c83f baf9 503f 80cd 05c0 47ec e6bf
000002e0: 7946 f73f 8870 bc3f 2cab 9abf 1af0 2cbf
000002f0: 2644 d7bf bb13 50bf 2946 27bf a3ec c1bf
00000300: 21ef a33f 71b9 f4bf 923e ca3f 325a b6bf
00000310: 2835 27bf 18fb dfbf bb65 f53f a277 8bbf
00000320: 65ff c7bf 5df2 09c0 d2d0 b83f fe3b 693f
00000330: c0b4 233f da4f 9b3f 73c7 dcbf f205 8abf
00000340: cd56 9dbf 968d aabf fc9d a83f eebb e5bf
00000350: 08f6 a8bf 1648 c8bf 936b 7abf 8cc6 0a40
00000360: f7fc 833f 75d6 1140 1775 75bf b000 e43f
00000370: 3d8b 8b3f 9f83 9cbf 1c17 d3be eb09 e1bf
00000380: 4e0e e4bf 6eeb ef3f 0069 ab3f c412 853f
00000390: dbe2 ddbf 7348 493f d263 f03f 2403 113f
000003a0: b0a5 bcbf 96ff 3abf 23c9 b33f 652c c13f
000003b0: bb0a 80be 9ff0 b5bf 621c b5bf c292 e6be
000003c0: 6d07 0340 79f3 44bf 7028 e0bf 22d1 0dc0
000003d0: 3246 a63f 9a24 e1bf 4f2c 5cbf 8100 0740
000003e0: 9b33 df3f 3a24 a2bf d0df 3b3f f70e 9f3e
000003f0: 9e85 0d3e 2308 8d3f fb1b 05c0 78e3 87bf

noisy_fc2.bias_epsilon f4 [256]
1.2155323 -0.9593359 -0.79838157 1.0210334 -0.7747202 0.5947927 0.85579807 1.0692931
1.3496778 0.36527443 -1.3831605 1.2822772 -0.9073202 -0.53481495 0.56783956 0.95273906
0.7060527 -0.44867936 -1.0057938 -0.29140717 -0.7547686 -1.0509317 -0.5581977 1.0069355
-0.6244733 -1.0239356 0.3827565 0.6956996 0.34225404 -0.8735635 -0.2992055 -0.38122565
-0.7748161 0.9519418 -1.1532452 -0.9118467 0.33640426 -0.64629143 -0.7534538 0.3556412
1.3078586 1.0230877 0.6416956 -0.59893113 -0.93997014 -0.50413865 -0.39581928 0.4204163
-1.0125681 -0.98909175 -0.51563257 -1.2367111 -0.9502881 -0.58553445 -0.6278451 1.3281323
1.1642317 0.49677092 -1.0210109 1.130112 -0.7836447 1.2074445 0.9922012 -1.0205112
-0.89991975 -1.1008711 0.80290496 -1.080354 -0.70988315 0.7039929 0.6220056 -1.0169747
-0.12203456 -0.30137917 0.0925665 -0.24009283 1.0201001 0.77250147 -0.60915774 0.7416761
1.4851532 0.461244 -1.0369258 -0.24622974 -0.4541295 0.8993287 -0.6689381 -0.7238062
1.1885072 0.9238692 0.819561 -1.2493713 -0.98593163 -1.2148927 -0.82330805 1.1753472
-1.0166081 0.28120956 0.17096318 -0.86108303 -0.5845736 -0.82439744 -0.6063514 0.6421089
-0.5894648 -0.7553123 -0.2066424 0.15313347 -1.3814068 0.8652908 -0.56892055 0.9267904
-1.002575 -0.8883978 -0.91960746 -0.08508877 0.6906972 1.2965719 -0.39509544 -0.15753351
-1.122911 -0.5405319 0.42380863 1.248721 -0.5869477 0.33713898 -0.51898986 0.3818487
0.40080863 0.6604552 -1.1628764 -0.8171175 1.2093745 -0.5727411 0.6348958 0.22490612
0.52574354 1.0878075 -1.0921377 -0.6100184 1.0046973 -0.12013917 0.46748513 -0.90322787
-1.0715694 -0.8953906 -1.0929258 -0.8695288 -0.5528082 -0.24231961 0.6906346 1.004761
1.1347082 -0.732569 -0.9729112 0.4610187 -0.87517107 -1.1272191 -0.36852393 0.520976
0.7025098 1.2457476 0.7545497 1.1328659 0.43609035 0.90782356 -0.50804543 -0.9083474
1.3335772 0.7076497 1.1415823 -1.2253559 0.8407614 0.92385364 0.5444785 -0.7182772
1.2604375 1.035583 -0.8398694 1.2959993 0.79341006 -0.28566658 0.3083366 -0.8519505
0.9986172 -0.7289824 0.41889474 0.26883215 -0.9984778 -0.40755522 0.6668328 1.2773477
-0.4202905 0.73948437 1.5474546 1.0600034 -1.3391209 -0.87893254 -0.14917196 0.40483803
0.962862 -0.8269426 -0.21409976 -0.35513657 0.4617194 0.7529692 -0.98288745 -0.7480598
1.4965707 -0.8842294 0.73281926 0.730878 0.5079209 0.49620184 -0.80644655 -1.1187407
-0.61881167 -1.2229166 -1.0090045 -1.0067172 -0.8257846 1.0228012 0.85227513 0.74701184
0.054184183 0.5005123 -0.53982264 1.2460198 -0.7404764 0.9789755 0.6396321 0.4995269
-1.364072 -0.26564083 -0.6735142 -0.72518283 0.5773288 -0.53257024 -1.0128433 1.4334806
0.56967354 0.3621495 -1.0578023 0.9844794 0.25019425 0.40825447 1.013774 -0.5059987
0.9436281 0.40825924 0.15112828 0.62661904 -1.1112702 -1.0137707 -1.0612804 -1.06561
00000000: 9096 9b3f 0a97 75bf bc62 4cbf 39b1 823f
00000010: 1054 46bf 5644 183f 9515 5b3f 99de 883f
00000020: 3ec2 ac3f 4005 bb3e 670b b1bf a921 a43f
00000030: 2346 68bf a2e9 08bf ef5d 113f b5e6 733f
00000040: dfbf 343f 4db9 e5be dabd 80bf 5233 95be
00000050: 8438 41bf ee84 86bf 0be6 0ebf 43e3 803f
00000060: 7bdd 1fbf 5210 83bf a9f8 c33e 5e19 323f
00000070: ec3b af3e dca1 5fbf 7731 99be 0230 c3be
00000080: 595a 46bf 75b2 733f 8a9d 93bf c96e 69bf
00000090: 2e3d ac3e 5b73 25bf 59e2 40bf 9a16 b63e
000000a0: e967 a73f 8af4 823f 2a46 243f 8d53 19bf
000000b0: e2a1 70bf 3b0f 01bf d3a8 cabe ce40 d73e
000000c0: d59b 81bf 1e35 7dbf 7f00 04bf 8d4c 9ebf
000000d0: 1546 73bf 96e5 15bf 75ba 20bf 3d00 aa3f
000000e0: 8b05 953f c258 fe3e 7cb0 82bf 83a7 903f
000000f0: f09c 48bf 8b8d 9a3f e600 7e3f 1ca0 82bf
00000100: 2461 66bf 58e9 8cbf 2e8b 4d3f 0a49 8abf
00000110: e7ba 35bf e138 343f c23b 1f3f 3a2c 82bf
00000120: 41ed f9bd 5f4e 9abe 8193 bd3d e5da 75be
00000130: a492 823f a8c2 453f c3f1 1bbf 7cde 3d3f
00000140: 8019 be3f 2c28 ec3e fcb9 84bf a623 7cbe
00000150: a983 e8be 683a 663f 873f 2bbf 5d4b 39bf
00000160: 0121 983f b182 6c3f c0ce 513f 66eb 9fbf
00000170: 0466 7cbf 9b81 9bbf 51c4 52bf c771 963f
00000180: 3720 82bf b3fa 8f3e f910 2f3e f06f 5cbf
00000190: 9ea6 15bf b60b 53bf d839 1bbf 4061 243f
000001a0: 2ae7 16bf 265c 41bf 119a 53be 05cf 1c3e
000001b0: f0d1 b0bf b383 5d3f c7a4 11bf 2342 6d3f
000001c0: 6154 80bf 0a6e 63bf 656b 6bbf 0543 aebd
000001d0: 88d1 303f 11f6 a53f f349 cabe 7750 21be
000001e0: 8cbb 8fbf 4c60 0abf 72fd d83e 17d6 9f3f
000001f0: 3442 16bf 7b9d ac3e 85dc 04bf ac81 c33e
00000200: ca36 cd3e 9813 293f 22d9 94bf 9d2e 51bf
00000210: c9cc 9a3f 299f 12bf 8888 223f ca4d 663e
00000220: 2197 063f 473d 8b3f 2bcb 8bbf 2a2a 1cbf
00000230: ec99 803f 860b f6bd 365a ef3e f139 67bf
00000240: 3029 89bf 5238 65bf fee4 8bbf 7099 5ebf
00000250: d784 0dbf a222 78be 6ecd 303f 029c 803f
00000260: 1e3e 913f a489 3bbf b510 79bf a50a ec3e
00000270: 360b 60bf b748 90bf 2baf bcbe af5e 053f
00000280: afd7 333f a874 9f3f 2b2a 413f c001 913f
00000290: 3c47 df3e 2067 683f 440f 02bf 7589 68bf
000002a0: a8b2 aa3f 8828 353f 5e1f 923f 76d8 9cbf
000002b0: 243c 573f ac81 6c3f f162 0b3f 04e1 37bf
000002c0: 0456 a13f fc8d 843f ae01 57bf 4ee3 a53f
000002d0: ec1c 4b3f e442 92be 4bde 9d3e 6e19 5abf
000002e0: 60a5 7f3f 979e 3abf 5f79 d63e 5ea4 893e
000002f0: 3e9c 7fbf 14ab d0be 8eb5 2a3f 2180 a33f
00000300: 5130 d7be d94e 3d3f fe12 c63f 31ae 873f
00000310: 5068 abbf b901 61bf 89c0 18be ee46 cf3e
00000320: 207e 763f 83b2 53bf f83c 5bbe 76d4 b5be
00000330: 7c66 ec3e 97c2 403f 839e 7bbf d980 3fbf
00000340: a18f bf3f dc5c 62bf 0b9a 3b3f d21a 3b3f
00000350: 1b07 023f 2b0e fe3e 4873 4ebf e532 8fbf
00000360: 716a 1ebf 8888 9cbf 0f27 81bf 1cdc 80bf
00000370: 9f66 53bf 26eb 823f b42e 5a3f 2b3c 3f3f
00000380: 3cf0 5d3d 9321 003f d131 0abf 947d 9f3f
00000390: dd8f 3dbf 239e 7a3f eebe 233f fdc1 ff3e
000003a0: e999 aebf 1302 88be 6d6b 2cbf 95a5 39bf
000003b0: d2cb 133f 8656 08bf d9a4 81bf 4b7c b73f
000003c0: 20d6 113f a96b b93e 1166 87bf d806 7c3f
000003d0: 7619 803e bb06 d13e 59c3 813f 2189 01bf
000003e0: 9c91 713f 5b07 d13e 5fc1 1a3e 1b6a 203f
000003f0: 1a3e 8ebf 3dc3 81bf 09d8 87bf e965 88bf
