benchmarks/Pendulum-v1/Train_gym_mp_TD3_20230416-214019/models/actor.pth (torch, 270103 bytes, 5 tensors)

fc1.weight f4 [256, 3]
0.6808125 -0.7010672 -0.22511788 -0.26643136 0.18554203 0.7529026 -0.026154641 0.22817692
0.025946192 -0.22763968 -0.69263995 -0.29703057 0.21395452 -0.21388948 -0.04550731 0.058618195
1.2504245 -0.03545961 0.1542397 0.19323921 0.120654635 -0.42210108 -0.7328316 -0.48667377
-0.112086855 0.48013735 0.22722527 0.54346114 -0.32919556 0.42317346 0.79538375 1.175665
0.438976 -0.6385241 -0.74336016 -0.37908202 0.74175864 0.5912011 0.33433896 0.03906505
0.103165135 -0.57183677 1.0312757 -0.7479286 -0.28305522 0.6600356 -0.44462034 0.28218994
-0.48241824 -0.859842 -0.33317068 -0.45496416 0.2549258 -0.4611158 0.8622759 1.1449192
-0.5495034 -0.12056698 0.6152067 -0.0032132904 -0.2420899 1.3271856 -0.17386143 0.39099234
-0.9433695 0.27360457 0.86478835 0.31972152 -0.46148518 -0.29507893 -0.60155714 -0.49780574
0.62223256 0.7011091 0.24319148 0.23913552 1.6935236 -0.14924434 -0.109488584 0.6369865
-0.53052646 -0.44792822 -0.49962425 -0.2720897 0.46885496 -0.9319916 0.019964008 0.67734116
0.9133191 0.38750163 -0.34129465 0.21470132 0.8299426 0.46387506 -1.5599109 -0.34400454
0.17492247 -0.34974387 -0.21823555 -0.08048007 1.104741 -0.35669822 0.1879716 0.3938772
-0.2840319 -0.13070115 1.3754126 -0.21048911 0.7757217 0.8375457 0.32948008 0.70184666
0.10824457 -0.67325366 0.3832794 1.6802135 -0.18289664 0.33709624 -1.0648813 0.100447245
-0.47553664 1.3818842 0.5138126 -0.24348153 -0.7439784 -0.31816468 -0.27720603 0.2303734
-0.0026911416 0.63121355 -0.080531895 0.34830365 0.87049013 0.7182573 0.31483573 0.257755
1.2080001 -0.07146757 -0.43527076 -0.78344935 -0.31198117 -0.008798515 -0.5650454 0.33712578
0.26796347 0.055960175 0.147994 -0.21158588 1.0887545 0.040785216 -0.10193464 0.7206898
-0.4741076 0.3686872 -1.5667896 0.019072272 -0.08577478 -0.186672 0.58347267 -0.056595676
-0.26821855 0.5367413 0.50681823 -0.7787724 -0.57299584 -0.37180105 0.06548418 0.37553817
-0.8133766 -0.14650498 0.11518452 0.43540943 1.3682747 -0.1590156 0.98502773 1.0894709
0.39181796 0.39553806 -0.21918972 0.37008262 0.09524795 -0.0996308 -0.23376283 -0.090311795
0.6456998 0.6994011 -0.27896193 -0.06909646 0.4775747 0.057798352 -0.08992854 -0.5676931
-1.1004783 0.98420054 0.1895744 0.43498087 1.2936962 0.22122832 0.542074 -0.9691476
0.38303354 -0.6408028 0.3080215 -0.23257568 0.12625661 0.51224875 0.18408789 0.53507465
0.94615424 0.21866125 0.5274858 0.98691833 -0.5011851 0.47034326 1.2870777 -0.0014217894
0.39992806 -0.8248818 0.32469574 0.7844182 -0.12016859 0.4603104 -0.87666875 0.23894
0.42580977 -0.482676 0.60159194 0.18050522 0.318429 1.4564335 0.1567854 -0.58892393
0.692893 -0.45069033 -0.61316466 0.27047795 -0.23329267 0.679118 -0.7040081 -0.53445256
-0.37090483 -0.24447535 0.0071888273 -0.1675892 0.15906122 0.37752992 -0.834288 -0.92360616
-0.2683236 0.6855786 0.17605299 -0.64255035 0.1397605 0.26487857 0.02811746 -0.4051961
00000000: ba49 2e3f 2479 33bf 4d85 66be b169 88be
00000010: bbfe 3d3e 3abe 403f 4242 d6bc 36a7 693e
00000020: 1c8d d43c 601a 69be da50 31bf 6414 98be
00000030: e516 5b3e d805 5bbe e065 3abd a219 703d
00000040: e90d a03f 193e 11bd 03f1 1d3e 80e0 453e
00000050: c719 f73d a21d d8be da9a 3bbf 4e2d f9be
00000060: cb8d e5bd 90d4 f53e bead 683e 4520 0b3f
00000070: 528c a8be 31aa d83e 459e 4b3f 317c 963f
00000080: 76c1 e03e 5176 23bf da4c 3ebf 0a17 c2be
00000090: e5e3 3d3f f558 173f 7a2e ab3e ad02 203d
000000a0: 3e48 d33d e563 12bf d800 843f 4078 3fbf
000000b0: 9dec 90be 18f8 283f 47a5 e3be 337b 903e
000000c0: 86ff f6be 9b1e 5cbf 5995 aabe 10f1 e8be
000000d0: a285 823e 5f17 ecbe 1dbe 5c3f b68c 923f
000000e0: 41ac 0cbf d2eb f6bd 307e 1d3f 1196 52bb
000000f0: 6ae6 77be 38e1 a93f bb08 32be 2630 c83e
00000100: aa80 71bf e615 8c3e c562 5d3f 8ab2 a33e
00000110: c947 ecbe 9614 97be a6ff 19bf 65e0 febe
00000120: a24a 1f3f e37b 333f 3007 793e f1df 743e
00000130: 62c5 d83f 82d3 18be 8d3b e0bd 8c11 233f
00000140: 95d0 07bf d956 e5be c0ce ffbe 574f 8bbe
00000150: c20d f03e 0097 6ebf 8f8b a33c 3b66 2d3f
00000160: 48cf 693f 9d66 c63e 2cbe aebe aada 5b3e
00000170: 1e77 543f 0881 ed3e 29ab c7bf 5d21 b0be
00000180: e01e 333e a111 b3be 2479 5fbe bcd2 a4bd
00000190: 2768 8d3f 26a1 b6be a17b 403e 46aa c93e
000001a0: a16c 91be 86d6 05be 850d b03f 758a 57be
000001b0: b395 463f 6569 563f 9db1 a83e 39ac 333f
000001c0: 54af dd3d 5a5a 2cbf 333d c43e 3c11 d73f
000001d0: 4249 3bbe e197 ac3e 084e 88bf 49b7 cd3d
000001e0: 8a79 f3be 95e1 b03f 3989 033f 3953 79be
000001f0: 5e75 3ebf 7be6 a2be f3ed 8dbe 01e7 6b3e
00000200: dd5d 30bb 3697 213f e8ed a4bd db54 b23e
00000210: 71d8 5e3f b6df 373f 2632 a13e 77f8 833e
00000220: bf9f 9a3f 975d 92bd cfdb debe 2390 48bf
00000230: ffbb 9fbe a627 10bc d1a6 10bf c09b ac3e
00000240: 8232 893e 7f36 653d bd8b 173e f8a9 58be
00000250: 4f5c 8b3f 660e 273d 1cc3 d0bd 207f 383f
00000260: 3bbe f2be 92c4 bc3e 908c c8bf 743d 9c3c
00000270: b0aa afbd f226 3fbe 775e 153f ded0 67bd
00000280: f153 89be e167 093f d7be 013f a15d 47bf
00000290: dbaf 12bf b55c bebe 921c 863d 8a46 c03e
000002a0: 7339 50bf 6705 16be dde5 eb3d fced de3e
000002b0: a023 af3f fcd4 22be c72a 7c3f c873 8b3f
000002c0: 5d9c c83e f783 ca3e 4573 60be 787b bd3e
000002d0: 5b11 c33d 3c0b ccbd 865f 6fbe 64f5 b8bd
000002e0: 954c 253f f30b 333f 19d4 8ebe 7282 8dbd
000002f0: ac84 f43e f7bd 6c3d 742c b8bd 5654 11bf
00000300: 79dc 8cbf 91f4 7b3f cb1f 423e d0b5 de3e
00000310: d697 a53f ad89 623e 5dc5 0a3f 0f1a 78bf
00000320: f91c c43e a70b 24bf feb4 9d3e 5228 6ebe
00000330: 6a49 013e bc22 033f 8981 3c3e a7fa 083f
00000340: 2a37 723f bce8 5f3e 4f09 073f aea6 7c3f
00000350: ab4d 00bf d5d0 f03e f6be a43f 565b baba
00000360: 5fc3 cc3e 742b 53bf 853e a63e a2cf 483f
00000370: f31a f6bd cead eb3e 5d6d 60bf b0ac 743e
00000380: bd03 da3e 4f21 f7be ee01 1a3f 5cd6 383e
00000390: 2009 a33e 6a6c ba3f 5a8c 203e b8c3 16bf
000003a0: 7061 313f e2c0 e6be 5cf8 1cbf 167c 8a3e
000003b0: 46e4 6ebe adda 2d3f e039 34bf e2d1 08bf
000003c0: 3de7 bdbe bf57 7abe 4190 eb3b 819c 2bbe
000003d0: f2e0 223e 9a4b c13e e693 55bf 7471 6cbf
000003e0: b661 89be 1482 2f3f 3c47 343e 2e7e 24bf
000003f0: 601d 0f3e 2a9e 873e 9656 e63c dd75 cfbe

fc1.bias f4 [256]
-0.42012015 0.0814662 -0.49891472 -0.208512 -0.5374884 -0.04797705 -0.109929286 -0.2711809
-0.15877652 -0.9541834 -0.67598045 -0.21105208 -0.50234425 0.044055115 -0.3561169 -0.51521146
-0.28882512 -0.3765668 -0.57080275 -0.6767446 0.33861488 -0.005359083 -1.0468931 -0.20426635
-0.39111722 -0.13404183 0.35494328 -0.13593821 -0.27304465 -0.5950147 0.011317083 -0.2249423
-0.12054844 0.22456297 -0.27747196 0.29590306 -0.52849644 -0.4392024 -0.27868518 -0.08368321
-0.53037024 -0.2567604 -0.38146546 -0.7898361 -0.3576611 -0.28895855 -0.23075591 -0.43512475
-0.54952 0.018531384 0.32146642 -0.23332363 0.36454466 0.30559835 -0.3611687 -0.13973597
-0.38427222 -0.22967066 -0.59500027 -0.72889525 -0.9335672 -0.15157793 0.08539893 0.14361233
0.45243475 -0.6475931 -0.12944059 -0.6857692 -0.21044697 -0.7435282 -0.6790155 -0.3060488
-0.051320244 -0.99994165 -0.3578072 -0.24752629 -0.19525738 -0.3668214 -0.7803715 -0.46905953
-0.5088878 -0.013631989 -0.50346226 -0.10332297 -0.48240435 -0.07090884 -0.763227 -0.6677998
-1.037155 -0.6890473 -0.4455472 -0.8050722 -0.3703645 -0.28452444 -0.38608032 0.11799832
-0.2008884 0.0018264087 -0.2083029 -1.2595105 -0.2878217 -0.33049935 -0.89209753 -0.29052603
-0.056105006 -0.3124838 -0.11272722 -0.4616627 -0.87110555 0.023527198 -0.7379309 -0.29533175
-0.33160755 -0.73686415 -0.26824376 0.015964733 0.16292217 -1.0343792 0.20619312 -0.11706811
-0.031799443 -0.118616804 -0.06503049 0.062477976 -0.44811174 -0.03920111 -0.42386165 -0.6493208
-0.61695015 -0.40484223 -0.21195148 -0.003735714 -0.80089873 -0.67003703 -0.23597501 -0.5991497
-0.39791545 -1.1136225 -0.54894745 -0.33534625 -0.5683092 -0.21941207 -0.32028607 0.098703474
0.1589077 0.31683502 -0.21433972 0.28840706 -0.3473639 -0.13372177 0.08235624 -0.46157536
-0.034130767 -0.08519684 -0.731446 0.06979519 -0.23283976 -0.69565684 -0.5089415 -0.14486672
-0.056044403 -0.002403419 -0.2968256 0.010433102 -0.046231054 -0.13757439 -0.22464915 0.12787385
0.08488362 -0.32717 -0.3038434 -0.5728038 -0.35407275 -0.23620233 -0.20565824 -0.0370851
0.005358347 -0.21310246 -0.8459227 -0.013240111 -0.4215168 0.06400612 0.37990704 -0.5277199
-0.37947607 0.07548906 -0.61354744 -0.4270878 -0.35392052 -0.13534722 -0.5044487 -0.37742117
-0.2635132 -0.7987183 -0.79194516 -1.0042363 -0.21262339 -0.23300575 0.20707665 -0.27155867
-0.3243254 -0.60176396 -0.1335359 -0.4139016 -0.4934996 -0.47396344 -0.4003516 -0.30735633
-0.0704991 -0.928761 -0.06042875 -0.18271622 -0.21358877 -0.12622747 -0.40763542 -0.06338181
-0.29826206 -0.22150877 -0.21820964 0.144225 -0.6384606 -0.16609405 -0.43467617 0.118357815
-0.06384976 -0.98179454 -0.86286914 0.029358033 -0.007175134 -0.32332718 -0.57933086 0.22105165
-0.55714387 -0.4601009 -0.49299386 -0.32261118 -0.09783254 -0.02395286 -0.045992088 -0.53097636
-0.29138586 -0.63005614 -0.28611556 0.3838153 0.07951781 -0.22422218 -0.2194794 -0.22162972
-0.081327185 -0.51619256 -0.47169122 -0.44720438 -0.8194579 -0.32177228 -0.30014905 -0.7275273
00000000: fd19 d7be c0d7 a63d c071 ffbe 2b84 55be
00000010: d798 09bf 9583 44bd 9b22 e1bd 39d8 8abe
00000020: 5096 22be 5d45 74bf 0e0d 2dbf 091e 58be
00000030: a299 00bf 2373 343d f454 b6be e6e4 03bf
00000040: e3e0 93be 5dcd c0be 2120 12bf 223f 2dbf
00000050: ee5e ad3e 3f9b afbb 9800 86bf 332b 51be
00000060: 8440 c8be 4342 09be 20bb b53e 6333 0bbe
00000070: 82cc 8bbe e252 18bf 496b 393c 4657 66be
00000080: 1ae2 f6bd d6f3 653e ce10 8ebe 9b80 973e
00000090: 8b4b 07bf 23df e0be d3af 8ebe 1a62 abbd
000000a0: 58c6 07bf 1976 83be 714f c3be b332 4abf
000000b0: 5b1f b7be 60f2 93be 474b 6cbe acc8 debe
000000c0: 58ad 0cbf 21cf 973c 3f97 a43e 64ec 6ebe
000000d0: 99a5 ba3e 6377 9c3e 1beb b8be f216 0fbe
000000e0: 54bf c4be c92e 6bbe f051 18bf e198 3abf
000000f0: 43fe 6ebf 3f37 1bbe a2e5 ae3d 1c0f 133e
00000100: 87a5 e73e a9c8 25bf 138c 04be 928e 2fbf
00000110: 697f 57be dd57 3ebf f6d3 2dbf 6eb2 9cbe
00000120: 2d35 52bd 2dfc 7fbf 8132 b7be 8877 7dbe
00000130: 8df1 47be 04d0 bbbe 6dc6 47bf 9228 f0be
00000140: 7946 02bf b558 5fbc e7e2 00bf fe9a d3bd
00000150: b4fd f6be a738 91bd d862 43bf edf4 2abf
00000160: 7fc1 84bf 6765 30bf c31e e4be 3619 4ebf
00000170: 6aa0 bdbe 30ad 91be 52ac c5be 1aa9 f13d
00000180: b0b5 4dbe 1b64 ef3a 5b4d 55be a437 a1bf
00000190: 5e5d 93be 3637 a9be 8160 64bf d4bf 94be
000001a0: 5dce 65bd e0fd 9fbe 87dd e6bd 0e5f ecbe
000001b0: c600 5fbf 1cbc c03c 0ae9 3cbf b935 97be
000001c0: 77c8 a9be 21a3 3cbf 3f57 89be 79c8 823c
000001d0: 12d5 263e 8a66 84bf 4a24 533e 68c1 efbd
000001e0: 2240 02bd 5eed f2bd b52e 85bd e8e8 7f3d
000001f0: e76e e5be 5891 20bd 6504 d9be e339 26bf
00000200: 72f0 1dbf 7b47 cfbe cf09 59be e1d2 74bb
00000210: b307 4dbf 8c87 2bbf 6fa3 71be e061 19bf
00000220: 93bb cbbe 2f8b 8ebf d287 0cbf 81b2 abbe
00000230: b67c 11bf 8fad 60be 89fc a3be 0c25 ca3d
00000240: b3b8 223e 3338 a23e df7b 5bbe 17aa 933e
00000250: aed9 b1be 5cee 08be 63aa a83d 9b53 ecbe
00000260: b4cc 0bbd ae7b aebd 0c40 3bbf c8f0 8e3d
00000270: 8c6d 6ebe 9116 32bf fd49 02bf f157 14be
00000280: d18e 65bd ae82 1dbb 86f9 97be 9aef 2a3c
00000290: c65c 3dbd 4de0 0cbe 6d0a 66be 5df1 023e
000002a0: 77d7 ad3d d482 a7be 5d91 9bbe 45a3 12bf
000002b0: 0649 b5be 06df 71be 1398 52be 8ce6 17bd
000002c0: 1395 af3b 8837 5abe 648e 58bf 0ded 58bc
000002d0: 0dd1 d7be a415 833d 2d83 c23e a718 07bf
000002e0: b04a c2be 029a 9a3d 7211 1dbf 41ab dabe
000002f0: 1235 b5be 7698 0abe 8d23 01bf 593d c1be
00000300: 34eb 86be cd78 4cbf ebbc 4abf d18a 80bf
00000310: f2b9 59be 0f99 6ebe e70b 543e bd09 8bbe
00000320: fb0d a6be 340d 1abf a3bd 08be e9ea d3be
00000330: fbab fcbe 56ab f2be e3fa ccbe cf5d 9dbe
00000340: d561 90bd 48c3 6dbf 2384 77bd f619 3bbe
00000350: 04b7 5abe c641 01be 97b5 d0be 53ce 81bd
00000360: ceb5 98be 32d3 62be 5972 5fbe b8af 133e
00000370: 2772 23bf 8f14 2abe e08d debe 9565 f23d
00000380: aac3 82bd e356 7bbf fee4 5cbf 4280 f03c
00000390: 631d ebbb 248b a5be 074f 14bf 5d5b 623e
000003a0: fba0 0ebf 5892 ebbe b169 fcbe 4b2d a5be
000003b0: 6d5c c8bd ca38 c4bc 3362 3cbd 11ee 07bf
000003c0: 8730 95be 5c4b 21bf bd7d 92be 7083 c43e
000003d0: 3cda a23d 809a 65be 35bf 60be e7f2 62be
000003e0: de8e a6bd 3225 04bf 8381 f1be f9f7 e4be
000003f0: fec7 51bf 56bf a4be 23ad 99be 3b3f 3abf

fc2.weight f4 [256, 256]
-0.02974947 -0.046766598 0.01332169 -0.03972337 -0.055226326 -0.04298256 -0.073981404 -0.032526188
0.034038328 0.010652562 -0.015807632 -0.027027404 -0.0848238 0.005439381 -0.08515944 -0.03353102
-0.057354443 0.04788949 -0.077294394 0.04278103 -0.0036898458 0.0058397762 0.033423148 0.008148761
-0.04870639 -0.0528452 -0.03329223 -0.0640728 0.0070822365 -0.036346138 -0.01258328 -0.047406714
-0.028391857 -0.0911461 -0.08137881 0.017505782 -0.009146563 -0.013189927 -0.11181388 -0.04516649
-0.06470623 -0.014951981 -0.017112238 -0.07631913 -0.11219006 -0.04116007 0.04420683 0.043607894
-0.0888301 -0.06388082 -0.07354664 -0.099431284 -0.042027604 0.0053310366 -0.019603359 -0.04733234
0.048773292 -0.021978904 0.0038133436 0.0373371 0.04469787 0.002888635 -0.061202023 -0.06159277
-0.042377878 0.04347771 -0.00511407 0.008943132 -0.09539195 -0.042521846 0.04648329 -0.057666365
-0.10763786 -0.050002106 -0.030388545 -0.011016306 -0.017305506 0.017362118 -0.054690454 -0.04964505
-0.044502184 -0.007488659 0.022140106 -0.0076520564 0.06824207 0.015327176 -0.067113034 -0.032104935
-0.03806635 -0.003242447 -0.028609239 0.02123879 -0.050946414 -0.103586264 -0.05879083 -0.0015273426
0.05132766 0.037874 0.0008075281 0.015460245 -0.029936802 -0.020250227 -0.045614306 -0.030607054
-0.05675639 0.00781601 0.00084814837 0.04509927 -0.098784596 -0.0003504061 -0.082971185 -0.009973536
0.041839566 0.009681571 -0.028141212 -0.014252207 -0.07724204 0.046196256 0.008098741 -0.05221047
-0.00094190985 -0.023662852 -0.050905444 -0.041148186 -0.016093984 -0.10194803 -0.08630015 -0.00023513271
-0.05112496 -0.085160345 -0.042783555 -0.042438973 0.018861244 -0.06902306 -0.08379205 -0.029583411
-0.09645278 0.026479872 0.007574835 -0.07810933 -0.026732937 0.011332723 -0.05901352 0.0070784017
-0.103148445 -0.09045578 -0.04662425 -0.083794646 -0.012212425 -0.066046365 -0.04639003 -0.04252788
0.014126087 0.047764923 -0.037572492 -0.08699098 -0.112723805 0.054260243 -0.02107627 0.00010411137
-0.032909166 -0.019917881 0.010056404 0.029642373 -0.0021061024 -0.041556925 0.04559066 0.029955786
-0.047255326 -0.0365998 -0.006369084 0.0004894424 0.032041114 -0.07737213 -0.062449772 0.014584552
0.012441406 0.01555477 0.027429271 0.010154537 -0.030517088 -0.070781514 -0.035933632 0.0050724843
-0.0920062 -0.10644005 0.037274983 0.0128605 -0.07583471 -0.0063083633 -0.015335846 0.022356244
0.011779801 -0.03150321 0.022831531 -0.05841994 -0.058437575 -0.08616233 -0.05718844 0.026634725
-0.020987041 -0.074461885 -0.06345848 -0.05256868 -0.025050104 -0.07700062 0.011593374 0.050023817
0.007958521 -0.07693347 0.00933902 -0.05651161 -0.0632257 -0.025660511 -0.050871477 -0.07864798
-0.00030277838 -0.088590324 0.013217667 -0.09795676 -0.029241784 -0.05173865 -0.004559734 0.032365464
-0.061084908 -0.04219751 0.016812269 -0.02840906 0.037744604 -0.05859525 -0.021853812 0.005066048
-0.05888034 -0.047650624 0.05089221 0.008609426 -0.022200946 -0.006978467 -0.03343283 -0.08410386
0.02554503 -0.01593837 0.020941585 0.00016416515 -0.088359155 -0.045318376 -0.062373627 -0.015548254
0.027424876 0.0005927107 -0.083186544 -0.040006258 -0.087520294 -0.0641651 -0.0013624086 -0.033434708
00000000: 29b5 f3bc 558e 3fbd 3843 5a3c f9b4 22bd
00000010: 0035 62bd 7b0e 30bd 9083 97bd 2e3a 05bd
00000020: c66b 0b3d 1588 2e3c 027f 81bc 9368 ddbc
00000030: 1ab8 adbd d63c b23b 1368 aebd d357 09bd
00000040: 7eec 6abd c527 443d 864c 9ebd 293b 2f3d
00000050: 57d1 71bb 985b bf3b b6e6 083d 6182 053c
00000060: 5a80 47bd 3574 58bd 6f5d 08bd 9a38 83bd
00000070: 1b12 e83b b0df 14bd 1a2a 4ebc 8b2d 42bd
00000080: 0a96 e8bc ceaa babd efa9 a6bd 4968 8f3c
00000090: 77db 15bc 901a 58bc adfe e4bd 7f00 39bd
000000a0: b384 84bd 27f9 74bc f72e 8cbc 344d 9cbd
000000b0: e7c3 e5bd 7697 28bd 3912 353d 319e 323d
000000c0: 8eec b5bd f3d3 82bd 9f9f 96bd a1a2 cbbd
000000d0: 2325 2cbd faaf ae3b 3997 a0bc 8edf 41bd
000000e0: 81c6 473d 1a0d b4bc 4ae9 793b c9ee 183d
000000f0: 1d15 373d 414f 3d3b f9ae 7abd b348 7cbd
00000100: 6d94 2dbd af15 323d ee93 a7bb 3786 123c
00000110: db5c c3bd 632b 2ebd 4365 3e3d 9133 6cbd
00000120: 3d71 dcbd 02cf 4cbd 66f1 f8bc bc7d 34bc
00000130: 47c4 8dbc 003b 8e3c 1903 60bd 9c58 4bbd
00000140: ec47 36bd 6d63 f5bb 2b5f b53c 1abe fabb
00000150: 80c2 8b3d d61e 7b3c 8f72 89bd 7780 03bd
00000160: 76eb 1bbd 3c7f 54bb ec5d eabc f9fc ad3c
00000170: 30ad 50bd 0925 d4bd a7ce 70bd 1d31 c8ba
00000180: f43c 523d c421 1b3d 4bb0 533a f84c 7d3c
00000190: 063e f5bc cee3 a5bc 11d6 3abd a5bb fabc
000001a0: 6379 68bd b90e 003c 4656 5e3a 03ba 383d
000001b0: 944f cabd b6b6 b7b9 ccec a9bd 0b68 23bc
000001c0: f75f 2b3d 749f 1e3c 6688 e6bc 1782 69bc
000001d0: 1331 9ebd 4938 3d3d 95b0 043c a5da 55bd
000001e0: 80ea 76ba 99d8 c1bc 3a82 50bd 008b 28bd
000001f0: 88d7 83bc 21ca d0bd 22be b0bd f58d 76b9
00000200: 6868 51bd 8c68 aebd cf3d 2fbd 7dd4 2dbd
00000210: e582 9a3c f65b 8dbd 2b9b abbd e958 f2bc
00000220: 0989 c5bd 51ec d83c 5236 f83b c9f7 9fbd
00000230: 08ff dabc e3ac 393c 29b8 71bd f0f1 e73b
00000240: 7e3f d3bd e140 b9bd 12f9 3ebd 879c abbd
00000250: 9f16 48bc 5143 87bd 7903 3ebd b731 2ebd
00000260: 1a71 673c 27a5 433d 9de5 19bd 5428 b2bd
00000270: bddb e6bd fd3f 5e3d 24a8 acbc 5e56 da38
00000280: c3cb 06bd d32a a3bc 9ec3 243c 90d4 f23c
00000290: 8906 0abb 9837 2abd 46bd 3a3d d665 f53c
000002a0: cd8e 41bd ace9 15bd c0b3 d0bb ec4d 003a
000002b0: 8b3d 033d 4775 9ebd 55cb 7fbd 0bf4 6e3c
000002c0: 0ad7 4b3c 6fd9 7e3c 5ab3 e03c 375f 263c
000002d0: f9fe f9bc e6f5 90bd 252f 13bd 1537 a63b
000002e0: bf6d bcbd 3efd d9bd a7ad 183d d9b4 523c
000002f0: 3a4f 9bbd 63b6 cebb 3343 7bbc 7124 b73c
00000300: 1100 413c 8309 01bd 3109 bb3c bf49 6fbd
00000310: 3d5c 6fbd e075 b0bd 6d3e 6abd 1131 da3c
00000320: 04ed abbc 797f 98bd 85f6 81bd 4252 57bd
00000330: e035 cdbc 80b2 9dbd 23f2 3d3c c6e5 4c3d
00000340: 7564 023c 4c8f 9dbd b002 193c b878 67bd
00000350: 7a7c 81bd fe35 d2bc 9c5e 50bd 3112 a1bd
00000360: 3abe 9eb9 d86e b5bd ea8e 583c 8e9d c8bd
00000370: 778c efbc e8eb 53bd d269 95bb a691 043d
00000380: 2b34 7abd 4cd7 2cbd e2b9 893c 1eba e8bc
00000390: 169a 1a3d 9301 70bd c406 b3bc 1701 a63b
000003a0: 832c 71bd 4d2d 43bd 5a74 503d 8d0e 0d3c
000003b0: c2de b5bc a0ab e4bb ddf0 08bd a53e acbd
000003c0: d043 d13c 2f91 82bc b08d ab3c bf23 2c39
000003d0: a5f5 b4bd c39f 39bd 7d7b 7fbd 1bbe 7ebc
000003e0: 22aa e03c 2460 1b3a b55d aabd 9add 23bd
000003f0: d73d b3bd fe68 83bd d992 b2ba d5f2 08bd

fc2.bias f4 [256]
-0.038525093 -0.018045025 -0.06512695 0.033160076 -0.01363054 -0.018489424 -0.014318951 0.028827285
-0.08249349 -0.020234175 0.027234096 0.12820268 -0.09717679 -0.05103483 -0.05684443 -0.0064437706
0.038180996 -0.106131345 -0.020836905 -0.014893952 -0.030000895 -0.042781662 -0.014605194 0.024736404
-0.09218049 0.014393682 -0.04211096 -0.016861912 -0.013487502 0.020039188 -0.0401541 -0.038293503
0.26651204 0.010054829 0.10523428 0.020279177 -0.053444024 0.016076416 0.024059061 0.01893075
-0.10037701 -0.068429515 0.15477702 -0.020855678 0.029400654 -0.09218748 -0.053815078 -0.0028699045
-0.12793574 0.016902735 0.032297917 0.17299597 0.020591358 -0.047011126 0.0259887 -0.045298353
-0.076470956 -0.059877623 0.10538012 -0.005182673 -0.07571842 -0.0012970944 -0.062107865 -0.05326612
-0.077566445 -0.019885907 0.009333158 -0.0046996074 -0.022863468 -0.06683991 0.02184077 -0.0041365246
-0.047122035 0.13503382 -0.04577267 -0.057012286 0.0452824 -0.13432412 -0.06466661 -0.072557755
-0.0018891693 0.0068875183 0.2057266 -0.11103227 0.28745872 -0.075011864 -0.111617856 -0.017439932
0.0153408265 0.018904252 -0.007812645 -0.00972675 -0.002075909 0.010902266 -0.2677254 -0.026847782
-0.01905307 -0.09104212 -0.05285524 -0.021860225 -0.071114704 0.04794174 -0.012820049 0.035475448
0.015064473 -0.07540679 0.00789057 -0.042199243 -0.06887779 -0.06693438 -0.069683224 -0.05721974
0.023093821 -0.07775306 0.126239 0.038751002 -0.21206875 -0.071761474 -0.006221154 -0.008233892
-0.044636574 0.035157774 0.028928058 0.0011375238 0.033732116 -0.015598015 -0.045443293 -0.039490044
-0.03324805 -0.073545605 0.11618839 -0.0840655 0.29383004 -0.078829676 0.012579326 0.012452834
0.047027748 0.035718285 -0.18511555 -0.0056903823 -0.09345441 0.05414637 0.027816024 -0.11150037
-0.06017946 -0.058142617 -0.09577803 -0.018661926 -0.0167205 -0.03185146 -0.071412764 -0.02432155
0.014576458 -0.03930552 -0.0126522705 -0.0103126345 -0.07820487 -0.073902205 -0.03501133 -0.06941441
0.024730016 -0.007716872 -0.09986159 -0.045097116 0.008210627 -0.03201174 0.27729478 0.01615824
-0.21229535 0.00034815213 -0.061876852 -0.050958887 -0.040521488 0.039849885 -0.016768845 0.0054474208
-0.024925759 0.004707383 -0.004294207 -0.015180813 0.011273993 -0.025523353 -0.6011584 -0.008370698
-0.080573544 -0.13882074 0.027398733 -0.079906695 -0.0712827 -0.05077397 0.29600444 -0.045130845
0.039159253 -0.050214622 -0.0964053 -0.0083746575 -0.062598005 0.02553803 -0.03547311 0.024337426
0.008269674 -0.01714788 0.019280676 -0.091317095 -0.1839344 -0.05926991 -0.06625265 -0.09706014
0.044000544 -0.0565591 -0.039921362 -0.058713317 0.1666364 -0.047677595 -0.16569284 -0.061798792
-0.05445752 0.021480301 -0.047510542 -0.066465475 -0.009307345 0.024155723 -0.07166236 -0.118704446
0.003993636 -0.071370795 0.024286127 -0.04339929 0.04315429 0.39433172 0.027281396 0.04122454
-0.045966342 -0.06500571 0.0068651633 0.031279836 0.0033503815 0.0029312938 -0.03898269 -0.03178938
-0.058126908 -0.0019192297 0.0047222083 -0.059746996 0.03608968 0.09071534 0.006455686 0.03274927
-0.012915775 0.25284746 -0.15568213 -0.13861138 -0.040045217 0.04723881 0.01475425 -0.018485816
00000000: 7dcc 1dbd 29d3 93bc 4761 85bd dcd2 073d
00000010: a152 5fbc 2277 97bc 099a 6abc 3327 ec3c
00000020: 59f2 a8bd 24c2 a5bc 0a1a df3c 9047 033e
00000030: a004 c7bd e609 51bd b4d5 68bd 4426 d3bb
00000040: ad63 1c3d 645b d9bd 28b2 aabc c305 74bc
00000050: 70c4 f5bc d33b 2fbd a04a 6fbc 00a4 ca3c
00000060: 20c9 bcbd 7ad3 6b3c 8b7c 2cbd fe21 8abc
00000070: affa 5cbc 3929 a43c a078 24bd a6d9 1cbd
00000080: 4474 883e 02bd 243c 1285 d73d 8420 a63c
00000090: 1fe8 5abd b0b2 833c 8217 c53c a914 9b3c
000000a0: 7692 cdbd c624 8cbd de7d 1e3e 87d9 aabc
000000b0: a4d9 f03c cacc bcbd 336d 5cbd 0215 3cbb
000000c0: 9601 03be 9b77 8a3c d24a 043d db25 313e
000000d0: 35af a83c bd8e 40bd 41e6 d43c c48a 39bd
000000e0: ce9c 9cbd 3d42 75bd 88d1 d73d 6ad3 a9bb
000000f0: 4212 9bbd 4403 aaba d164 7ebd 932d 5abd
00000100: 28db 9ebd c5e7 a2bc 1aea 183c 2aff 99bb
00000110: 2b4c bbbc 5de3 88bd 6aeb b23c af8b 87bb
00000120: 0903 41bd 4e46 0a3e 207c 3bbd b785 69bd
00000130: 0a7a 393d 438c 09be ed6f 84bd 2999 94bd
00000140: 019e f7ba b1b0 e13b fea9 523e e364 e3bd
00000150: ca2d 933e d29f 99bd e797 e4bd 30de 8ebc
00000160: 1758 7b3c 17dd 9a3c 9c00 00bc f25c 1fbc
00000170: f90b 08bb 6b9f 323c 4e13 89be e1ef dbbc
00000180: 2f15 9cbc 4a74 babd bc7e 58bd 3714 b3bc
00000190: 96a4 91bd 8f5e 443d 2f0b 52bc b44e 113d
000001a0: fbd0 763c e06e 9abd 7347 013c 1dd9 2cbd
000001b0: cc0f 8dbd e414 89bd 14b6 8ebd 3f5f 6abd
000001c0: 412f bd3c ff3c 9fbd cc44 013e 5fb9 1e3d
000001d0: 8d28 59be aef7 92bd d2da cbbb 72e7 06bc
000001e0: d7d4 36bd 9901 103d 89fa ec3c f718 953a
000001f0: b02a 0a3d d18e 7fbc bf22 3abd 50c0 21bd
00000200: 1b2f 08bd 149f 96bd 2ef4 ed3d 882a acbd
00000210: e470 963e 7471 a1bd 8419 4e3c f906 4c3c
00000220: 2ba0 403d 564d 123d ee8e 3dbe 6376 babb
00000230: 0765 bfbd 96c8 5d3d 6ede e33c 4e5a e4bd
00000240: bd7e 76bd f426 6ebd 4627 c4bd e5e0 98bc
00000250: 6ef9 88bc ad76 02bd db40 92bd fd3d c7bc
00000260: 19d2 6e3c d3fe 20bd 784b 4fbc 53f6 28bc
00000270: e029 a0bd 0a5a 97bd 0a68 0fbd 2429 8ebd
00000280: 9a96 ca3c d0dd fcbb 3c84 ccbd c1b7 38bd
00000290: de85 063c be1e 03bd 95f9 8d3e 495e 843c
000002a0: f463 59be 3088 b639 9572 7dbd 44ba 50bd
000002b0: dcf9 25bd a239 233d d15e 89bc 4780 b23b
000002c0: 1b31 ccbc 6440 9a3b 6bb6 8cbb f2b8 78bc
000002d0: 8eb6 383c 5a16 d1bc 84e5 19bf 4125 09bc
000002e0: be03 a5bd 0627 0ebe 4f73 e03c 1fa6 a3bd
000002f0: aafc 91bd 5ef8 4fbd e58d 973e 1fdb 38bd
00000300: 7465 203d d9ad 4dbd 2470 c5bd dc35 09bc
00000310: 6233 80bd 2135 d13c 404c 11bd 485f c73c
00000320: 877d 073c b679 8cbc 82f2 9d3c 7504 bbbd
00000330: 4d59 3cbe 01c5 72bd 78af 87bd 77c7 c6bd
00000340: ea39 343d 84aa 67bd 9584 23bd 607d 70bd
00000350: bca2 2a3e 9549 43bd 62ab 29be bb20 7dbd
00000360: d90e 5fbd 75f7 af3c 6a9a 42bd 0d1f 88bd
00000370: d67d 18bc 39e2 c53c b7c3 92bd 511b f3bd
00000380: 0cdd 823b da2a 92bd b3f3 c63c 74c3 31bd
00000390: 8ec2 303d d9e5 c93e 3c7d df3c 10db 283d
000003a0: 3447 3cbd b721 85bd 2af5 e03b 491f 003d
000003b0: 1392 5b3b f31a 403b 50ac 1fbd 9535 02bd
000003c0: 7b16 6ebd aa8e fbba c1bc 9a3b 44b9 74bd
000003d0: c6d2 133d f7c8 b93d 388a d33b 1924 063d
000003e0: b09c 53bc 3975 813e 236b 1fbe 24f0 0dbe
000003f0: 7406 24bd 7c7d 413d cfbb 713c 916f 97bc

fc3.weight f4 [1, 256]
0.008207245 -0.020712404 0.00040020494 0.05251211 0.039175075 -0.0011860759 -0.023024514 -0.039436202
0.009481355 0.06401515 0.008904077 -0.34647763 -0.07179971 0.0007854534 0.006931182 0.03723872
0.052621365 0.013006593 -0.0062110447 0.0051730815 0.02855761 0.011798976 -0.012404343 -0.0047821715
0.026093487 0.036770076 0.013150062 0.048930354 0.061554577 0.025651924 0.043656163 -0.0201846
0.4148497 0.01822138 -0.673814 0.0447273 0.0010148279 0.0024980165 -0.008479471 -0.018158883
-0.0051126457 -0.00577234 -0.9254931 0.032734957 0.0005731472 -0.027789166 -0.0006322855 0.0034129173
0.14573675 0.043296743 -0.04957877 -0.67152363 0.008519562 -0.008684189 -0.0067188838 -0.014049485
0.021629468 0.039780457 -1.4977148 -0.008669485 -0.006778187 -0.020918135 0.0019458099 0.017054204
0.008703223 -0.05278932 -0.005189866 0.0036787926 2.1802123 0.05001448 -0.6292491 -0.16573253
-0.017161228 -0.5931638 -0.019868564 -0.00411134 0.008490567 2.12016 -0.04103624 0.056803435
-0.040369976 0.008591157 -0.76903385 -0.77477866 0.80953103 -0.10195412 0.0032418815 0.00491237
-0.0068625803 0.019950954 0.058175005 -0.017287083 0.00011202963 0.012595192 -0.015545022 0.03612761
-0.013527104 0.0059996257 0.05726175 -0.019822327 -0.0037108886 -1.0726582 -0.024674594 -0.00034702546
-0.04169793 0.034250375 0.03297708 -0.008487675 -0.00825752 -0.008502026 -0.073421754 0.007018172
-0.00984903 0.004338752 -0.99875546 0.033339515 0.12570462 -0.031726625 0.0039798175 0.01365993
0.054028146 -0.76618755 0.00087741716 -0.03476031 -0.0020296366 0.005650076 -0.049102593 0.0010142627
-0.0023462153 -0.0012001201 -0.42452806 -0.010710622 0.23185927 0.015240412 -0.02715278 -0.0055256216
-0.8799575 -0.0402537 -0.37869245 0.00087799894 0.3819633 0.06524061 0.0039871247 0.015889252
0.029811751 0.003383361 0.035950016 -0.052924965 0.0025862611 0.039126057 -0.024369063 0.0033991244
-0.01654388 0.0035835095 0.0005673642 0.006555713 -0.013252376 0.0051762993 -0.048794124 0.028384466
-0.022215595 0.0037850395 -0.023801684 -0.005685097 -0.023056915 -0.013872966 0.6602915 -0.001968239
-0.034709603 -0.24060757 0.11845403 0.036440246 -0.027971376 0.0047511575 0.006060765 0.035969768
-0.04239131 -0.010113773 0.019051753 -0.0130883055 -0.037101552 -0.02347389 0.14436497 0.033644505
-0.044430044 -0.04630327 0.0067571606 -0.00080843485 -0.000846335 0.023972701 0.4762255 0.010015716
0.0029495058 4.7483296e-05 0.014473283 -0.04834498 -0.038923554 0.026383424 0.02067086 0.042449396
0.007256784 0.03331334 0.03036108 -0.016460855 -0.4372778 -0.024840327 0.0077128257 0.0042010564
-1.1650336 -0.0258728 0.009515424 -0.0092248805 0.60948336 -0.014249749 -0.0048249355 0.014109267
-0.013112244 -0.0033872672 0.031952687 -0.022881603 0.025850134 0.0058380617 -0.022244798 0.00599831
-0.051767077 0.021625888 -0.28751677 -0.03713924 0.014244726 -0.17517085 0.0708092 -0.004790439
-0.00922319 0.005421195 0.023607444 -0.00015710601 -0.04167375 0.07040018 0.028948095 -0.00027185315
-0.83437836 -0.031255662 0.0024541386 0.054946464 -0.046576217 0.33119482 -0.049142487 -0.0011679914
0.004258802 0.58132935 0.038700167 0.054754507 -0.004371617 -0.022022432 -0.036779143 0.0060306955
00000000: ae77 063c 0fad a9bc 99d2 d139 f016 573d
00000010: 0b76 203d 1a76 9bba e89d bcbc db87 21bd
00000020: af57 1b3c 601a 833d 68e2 113c 8465 b1be
00000030: ba0b 93bd e3e6 4d3a f81e e33b a187 183d
00000040: 8089 573d 9b19 553c 0586 cbbb f482 a93b
00000050: a6f1 e93c 7e50 413c 963b 4bbc c3b3 9cbb
00000060: 02c2 d53c 389c 163d 5c73 573c 326b 483d
00000070: a720 7c3d fc23 d23c ced0 323d 2d5a a5bc
00000080: 2e67 d43e 0145 953c 137f 2cbf f933 373d
00000090: f903 853a c3b5 233b 7bed 0abc f0c1 94bc
000000a0: fb87 a7bb e625 bdbb 1eed 6cbf 1715 063d
000000b0: 423f 163a 1ba6 e3bc f6bf 25ba 40ab 5f3b
000000c0: 043c 153e ed57 313d 1c13 4bbd f9e8 2bbf
000000d0: a295 0b3c 2148 0ebc 152a dcbb d02f 66bc
000000e0: 4830 b13c d5f0 223d 1eb5 bfbf 750a 0ebc
000000f0: 8e1b debb 825c abbc 8c0a ff3a 42b5 8b3c
00000100: f797 0e3c 9d39 58bd c00f aabb e617 713b
00000110: 9988 0b40 fcdb 4c3d 7816 21bf cab5 29be
00000120: b495 8cbc 95d9 17bf 66c3 a2bc 6bb8 86bb
00000130: 051c 0b3c b4b0 0740 9e15 28bd b8aa 683d
00000140: fd5a 25bd edc1 0c3c 67df 44bf e557 46bf
00000150: 6d3d 4f3f 52cd d0bd bf75 543b f2f7 a03b
00000160: 7fdf e0bb 2f70 a33c ea48 6e3d a49d 8dbc
00000170: 73f1 ea38 105c 4e3c 8cb0 7ebc 8bfa 133d
00000180: c9a0 5dbc 8298 c43b 4c8b 6a3d 6f62 a2bc
00000190: 6132 73bb dd4c 89bf 6022 cabc f8f0 b5b9
000001a0: 73cb 2abd 1f4a 0c3d fa12 073d e40f 0bbc
000001b0: 8d4a 07bc 154c 0bbc 255e 96bd b2f8 e53b
000001c0: d35d 21bc 172c 8e3b 70ae 7fbf 048f 083d
000001d0: b6b8 003e c7f3 01bd 2169 823b e6cd 5f3c
000001e0: 9e4c 5d3d de24 44bf 7802 663a d460 0ebd
000001f0: a703 05bb 4624 b93b cd1f 49bd 02f1 843a
00000200: f6c2 19bb 594d 9dba be5b d9be 9b7b 2fbc
00000210: 846c 6d3e ecb2 793c 826f debc 4610 b5bb
00000220: e544 61bf 10e1 24bd fae3 c1be 8329 663a
00000230: b290 c33e de9c 853d 6da6 823b 2d2a 823c
00000240: c637 f43c 61bb 5d3b 5340 133d d9c7 58bd
00000250: 437e 293b a542 203d a1a1 c7bc d8c3 5e3b
00000260: 0887 87bc 50d9 6a3b 2bbb 143a 4ed1 d63b
00000270: 7e20 59bc f29d a93b 59dc 47bd 8a86 e83c
00000280: 7bfd b5bc 6d0e 783b c0fb c2bc 0d4a babb
00000290: dbe1 bcbc 704b 63bc dd08 293f 92fd 00bb
000002a0: a82b 0ebd d561 76be 0798 f23d 5e42 153d
000002b0: 3a24 e5bc 99af 9b3b 6299 c63b 0955 133d
000002c0: 83a2 2dbd 3db4 25bc 6c12 9c3c 5570 56bc
000002d0: ccf7 17bd 514c c0bc 69d4 133e d2ce 093d
000002e0: 47fc 35bd 7fa8 3dbd 2c6b dd3b 25ed 53ba
000002f0: 95dc 5dba 6662 c43c d4d3 f33e f518 243c
00000300: 7f4c 413b cd28 4738 5921 6d3c 6305 46bd
00000310: 4e6e 1fbd 0d22 d83c ef55 a93c 6bdf 2d3d
00000320: 51ca ed3b 9273 083d cdb7 f83c ead8 86bc
00000330: e0e2 dfbe f17d cbbc dfbb fc3b 04a9 893b
00000340: d21f 95bf 32f3 d3bc 95e6 1b3c f423 17bc
00000350: 1a07 1c3f c777 69bc 7e1a 9ebb 8e2a 673c
00000360: bdd4 56bc eafc 5dbb d2e0 023d 3372 bbbc
00000370: a9c3 d33c 364d bf3b b93a b6bc 798d c43b
00000380: b709 54bd c628 b13c 6635 93be 511f 18bd
00000390: b662 693c fd5f 33be 6a04 913d 1df9 9cbb
000003a0: dd1c 17bc 48a4 b13b 6664 c13c d3bc 24b9
000003b0: 18b2 2abd f82d 903d 8e24 ed3c 8387 8eb9
000003c0: d299 55bf f005 00bd 9dd5 203b 8b0f 613d
000003d0: b4c6 3ebd 5e92 a93e a249 49bd 4a17 99ba
000003e0: 6c8d 8b3b 00d2 143f 1184 1e3d 4346 603d
000003f0: c83f 8fbb 6368 b4bc baa5 16bd 249d c53b
