benchmarks/CartPole-v1/Test_CartPole-v1_CQL_20230409-160145/models/checkpoint.pt (torch, 272407 bytes, 6 tensors)

layers.0.0.weight f4 [256, 4]
0	0x3ef879c9	0.48530415
1	0xbdc2d9aa	-0.095141724
2	0xbf82b528	-1.0211535
3	0xbe2e9ecc	-0.17052764
4	0xbf878730	-1.0588131
5	0x3ee3faf9	0.44527414
6	0xbec8fde9	-0.39256218
7	0x3ebd3fc2	0.36962706
8	0x3e989d96	0.2980773
9	0xbe74c08e	-0.23901579
10	0x3f8cbd1e	1.0995214
11	0xbddfffd2	-0.10937466
12	0x3e659c0e	0.22422811
13	0xbe1b0dde	-0.15142009
14	0xbd9e1b22	-0.07720019
15	0xbdb53d15	-0.08849541
16	0x3db2a979	0.087237306
17	0x3c0f2965	0.008737897
18	0x3eba7509	0.36417416
19	0x3dce34de	0.10068677
20	0x3dd6b04d	0.104828455
21	0xbec53595	-0.38517442
22	0xbf6f6c6a	-0.935248
23	0xbecce014	-0.40014708
24	0xbe87ea69	-0.26546028
25	0x3e44cfa3	0.19219832
26	0x3fc2cdea	1.521909
27	0x3ea7186d	0.32635823
28	0xbf223ff2	-0.6337882
29	0x3f1a3199	0.6023193
30	0x3f861637	1.047553
31	0x3f156bc6	0.58367574
32	0x3eea19c3	0.4572278
33	0xbea1ceba	-0.31603032
34	0xbf5aedc6	-0.85519063
35	0xbed6dd18	-0.41965556
36	0x3ec181e5	0.37794414
37	0xbe9a1b9d	-0.30099192
38	0x3fc5c08e	1.5449388
39	0xbdf67dde	-0.12035726
40	0x3f045c83	0.5170366
41	0xbe595ebc	-0.21227545
42	0x3eebecd8	0.46079135
43	0xbe641220	-0.22272539
44	0xbe81f705	-0.25383773
45	0x3e9fc470	0.31204557
46	0xbef00a59	-0.46882895
47	0x3ee164e7	0.44022295
48	0x3f4574f7	0.771316
49	0xbe3aefc3	-0.18255524
50	0xbfba41db	-1.4551347
51	0xbea95a5b	-0.33076748
52	0x3f37337c	0.71562934
53	0x3ad9b886	0.0016610778
54	0x3f2a0c50	0.6642504
55	0xbe0d7a44	-0.13816172
56	0xbe683b82	-0.2267895
57	0xbe36a8d4	-0.1783784
58	0x3f52cad7	0.8234076
59	0x3d527f69	0.05139104
60	0xbecb5749	-0.3971503
61	0x3f02a59e	0.5103396
62	0x3fa8a0f6	1.3174121
63	0x3ec8d09b	0.39221653
64	0xbe4678aa	-0.19381967
65	0x3b9f77f3	0.004866594
66	0xbdc244be	-0.09485768
67	0xbc679be8	-0.014136292
68	0xbebebd1e	-0.3725366
69	0xbe905888	-0.28192544
70	0x3f137796	0.5760435
71	0xbe3d48e2	-0.18484834
72	0x3e13da18	0.14438665
73	0xbd51cdae	-0.051221542
74	0x3df3c519	0.11902828
75	0x3d173963	0.036919963
76	0x3e010ab1	0.12601735
77	0x3e8e53a1	0.2779818
78	0xbf143023	-0.5788595
79	0x3e4de9df	0.20108746
80	0x3e56ab0e	0.2096369
81	0xbe9c3a8e	-0.30513424
82	0x3ec0abc1	0.37631038
83	0xbe94959c	-0.29020393
84	0x3ed3e94e	0.41388935
85	0xbe26bd64	-0.16283184
86	0xbf90f320	-1.1324196
87	0x3e492114	0.19641525
88	0xbf224888	-0.63391924
89	0xbd97c6ba	-0.07410951
90	0x3f21d369	0.6321321
91	0xbe55605e	-0.20837542
92	0xbdc5f48b	-0.096657835
93	0x3b567623	0.0032724224
94	0xbf957391	-1.1675893
95	0xbd100182	-0.035157688
96	0x3eeedf50	0.4665475
97	0xbe4b1929	-0.19833817
98	0xbf680862	-0.9063779
99	0xbe8ea2df	-0.27858636
100	0x3f06cfe5	0.5266097
101	0x3bd80ad6	0.0065930886
102	0x3fa716a7	1.3053788
103	0x3b9fa9ca	0.0048725354
104	0xbf1890e8	-0.5959611
105	0xbe8aa4b0	-0.27078772
106	0x3fb7f2a2	1.4370921
107	0xbc97287f	-0.018451927
108	0xbe84152b	-0.257974
109	0x3e8c2930	0.27375174
110	0x3fc6cc5a	1.5531113
111	0x3eeb4c88	0.45956826
112	0x3f1fc7ac	0.6241405
113	0xbe04f03b	-0.12982266
114	0xbea89d02	-0.32932287
115	0x3e2dc159	0.16968288
116	0x3f08ef8b	0.53490514
117	0xbdf409c9	-0.11915929
118	0xbf5721e7	-0.84036106
119	0xbe8d70ac	-0.27625024
120	0xbf6f07ed	-0.9337147
121	0xbdd04e1c	-0.10171148
122	0x3fc02ad9	1.5013076
123	0xbe1f538d	-0.15559216
124	0x3effae37	0.49937603
125	0xbe79dd60	-0.24400854
126	0xbf798a08	-0.97476244
127	0xbea8034d	-0.32815018
128	0xbf0d0710	-0.550889
129	0x3ecc32b2	0.39882427
130	0xbdbfed4e	-0.09371434
131	0x3ebf4bab	0.37362418
132	0xbe8a8e6b	-0.2706178
133	0x3ea44923	0.3208705
134	0x3fbd38a0	1.4782906
135	0x3efbb097	0.49158165
136	0x3f059be5	0.52191
137	0x3b2c46ed	0.0026287392
138	0xbf723fe3	-0.94628733
139	0xbee5c4cc	-0.44876707
140	0xbe5c9add	-0.2154345
141	0x3d2acb3e	0.041697733
142	0xbec40b37	-0.38289806
143	0x3dd94b96	0.1061012
144	0x3e8154d6	0.25260037
145	0xbe6db99d	-0.23215337
146	0x3f90e93f	1.1321181
147	0xbdb117f5	-0.086471476
148	0x3e89e1a5	0.26929966
149	0x3ecadb24	0.39620316
150	0xbecd4540	-0.40091896
151	0x3ede6e05	0.43443313
152	0x3ec5b1fd	0.38612357
153	0xbdc4d5e9	-0.096111126
154	0xbfce009f	-1.609394
155	0xbed663ef	-0.41873118
156	0xbf0f86ac	-0.5606487
157	0xbe852ef7	-0.26012394
158	0x3fa3a710	1.2785358
159	0xbd368947	-0.04456451
160	0xbf100151	-0.5625201
161	0x3eaf51bb	0.34242043
162	0x3fb09c93	1.3797783
163	0x3f07234d	0.5278824
164	0xbe536ec4	-0.20647722
165	0x3d9c6efb	0.07638355
166	0xbd01a6c6	-0.03165319
167	0xbc1d5172	-0.009601938
168	0xbf62cbf4	-0.8859246
169	0xbd1ca791	-0.03824574
170	0xbf52b5fa	-0.82308924
171	0xbd3f7fcf	-0.046752747
172	0xbea6c69e	-0.32573408
173	0x3e8a0abb	0.26961312
174	0x3fde790e	1.7380693
175	0x3efb4efd	0.490837
176	0xbf1eea1e	-0.62075984
177	0x3e6bfbd8	0.2304529
178	0x3f2de5e9	0.6792894
179	0x3f1a053e	0.6016425
180	0x3e3b38d6	0.182834
181	0xbdc94933	-0.09828415
182	0xbf891c5f	-1.0711783
183	0xbe5f0e6a	-0.21782842
184	0xbf71e8d2	-0.9449588
185	0x3e82ecc5	0.25571266
186	0xbe120cb5	-0.1426266
187	0xbe0e3762	-0.13888314
188	0xbe2a4e44	-0.16631418
189	0xbe9d4328	-0.307153
190	0x3e8328de	0.25617117
191	0xbe51b698	-0.2047981
192	0xbecb164c	-0.3966545
193	0xbe9448d5	-0.28961816
194	0x3f24bb3f	0.64348215
195	0xbdb62161	-0.08893085
196	0x3c3af76d	0.01141153
197	0x3d1dd4d1	0.038533036
198	0x3f218a0c	0.6310127
199	0xbdb91d48	-0.09038788
200	0x3df800a0	0.12109494
201	0xbebd4b9c	-0.36971748
202	0x3eda8fe5	0.42687908
203	0xbe469ba8	-0.19395316
204	0x3eb744ff	0.35794827
205	0x3ccf5ce4	0.025312848
206	0x3ea65751	0.32488492
207	0x3dcc8013	0.09985366
208	0x3e3b8ad2	0.18314674
209	0x3e1df241	0.15424444
210	0xbe4bca41	-0.19901372
211	0x3d539058	0.05165133
212	0xbefd7b05	-0.4950792
213	0x3edd2c15	0.43197694
214	0x3f107077	0.5642161
215	0x3eb8c84b	0.3609031
216	0x3e824c98	0.2544906
217	0xbdad5c18	-0.08464831
218	0xbf45ec4f	-0.77313703
219	0x3cb2261f	0.021746693
220	0xbf24df42	-0.64403164
221	0x3e474e32	0.19463423
222	0xbf684cf2	-0.9074241
223	0xbd29daac	-0.041468307
224	0x3e946d7f	0.2898979
225	0xbe334037	-0.17504965
226	0xbef6550a	-0.48111755
227	0x3e287167	0.1644951
228	0x3f1d17f3	0.6136467
229	0xbe0850cc	-0.13312072
230	0xbf2770c9	-0.6540647
231	0xbeb98e48	-0.36241364
232	0x3f19e0de	0.60108745
233	0xbbb5f954	-0.005553404
234	0xbeb773da	-0.35830575
235	0x3c059257	0.008152566
236	0xbf642e25	-0.8913291
237	0x3e20ff10	0.15722299
238	0x3f6cc480	0.92487335
239	0xbdf477ac	-0.11936888
240	0xbf21dde7	-0.6322922
241	0xbd9c26d1	-0.07624591
242	0x3e9c5cb0	0.30539465
243	0xbd0cf72d	-0.034415413
244	0xbf422b93	-0.7584774
245	0xbdf490ba	-0.11941667
246	0xbea124fe	-0.31473535
247	0xbdbbcf52	-0.091704026
248	0xbf50dafd	-0.8158415
249	0x3e31173c	0.1729402
250	0x3f19190f	0.5980386
251	0xbedbe995	-0.42951646
252	0x3f169ebd	0.58835965
253	0xbdf14421	-0.11780573
254	0xbf836c93	-1.0267509
255	0xbedd97aa	-0.43279773

layers.0.0.bias f4 [256]
0	0xbebe85e5	-0.37211528
1	0xbd88c329	-0.06677849
2	0xbe0f5cc6	-0.14000234
3	0xbea55aa0	-0.32295704
4	0xbf0f8c86	-0.56073797
5	0xbe93f15c	-0.2889508
6	0xbea7780f	-0.32708785
7	0xbeeaddd6	-0.45872372
8	0x3ecaf16b	0.39637312
9	0xbe61a8b7	-0.22037016
10	0x3d79b06a	0.060959257
11	0xbe5c914c	-0.21539801
12	0xbefb5b06	-0.49092883
13	0xbea0dfee	-0.31420845
14	0xbf21cf0f	-0.6320657
15	0xbea2d665	-0.31804195
16	0xbef45bcb	-0.47726282
17	0x3e85a8d8	0.2610538
18	0xbee24493	-0.44192943
19	0x3ef81056	0.48449963
20	0xbcb942d0	-0.022614866
21	0x3eab653a	0.33475667
22	0xbe006dec	-0.12541932
23	0xbe5a9a64	-0.21347958
24	0xbea47648	-0.3212149
25	0xbe4dca0f	-0.2009661
26	0xbec74703	-0.38921365
27	0xbf087cad	-0.5331524
28	0x3eaa6def	0.33286998
29	0xbe2e0a4f	-0.1699612
30	0x3d99c316	0.07507913
31	0xbeb57374	-0.35439646
32	0xbe0fe893	-0.14053564
33	0xbec85a7b	-0.3913153
34	0xbf08f25f	-0.5349483
35	0x3ebdf0a4	0.37097657
36	0xbd1dafff	-0.03849792
37	0x3e3adc05	0.18247993
38	0xbf0d61f1	-0.5522757
39	0xbeaded70	-0.33970213
40	0xbee9f476	-0.4569432
41	0xbea9a2b5	-0.33131948
42	0xbe80a44b	-0.25125346
43	0xbeec8690	-0.46196413
44	0xbf18e849	-0.5972944
45	0xbeaa213f	-0.3322849
46	0x3ec69c66	0.38791198
47	0x3ee11f8c	0.4396938
48	0xbeea2800	-0.45733643
49	0xbebb1532	-0.36539608
50	0xbed6140c	-0.4181217
51	0xbf1d6145	-0.61476547
52	0xbe8f6074	-0.28003275
53	0x3f07170c	0.5276954
54	0xbf127adf	-0.57218736
55	0xbeef93b1	-0.46792367
56	0x3ebc8c8a	0.36825973
57	0xbef7a795	-0.48370042
58	0x3ebcc122	0.368661
59	0x3e8aa332	0.27077633
60	0x3eeab903	0.45844278
61	0xbe518c6c	-0.20463723
62	0xbebe977e	-0.37224954
63	0xbf210bec	-0.62908816
64	0xbf02c74a	-0.5108534
65	0x3eeb9fa2	0.46020228
66	0x3d62bc4c	0.055355355
67	0xbeb4b7b1	-0.35296395
68	0xbed79864	-0.42108452
69	0xbeeecba0	-0.4663973
70	0x3e816f8b	0.25280413
71	0xbe974cec	-0.29550874
72	0xbf37089e	-0.71497524
73	0xbea304f6	-0.31839722
74	0xbeaa9d3c	-0.33323085
75	0xbe8e7d24	-0.2782985
76	0x3c91e866	0.017811012
77	0xbe6395c1	-0.22225095
78	0xbf20ccf8	-0.6281276
79	0xbe33c01f	-0.17553757
80	0xbec5a62c	-0.38603342
81	0x3e8bfeb9	0.27342775
82	0xbdc3f463	-0.095680974
83	0x3a4cdbce	0.0007814736
84	0x3ecd36c7	0.40080854
85	0xbe6e174f	-0.23251079
86	0xbf0d5a04	-0.5521548
87	0xbec16d26	-0.37778586
88	0xbef1e6db	-0.4724644
89	0xbe263b1e	-0.16233489
90	0xbebd0752	-0.36919647
91	0x3f03f7e4	0.51550126
92	0xbef4f9b3	-0.47846755
93	0xbf338b0e	-0.70134056
94	0xbea97626	-0.33097953
95	0xbe499fe7	-0.19689904
96	0x3e4449cc	0.19168776
97	0x3ebd63fa	0.3699034
98	0x3e825bd2	0.25460678
99	0xbe867917	-0.2626426
100	0xbedc9601	-0.43083194
101	0xbea9a2d6	-0.33132046
102	0xbf1298b4	-0.57264256
103	0xbea57172	-0.32313114
104	0xbf21c26d	-0.63187295
105	0xbd20d51f	-0.039265748
106	0x3c964fbc	0.018348567
107	0x3ef08dfd	0.46983328
108	0xbf13e361	-0.5776883
109	0x3e98b662	0.29826647
110	0xbede3ad1	-0.43404248
111	0xbf000ca4	-0.5001929
112	0x3ef9e3dc	0.48806655
113	0x3e23f542	0.16011527
114	0xbebd8403	-0.3701478
115	0xbe25ccf6	-0.16191468
116	0xbf0a0e41	-0.53928
117	0x3e8c2e6e	0.27379173
118	0x3f04405b	0.516607
119	0xbf043beb	-0.5165393
120	0xbe686c5a	-0.22697583
121	0xbeec82c6	-0.46193522
122	0xbf1e1298	-0.6174712
123	0xbf128d7f	-0.57247156
124	0xbece5f91	-0.40307286
125	0xbf1cafd9	-0.6120582
126	0xbeb814c1	-0.35953334
127	0xbea2c586	-0.31791323
128	0xbf3c85ae	-0.7364148
129	0xbf0498d0	-0.51795673
130	0xbe714d12	-0.23564556
131	0xbf126757	-0.57188934
132	0x3e76758d	0.2406828
133	0xbe961ba4	-0.29317963
134	0xbeab854b	-0.33500132
135	0xbe9e6eaf	-0.3094382
136	0xbec2701d	-0.3797616
137	0x3e1edfb4	0.15515023
138	0x3e855005	0.26037613
139	0xbeca5692	-0.39519173
140	0xbec7af30	-0.39000845
141	0x3f011c9a	0.5043427
142	0xbeb930d1	-0.36170056
143	0xbde1e7a9	-0.11030514
144	0xbed09472	-0.40738255
145	0xbf0a10a0	-0.5393162
146	0xbeded8da	-0.4352482
147	0xbee840df	-0.45361993
148	0x3e404528	0.18776381
149	0xbebeb003	-0.3724366
150	0xbeae8325	-0.3408443
151	0xbeeff277	-0.46864673
152	0xbb3c7c3d	-0.0028760575
153	0x3f02523f	0.5090675
154	0xbeddd654	-0.43327582
155	0xbec4331d	-0.38320246
156	0xbf300b63	-0.68767375
157	0x3f10f381	0.5662156
158	0x3e47f3b3	0.19526558
159	0xbe46e0e6	-0.1942173
160	0xbef052be	-0.46938127
161	0x3de41e55	0.11138598
162	0xbe5034f1	-0.20332696
163	0x3d7ca633	0.061681937
164	0x3e883f02	0.2661057
165	0xbdb74287	-0.08948236
166	0x3e61bd23	0.22044806
167	0xbd8c361a	-0.068462566
168	0xbec4c01c	-0.38427818
169	0xbe22cfe5	-0.15899618
170	0xbeb5a2bd	-0.35475722
171	0x3ec5f176	0.38660783
172	0x3e8206b6	0.25395745
173	0xbeef7acc	-0.46773374
174	0xbf0551e9	-0.5207811
175	0xbe2879fa	-0.1645278
176	0xbe48e7c6	-0.19619665
177	0x3ee4e16d	0.44703236
178	0x3dc2bb4c	0.0950838
179	0xbed6634f	-0.4187264
180	0xbcf221f2	-0.029557202
181	0xbf354f34	-0.7082398
182	0xbe8e85a0	-0.27836323
183	0xbec61965	-0.3869125
184	0xbeb216f0	-0.34783125
185	0xbf210344	-0.6289561
186	0x3e8da3f0	0.27664137
187	0xbee4a247	-0.44655058
188	0xbf267144	-0.6501658
189	0xbe998cb5	-0.29990163
190	0x3e2362a9	0.15955605
191	0x3e5106fe	0.20412824
192	0x3efe7c7e	0.49704355
193	0xbe1bbcfc	-0.1520881
194	0xb993f0b9	-0.00028217377
195	0xbecfa9a4	-0.40559113
196	0xbec0b568	-0.37638402
197	0xbee1c901	-0.44098666
198	0xbe8da63e	-0.27665895
199	0x3e7551e8	0.23957026
200	0xbe20f2c6	-0.1571761
201	0xbed1a64e	-0.40947193
202	0xbed18611	-0.40922597
203	0xbf036575	-0.51326686
204	0xbf1b62ea	-0.60697806
205	0xbedbd9a4	-0.42939484
206	0x3ea96da8	0.33091474
207	0x3b89d152	0.004205861
208	0x3ead9f86	0.3391077
209	0xbf38fbe0	-0.7225933
210	0x3eb92d14	0.36167204
211	0xbebc4308	-0.3676989
212	0xbea037b9	-0.31292513
213	0xbececf0c	-0.4039234
214	0xbe41dc97	-0.18931805
215	0xbec56dcc	-0.3856033
216	0xbec62181	-0.38697436
217	0xbedb35fd	-0.42814627
218	0xbd863ee6	-0.06554966
219	0xbf0e9c80	-0.5570755
220	0xbefa4054	-0.48877203
221	0xbf136b64	-0.5758574
222	0x3eb6a5fa	0.35673505
223	0x3e978a91	0.29597905
224	0xbef1e889	-0.47247723
225	0xbee36fa9	-0.44421127
226	0x3e8d26c2	0.27568632
227	0xbdeac884	-0.114640266
228	0x3e6efa14	0.23337585
229	0xbec10f5e	-0.37707037
230	0xbd104912	-0.035225935
231	0x3d6892b4	0.056780532
232	0xbec5eaab	-0.386556
233	0xbdbbc4d0	-0.091683984
234	0x3e3b939b	0.18318026
235	0xbe302aaa	-0.17203775
236	0xbe1ee1da	-0.15515843
237	0xbd5520cd	-0.052033234
238	0xbf0d8afb	-0.5529019
239	0xbf18327c	-0.59452033
240	0x3eef96e1	0.467948
241	0xbf09ad38	-0.53779936
242	0x3ed47dbd	0.4150218
243	0x3d40eea3	0.04710258
244	0xbefff628	-0.4999249
245	0xbeb4523c	-0.3521899
246	0xbeabc5a1	-0.33549216
247	0xbed26d7f	-0.41099164
248	0x3e3f9892	0.18710545
249	0x3e221f1c	0.1583218
250	0xbec6486c	-0.38727129
251	0xbf0881a0	-0.5332279
252	0xbef7e59d	-0.4841737
253	0xbf286dfa	-0.6579281
254	0x3e858971	0.26081422
255	0xbf0bbbd3	-0.5458347

layers.1.0.weight f4 [256, 256]
0	0x3e0f2a50	0.13980985
1	0x3d3d7403	0.046253216
2	0xbf98b80b	-1.1931165
3	0xbd396b69	-0.04526845
4	0xbb9eda8b	-0.0048478297
5	0xbf418da7	-0.7560677
6	0xc00a809c	-2.1640997
7	0xc02bb221	-2.6827471
8	0x3de7670f	0.11298954
9	0xc001337b	-2.018767
10	0x3ca37d75	0.019957284
11	0xbe904172	-0.2817493
12	0xbffeaea7	-1.989705
13	0xbdaf7db1	-0.085688956
14	0xbd35f0c5	-0.04441907
15	0xbf4b52ad	-0.7942303
16	0xbdbdf77d	-0.0927572
17	0x3d6a2d06	0.057171844
18	0x3d69d284	0.05708553
19	0x3ddc6811	0.107620366
20	0xbe7ba206	-0.24573526
21	0x3e0023ad	0.12513609
22	0x3c862693	0.016375815
23	0xbf8fa1a7	-1.1221207
24	0xbf9dc534	-1.2325807
25	0xbe597451	-0.21235777
26	0xbf0e1b19	-0.555101
27	0xc01b3ee4	-2.4257135
28	0x3de298d1	0.11064304
29	0x3e83f373	0.25771675
30	0x3d8e81b6	0.06958334
31	0xbf9d0781	-1.2267915
32	0xbebb7fee	-0.3662104
33	0xbff529cc	-1.915338
34	0xbd0fa85d	-0.035072673
35	0x3dec9f9e	0.11553882
36	0xbe6d5d20	-0.23180056
37	0x3e174d63	0.14775614
38	0xbf36d2c1	-0.71415335
39	0xbf51c74b	-0.8194472
40	0xc0533f20	-3.3007278
41	0xbd15d99e	-0.03658449
42	0x3e451f79	0.19250287
43	0xc009da8f	-2.1539648
44	0xbfab4958	-1.3381758
45	0xbff30183	-1.8984836
46	0x3bc9bf3c	0.00615683
47	0x3d292d5b	0.04130302
48	0xbebb4943	-0.36579332
49	0xbd9c8cb0	-0.076440215
50	0xbc954fbc	-0.018226497
51	0xbebd3805	-0.36956802
52	0x3ec9c81e	0.3941049
53	0x3e00caed	0.1257741
54	0x3d832994	0.06404415
55	0xbe828bfd	-0.25497428
56	0x3e1a25c9	0.15053476
57	0xbf23f30d	-0.6404274
58	0x3d831b67	0.06401711
59	0x3cd52855	0.026020208
60	0x3d663a7e	0.056208126
61	0x3e79fd47	0.24413024
62	0xbf845e05	-1.0341192
63	0xbfabd1b5	-1.3423373
64	0xbdefd9a6	-0.11711435
65	0x3dc68096	0.096924946
66	0xbddc5e88	-0.10760218
67	0xbc0653d0	-0.008198693
68	0x3dc32ef2	0.095304385
69	0xbdb6356d	-0.08896909
70	0x3d954a6d	0.07289586
71	0xbcd1e381	-0.025621178
72	0xbe41e2d8	-0.1893419
73	0xbd3669de	-0.044534557
74	0xbf8ed10a	-1.1157544
75	0x3d005a83	0.03133632
76	0xbd1e5cbe	-0.038662665
77	0x3cb6548e	0.022257116
78	0x3f89b3f0	1.0758038
79	0xbfc8099a	-1.562793
80	0xc00dcd2a	-2.2156472
81	0x3e19b48f	0.15010284
82	0x3c9f8b5d	0.019475633
83	0xbde0c9ce	-0.10975991
84	0x3e23db93	0.1600173
85	0x3e062320	0.13099337
86	0x3d2191dd	0.039445747
87	0xbee1177c	-0.4396323
88	0xbf59771d	-0.8494738
89	0xbf1e27db	-0.61779565
90	0x3e9903f9	0.29885843
91	0x3dd9d07a	0.10635467
92	0xbdac1d1e	-0.08403991
93	0xbec01120	-0.37513065
94	0x3ebc9b4b	0.3683723
95	0x3d8318fb	0.06401249
96	0x3e1ce0e7	0.15320168
97	0x3e07c915	0.132603
98	0x3d5632f0	0.05229467
99	0xbd567419	-0.052356813
100	0xbc81c587	-0.015841259
101	0x3e576dfc	0.2103805
102	0xbefacfdf	-0.48986718
103	0xbf3dcd05	-0.7414096
104	0xbf4bd8d8	-0.7962775
105	0x3e357df3	0.17723827
106	0x3e237edc	0.15966362
107	0x3e1efb15	0.15525468
108	0xbeb597bf	-0.35467336
109	0x3d830624	0.063976556
110	0xbc5bbfb0	-0.013412401
111	0xbec16bbc	-0.37777507
112	0x3dbbaed7	0.091642074
113	0x3e162a37	0.14664541
114	0x3d73462a	0.059393086
115	0x3e59f2d4	0.21284038
116	0xbda13fd5	-0.07873503
117	0x3cea0245	0.028565535
118	0x3daf3e86	0.08556847
119	0x3d7caf9f	0.061690923
120	0xbe4a4623	-0.19753318
121	0x3d27a3d6	0.04092773
122	0xbd9e00a0	-0.07714963
123	0xbe5171d4	-0.20453578
124	0x3e7e55b3	0.24837379
125	0xbdd884e3	-0.10572221
126	0x3f456e37	0.771213
127	0xbf2a61b5	-0.6655534
128	0xbe22d2e4	-0.15900761
129	0x3ef6bfc1	0.48193172
130	0xbe3324fc	-0.17494577
131	0x3e5ada3f	0.21372317
132	0x3d36ebd8	0.044658512
133	0xbe09f9cf	-0.134742
134	0xbe55bd3b	-0.20872967
135	0xbf093d41	-0.5360909
136	0xc056453d	-3.347976
137	0x3d1f7b0c	0.038935706
138	0x3e05bf55	0.13061269
139	0xbe81b1bf	-0.25330922
140	0xc00ba350	-2.1818428
141	0x3db1692a	0.086626366
142	0x3c6b60a3	0.014366302
143	0x3e775aec	0.24155778
144	0x3c23dfb7	0.010002068
145	0xc016e150	-2.357502
146	0xbdad4802	-0.08461
147	0xbe134d37	-0.14384924
148	0x3e0f8e62	0.14019158
149	0xbf142149	-0.5786329
150	0xc0011b18	-2.0172787
151	0xbe59cdc6	-0.21269903
152	0x3e7372fe	0.23774335
153	0x3de2190a	0.11039932
154	0xc060251f	-3.5022657
155	0xc026bef0	-2.605404
156	0xbdb67e43	-0.08910801
157	0x3d35a357	0.044345226
158	0x3d36e5bb	0.04465268
159	0x3ef17c17	0.47164986
160	0xbf44f816	-0.7694105
161	0x3de3e7fe	0.111282334
162	0xbf6c3073	-0.9226143
163	0x3b35f33d	0.002776339
164	0x3d5441ac	0.051820442
165	0x3d844952	0.06459297
166	0xbce8c23b	-0.028412929
167	0xbd56630d	-0.052340556
168	0xbf24c0e6	-0.6435684
169	0x3ec19d52	0.37815338
170	0xbe50b7db	-0.20382635
171	0x3e06fb4f	0.13181804
172	0x3d65da73	0.056116533
173	0xbefdc1c2	-0.49561888
174	0xbeb634c3	-0.3558713
175	0xbe755952	-0.23959854
176	0xbd525dd2	-0.051359005
177	0x3d8c6dbe	0.06856869
178	0xbc14213a	-0.009041125
179	0xbe4febdd	-0.20304818
180	0xbea9564b	-0.3307365
181	0xbea2b149	-0.31775883
182	0xbe9c07bf	-0.3047466
183	0xbcb0ba38	-0.021573171
184	0xbd5ae376	-0.05343958
185	0xbe3fa03e	-0.18713471
186	0x3d4a68f6	0.049416505
187	0xbe9043e9	-0.2817681
188	0xbefa65aa	-0.4890569
189	0xbd88d135	-0.06680528
190	0xbd0f5740	-0.034995317
191	0x3da769c3	0.08174469
192	0x3e432d7e	0.19060323
193	0xbebf3199	-0.37342528
194	0xbdb41e18	-0.087948024
195	0xbd4ef008	-0.05052188
196	0xbf75491e	-0.9581469
197	0xbf5db773	-0.86608046
198	0x3f364f40	0.71214676
199	0x3c85d00a	0.016334552
200	0xbddf71d1	-0.10910381
201	0xbf992b97	-1.1966428
202	0x3e658fa1	0.22418071
203	0xbf4ea9c5	-0.807278
204	0xbf661cb8	-0.8988757
205	0xbdb63c2b	-0.08898195
206	0x3d7b99e8	0.061426073
207	0x3daad35e	0.08341096
208	0x3d4a4bde	0.04938876
209	0xbd7879a8	-0.060662895
210	0x3e11f6d2	0.1425431
211	0xbe8eb866	-0.2787506
212	0xbe69ea85	-0.22843368
213	0x3ef80ab7	0.48445675
214	0x3eae8dbf	0.3409252
215	0xbec900e8	-0.39258504
216	0xbea544db	-0.32279095
217	0x3d336602	0.043798454
218	0x3e117a4f	0.14206813
219	0xbfde0c5f	-1.7347525
220	0xbebdfdd1	-0.3710771
221	0xbf5c2b2c	-0.86003375
222	0x3dc52daf	0.09627854
223	0x3c53dde0	0.012931317
224	0xbcd91ccc	-0.02650299
225	0xbef4e65b	-0.47831997
226	0x3d94dfdd	0.07269261
227	0xbe6d3082	-0.23163036
228	0x3e15059b	0.1455292
229	0x3e5ddc6a	0.21666113
230	0x3e27a8bf	0.16372965
231	0x3c494108	0.012283571
232	0xbdef6bcf	-0.11690485
233	0x3efbb46b	0.49161085
234	0x3e0e80e5	0.13916357
235	0xbeed2892	-0.46320015
236	0x3cf35452	0.029703293
237	0x3e16ba6b	0.1471955
238	0xbde0ca90	-0.10976136
239	0x3c557594	0.013028521
240	0x3dd85262	0.10562588
241	0xbf6ffc22	-0.937441
242	0x3d17210f	0.03689676
243	0x3d17516d	0.036942888
244	0xbf498fde	-0.7873515
245	0xc0248043	-2.5703285
246	0xbf7fe068	-0.9995179
247	0xbe872788	-0.26397347
248	0x3e14e730	0.14541316
249	0x3d9da7b0	0.076979995
250	0x3d56d2da	0.052447177
251	0xbd9df797	-0.0771324
252	0xbe93fb97	-0.28902885
253	0xbe1293ad	-0.14314146
254	0x3d23f326	0.040026806
255	0xbbf1fbb5	-0.007384742

layers.1.0.bias f4 [256]
0	0x3e646cb8	0.22307098
1	0xbd42f0f1	-0.04759306
2	0xbbc6a62c	-0.0060622897
3	0x3d539a9e	0.051661126
4	0x3d02654a	0.031834878
5	0xbc9f3463	-0.01943416
6	0xbe04b70c	-0.12960452
7	0xbd91364f	-0.07090437
8	0xbd9ba638	-0.07600063
9	0x3d2f12ef	0.042742666
10	0xbb53e8bf	-0.0032334772
11	0xbe0319f7	-0.12802874
12	0xbb6dfc9d	-0.00363139
13	0x3e8edc19	0.27902296
14	0x3bf0b3ef	0.0073456685
15	0x3c09fab8	0.008421592
16	0x3d48f405	0.04906084
17	0xbce1db1b	-0.027570298
18	0xbba356fe	-0.0049847355
19	0x3e977d1d	0.2958764
20	0x3e900e07	0.28135702
21	0xbc0be8c5	-0.008539383
22	0xbd814822	-0.06312586
23	0xbc0a6431	-0.008446739
24	0xbb471f45	-0.0030383628
25	0x3d0cc1aa	0.03436438
26	0xbcb89878	-0.02253364
27	0x3d3a6181	0.045503143
28	0x3cfb52b8	0.030679092
29	0x3b85e98f	0.0040866802
30	0x3cdd4f06	0.02701522
31	0x3e80ad41	0.25132182
32	0x3d1db979	0.03850696
33	0x3c04fd5c	0.008117046
34	0xbda936eb	-0.08262428
35	0x3ad5b1c8	0.0016303593
36	0xbcc6f064	-0.024284549
37	0xbcad653f	-0.021166442
38	0xbdaeff68	-0.085448086
39	0xbd493713	-0.04912479
40	0xba574fda	-0.0008213498
41	0xbc006979	-0.007837647
42	0xbd8f80ce	-0.070069894
43	0x3ea03447	0.31289884
44	0x3ed5b398	0.41738582
45	0x3e86de93	0.26341686
46	0xbc674da8	-0.014117636
47	0xbce1b7f3	-0.027553534
48	0x3eacdea1	0.33763602
49	0x3cb1be89	0.0216973
50	0xbdf7ad1d	-0.120935656
51	0xbd8858c0	-0.06657553
52	0xbc18b065	-0.0093193995
53	0xbcff7554	-0.031183876
54	0xbd4b5950	-0.049645722
55	0xbd36526e	-0.044512205
56	0xbcf11822	-0.029430453
57	0x3d1e4231	0.038637344
58	0xbda1974e	-0.07890187
59	0xbcb5c9b6	-0.02219091
60	0xbcf835d6	-0.030299108
61	0xbd26b261	-0.04069746
62	0xbd553c98	-0.05205974
63	0x3ea095e1	0.3136435
64	0xbcd753c2	-0.026285056
65	0x3db6aaba	0.08919282
66	0x3c45081a	0.012025857
67	0xbbf88bc6	-0.0075850217
68	0x3e58cfd0	0.21173024
69	0x3d333bac	0.04375808
70	0xbd15b6ab	-0.03655116
71	0xbd449aba	-0.04799912
72	0xbd9b6ba0	-0.07588887
73	0xbd3a8892	-0.0455404
74	0xbda75672	-0.08170785
75	0xbcc38179	-0.023865448
76	0xbbb56bf6	-0.0055365516
77	0xbd6620df	-0.056183692
78	0x3c08397e	0.008314488
79	0x3ea21536	0.31656808
80	0xbd7c3549	-0.061574254
81	0xb943cf9a	-0.00018673987
82	0xbd79e703	-0.061011326
83	0xbdb39b57	-0.08769863
84	0x3c35e50d	0.011101973
85	0xbd8c8ee3	-0.06863191
86	0xbd62c194	-0.05536039
87	0x3c203e03	0.00978041
88	0x3d03e6b2	0.03220243
89	0xbcdfc7d9	-0.027316974
90	0x3d414b0f	0.047190722
91	0xbcf3ffb2	-0.029785011
92	0xbb55d4f1	-0.0032628144
93	0xba2c9f69	-0.0006585033
94	0x3cfe7f3a	0.031066526
95	0x3cc8d4c5	0.024515519
96	0xbd02654b	-0.03183488
97	0xbb415ab0	-0.0029503517
98	0x3e8f61e9	0.28004387
99	0xbd331d62	-0.043729194
100	0x3bd44296	0.006477664
101	0xbcaf97c1	-0.021434667
102	0xbd57a9b2	-0.05265207
103	0xbd80cb21	-0.06288744
104	0xbd794747	-0.06085899
105	0xbbc30158	-0.005951088
106	0x3d263560	0.040578246
107	0xbd48a9ce	-0.048990063
108	0x3e60349d	0.2189507
109	0xbd3c3e13	-0.045957636
110	0xbcee42ee	-0.029084649
111	0xbcb6fe4f	-0.02233806
112	0xbdc9403f	-0.09826707
113	0x3d5f1bf8	0.054470032
114	0xbd116c1f	-0.035503503
115	0x3cebca1a	0.028782893
116	0xbd47232d	-0.04861753
117	0xbd845564	-0.064615995
118	0x3bbb8e4a	0.0057237493
119	0xbb15d203	-0.0022860772
120	0x3eb05b34	0.34444582
121	0xbd76edb5	-0.06028529
122	0xbdb560a3	-0.088563226
123	0xbd835b63	-0.06413915
124	0xbccc5f09	-0.02494766
125	0xbd40e197	-0.04709014
126	0xbd8e6b75	-0.069540896
127	0xbd1cc361	-0.038272265
128	0xbd8932b5	-0.06699125
129	0x3d1df029	0.038559113
130	0xbcf26971	-0.029591294
131	0xbcb6f297	-0.022332473
132	0x3cf5150a	0.029917259
133	0x3d06b2dd	0.03288542
134	0x3e9c88fb	0.30573258
135	0xbd7a1a38	-0.06106016
136	0x3e7ca89c	0.24673694
137	0xbd7b4ae9	-0.061350737
138	0xbd8f51ed	-0.06998048
139	0xbcb06ab1	-0.02153525
140	0x3e9dd514	0.30826628
141	0xbc65bb4e	-0.014021708
142	0xbca52bc0	-0.020162463
143	0xbbdd9557	-0.0067621875
144	0x3e84908e	0.25891536
145	0xbcd776ea	-0.02630182
146	0x3c57b952	0.013166742
147	0x3c29fe23	0.010375532
148	0xbd7f3ea4	-0.062315598
149	0x3c7762e4	0.015099261
150	0xbd84788c	-0.06468305
151	0xbca1ef9d	-0.019767577
152	0x3c732109	0.014839419
153	0x3ca7619c	0.020432286
154	0x3e85cd12	0.2613302
155	0xbcabcb15	-0.02097086
156	0xbc66b54f	-0.014081313
157	0xbc7bac91	-0.015360967
158	0xbd5584af	-0.05212849
159	0x3ec1f459	0.37881735
160	0xbe031049	-0.12799181
161	0x3ccde991	0.025135787
162	0xbcfea263	-0.031083291
163	0xbd471774	-0.04860635
164	0xbd20b334	-0.0392334
165	0xbd0a1de1	-0.0337199
166	0xbcff699c	-0.031178288
167	0x3cc6d6d2	0.024272356
168	0x3d004268	0.03131333
169	0xbdc0808d	-0.09399519
170	0x3b89e730	0.004208468
171	0x3c85534c	0.01627507
172	0x3d5a12e3	0.053240668
173	0x3ba0d273	0.0049079
174	0xbb7a4d00	-0.0038192868
175	0x3c08d1d7	0.008350811
176	0xbd88a6e0	-0.06672454
177	0x3c6f4c8d	0.0146056535
178	0x3c0806b6	0.008302381
179	0xbdc54e6b	-0.09634098
180	0xbd23ef57	-0.040023174
181	0xbd132669	-0.035925303
182	0xbd27334a	-0.040820397
183	0x3d3ce60b	0.046117824
184	0x3b1a0ca6	0.0023506074
185	0xbcdaca7d	-0.026707882
186	0xbc762294	-0.0150228925
187	0xbdb5d56e	-0.08878599
188	0xbcf6073c	-0.030032746
189	0x3cc1e367	0.023668004
190	0xbd584dc3	-0.052808534
191	0xbd233f8e	-0.039855532
192	0xbd836eeb	-0.0641764
193	0x3c2cb95e	0.010542242
194	0x3b2e3c17	0.002658611
195	0x3e766c50	0.24064755
196	0xbbb2f70c	-0.005461579
197	0x3c710dc7	0.014712757
198	0xb94b63a3	-0.00019396706
199	0x3d00fa00	0.03148842
200	0xbc3d3fe4	-0.011550877
201	0x3e9464d8	0.28983188
202	0x3cf0ea9f	0.029408751
203	0xbcf0e2d0	-0.029405028
204	0xbd8b29c3	-0.06795075
205	0xbd76b8e0	-0.060234904
206	0xbd087be8	-0.03332129
207	0x3ea332d4	0.31874716
208	0xbd426069	-0.047455225
209	0xbd7c3d19	-0.061581705
210	0xbd387938	-0.04503748
211	0xbd1d6f41	-0.038436178
212	0x3bc89094	0.0061207507
213	0xbd5a8bfd	-0.05335616
214	0x3e9462aa	0.28981525
215	0xbcafab49	-0.02144398
216	0x3bd3abb3	0.006459677
217	0xbd0a73d1	-0.033801857
218	0x3cf44602	0.029818539
219	0xbd2de627	-0.04245582
220	0xbce021b2	-0.027359817
221	0xbd75a594	-0.05997236
222	0xbd9a0e05	-0.07522205
223	0xbc63debd	-0.013908085
224	0xbd86fd16	-0.06591241
225	0xbe05a101	-0.130497
226	0x3cfc87ec	0.030826531
227	0xbd82c30b	-0.06384858
228	0x3cc62543	0.02418769
229	0xbdd02e54	-0.101650864
230	0x3b7ef106	0.0038900985
231	0x3d406a5e	0.04697644
232	0xbd2b1765	-0.041770358
233	0x3e876024	0.26440537
234	0x374c62f0	1.2182383e-05
235	0x3b3c4db2	0.0028732833
236	0xbd83a1b4	-0.06427327
237	0x3ebb4aa5	0.36580387
238	0xbca24d5d	-0.01981228
239	0x3cc6c953	0.02426592
240	0xbd171a24	-0.036890164
241	0xbcf4744c	-0.02984061
242	0x3b91e9ff	0.0044529433
243	0x3d47fdec	0.048826143
244	0xbdc85d97	-0.09783476
245	0x3d4f1272	0.0505547
246	0xbbdd6677	-0.0067565995
247	0xbd28fc53	-0.04125626
248	0x3e840ec0	0.25792503
249	0x3d086477	0.033298936
250	0xbafe776b	-0.0019414251
251	0xbcc92ab6	-0.024556499
252	0xbcd1a69d	-0.025592143
253	0xbdbc0f33	-0.091825865
254	0xbdab6d55	-0.08370463
255	0x3d30bcb9	0.04314873

layers.2.0.weight f4 [2, 256]
0	0x3ea5fe48	0.32420564
1	0x3b8f7ce6	0.0043789027
2	0xbd32a8ea	-0.04361812
3	0x3c57b182	0.01316488
4	0xbba37255	-0.0049879947
5	0xbc21b11c	-0.009868886
6	0x3ce5fdb6	0.02807508
7	0xb918e32c	-0.00014580478
8	0xb98f906d	-0.0002738269
9	0xbd42a6b8	-0.047522277
10	0xbcfee4cb	-0.031114956
11	0xbe411a78	-0.18857753
12	0x3d01adb1	0.031659786
13	0x3e6e210a	0.23254791
14	0x3bb89490	0.0056329444
15	0x3ddcbe7f	0.10778522
16	0x3ab909c1	0.0014117287
17	0xbbac8696	-0.0052650673
18	0xbd2ac55d	-0.041692127
19	0x3e86518f	0.262341
20	0x3e3d8d1c	0.1851086
21	0x3c78584e	0.015157772
22	0xbbb7a646	-0.005604538
23	0xbc5ca70f	-0.013467564
24	0x3d155dfa	0.036466576
25	0x3b4f8f74	0.0031671198
26	0xbcb83575	-0.022486428
27	0x3c0372d3	0.008022982
28	0xbc36526e	-0.011128051
29	0xbd0ae480	-0.03390932
30	0xbb1c2337	-0.00238247
31	0x3e377590	0.1791594
32	0x3d343b44	0.044001833
33	0x3d5b91b6	0.053605758
34	0xbc7ad1d0	-0.015308812
35	0x3c1d86b1	0.009614632
36	0xbcbd536b	-0.023111066
37	0x3ce84b90	0.028356344
38	0x3d63698c	0.05552058
39	0x3b2923fa	0.0025808797
40	0xbc37d527	-0.011220253
41	0x3c33f8dc	0.010984626
42	0x3c1acb76	0.009447923
43	0x3e434894	0.19070655
44	0x3e7866b4	0.24257928
45	0x3e4c912b	0.19977252
46	0xbca0c2d3	-0.01962415
47	0xbc77c0a5	-0.015121614
48	0x3e4dcd10	0.20097756
49	0x3a0ca26a	0.0005364778
50	0xbcb16c81	-0.021658184
51	0x3c369ca7	0.011145747
52	0x3d45bfb3	0.04827852
53	0xbc55119f	-0.0130046895
54	0xbd014c09	-0.031566653
55	0x3bec183b	0.007205037
56	0x3b7d7675	0.0038675342
57	0xbccd4199	-0.025055693
58	0xbc30cb3b	-0.010790641
59	0x3ae97858	0.0017812354
60	0xbcd35c1e	-0.02580076
61	0xbc10ec16	-0.00884535
62	0x3cdd56d6	0.027018946
63	0x3e4f034b	0.202161
64	0x3d39e480	0.04538393
65	0x3e226995	0.15860589
66	0xbb8bb80a	-0.0042638825
67	0x3b94c862	0.004540489
68	0x3e1f0843	0.15530495
69	0x3c0b80a8	0.008514561
70	0x3ceac84a	0.028659958
71	0x3cbf7a35	0.023373703
72	0xbcd66190	-0.026169568
73	0xbd1276a0	-0.03575766
74	0x3bfa23ae	0.007633648
75	0xbd0b3ef1	-0.033995572
76	0xbade357f	-0.0016953199
77	0x3d15ed5b	0.036603313
78	0x3c907ace	0.017636683
79	0x3e57a72e	0.21059868
80	0x3d13911e	0.036027066
81	0x3c91cea7	0.017798735
82	0x3eee058d	0.4648861
83	0xbc96318c	-0.018334173
84	0xbd370dee	-0.04469102
85	0x3bbe9f75	0.0058173486
86	0x3b8f136c	0.004366329
87	0x3b8c44aa	0.0042806463
88	0xbe7a88c6	-0.24466237
89	0xbcd34896	-0.025791448
90	0xbce5a7c5	-0.0280341
91	0x37329d33	1.0646228e-05
92	0x3cfaaea7	0.030600859
93	0x3e08c396	0.1335586
94	0x3cfac230	0.030610174
95	0xbbe486b4	-0.0069740657
96	0xbd0da053	-0.034576725
97	0xbcf53062	-0.029930297
98	0x3ebef74e	0.37298054
99	0x3d024e63	0.031813037
100	0xbc6e0854	-0.014528353
101	0xbcfa1e1f	-0.030531941
102	0x3d1f24c2	0.038853414
103	0x3c12093f	0.008913337
104	0xbbe3e68c	-0.0069549736
105	0xbc4794fe	-0.012181519
106	0xbc7255e8	-0.014790989
107	0x3bf4b74b	0.0074681393
108	0x3d6deec9	0.05808905
109	0x3d32c443	0.0436442
110	0x3cc13b70	0.023587912
111	0x3cedf8b5	0.029049257
112	0xbd1cec77	-0.038311448
113	0x3b119026	0.0022211163
114	0xbaaffadd	-0.0013426204
115	0xbd11e22f	-0.035616096
116	0x3cc2c210	0.023774177
117	0xbd12bcef	-0.035824712
118	0xbb5469a7	-0.0032411607
119	0x3d51c9c5	0.051217813
120	0x3e8434ac	0.25821435
121	0x3bc2c5f9	0.0059440103
122	0xbe902902	-0.28156286
123	0xbce895c8	-0.028391734
124	0x3c42d1b0	0.011890814
125	0x3b8dc37b	0.0043262816
126	0xbbf40781	-0.0074471836
127	0xbd391190	-0.045182765
128	0xbf53c746	-0.8272594
129	0xbc8a8758	-0.01691024
130	0xbb8cb9da	-0.004294616
131	0xba6fae37	-0.00091430865
132	0x3bb51605	0.0055263066
133	0xbd15c64a	-0.036566056
134	0x3e098b6c	0.13432091
135	0x3c8a3169	0.016869264
136	0x3e2a8d71	0.16655518
137	0xbd397338	-0.045275897
138	0x3d2cd89d	0.042198766
139	0xbbe24c62	-0.006906078
140	0x3da759b4	0.081714064
141	0xbcf2cf00	-0.02963972
142	0x3b3a84aa	0.0028460422
143	0xbc9a4e76	-0.018836241
144	0x3e6a5b4b	0.22886388
145	0x3a01f7ea	0.00049579015
146	0x3d51604d	0.05111723
147	0x3c55d8d9	0.013052189
148	0x3bf0d330	0.0073493943
149	0xbca53b5f	-0.020169912
150	0x3c6ec3d6	0.014573058
151	0xbc732109	-0.014839419
152	0xbcc8d0dd	-0.024513656
153	0xbb227b38	-0.0024792682
154	0x3e5f4dc1	0.21807005
155	0xbb38466f	-0.0028118154
156	0xbca41666	-0.020030212
157	0x3d1eee12	0.03880126
158	0xbee0ef4e	-0.43932575
159	0x3e507625	0.20357569
160	0xbfbbb2b0	-1.4663906
161	0x3c8b69ea	0.017018277
162	0xbd8222e2	-0.063543096
163	0xbc51a134	-0.0127947815
164	0x3d60e501	0.054905895
165	0x3cbdc0cd	0.023163224
166	0xbc7e38eb	-0.0155165
167	0xbf3f9b8f	-0.7484674
168	0xbce9dde9	-0.028548198
169	0x3ce38a94	0.02777604
170	0x3c81ec32	0.015859697
171	0xbc714477	-0.014725796
172	0xbd2c1936	-0.04201623
173	0xbd1bec87	-0.038067367
174	0xbbac730d	-0.0052627386
175	0xbcb5ecde	-0.022207674
176	0x3ab4fe94	0.001380878
177	0x3b5fa0c8	0.0034122933
178	0x3c05ad25	0.008158957
179	0x3db427bd	0.08796642
180	0x3b8ee874	0.0043612067
181	0x3d136101	0.035981182
182	0xbd5246c5	-0.051337022
183	0x3aa91b93	0.0012901895
184	0x3c4496e9	0.01199887
185	0xbd36c3b6	-0.04462024
186	0xbb3b8e4a	-0.0028618746
187	0xbcda7875	-0.026668767
188	0xbd09625f	-0.03354108
189	0xbd0ec164	-0.0348524
190	0x3cbfc086	0.023407232
191	0x3c918087	0.017761482
192	0xbbc496d2	-0.0059994245
193	0x3c4f1273	0.012638676
194	0x3d05fb45	0.032710332
195	0x3e3baae7	0.18326913
196	0xbc853bdc	-0.016263895
197	0x3c45ac2a	0.012064973
198	0xbc17ed15	-0.009272833
199	0x3d5d1087	0.05397084
200	0xb7bfb0e5	-2.2851347e-05
201	0x3ecc3d71	0.39890626
202	0x3b74fd9a	0.0037382604
203	0xbd289aaa	-0.041163124
204	0xbd459c8a	-0.04824499
205	0x3d129349	0.035784993
206	0xbc950ac9	-0.01819362
207	0x3e4229a5	0.18961199
208	0x3d54ac10	0.051921904
209	0xb9c185a7	-0.00036911407
210	0xbc4ce7c1	-0.012506426
211	0x3c79147f	0.015202641
212	0x3b89218b	0.004184907
213	0x3d11652e	0.035496883
214	0x3e5d6144	0.21619135
215	0xb91ca808	-0.00014939916
216	0xbc795f86	-0.0152205285
217	0xbc298cdb	-0.010348524
218	0x3b927a87	0.004470173
219	0x3d3bdc6b	0.045864504
220	0xbccdaef9	-0.025107848
221	0x3c7c8752	0.015413122
222	0x3edbc5f3	0.4292446
223	0xbd2d3e2e	-0.042295627
224	0x3cce0101	0.025146963
225	0xbf9fb1dc	-1.2476153
226	0xbf5c1dad	-0.8598278
227	0x3d761ac4	0.06008412
228	0xbc0186a1	-0.007905633
229	0xbc846a6b	-0.016164025
230	0x3b9ec31a	0.0048450353
231	0x3e835ef1	0.25658372
232	0x3b973d4c	0.0046154615
233	0x3e4a1127	0.19733106
234	0x3ad655d9	0.0016352489
235	0xbb8da43c	-0.004322557
236	0xbd31ddca	-0.043424405
237	0x3e45227a	0.19251433
238	0xbc162fc2	-0.00916666
239	0x3cababd4	0.020955957
240	0xbcbe8034	-0.023254491
241	0x3bdbfb2d	0.006713292
242	0xbc0c1d9a	-0.008551979
243	0xbc805208	-0.015664116
244	0xbd28aee0	-0.0411824
245	0xbd23187d	-0.039818276
246	0xbc123437	-0.008923582
247	0xbcfbcbd0	-0.030736834
248	0x3dd6276e	0.10456739
249	0xbc45b3fb	-0.0120668365
250	0x3c80f231	0.015740486
251	0xbb3a1362	-0.00283929
252	0xbc931ab0	-0.017957062
253	0xbd02cec3	-0.031935465
254	0x3d99d946	0.07512145
255	0x3c5999cc	0.013281297

layers.2.0.bias f4 [2]
0	0x3ec99c76	0.39377183
1	0x3eb41c91	0.35178044
