algos/BCQ/tutorial_data/Train_HalfCheetah-v3_BCQ_imitation_1000eps/models/actor_target_checkpoint.pt (torch, 529239 bytes, 6 tensors)

nn.linear0.weight f4 [400, 23]
00000000: 82d4 31be 7085 b03e ab67 4fbe 0b06 0cbf
00000010: 55d1 50be 4ff1 943f 01f7 3b3f 9a41 5d3e
00000020: ed2a 0c3e e794 8e3e 0686 d63d bc15 fa3d
00000030: 2a78 a4bd 9050 173d 8904 d2b9 cab2 6b3c
00000040: 9a0c a63d ce53 f73e e9ec abbe 9580 293f
00000050: 0943 cf3d 2179 03be de5d 30be 31a2 44be
00000060: 23df 05bf 5da5 8abe 9474 253f 1771 9ebe
00000070: 7060 5cbe a45c 08bd 9eca b2bd e955 71bd
00000080: e4d7 f1bd 8f4e 5dbe 7268 973d b613 e63c
00000090: 5fb7 933e b778 e03d 4f58 8f3d 2cee a1bd
000000a0: 85f7 3c3f 6245 b13d f764 12be 1e9a 48be
000000b0: da6e ba3e a928 043f b270 9e3e dc42 25be
000000c0: 9982 973e 3004 2c3f bd5d a13d 08f8 a73d
000000d0: 1d91 78be 1815 4c3e 3bb1 e8bd e4b9 b93e
000000e0: 08ab 9cbb 66ca 243e 671c 9b3d edc9 30bd
000000f0: 2d19 39be 967c 85bd 7cd1 a2bd 6aac 57be
00000100: 48c1 85bd 72bc bdbe 0acc 0fbf 0af3 a0be
00000110: f076 0e3e 5cf3 813e 7697 b53c 025e 7bbe
00000120: f208 383f c8fa 87be 8623 7f3e eea5 893d
00000130: 725b 2c3f 1058 91bd a0bd 63be 0bc4 12bc
00000140: aa46 0a3e df61 6a3d 5802 a33d 3f77 bebd
00000150: ee47 13be 18a1 52be 289a e23e 0e7b 14bc
00000160: 244b 733e a1e0 6dbe d46d 48be cd7f 843e
00000170: dc03 fb3e 3a23 a2be 8943 453e bbc5 863e
00000180: e141 d63d 088f c9be 0aff 0fbe 36fc c23e
00000190: e9cc 4ebc 9096 b83d 341a b2bd 26bb 41bc
000001a0: 96e3 cabd 0f00 e83d cc64 d1bd 0fac 873d
000001b0: 561f a13d 9bc3 01bf a760 ecbc 0ca5 18bf
000001c0: d68b 48bd c313 183e ea45 973d 495a 003d
000001d0: 801b 1dbe 2617 23bd 6dd7 35be 0b5c f7be
000001e0: 9de7 f23e 2fa7 2d3f 8dc7 d63e 7ff3 68bc
000001f0: fcc4 5abd 901b 7b3d 4beb 283e d477 a0bd
00000200: ab43 ffbd b1f0 e93c 31b8 2ebd 41c2 05be
00000210: 6982 5d3f a621 30bd dcca 993e b4da 3abe
00000220: d724 d9be 76c6 ca3d ca6a 2b3e 7d42 563e
00000230: 9137 5c3f 8060 be3e 3856 08bd cac0 473f
00000240: 8559 c63e b008 e33d cba5 033e fb40 d33c
00000250: f793 5c3e c8f7 63bd b88a 32bd 237d 503d
00000260: 7d52 42bd e13b bdbd 74f5 053d bd50 65bd
00000270: 5c99 02bf 4eea 8a3e ca0b a2be 3521 fdbe
00000280: c748 b6be 3b1f 23be 21ea e1be 3db8 7bbc
00000290: 391e 9f3e 4551 95be 4221 d63e 764c d93e
000002a0: 7224 a13e 3388 fd3d 6bef 8dbd e39b 38bd
000002b0: 6da4 0c3e 2dba 5d3d a61d dc3d 7514 ecbd
000002c0: 490d 9e3d 6320 46bd d20e 063f ba3f 053e
000002d0: efab 5cbd 5e7e 0ebf 7545 88bf 1e2c 793c
000002e0: 758a 8b3e a14e b2bd 0f77 263e 0fe3 a53e
000002f0: fd74 3fbd b3eb 0ebf e1b2 adbe d1a3 ce3d
00000300: 97c1 d13d 120c 5a3e 807c cabb 0df9 003e
00000310: 224b af3c 9a78 1ebd eb30 eabd df2e 583c
00000320: b540 4ebc 8069 f3be 519b 76be 957e 4bbf
00000330: 28fd c93d f8d4 3e39 2755 58be 13a2 7f3e
00000340: cf57 793c d81c 9fbe e698 b8be b67d 383e
00000350: 4487 5cbf c620 d3be a02b acbe 0669 ffbd
00000360: 4179 3d3d bf8a 24be cd1c 96bd 54df 17be
00000370: f52b 673d 1fbf b7bd 97c0 4f3d 8864 33bd
00000380: b535 d9be 55ea c03d 4c5c d4bd 4d36 043f
00000390: 19ea 153f 2f65 873e 842f a53e b8bf 1f3e
000003a0: a490 40bd 96d5 013f e7a2 ebbe 97d9 aa3e
000003b0: 6f7a ef3e 1889 da3e fbe6 d5bd 92a0 803e
000003c0: 5054 8d3d bce5 0d3e e34a 403d 11bb d1bd
000003d0: 4fe5 cbbd 9946 21be 2400 d6bd c2f9 b83e
000003e0: 76c4 f4bd 73d6 9a3e 0819 09bf 4046 52be
000003f0: 1937 863e 000e 313d e66c 0dbe 2c21 5abe
-0.17366222 0.34476805 -0.2025439 -0.5469672 -0.20392354 1.1636142 0.73423773 0.21607056
0.1368825 0.27847978 0.10474782 0.12211177 -0.08030732 0.036942065 -0.000400577 0.014385888
0.08107872 0.48306125 -0.33579186 0.66211826 0.10120208 -0.12839176 -0.17223307 -0.19202496
-0.52293605 -0.27079287 0.6463101 -0.30945656 -0.21521163 -0.033291474 -0.087300524 -0.05891982
-0.11808756 -0.21611999 0.07392968 0.02808557 0.2885084 0.109605245 0.069992654 -0.07906756
0.73815185 0.08655812 -0.14296328 -0.19590041 0.36412698 0.5162454 0.30945355 -0.16138786
0.29591826 0.6719389 0.07879207 0.08201605 -0.24274106 0.19929922 -0.11361929 0.36274636
-0.0047811307 0.16092834 0.07573777 -0.04316132 -0.1807601 -0.065179035 -0.07950112 -0.21061864
-0.06531006 -0.37057835 -0.56170714 -0.31435424 0.13912559 0.2538098 0.022166949 -0.2454758
0.7188865 -0.26558518 0.24915895 0.06721102 0.67327034 -0.07096875 -0.22240305 -0.008957873
0.13503519 0.057222243 0.079594314 -0.09300088 -0.14382908 -0.20569265 0.44258237 -0.009062542
0.23759133 -0.2323022 -0.19573146 0.25878754 0.49026382 -0.316675 0.19264044 0.2632273
0.10461784 -0.39366937 -0.14062133 0.38083047 -0.012622097 0.090130925 -0.08696404 -0.011824405
-0.0990669 0.11328136 -0.102243036 0.066246144 0.07867305 -0.50689095 -0.028854681 -0.5962684
-0.048961483 0.14851288 0.07386382 0.031336103 -0.15342522 -0.039816998 -0.1775796 -0.4831241
0.47442332 0.67833227 0.4194912 -0.01421821 -0.053410515 0.061305583 0.16496007 -0.078353554
-0.124640785 0.028557153 -0.042656127 -0.13062383 0.86527115 -0.04300084 0.30037582 -0.18247491
-0.4241092 0.09901135 0.16739956 0.20923801 0.8602229 0.37183 -0.03328535 0.7802855
0.38740173 0.110856414 0.12856214 0.025787821 0.21540819 -0.055656224 -0.043589324 0.05090059
-0.04744195 -0.092399366 0.032704785 -0.0559852 -0.5101526 0.27131885 -0.3164962 -0.49439397
-0.356024 -0.15929882 -0.4412394 -0.01536375 0.31077746 -0.29163566 0.4182225 0.42441148
0.31473118 0.123794936 -0.06930431 -0.04507054 0.13734598 0.05413263 0.107478425 -0.11527339
0.07717378 -0.04837073 0.52366364 0.13012591 -0.053874906 -0.5566157 -1.0646197 0.015208272
0.27254072 -0.087064035 0.16256355 0.32399794 -0.046742428 -0.558284 -0.33925536 0.10089839
0.102420025 0.21293667 -0.0061793923 0.12595005 0.02139813 -0.038689233 -0.114351116 0.013194769
-0.01258867 -0.47541428 -0.24082686 -0.79490024 0.09862739 0.00018199149 -0.21126233 0.2496417
0.015218689 -0.31076694 -0.36054152 0.18016705 -0.861439 -0.41235942 -0.33627033 -0.124712035
0.046258215 -0.16068552 -0.07329712 -0.14831287 0.056438405 -0.08972 0.050720777 -0.043797046
-0.42423788 0.09419695 -0.10369167 0.51645356 0.5856033 0.26444384 0.32262814 0.15600479
-0.04701294 0.5071653 -0.46022722 0.33369133 0.46773097 0.4268272 -0.10444447 0.25122505
0.06900847 0.13857168 0.046946418 -0.10240758 -0.099558465 -0.15749587 -0.104492456 0.3612805
-0.119515345 0.30241737 -0.5355382 -0.20534611 0.2621391 0.043226242 -0.13811073 -0.21301717

nn.linear0.bias f4 [400]
00000000: dc72 8b3e 3127 92bd ed99 a8bd 122f e2be
00000010: 3603 05bf ba32 8bbd f0a1 c93d 8e28 0e3e
00000020: de75 febd a0d1 8cbd 9608 f2bd 8e13 4e3e
00000030: a56d 6ebd bc08 eb3d 7119 90be a52d f43e
00000040: d7a3 423e 3415 703c cce4 13bf 0d04 f13d
00000050: c8fd 67be 919b a3bd bc01 8fbe e72f b9bd
00000060: a265 84be adcf b33e acb8 9fbd 4ba0 b1be
00000070: 3d25 89be 1d69 a0bc 09cf d13e 5d1c 533b
00000080: 80de 8abd 5acf fcbe b52a 6fbe e54e c6bd
00000090: 1864 22bd 8e35 bdbe 4ab1 e8bb 76f2 1abe
000000a0: 1400 4abe 36af a73c cf2a adbe 187e aabe
000000b0: dab5 f2bd 392f 66be d571 cbbe e8df 61bb
000000c0: 5237 f23e ce28 7b3e dc7d 9bbe 3547 4a3e
000000d0: 3c33 333e 5c34 963e 99a1 88be 6ffb 073f
000000e0: e72f 803e 9035 623d 2c08 a53c 08f3 01bf
000000f0: 738b cbbe 1027 a6bc 4b2a a0be 2967 e6bc
00000100: 50ca 17be 0d04 03be 4e8f 1d3e 7d0e 583d
00000110: 9de3 22be bba5 933d c401 2f3e 8e8e 943e
00000120: 75fc 57be e894 03bd 0b68 50be 7c9f 9a3e
00000130: 08d3 1cbe f2d3 d2bb 3ba7 60be 5a8b 9abe
00000140: 085b 21be 5dcb 7fbe fe1f 62be 6099 2fbe
00000150: ea1e dfbe e397 693d 7d0e 77bd df58 ab3d
00000160: 7195 aabd 92ef dbbd 7f0e f93b 00c5 d6bc
00000170: 7f55 623c 355a 83bd de38 9bbe 9fa2 103c
00000180: 4f6b 02be 9142 ad3e eef2 893c 9da9 a7be
00000190: 79ac ca3e b338 263e bc93 b63d e27f 413e
000001a0: a51e 7bbe 9cf5 42be 7876 8b3d 6fb0 afbe
000001b0: 3dd9 01be 5040 acbe e522 b3bd 4eb7 cf3e
000001c0: 4095 3e3e d367 84be 33d3 fabd 1d8c 0abe
000001d0: b20e 5bbe 8176 453d b0a3 20be b064 b63c
000001e0: c77a 83be 40c6 dbbe c519 3cbe 923e 153e
000001f0: 1909 733c 10c5 05be e7b1 9bbe 9339 83be
00000200: b3d1 e73c 480a ae3e a4d1 bebe 314b c9bc
00000210: 7b30 ca3d 2aff f9be bf90 4cbe 604b d8be
00000220: 0552 86bd 0fb4 9cbe 738b 4f3e de47 31be
00000230: 1046 393e e4cc 673e f221 22be d8b9 cabe
00000240: 09e3 b33e b57e e73b 0aca 46be f5e8 bcbe
00000250: bce3 1fbe 292d 8dbe 0f3d ddbd c32c e8be
00000260: 6c97 c3bd 8551 1abe aeea b3bd 3b12 21be
00000270: 52d5 7cbe 6e32 36be 61f8 2c3e 493a a33d
00000280: cdd5 d83e 023f a1be 7254 aebe aea0 e9bd
00000290: 6dff 703d ba42 a23d 694a ddbd b098 be3e
000002a0: 8d4c af3c 77df 4e3d b188 8dbe 902f 313e
000002b0: 670b 233d f6ce 92be a061 8f3b 27a2 17be
000002c0: 91f3 f2bd a6b1 773c 518c 2fbe bb64 0f3e
000002d0: f6e5 32be 21e5 d3bd bd0e 093e 6307 613e
000002e0: 5c2f d9be d4cb ca3e 87c3 5fbe a2a9 9d3d
000002f0: ef5d bd3e 3ac1 afbd a325 36be 393a 6d3e
00000300: 929d 80be 13ad be3b 5032 9e3e 9adc 823e
00000310: b443 82be ecae 96bd a13b b1be 4e73 d63e
00000320: 0b08 a2be ab0c c8bd 8693 25be a9ed fb3d
00000330: 1fa8 a13e d547 a0be cafc 8bbe 32b9 633a
00000340: 4aba 403e 5acc ba3e 1909 483d d3bd 5e3e
00000350: da89 ecbe eed5 a7be b909 0bbe 5b39 433d
00000360: 2d0c e7be 2459 803d 2159 cd3e 46c7 80be
00000370: 382b debc 3555 4bbe 1b35 683e 6edf 67be
00000380: 7d63 d53e 4d6e 9ebe 40af 98bc 4bba 303d
00000390: 9884 c0bd 38ae ebbe d6dd 983d 4e21 a9be
000003a0: 058f 43bd 2ae4 8c3e 43da abbe 9a19 353d
000003b0: 93ce ecbc 8b52 48be 23a1 fbbd 7201 5b3e
000003c0: de5d 2cbe 81d7 f1bc 3a87 a7be b147 64be
000003d0: bbbf b0be 4af4 aebe 91ea 2e3e 8cc4 81be
000003e0: 2cd1 13be 8451 753c 3df2 083c 9031 cebe
000003f0: f2d4 4fbe 5d88 eabc 26ea 833e 73b1 80be
0.27236068 -0.071363814 -0.08232484 -0.44176537 -0.51958025 -0.06796785 0.0984534 0.13882658
-0.12424825 -0.0687592 -0.11818044 0.20124647 -0.058210034 0.11476275 -0.2814441 0.47691074
0.19007812 0.014653493 -0.5777099 0.11768351 -0.22655404 -0.07988656 -0.2793101 -0.0904234
-0.2585879 0.35119382 -0.07798895 -0.34692606 -0.26786223 -0.019581372 0.40978268 0.003221295
-0.0678072 -0.49376947 -0.23356135 -0.09683017 -0.039646238 -0.3695492 -0.0071012126 -0.15131554
-0.19726592 0.02046929 -0.33821723 -0.33299327 -0.11851092 -0.22478952 -0.39735284 -0.0034465734
0.4730783 0.24527285 -0.3036946 0.19753726 0.17500013 0.29336822 -0.2668579 0.5311803
0.25036547 0.055226862 0.020145498 -0.5076146 -0.3975483 -0.020282298 -0.31282267 -0.028125362
-0.1482327 -0.12794514 0.15386698 0.052748192 -0.1590714 0.07209345 0.17090517 0.2901501
-0.21092398 -0.03212443 -0.20352189 0.30199802 -0.15314877 -0.0064339573 -0.21938793 -0.30184442
-0.15757382 -0.2497992 -0.22082517 -0.17148352 -0.43578273 0.057029616 -0.06031655 0.0836656
-0.08329285 -0.10739054 0.007600605 -0.026216984 0.013814329 -0.0641369 -0.30316824 0.008827834
-0.12736247 0.3383985 0.01683947 -0.32746592 0.3958471 0.16232567 0.08914897 0.1889644
-0.24523409 -0.19039005 0.068097055 -0.34314296 -0.12680526 -0.33642817 -0.0874689 0.40569538
0.18611622 -0.25860462 -0.12247314 -0.13530011 -0.21392325 0.048208717 -0.15687442 0.022264808
-0.2567961 -0.4292469 -0.18369205 0.1457465 0.014833712 -0.13063455 -0.30409166 -0.25629863
0.028298235 0.3399222 -0.37269318 -0.024571987 0.09872528 -0.48827487 -0.19977091 -0.42245007
-0.06558613 -0.30606124 0.2026804 -0.17312571 0.18093133 0.22636753 -0.15833262 -0.39594913
0.35134152 0.007064665 -0.1941301 -0.36896482 -0.15614218 -0.27573517 -0.10802662 -0.4534665
-0.09550366 -0.1507016 -0.08784996 -0.1572961 -0.2469075 -0.17792675 0.16891624 0.079701014
0.42350617 -0.31493384 -0.34048802 -0.114076 0.058837343 0.07922883 -0.10805208 0.37225866
0.021398807 0.05050608 -0.2764335 0.173033 0.039805796 -0.28673524 0.0043756515 -0.1480795
-0.11862863 0.015118038 -0.1714337 0.1400327 -0.17470536 -0.10346437 0.13384528 0.21975474
-0.42418945 0.39608634 -0.21851932 0.076983705 0.36985728 -0.08581777 -0.17787795 0.23166741
-0.25120217 0.005818972 0.3089776 0.2555893 -0.25442278 -0.073575824 -0.34615806 0.41884845
-0.3164676 -0.09768041 -0.16169557 0.123011895 0.3157358 -0.31304803 -0.273413 0.0008686959
0.18821064 0.36484033 0.0488368 0.217521 -0.46198922 -0.32780403 -0.13577928 0.04766212
-0.45126477 0.06267002 0.40107062 -0.25152034 -0.027120218 -0.19856723 0.22676508 -0.22643825
0.41677466 -0.30943528 -0.018638253 0.043146413 -0.0940029 -0.46031356 0.07464187 -0.33033222
-0.047743816 0.27517825 -0.33564958 0.04421387 -0.028907096 -0.19562738 -0.12286594 0.2138727
-0.16832682 -0.029521706 -0.32720357 -0.22292973 -0.3452128 -0.34170753 0.17081667 -0.25345266
-0.14435261 0.014973048 0.008358535 -0.40272188 -0.20296076 -0.028629476 0.2576458 -0.25135383

nn.linear1.weight f4 [300, 400]
00000000: 6643 2b3d 1c2e 8b3c dec5 ab3c dca7 febb
00000010: 0e2b 1ebd 1a60 59bd 09a2 543c 60cd 30bd
00000020: d201 5abb c65c 203c 394c c8bc 869e 2d3c
00000030: 5c0c 813b c2e0 58bc cb50 edbc 2f0a 24bd
00000040: 0099 33bd eb6f 60bd 91ab 45bd d226 58bc
00000050: 5fd0 23bd f22c e43b c8a6 ce3c a419 013d
00000060: c67b 1fbd 26ec 12bc 8de1 8abc 2292 d6bc
00000070: c200 5cbd 0f96 ba3c 7d22 1b3d 9992 c2bb
00000080: 0604 1bbd 4931 533c 7118 c4ba fd3e 903c
00000090: f9cd 42bd 6668 90bd f117 42bd b833 31bd
000000a0: 055e 8cbc c91a 44bd 9a0c 50bd 1c09 8d3c
000000b0: 211e 48bc 76d4 11bd 29a4 503c 7dec 8abc
000000c0: 96a0 af3b b67b 253d 49d0 45bc a9c9 d03a
000000d0: 1572 0bbd ee37 ac3c f332 63bd 0e38 803c
000000e0: 6363 fc3c fe9c 91bc 0308 60bb f1f8 5b3c
000000f0: 6b09 6fbc 09cc cdbc 6a92 6d3c 9ca6 79bd
00000100: 54fa 063d 313d 41bc 22dd d6bc a766 a2bc
00000110: 4570 0abc afa2 aebb 2ead a63b 4f73 acba
00000120: 4517 04bc c57b 063d 7421 813c d32d f43c
00000130: e0f9 33bd 65ef 06bd c9d4 d738 3e94 20bd
00000140: 9ee7 1cbd 5793 2cbd 3e2a a13c 4640 92bd
00000150: f45d f9bc 2c55 0b3d 2fcb ba3c 331d f03c
00000160: 3dd9 88bc 26e0 14bd bc13 f9bc 9a23 e13b
00000170: 3b36 6dbd 823b e63c 398c 4ebd 55c8 06bd
00000180: aad4 633b b032 b0bc 129f debb 7cf9 8c3b
00000190: b67f 1cbd 4ad4 ee3c 245b 0d3d 31fc cfba
000001a0: 1e90 1cbd 5ed2 ab3c 2eb9 243d 97ab 29bd
000001b0: 9a8b 58bd 3ff9 a4bc d465 0c3d 21fd 40bd
000001c0: 9dc9 88bd fe1a 16bd aaea 57bd 9355 e4bc
000001d0: 23e1 66bd 49fe 4ebd 3419 79bc 04e2 f6ba
000001e0: 6154 d93b 3e23 9ebc f155 c0bc 5ad6 57bd
000001f0: 25b4 133d b799 20bb d661 15bc 5ac4 5abd
00000200: 4759 abb9 0c84 f2bc 332f edbc 9fa2 343c
00000210: 2af8 5bbc b4ab 843c 272a 2abd 6c65 013d
00000220: 1207 6f3b afab a0bb 5271 56bc a44d 893c
00000230: 1123 49bd 545f 72bc 3cc2 f7bc 8424 073d
00000240: f559 9b3c 7380 edbc fdb3 09bc 1636 15bd
00000250: b638 ac3c 033d 6cbd 4875 b7bc c648 1bbd
00000260: c5cf 113c 4a2c d8ba c103 cfbb b820 b0bc
00000270: 8a8b debc 87c5 b33a 5629 ad3c 0b18 6bbd
00000280: 739c 60bd 25b6 82bc 0654 2f3c 948d fcbc
00000290: a55e 02bd 8dfe 01bd bec0 a33c b90c 5d3c
000002a0: 9138 543d 868e 1fbd d2b1 5ebc f3ea 6ebc
000002b0: d4a4 f5bb 1a89 e73c fd3b 04bd 95e0 1c3d
000002c0: 9ef1 12bd 7b20 61bd a2c7 e43c ff87 a1bc
000002d0: 85fe 9d3c c5cb 9a3c 66ba 93bd a75b 28bd
000002e0: 5643 18bd 79ab 4ebc be9c 90bc 65e6 943c
000002f0: 5583 05bd 973c 2fbd 78c2 c63b 60f9 b1bc
00000300: aeda 94bb fda7 8bbd a180 42bd 7613 14bb
00000310: e10e d63c f33d 763c 74a3 7cbd 464f 1cbd
00000320: db5c fe3c 8dbd 103c cf1f bc3c 1d6d 8dbd
00000330: 35ab 1b3d 7b45 78bc ad50 123b 9f22 28ba
00000340: 624f 5ebd d8aa 3fbd bdf5 96bc 7966 cdbb
00000350: 54cc fdbc 3651 aa3c eb7a 733c 2366 eebc
00000360: 5f53 a3bc 5e58 1ebc 67b3 29bd 00fa 403c
00000370: f657 2c3a 9c1d 7bbc 692a 5d3c 1f2e a4bc
00000380: ff0a ba3a c75d a4bc c601 12bc ef75 aab8
00000390: 2d80 88bc bf9d adbb 8135 cebb 5889 cf3b
000003a0: 2144 4abd 2995 df3a 221f e53c d8e4 463c
000003b0: 8483 f3bc 2208 ed3c 082f 31bb 52df e53c
000003c0: c14c 47bc ffaf 2bbd 660c 17bd 189b 4b3b
000003d0: b2be ec3c a24e dbbb 6675 12bd 8111 d43b
000003e0: 8f8b 29bd ac68 0e3d cb11 ebbc 621c dabc
000003f0: 9d8b 8abc f5f0 86bd c8ed 3ebc c675 803c
0.041812323 0.01698976 0.020968374 -0.0077714752 -0.03861528 -0.053070165 0.012978085 -0.04316461
-0.0033265245 0.009787744 -0.024450408 0.010596877 0.003938241 -0.01323718 -0.02896919 -0.040048774
-0.043847084 -0.054794233 -0.04825932 -0.013192849 -0.03999364 0.0069633657 0.025226012 0.031518593
-0.0389364 -0.008967435 -0.016953254 -0.026192728 -0.05371166 0.022776632 0.037874687 -0.005937886
-0.037845634 0.0128901685 -0.0014960897 0.01760816 -0.047559712 -0.070511624 -0.047386114 -0.043262213
-0.017134676 -0.047877107 -0.050793268 0.017216258 -0.012214215 -0.03560301 0.012734451 -0.01695847
0.0053597195 0.040401183 -0.012073585 0.001592924 -0.034044344 0.021022763 -0.05546851 0.015651729
0.03080911 -0.017775055 -0.0034184463 0.0134260515 -0.014589648 -0.025121706 0.01450024 -0.060949907
0.032953575 -0.011794374 -0.026228491 -0.01982434 -0.008449619 -0.005329452 0.0050865626 -0.0013156923
-0.0080621885 0.03283288 0.015763022 0.029807007 -0.04393947 -0.03294315 0.00010291633 -0.039203875
-0.038306825 -0.0421327 0.019673463 -0.071411654 -0.030440308 0.034016773 0.022801964 0.029310798
-0.01670515 -0.036346577 -0.030404918 0.006870699 -0.057913046 0.028104547 -0.050426695 -0.032905895
0.0034764209 -0.021508545 -0.006793865 0.004302202 -0.038207732 0.029153962 0.034510747 -0.0015868006
-0.03822338 0.020974334 0.040215664 -0.041423406 -0.05286751 -0.020138381 0.0342768 -0.047116403
-0.0667908 -0.036646836 -0.052714027 -0.027872836 -0.05636705 -0.050535474 -0.015203763 -0.0018835668
0.006632373 -0.019303914 -0.02347848 -0.052694656 0.03606047 -0.0024505684 -0.009117564 -0.05340991
-0.00032682178 -0.02960398 -0.02895317 0.0110251 -0.013425866 0.016195156 -0.041544106 0.031590864
0.003647272 -0.004903279 -0.013088541 0.016760655 -0.049105708 -0.014793236 -0.030243985 0.03299381
0.018963793 -0.028991913 -0.008404729 -0.036428533 0.021023136 -0.057675373 -0.022394791 -0.0379112
0.008899634 -0.0016492691 -0.006317586 -0.021499977 -0.027166147 0.0013715484 0.021137875 -0.057395976
-0.0548367 -0.015955994 0.010701185 -0.030829228 -0.03182854 -0.0317369 0.019989368 0.013491803
0.05181176 -0.03895428 -0.0135922 -0.014582383 -0.0074964557 0.028263617 -0.03228377 0.038300116
-0.035874955 -0.054962616 0.027927224 -0.019718168 0.019286403 0.018895993 -0.07213287 -0.04110303
-0.03717359 -0.012614124 -0.017652865 0.018176267 -0.03259595 -0.042782392 0.006065663 -0.021725357
-0.00454267 -0.068191506 -0.04748595 -0.0022594607 0.026130142 0.015029418 -0.06167932 -0.03816154
0.031050136 0.008834255 0.022964386 -0.06905577 0.038005073 -0.015153284 0.0022325919 -0.00064138504
-0.054274924 -0.04679379 -0.018427724 -0.006268319 -0.03098122 0.020790678 0.014860849 -0.029101437
-0.019937215 -0.009664623 -0.041430857 0.011778355 0.00065743865 -0.015326884 0.013498881 -0.020041524
0.0014193951 -0.020064248 -0.008911556 -8.1281985e-05 -0.016662681 -0.005298346 -0.0062929993 0.0063335113
-0.04938138 0.0017058003 0.027968947 0.012139522 -0.029725797 0.028934542 -0.002703609 0.028060589
-0.012164296 -0.04191589 -0.03687706 0.0031067785 0.028899524 -0.0066927234 -0.03575649 0.006471813
-0.04139286 0.03476779 -0.028695008 -0.026624862 -0.016912276 -0.06588928 -0.011653371 0.015681159

nn.linear1.bias f4 [300]
00000000: 3557 103c af93 3d39 9547 103c 5e45 9dbc
00000010: 9e44 9abc 2068 873d c6db 283c 906b 5abe
00000020: b292 52bd d229 38be 542b 833c cdb5 8abc
00000030: dbcf debc 36da 893e afe2 74bd 1db7 89bd
00000040: 6dfd 4f3e 00a0 36bd 97b6 bc3c 8a2a d1bc
00000050: c301 e0bd e696 433e 9140 42bc c5b7 bb3d
00000060: a6cc 74be e827 eebb 93f4 6fbd 3fd6 2ebd
00000070: 4eda 9fbd a764 333c bdac 85bc 1d34 8abc
00000080: bd67 84ba d341 80bd 2861 d4bd 0cd8 7dbd
00000090: 1df6 8bbc f53d 0fbd ed8b 1e3b 3d4e 1b3d
000000a0: 9b0a e1bc 790e 4cbe 543d 07be 1278 58ba
000000b0: e360 35bc fc16 1c3e 5d3d 87bd b503 07bd
000000c0: 8c20 74bd 0750 383d 5e02 a43c 80a0 b8bc
000000d0: 8cf4 72bd f256 5dbd 7b7f 9dbd 5e8d 91bc
000000e0: 3966 ccbc 8b6f a63e 3273 51bd e065 bbbc
000000f0: 8039 c53c 99ec 12bc 05f3 88bc c09e ca3c
00000100: adcb 0abd cc98 7abd e511 143d 010d 42bc
00000110: 546c 74ba 5b57 48be cac9 d1bd 1e9b 2f3c
00000120: 5920 d43c 49b6 c1bc 9687 af3c 51f5 c9bd
00000130: 7e6e 1fbd cfb8 2fbc 0553 923c 53ed dabd
00000140: 75c5 87bd c21c 09be 3146 bbbd 4323 69bd
00000150: 060f 95bc f229 d8bc fe9a 223c 9f8c a7bd
00000160: 4857 0bbe 8aba 6b3b 5764 cdbc 3eed a63b
00000170: 6f5a 00bd 7486 053d d296 d6bc 3034 4f3c
00000180: 3cea 813c ad97 9b3c d81e 513e 31e6 db3c
00000190: 7340 67bd 143a f3bc 2038 33bd 3f20 7e3b
000001a0: dbe7 6bbd 89cb 4bbd 9e54 9bbd 6359 6dbd
000001b0: 43c7 6fbd 230c e4bc 7065 cc3b dc19 1c3e
000001c0: 4fe9 29bb c6f5 13bc 1906 273d b045 0ebe
000001d0: 0003 33bc 5494 febc 25e0 883e 600a c43c
000001e0: 6297 eb3b cee0 12bd 3aa4 b4bd 1961 dd3c
000001f0: 6486 72bd b18b 4fbb 2ff8 26bd 9758 39be
00000200: 96da 9dbb d9d6 c0ba 6fed adbc f9aa 4c3d
00000210: 260d ba3e afd3 aabd caaa debc 8b04 68bb
00000220: 4a6a d7bd 28f5 bcbd eae5 5dbd 84d0 1b3e
00000230: 4fd9 b43c e0a8 34bd f1fd e8bd b4b8 eb3e
00000240: f1f1 d83c 7cc1 f7bd c100 43bb 9590 88bc
00000250: 3f67 3a3e 0568 82bd d531 84bd fd45 933c
00000260: eadd ef3c e61f 9abd ede3 87bd 719b 43bd
00000270: 76cd 73bd bf41 b43b 628f 643c 6a10 d9bc
00000280: 6cbe 873c 5770 363c 510d d63a ddee 87bc
00000290: a5f6 0abd cc4e 7ebc a596 01bd f582 d03e
000002a0: a387 f73c 9538 06bd 9d58 ba3d d87a 473c
000002b0: f2f6 01bc 1081 2bbe cb23 68bd 9805 adbd
000002c0: 6e52 99bd caf3 56bd 7040 b5bc 3b06 753c
000002d0: f616 2dbe e1f3 45bd ddc5 13bd b5f9 903a
000002e0: 1d6a 853b cc93 013e caad 51bd 94da 043d
000002f0: 2d66 84bc a941 d63c f8cb babc 656d 0bbd
00000300: 613b 40bd 981a bdbb c278 f2bc ce39 84bd
00000310: 6d6a f93d 5dda 80bb 152f 123d 9b81 e2bc
00000320: 4510 01bd 95ca 0fbd bb38 51be 86cc 1dbd
00000330: e963 c9bd 66c1 2f3c 6039 38bd ee6b 8abc
00000340: 801f 5a3d 6d2d 82bd 9fe7 353b 98c4 e6bc
00000350: 3ea4 95bd 6384 6abd e95c df3c 5e49 94bc
00000360: 7df0 01bd b01d c03a 726c e83c 9c86 8f3c
00000370: c187 523c 54a5 b0bd 8291 603b 4a6f d1bc
00000380: ade2 023c 5028 c53c ca33 5dba 28f4 32bd
00000390: 6631 ae3b 3edb 11be a8b1 6d3e 0060 30bc
000003a0: 3cad eabd beaa 96bc 6bc6 753a 0d00 08bd
000003b0: a755 29bb 5dd4 07be 2bcc bdbd ef12 aebc
000003c0: b748 a1bd 1c1a 863c 6b02 f63d 749e 65bd
000003d0: da62 643b 4e00 b63d fe26 14bc 58f7 c53c
000003e0: abe3 edbc 9802 243c 8afe e83c 988d 063a
000003f0: f46e 45bd 11b3 29bd 7ea9 91bd be52 94bd
0.008809854 0.00018079461 0.008806129 -0.019198116 -0.018831547 0.06611657 0.010306304 -0.21330094
-0.05140943 -0.17984703 0.016011871 -0.016932392 -0.027198723 0.26924294 -0.059786495 -0.06724379
0.20311518 -0.04458618 0.023036284 -0.02553298 -0.10937836 0.19100532 -0.011856214 0.09165911
-0.23906192 -0.007267941 -0.058582854 -0.04268479 -0.0780531 0.01094929 -0.01631772 -0.016870553
-0.0010101717 -0.06262555 -0.103700936 -0.061973616 -0.01708513 -0.034971196 0.002419229 0.03791641
-0.027470877 -0.19927396 -0.13206989 -0.0008257638 -0.011070463 0.15243143 -0.06603501 -0.03296252
-0.05960135 0.044998195 0.02002066 -0.02253747 -0.05931525 -0.054037996 -0.076903306 -0.017767604
-0.024951087 0.32506976 -0.05113525 -0.022875726 0.02407527 -0.008967542 -0.016717443 0.024733901
-0.033885647 -0.061180875 0.036149878 -0.011843921 -0.00093240035 -0.19564573 -0.10243566 0.010718135
0.02589433 -0.02364649 0.021426957 -0.098612435 -0.038923733 -0.010725214 0.017861852 -0.10689797
-0.06629459 -0.13389876 -0.09144247 -0.056918394 -0.01819564 -0.026387189 0.009924648 -0.08181118
-0.13607514 0.003596934 -0.02507226 0.0050941994 -0.031336244 0.032598928 -0.026194964 0.01264672
0.015858762 0.018993223 0.20421922 0.026843162 -0.056457948 -0.02969078 -0.043754697 0.0038776544
-0.05759416 -0.049754653 -0.07584499 -0.057946574 -0.05853964 -0.027837818 0.006237678 0.1524424
-0.0025926416 -0.009030765 0.0407773 -0.13893771 -0.010926008 -0.031076588 0.2673351 0.023930728
0.007189677 -0.03585892 -0.08820386 0.027023839 -0.059210196 -0.0031668956 -0.04076403 -0.181002
-0.0048173172 -0.0014712467 -0.021231381 0.04996774 0.36338156 -0.08341157 -0.027181048 -0.0035403098
-0.1051832 -0.09226447 -0.05417434 0.15216261 0.022076277 -0.044106364 -0.113765605 0.46039355
0.026482554 -0.12097451 -0.0029755088 -0.016670505 0.18203448 -0.063674964 -0.06454817 0.017977709
0.029280622 -0.075256154 -0.0663527 -0.047755662 -0.059522115 0.0055010016 0.013950201 -0.026497085
0.016570292 0.011135182 0.0016330873 -0.016593391 -0.033926625 -0.015521716 -0.031637806 0.40724912
0.030216044 -0.032768805 0.09098933 0.012175284 -0.0079324115 -0.16748452 -0.05667476 -0.084483325
-0.07486425 -0.05247859 -0.022125453 0.014955099 -0.1690329 -0.048328284 -0.03607737 0.0011060747
0.0040714876 0.12654036 -0.05119113 0.032435015 -0.016162002 0.026154356 -0.022802338 -0.034039874
-0.04693163 -0.0057709925 -0.029598597 -0.06456338 0.12178502 -0.003932281 0.035689432 -0.027649691
-0.031509656 -0.035105307 -0.20431797 -0.038525127 -0.098335095 0.010727262 -0.044976592 -0.016897168
0.053252697 -0.063563205 0.0027756465 -0.028169915 -0.07306717 -0.05725516 0.027265983 -0.01810139
-0.031723488 0.0014657285 0.028372023 0.017520241 0.012849749 -0.08625284 0.0034266417 -0.025565762
0.007988614 0.024067074 -0.0008438198 -0.043689877 0.0053159473 -0.1424379 0.23212302 -0.010765076
-0.11458823 -0.018391963 0.0009375575 -0.033203173 -0.0025838406 -0.13264604 -0.092674576 -0.021249263
-0.078751974 0.016369872 0.1201218 -0.056059316 0.003484896 0.08886777 -0.0090425 0.024165794
-0.029039225 0.010010384 0.028441686 0.00051327934 -0.048201516 -0.041430537 -0.07112406 -0.07242344

nn.linear2.weight f4 [6, 300]
00000000: da01 d73c 7468 0a3d a772 80bc 0647 2d3d
00000010: 3d72 95bc a661 a9bc 1e04 92bc 2101 38bd
00000020: 8daa 8f3b 32ca 503d 4971 d9bc 5196 d4bc
00000030: bc9c 6b3e b63b 523b c3ea 1b3e e2c9 6d3c
00000040: 1c40 58bd 8c19 f1bc 0609 2f3b e36c f0bb
00000050: 20ef 3a3d c5b7 f6bc 0c7d 083d 1220 b3bc
00000060: 4489 0bbd 8026 dfbc ec5b 8d3b 5700 383d
00000070: ee18 2dbc 469b 20bc 9b46 f03c 2f76 ab3c
00000080: d94b 53ba 0250 543d a670 8cbd 67b6 35bd
00000090: f5b1 843b 2a0a 593b d184 59bd 9a20 6e3c
000000a0: 1343 e53c e979 afbd f374 3f3e 30ca cfbc
000000b0: 2a6b 7d3e bcdc 723e 6668 2c3e 4c00 093c
000000c0: 0e0a 173d 68d9 443d c94c dd3b ae36 273d
000000d0: a721 a1bc 8f58 be3c e70e d43d 9d0d 863d
000000e0: be94 223d 0c32 8cbe ee20 9bbb 78d4 433d
000000f0: 86e7 253b 7b14 63bd 1216 803c 567e 233d
00000100: f220 e63a 01ba d3bb dcab 8ebc 58a2 4fba
00000110: 40e0 bdbc e1cf 5d3c 6c22 cf39 8291 e03c
00000120: 35f7 863c dbfd 783c cd82 06bc 9eeb a0bd
00000130: 04d2 013d ac0b 78bc d741 ab3b 2252 1e3d
00000140: 532c 6e3c e661 6dbd b176 df3b a240 ee3a
00000150: c8b0 443d 459c 8b3d 2833 b5bc 24b7 063d
00000160: e2a6 2a3c f41d 0c3d f4c0 423d 7d40 96bc
00000170: bc22 833b a8c2 b4bc ec8d 0d3d 65a3 02bc
00000180: 7b04 ee3b 587a c5bc 457c 5ebc d825 383b
00000190: 2221 543d 9af9 e73c 3704 3b3c 9b1a 0fbd
000001a0: 97f4 a1bc 2472 053d afec aabc f1ad 42bc
000001b0: e025 35bc 68db 33bc ec63 fbbc 0ea8 2dbe
000001c0: 157c 1abd 6fd6 b5bc a78f a73d d514 4cbc
000001d0: 5333 f13c 4d43 82bd fe31 993d 02e0 d5bb
000001e0: 0924 50bd 9447 81bc 5312 ec3a f5d7 9fbc
000001f0: cc8c 7cbc 34b2 05bd eb74 743c b02d a6bd
00000200: f0a4 37bc 6f62 27bb bdf5 163d d546 0dbd
00000210: 9d4f 18be 33e2 7dbc cf0b 373d 58cc 48bb
00000220: 5517 eabb 23e4 c2bd 0e01 a5bb a697 1d3e
00000230: f2b4 5ebd 68f2 c43a efed fdba 31f7 15be
00000240: f3c3 683c c8c1 b0bd 39d8 d2bb 5623 2ebc
00000250: 6067 153c 34ec 0c3d 820d ddbb 2514 843c
00000260: 8582 08bc 0967 49bb 4cbc 0bbc caad eabc
00000270: 8f01 27bd 353e 103d a35c fabc adbd 9dbc
00000280: 8ad5 5abd 98a5 433d a5d4 183d a606 99bb
00000290: 9464 07bd 2227 ec3c f7ae aabb 1650 01bd
000002a0: e290 ea3c b715 363d f796 0fbe cced 093d
000002b0: 8129 dcbc e5d0 8a3d 1165 d7bc 64b8 9d3b
000002c0: f65a 9fbb 2fbb acbb ed52 82bd 4d75 02bc
000002d0: 71da dbbc 1834 633e 8de5 9dbd f66d 203d
000002e0: e317 7abd c0cc 71bd 3539 95bc 065d 213d
000002f0: dd0f 0f3c 4711 373d 6f4e 3bbd 9d70 9b3c
00000300: e6fc 23bc f9ef 4d3d 3802 4c3d d73b b1bd
00000310: 5ea3 f13d 23d7 f03c 3f54 b3bc e8a2 cbbc
00000320: fcab 02bd d56f 1bbd f4b5 663e ec27 053d
00000330: acd5 00bd 1fa6 293c c9c6 513c c00f b8bc
00000340: 8fed 67bb d682 9cbc 1151 52bc 0b24 9fbd
00000350: 5173 903e 5c09 8ebc 222e ef3c cda8 08bd
00000360: 3a99 e9bc 157c 01bd 2b97 e7bc 5e04 93bc
00000370: 1576 023d 76b3 52bd f840 cdbc ec46 843b
00000380: 1768 ae3b d186 c8bb f037 c5bc 96ea 2b3d
00000390: bfe3 b23b 8345 a6bd fddf e93c 1f14 393d
000003a0: 28c6 61bc dd2f 12bb bdc8 91bc 50e7 3abd
000003b0: 6028 bf3c 5b6e 95bc c1b5 af3c 4cf2 02bd
000003c0: bd0b 0bbc 983d 33bd 3d16 a93e 50f7 c0bd
000003d0: cce8 0e3c 1ecc 113e 3a25 dbbb d8aa 3f3b
000003e0: c4e6 093d 522c ee3c 9553 0ebd 1f5a 96bd
000003f0: 2f34 4b3e b902 97bd 23bb 7d3c d173 c7bb
0.026246 0.03379102 -0.01567967 0.04230406 -0.01824295 -0.020676445 -0.017824229 -0.04492295
0.004384345 0.05097408 -0.026543276 -0.025950583 0.23009008 0.0032079048 0.15226273 0.014513465
-0.052795514 -0.029431127 0.002670826 -0.007337199 0.045638204 -0.030116925 0.03332238 -0.021865878
-0.034066454 -0.027240038 0.0043139365 0.0449222 -0.010565026 -0.009802645 0.029330542 0.020930378
-0.00080603134 0.051834114 -0.068574235 -0.044363406 0.0040495344 0.003311763 -0.05310518 0.01453414
0.027986085 -0.085681744 0.18696956 -0.025364965 0.24747911 0.23717016 0.168367 0.008361887
0.036874823 0.048058897 0.0067535383 0.04082363 -0.019669367 0.023235587 0.10354405 0.06545565
0.039692633 -0.27381933 -0.00473415 0.047810048 0.0025315 -0.055439454 0.015635524 0.039915405
0.0017557426 -0.0064613824 -0.017415933 -0.00079206144 -0.02317822 0.013538332 0.00039507763 0.027413134
0.0164753 0.015197243 -0.008209896 -0.078574404 0.031694427 -0.015139502 0.0052263546 0.038652547
0.014536935 -0.05795469 0.006819569 0.0018177221 0.048020154 0.068169154 -0.02211912 0.0328895
0.0104157645 0.034208253 0.047547296 -0.018341297 0.0040019434 -0.022065476 0.034559175 -0.007973527
0.0072637177 -0.02410619 -0.013579433 0.0028098729 0.05178941 0.028317261 0.011414579 -0.034937482
-0.01976995 0.032579556 -0.020864813 -0.011882291 -0.011056393 -0.0109776035 -0.030687295 -0.16958639
-0.03771599 -0.022196976 0.081816964 -0.012456139 0.029443419 -0.06360493 0.074802384 -0.006526948
-0.050815616 -0.015781201 0.0018010832 -0.019512156 -0.015414428 -0.03264065 0.014920454 -0.08114183
-0.011208758 -0.0025540849 0.036855448 -0.03449138 -0.1487412 -0.015495825 0.044688996 -0.0030639376
-0.0071438947 -0.0951617 -0.005035526 0.1538988 -0.05437178 0.0015025856 -0.0019373278 -0.14645077
0.014206874 -0.08630711 -0.006434467 -0.010628542 0.009118885 0.03440495 -0.006745995 0.016122887
-0.0083318995 -0.003073158 -0.00852878 -0.028647322 -0.04077297 0.035215575 -0.03056175 -0.019255484
-0.053426303 0.047765344 0.03731217 -0.004669982 -0.033054903 0.028827254 -0.0052088457 -0.031570517
0.028633539 0.044454303 -0.14022432 0.033674046 -0.02687526 0.06778125 -0.02629331 0.004813241
-0.0048631383 -0.0052713375 -0.06363473 -0.007962537 -0.02683756 0.22187841 -0.07709799 0.039167367
-0.061057936 -0.059033155 -0.018215755 0.039395355 0.008731809 0.04469421 -0.045729097 0.018974597
-0.010009026 0.050277684 0.049806803 -0.08653992 0.11798738 0.02939946 -0.021890758 -0.024857953
-0.0319023 -0.03794845 0.22530347 0.032508776 -0.031453773 0.010354548 0.012803742 -0.022468448
-0.0035389399 -0.019105356 -0.012836711 -0.077705465 0.2821298 -0.017338447 0.029196803 -0.033364106
-0.028515447 -0.031612474 -0.028270325 -0.017946418 0.031850893 -0.05144068 -0.025055394 0.004036775
0.005322467 -0.006119587 -0.024074525 0.041971765 0.0054592784 -0.08118727 0.028549189 0.045185205
-0.013780154 -0.002230636 -0.017795915 -0.045630753 0.023334682 -0.018241098 0.021448972 -0.031969354
-0.008486685 -0.043759912 0.3302478 -0.09422171 0.008722495 0.14238021 -0.0066877874 0.0029246118
0.03366734 0.029073868 -0.03474768 -0.07341408 0.19844125 -0.07373566 0.015486511 -0.0060868044

nn.linear2.bias f4 [6]
00000000: 2724 80bd 3a6a 823d 04ec 753d 3c6d 6dbc
00000010: bea8 77bc 55ed d4be
-0.062568955 0.06367917 0.060039535 -0.014491376 -0.015115915 -0.4158732
