benchmarks/CartPole-v1/Test_CartPole-v1_NoisyDQN_ray_20230414-101926/models/checkpoint.pt (torch, 804667 bytes, 14 tensors)

fc1.weight f4 [256, 4]
0	0xbed00752	-0.40630585
1	0x3e541ea7	0.20714818
2	0x3ed21fe0	0.41039944
3	0xbe9b14c7	-0.3028929
4	0x3af2e92a	0.0018532623
5	0x3df523b5	0.11969701
6	0xbe753df5	-0.23949416
7	0x3f050329	0.51957947
8	0x3dda8d38	0.106714666
9	0xbeef059a	-0.4668396
10	0xbee9037c	-0.4551047
11	0xbe71c651	-0.23610808
12	0xbf16d56b	-0.589194
13	0xbeb940ae	-0.3618216
14	0x3e01ce12	0.12676266
15	0xbd5cd565	-0.053914446
16	0xbe751ef1	-0.23937584
17	0xbe18b34c	-0.14912146
18	0xbee9c274	-0.45656168
19	0x3e8edd3c	0.27903163
20	0x3cbae80d	0.022815729
21	0xbe546b65	-0.20744093
22	0x3ee7b465	0.45254818
23	0xbe907b81	-0.28219226
24	0x3de4324d	0.111424066
25	0x3e05b04c	0.13055533
26	0x3ec6f4d1	0.38858655
27	0x3e849b92	0.2589994
28	0x3e1b437a	0.15162459
29	0x3dd66823	0.10469081
30	0x3eadd134	0.33948672
31	0x3ee2957b	0.4425467
32	0xbe76ddc4	-0.24108034
33	0x3f08f2d3	0.5349552
34	0xbe82a0cd	-0.25513306
35	0xbe296658	-0.16542947
36	0xbef0c05d	-0.47021762
37	0x3e6814b4	0.22664148
38	0xbede3a0a	-0.43403655
39	0xbe8436c5	-0.25823036
40	0x3ed61622	0.4181376
41	0xbeb3a97a	-0.35090238
42	0xbddb6823	-0.10713222
43	0xbd4a0abd	-0.049326647
44	0x3e26eb17	0.16300617
45	0xbd25950b	-0.04042534
46	0xbef4e435	-0.47830358
47	0xbe7fc8df	-0.2497897
48	0x3eed28ee	0.4632029
49	0xbec89bd2	-0.3918138
50	0xbe907428	-0.2821362
51	0xbec7161f	-0.38884065
52	0xbedb0514	-0.42777312
53	0x3d329651	0.043600384
54	0xbe8e0f0f	-0.27745864
55	0x3e21fb28	0.15818465
56	0x3dd5342c	0.104103416
57	0x3ecc9a0d	0.3996128
58	0xbe09f15b	-0.13470976
59	0xbec96e52	-0.3934198
60	0x3ec5a21a	0.38600236
61	0x3eb2fa42	0.34956557
62	0x3d2073c7	0.039172914
63	0x3d649e2f	0.055814918
64	0x3ec44626	0.3833477
65	0xbe243156	-0.16034445
66	0x3f32683a	0.6969029
67	0x3eb156c5	0.34636512
68	0xbebbf460	-0.3670988
69	0xbeb521c9	-0.3537734
70	0x3dede93b	0.11616751
71	0xbd539177	-0.051652398
72	0x3f0499c6	0.5179714
73	0x3ed38a21	0.41316321
74	0xbf1561cb	-0.58352345
75	0xbeffa4dd	-0.49930468
76	0xbe49d5d0	-0.19710469
77	0x3e199ddd	0.15001626
78	0xbcbfd8be	-0.02341878
79	0x3d97e8c6	0.07417445
80	0xbe319e0f	-0.17345451
81	0xbe956967	-0.29181978
82	0xbf24fd3b	-0.644489
83	0xbefaeb46	-0.49007624
84	0xbe724f19	-0.23662986
85	0xbe901c69	-0.28146675
86	0xbe1aeabd	-0.15128608
87	0xbee608a4	-0.44928467
88	0x3d5e68a8	0.054299027
89	0x3e5473ef	0.2074735
90	0x3f0fd2a6	0.561808
91	0xbef31f95	-0.47485033
92	0x3c6fefee	0.014644606
93	0x3e0ce026	0.13757381
94	0x3e79e8a4	0.24405152
95	0xbea71d6d	-0.32639638
96	0xbf00b2ca	-0.5027281
97	0x3c264850	0.010149077
98	0x3eb2c0b3	0.34912643
99	0x3e31af73	0.17352085
100	0xbc7598c3	-0.0149900345
101	0xbee03c82	-0.43796164
102	0xbe2b9c0a	-0.16758743
103	0x3edb6275	0.42848554
104	0xbdf1bdae	-0.11803757
105	0x3e9df448	0.30850434
106	0xbf04fce1	-0.5194836
107	0x3e4b3fa6	0.19848499
108	0xbe37a8fe	-0.17935559
109	0xbe437b35	-0.19089969
110	0x3f06e6c9	0.526959
111	0x3edb70d2	0.42859513
112	0xbea27e1b	-0.31736836
113	0x3ecba50c	0.39774358
114	0xbecf1a2b	-0.40449652
115	0x3e88d0f7	0.26721928
116	0x3ee04205	0.4380037
117	0x3be4fb52	0.0069879675
118	0x3e8de7a2	0.27715784
119	0xbeb04564	-0.3442794
120	0xbeed5af0	-0.46358442
121	0x3eb28407	0.34866354
122	0xbe3e2224	-0.18567711
123	0x3e95b44c	0.29239118
124	0xbea4a549	-0.32157353
125	0x3ec3bbad	0.38229123
126	0xbeabcbe7	-0.33554003
127	0xbef257f6	-0.47332734
128	0x3e49d4e0	0.19710112
129	0xbe9eeb1b	-0.31038746
130	0x3eadb5eb	0.33927855
131	0xbe211dac	-0.15733975
132	0x3ec99abb	0.39375862
133	0x3f0586d1	0.5215884
134	0xbe656625	-0.22402246
135	0x3ea1bb94	0.31588423
136	0x3ebaf1cd	0.36512604
137	0xbd370284	-0.044680133
138	0x3f004901	0.50111395
139	0xbe3139b6	-0.17307171
140	0x3d88a365	0.0667179
141	0xbd8c0ef3	-0.06838789
142	0xbe40c700	-0.18825912
143	0xbda97de9	-0.082759686
144	0x3f06e0e6	0.5268692
145	0x3ec472cf	0.38368842
146	0xbe610333	-0.21973877
147	0xbeab37b9	-0.3344095
148	0x3ea03938	0.31293654
149	0x3e7d1601	0.24715425
150	0x3e257281	0.16156961
151	0xbe2c533b	-0.16828625
152	0xbe7e7288	-0.24848378
153	0x3ee7aaed	0.45247594
154	0x3ead5573	0.33854255
155	0xbe44e17c	-0.1922664
156	0x3da8e43e	0.08246659
157	0xbf09aa5b	-0.53775567
158	0xbeda8b3a	-0.42684346
159	0x3d71fd3b	0.05907939
160	0xbef0eb9f	-0.47054765
161	0x3e9c9bbb	0.30587563
162	0x3eb4c897	0.35309288
163	0x3edb4879	0.4282873
164	0xbebf7f4d	-0.3740181
165	0xbf0453e8	-0.5169053
166	0xbed4f38a	-0.41592056
167	0xbe2c6084	-0.16833693
168	0xbea015f3	-0.31266746
169	0xbe3e49c1	-0.18582822
170	0x3e87e6c4	0.26543248
171	0x3ea7bba3	0.32760343
172	0x3ea0151c	0.31266105
173	0x3e0c7302	0.13715747
174	0xbf084608	-0.5323186
175	0xbeda90e2	-0.42688662
176	0xbef150f4	-0.47132075
177	0xbe2fac5d	-0.17155595
178	0xbed71a65	-0.42012325
179	0xbe837744	-0.2567693
180	0xbe949c95	-0.29025713
181	0xbee78f1e	-0.45226377
182	0xbe03f729	-0.12887253
183	0xbe072d99	-0.13200988
184	0xbdfd5359	-0.12369413
185	0xbd8ef829	-0.069809265
186	0xbeed37a6	-0.4633152
187	0x3e3699d3	0.17832117
188	0x3ebdd506	0.37076586
189	0xbdd9b45c	-0.10630104
190	0x3e0bad35	0.13640292
191	0xbee24b77	-0.441982
192	0x3ee122c2	0.4397183
193	0xbe00e752	-0.12588242
194	0xbe88c954	-0.267161
195	0xbe97567a	-0.29558164
196	0xbefb3231	-0.4906173
197	0x3e2ea2e6	0.17054328
198	0x3f43691d	0.76332265
199	0x3e9b531d	0.30336848
200	0x3ed0ef15	0.40807405
201	0xbe78473d	-0.24245925
202	0xbed74a3d	-0.42048827
203	0xbe70a99c	-0.23502201
204	0x3ed39e0c	0.41331518
205	0xbdc34a79	-0.09535689
206	0x3e85b319	0.26113203
207	0x3d053f73	0.032531213
208	0xbe39dfc9	-0.18151774
209	0xbee77f17	-0.4521415
210	0xbcb3702c	-0.021904074
211	0xbed2c842	-0.4116841
212	0x3eae6665	0.34062496
213	0xbe7162e7	-0.23572885
214	0x3e41b9be	0.18918511
215	0xbf06ed2b	-0.5270564
216	0xbf28bf47	-0.65916866
217	0x3e538cf3	0.20659237
218	0x3e2f6661	0.17128898
219	0x3ee7b96e	0.4525866
220	0x3e8b94bc	0.27261913
221	0xbdcc6f90	-0.09982216
222	0x3e3f3701	0.18673326
223	0x3e538f0b	0.20660035
224	0x3f035b82	0.51311505
225	0x3e359cd5	0.17735608
226	0xbe66eb4a	-0.22550693
227	0xbe6cbe39	-0.23119439
228	0xbe3f67df	-0.18691967
229	0xbef6d6a6	-0.4821064
230	0xbe317dea	-0.17333189
231	0xbed74272	-0.4204288
232	0x3d121d5c	0.03567253
233	0xbd15ed66	-0.036603354
234	0x3ed8a9d2	0.42317063
235	0x3ed5048b	0.4160503
236	0x3e95d683	0.29265222
237	0xbe25bf6a	-0.161863
238	0x3ebcd10b	0.36878237
239	0xbea72684	-0.32646573
240	0xbdfb157c	-0.12259957
241	0xbd182fd8	-0.037155002
242	0x3f28a70a	0.6587988
243	0x3e5ccc1b	0.21562235
244	0x3d9fe77a	0.078078225
245	0xbe0aea78	-0.13566005
246	0xbd38c1e0	-0.04510677
247	0x3e984688	0.2974131
248	0x3d749119	0.05970869
249	0xbef50371	-0.47854188
250	0x3e1cad70	0.15300536
251	0xbece9ebd	-0.40355483
252	0x3cd2f984	0.025753744
253	0xbd5efc13	-0.054439615
254	0x3e31df78	0.17370403
255	0xbe96069b	-0.29301915

fc1.bias f4 [256]
0	0x3ea28d81	0.31748584
1	0xbe7e0639	-0.24807061
2	0xbeb7091f	-0.35749146
3	0xbe41e060	-0.18933249
4	0x3eb690b9	0.3565729
5	0x3e9793d8	0.29604983
6	0xbe39ea81	-0.18155862
7	0xbeb13b08	-0.3461535
8	0xbe22041c	-0.1582188
9	0x3ef09e3b	0.4699572
10	0x3dcd8133	0.100344084
11	0x3eff2822	0.49835306
12	0x3ef69dab	0.48167166
13	0x3ecbf13a	0.3983248
14	0xbeb55db9	-0.35423067
15	0xbecfd087	-0.4058878
16	0xbebcfe9e	-0.36913007
17	0x3eabd1ee	0.335586
18	0xbf00b407	-0.502747
19	0x3ef0e289	0.47047833
20	0xbec43501	-0.3832169
21	0xbe1c16f5	-0.15243132
22	0x3ee01b48	0.43770814
23	0xbe961afb	-0.2931746
24	0x3edbb2cf	0.42909858
25	0xbed16c22	-0.4090281
26	0x3e5a8fe7	0.21343957
27	0x3e9d2c56	0.30697888
28	0x3e88ccd1	0.26718763
29	0xbedbda25	-0.4293987
30	0x3e758a35	0.23978503
31	0x3e67f661	0.2265258
32	0x3e0190f0	0.12652946
33	0x3af7c786	0.0018904067
34	0xbee3a25e	-0.44459814
35	0x3e0a4604	0.13503271
36	0x3d9e074e	0.07716237
37	0xbeb8ea37	-0.36116192
38	0xbeb66523	-0.35624036
39	0xbc1f40b0	-0.009720013
40	0xbeab8d77	-0.33506367
41	0x3e151a56	0.14560828
42	0x3eed8fbf	0.46398732
43	0xbca4dc68	-0.02012463
44	0xbece1518	-0.40250468
45	0xbee65546	-0.44986933
46	0x3ea3d451	0.31997922
47	0x3f077ac1	0.5292168
48	0x3efccacc	0.49373472
49	0xbe9b0a3b	-0.30281243
50	0x3f02619a	0.5093018
51	0xbeb587b5	-0.354551
52	0x3f0f9389	0.56084496
53	0xbdb76d80	-0.08956432
54	0xbe15211d	-0.14563413
55	0x3e9fd284	0.31215298
56	0xbe82c5d3	-0.25541553
57	0xbde75d91	-0.11297143
58	0x3d48a81c	0.048988447
59	0x3ece75f3	0.40324363
60	0x3e88c46b	0.26712355
61	0x3ed4c634	0.41557467
62	0xbeaa71d3	-0.33289966
63	0x3ea44ba3	0.32088956
64	0x3e92cb6e	0.2867083
65	0xbe3852a6	-0.18000278
66	0x3e8dff1d	0.27733698
67	0x3ea792c3	0.32729158
68	0x3cbbac54	0.02290932
69	0xbe570f0a	-0.2100183
70	0x3e1fd6e6	0.15609321
71	0xbe89b7fb	-0.26898178
72	0x3f0b08d0	0.5431032
73	0xbe932076	-0.28735703
74	0xbe813e90	-0.25243044
75	0xbdd1fc79	-0.102532335
76	0x3ea3377e	0.31878275
77	0x3ecef2cf	0.40419623
78	0xbea6b581	-0.32560351
79	0xbd7e43b3	-0.06207628
80	0xbe7f70d3	-0.24945383
81	0xbe68222a	-0.22669283
82	0xbe5dac61	-0.21647789
83	0x3d8398db	0.06425639
84	0xbedf76c0	-0.43645287
85	0xbef485a6	-0.47758216
86	0x3dd11bb8	0.10210365
87	0x3ea53594	0.3226744
88	0x3f01918a	0.506127
89	0x3ef1e0e6	0.47241896
90	0x3edd5551	0.43229154
91	0xbeca37c4	-0.3949567
92	0x3e12acbe	0.14323708
93	0xbdfc67d1	-0.12324489
94	0x3efadc26	0.48996085
95	0xbe781b52	-0.24229172
96	0x3ec01d0a	0.37522155
97	0xbe03e1e2	-0.12879136
98	0xbe7795cc	-0.24178237
99	0xbe778bc2	-0.24174407
100	0xbefc5316	-0.4928214
101	0xbe2b66ba	-0.16738406
102	0xbed08abc	-0.40730846
103	0x3ed78a2b	0.420976
104	0x3e89be2f	0.2690291
105	0x3e1542fe	0.14576337
106	0xbd7fcfe4	-0.06245412
107	0xbea0fa95	-0.3144118
108	0xbe81074a	-0.25200874
109	0x3eded826	0.43524283
110	0x3d803a62	0.06261136
111	0x3ea00667	0.31254885
112	0xbdcb21d1	-0.09918559
113	0xbeca5029	-0.39514282
114	0x3e469886	0.1939412
115	0xbe6c6453	-0.23085146
116	0xbed9dbfe	-0.42550653
117	0xbed50d12	-0.41611534
118	0x3ea20668	0.31645513
119	0xbdeab1ef	-0.114597194
120	0x3ef9d4f1	0.48795274
121	0xbe88c65b	-0.26713833
122	0x3ed8a913	0.42316493
123	0xbe8165d6	-0.25273007
124	0x3dcf594a	0.101244524
125	0xbebe86ba	-0.37212163
126	0xbe640854	-0.22268802
127	0x3ebc4405	0.36770645
128	0xbdc337ee	-0.09532152
129	0xbeaf0beb	-0.3418878
130	0xbeeb9cc2	-0.46018034
131	0xbedf022c	-0.43556345
132	0x3f0d07ba	0.55089915
133	0xbe8fd267	-0.28090212
134	0xbe85557c	-0.26041782
135	0x3e80d6b6	0.2516381
136	0x3df37fdf	0.11889624
137	0xbec34d54	-0.38144934
138	0x3e712605	0.2354966
139	0xbe503b29	-0.20335068
140	0xbe8792ac	-0.2647909
141	0x3ef2eb99	0.47445372
142	0xbc9940b9	-0.01870762
143	0xbeaace38	-0.33360457
144	0xbec04d6f	-0.37559077
145	0x3da308ec	0.07960686
146	0x3c0850b5	0.008320023
147	0xbea59f43	-0.3234807
148	0xbdea6caf	-0.11446511
149	0xbe896f08	-0.26842523
150	0xbc5aa84e	-0.013345791
151	0xbe0317de	-0.12802073
152	0x3ea5a266	0.32350463
153	0xbe8dc2f1	-0.2768779
154	0xbc638371	-0.013886319
155	0xbed0f165	-0.4080917
156	0xbdf2723c	-0.11838195
157	0x3af5cc30	0.0018752869
158	0xbdc0ccba	-0.094140485
159	0xbde6077c	-0.11231896
160	0xbb8fb81f	-0.0043859626
161	0xbe282395	-0.16419823
162	0xbeff1e45	-0.4982778
163	0xbe7b01cc	-0.24512404
164	0x3e47735f	0.19477604
165	0xbe15c5d0	-0.1462624
166	0x3efdbde5	0.4955894
167	0xbe90df22	-0.28295237
168	0xbbbe5d4a	-0.0058094608
169	0x3eea4e39	0.45762804
170	0x3ecaa33d	0.39577666
171	0xbeaca096	-0.33716267
172	0x3ee96c8b	0.45590624
173	0xbe885fd8	-0.26635623
174	0x3ecdb572	0.40177494
175	0xbda730a8	-0.08163577
176	0x3d10a33b	0.03531192
177	0xbe86cc0e	-0.26327556
178	0xbeca20f9	-0.3947828
179	0xbd241be4	-0.04006566
180	0xbe8bc656	-0.27299756
181	0x3e38684a	0.18008533
182	0xbe1163eb	-0.14198272
183	0x3e1fe664	0.15615231
184	0xbe8d69fc	-0.27619922
185	0xbea2fe55	-0.31834665
186	0xbee85a72	-0.45381504
187	0xbede065f	-0.43364236
188	0xbb9c6c62	-0.0047736624
189	0xbea37a09	-0.31929043
190	0x3e83855a	0.25687677
191	0x3d09734c	0.03355722
192	0x3ec56808	0.38555932
193	0x3e6eb32c	0.23310536
194	0x3f060605	0.52352935
195	0xbeb1e0d7	-0.34741852
196	0x3eb1ddb2	0.34739453
197	0x3e8c345e	0.27383703
198	0xbee2baa3	-0.44283018
199	0xbebf0728	-0.37310147
200	0xbee2fb9f	-0.44332597
201	0x3eb58b3c	0.3545779
202	0x3e51983d	0.2046823
203	0xbea69a98	-0.3253982
204	0xbeee6a84	-0.4656564
205	0x3ec8ed96	0.39243764
206	0xbe5ef361	-0.21772529
207	0xbe9896ca	-0.29802543
208	0x3db4c189	0.088259764
209	0xbe76fe32	-0.24120405
210	0x3e853495	0.2601668
211	0x3e484fb5	0.19561656
212	0x3e711f9a	0.23547211
213	0xbe07dabc	-0.13267034
214	0x3e82cb22	0.25545603
215	0x3eef08d8	0.46686435
216	0x3e5e2ad0	0.21696019
217	0xbe95f8d7	-0.29291412
218	0xbe6b8f21	-0.23003818
219	0xbec95e8e	-0.39329952
220	0x3e9f8330	0.31154776
221	0x3eaeeff0	0.34167433
222	0x3f10225d	0.56302434
223	0x3e8457e3	0.25848302
224	0xbc824228	-0.015900686
225	0x3eed915f	0.46399972
226	0xbeb4d731	-0.35320428
227	0x3e23ce09	0.15996565
228	0xbe6d3c1d	-0.23167463
229	0x3ece64c9	0.40311268
230	0x3e90a737	0.28252575
231	0x3e95898e	0.29206508
232	0x3f0f33d2	0.55938447
233	0xbe5d7022	-0.21624807
234	0xbc97fb35	-0.018552402
235	0xbeb2e887	-0.3494303
236	0x3ea967c4	0.3308698
237	0xbdff8cbd	-0.124780156
238	0xbe06d658	-0.13167703
239	0x3db52887	0.088456206
240	0x3e1131ea	0.14179197
241	0xbe532e45	-0.20623119
242	0xbe5d0fa2	-0.21587995
243	0xbe4faec2	-0.20281509
244	0xbd5fdec0	-0.05465579
245	0x3edf32b6	0.43593377
246	0x3ea58cac	0.32333887
247	0x3ec8cb67	0.39217684
248	0x3e551d08	0.20811856
249	0xbecd09bb	-0.40046486
250	0xbd2d9156	-0.04237493
251	0x3e2687bb	0.16262715
252	0x3f01d3c4	0.50713754
253	0xbe9931b6	-0.2992074
254	0xbe6739ad	-0.22580595
255	0xbe69e617	-0.22841679

noisy_fc2.weight_mu f4 [256, 256]
0	0x3cf4178a	0.02979638
1	0x3d05798c	0.03258662
2	0x3d6ac2f6	0.057314835
3	0xbd3b7ff8	-0.045776337
4	0xbcb6fe38	-0.022338018
5	0xbd074018	-0.03302011
6	0x3bad33e5	0.0052857273
7	0x3d638595	0.055547316
8	0x3c65e7c6	0.01403231
9	0x3d4b05f1	0.049566213
10	0x3cc18f00	0.023627758
11	0xbbffd369	-0.0078071845
12	0x3c69ccad	0.01426999
13	0x3c216ba5	0.009852325
14	0xbd763486	-0.060108684
15	0x3d5a5db0	0.053312004
16	0xbd09e825	-0.033668656
17	0x3d41ecb7	0.04734489
18	0xbd23dd02	-0.04000569
19	0x3becb9c9	0.0072242958
20	0x3d65e33e	0.05612492
21	0x3cc42178	0.02394174
22	0xbc71ac45	-0.014750545
23	0x3aeb3f0c	0.0017947867
24	0xbd05fcfd	-0.03271197
25	0xbd44653d	-0.04794811
26	0xbd69dd6d	-0.057095934
27	0xbd0ee6e4	-0.034888163
28	0xbc0ac319	-0.0084693665
29	0xbd2a7d99	-0.041623686
30	0x3aff5e5f	0.0019483081
31	0x3cb85a54	0.02250401
32	0x3d09c405	0.033634204
33	0xbd09d8bf	-0.03365397
34	0xbbc59d50	-0.006030716
35	0xbd1f68f5	-0.038918454
36	0xbd63d177	-0.055619683
37	0xbcaa7b10	-0.020810634
38	0x3d5e7609	0.054311786
39	0xbc6d7eb8	-0.014495544
40	0xbd57aa07	-0.052652385
41	0x3b7caafe	0.0038554068
42	0x3d306c2f	0.043071922
43	0x3d27f08c	0.041000888
44	0xbc9fa4c3	-0.019487744
45	0x3ca00e95	0.019538203
46	0x3c3e08c0	0.011598766
47	0xbc816936	-0.015797239
48	0x3d41f3a4	0.047351494
49	0xbd7d633f	-0.061862227
50	0xbd591d86	-0.05300667
51	0x3d19b340	0.03752446
52	0xbcec78be	-0.028866168
53	0x3c312589	0.010812172
54	0xbd0d4c1e	-0.03449642
55	0xbcbaf782	-0.022823099
56	0xbc9b56a7	-0.018962217
57	0x3c61551d	0.013753203
58	0xbd1d4b39	-0.038401816
59	0xbd14d2e4	-0.036333933
60	0x3c86e199	0.016464995
61	0x3d4e7d3f	0.050412413
62	0xbd3bce5e	-0.045851104
63	0xbd62ee4b	-0.055403035
64	0x3ccd62f5	0.0250716
65	0x3d152d8c	0.03642039
66	0x3c8441d8	0.016144678
67	0xbc9b2b4f	-0.01894155
68	0xbba0ed89	-0.004911129
69	0x3d32bcb5	0.043636996
70	0xbd19e44d	-0.03757124
71	0xbc1fae87	-0.0097462
72	0xbd817b11	-0.06322301
73	0xbcc1157b	-0.023569813
74	0x3c82153f	0.015879272
75	0xbd1e8256	-0.038698517
76	0xbba005b4	-0.0048834924
77	0x3d1d109c	0.038345918
78	0x3d311e47	0.043241765
79	0xbd281142	-0.041032083
80	0xbd8297c6	-0.06376605
81	0xbbc59740	-0.0060299933
82	0x3b6859c6	0.00354539
83	0xbcfea5cc	-0.031084917
84	0xbd476d16	-0.048688017
85	0x3d558af2	0.05213446
86	0xbce1916e	-0.027535167
87	0x3d29d2ab	0.041460674
88	0x3d4637da	0.048393108
89	0xbd17a744	-0.03702475
90	0x3c92d8ee	0.017925706
91	0xbc610cdd	-0.013735977
92	0x3b00a0fd	0.0019627206
93	0xbb53f0f9	-0.0032339676
94	0x3b1fd5fe	0.0024389024
95	0xbcfe5abf	-0.03104913
96	0xbcf3a415	-0.029741326
97	0xbd04f0e0	-0.03245628
98	0xbca94a96	-0.020665448
99	0xbd72f6d6	-0.059317432
100	0xbc39068a	-0.011293063
101	0x3c82a6ce	0.01594868
102	0xbc34689e	-0.011011271
103	0xbc827479	-0.01592468
104	0xbd58c4af	-0.052921947
105	0x3c6997e3	0.014257404
106	0x3d331bf7	0.04372784
107	0xbd5b5332	-0.053546138
108	0xbb728a8f	-0.0037008857
109	0x390c3177	0.00013369868
110	0x3c8b8a77	0.017033799
111	0xbc676e49	-0.014125415
112	0x3cb841f7	0.022492392
113	0x3cb0aaae	0.021565761
114	0x3c8ed98b	0.017437717
115	0x3d78a488	0.060703784
116	0xbb8a6410	-0.004223354
117	0xbd3455b7	-0.044027057
118	0xbd80ad6b	-0.06283077
119	0xbd494b6e	-0.0491442
120	0xbc1e0820	-0.009645492
121	0x3cbfe16e	0.023422923
122	0xbd380179	-0.04492328
123	0xbaa838b6	-0.0012834284
124	0x3c9638d1	0.018337639
125	0xbced4319	-0.028962659
126	0xbd669351	-0.056292836
127	0xbc82665b	-0.015917948
128	0x3d70ba3f	0.058771368
129	0x3c408097	0.011749408
130	0x3d3f6b52	0.046733208
131	0xbcd62b01	-0.026143553
132	0xbcd2910e	-0.025703933
133	0x3d5fedbc	0.05467008
134	0x3d0e99de	0.034814708
135	0x3d652408	0.055942565
136	0x3c1eabc3	0.009684506
137	0xbd037ad7	-0.03209957
138	0xbd7994fb	-0.060933094
139	0x3d55cd6f	0.05219787
140	0xbc2fb3bb	-0.010724003
141	0xbd1ab040	-0.03776574
142	0xbd390143	-0.04516722
143	0xbd52103b	-0.05128501
144	0x3cecff26	0.028930258
145	0x3c90c2c8	0.017671004
146	0xbbfae00b	-0.0076561025
147	0x3c585b0b	0.0132053
148	0xbd1164ca	-0.03549651
149	0x3d40569e	0.046957605
150	0xbd452ee8	-0.048140436
151	0x3cbae96e	0.022816386
152	0xbcb2b870	-0.021816462
153	0x3d533d7e	0.051572315
154	0x3d104055	0.0352176
155	0x3bf3b7b7	0.007437672
156	0x3c7dcd94	0.015490908
157	0xbd69a421	-0.05704129
158	0x3cc7c70c	0.024386905
159	0x3d3a506b	0.04548685
160	0x3ce497fa	0.0279045
161	0xbcf034fe	-0.029322144
162	0x3b516d57	0.003195604
163	0x3d35bf6e	0.044372015
164	0x3d3665e0	0.04453075
165	0xbc75283b	-0.014963205
166	0x3bebfe10	0.0072019175
167	0x3bfba2de	0.0076793274
168	0x3ce9e9fb	0.028553953
169	0x3d479ecb	0.04873542
170	0x3c167d16	0.009185096
171	0xbd3c6a91	-0.046000067
172	0xbce38133	-0.027771568
173	0x3d1c6381	0.03818083
174	0x3d727148	0.059190065
175	0x3d101d3d	0.035184134
176	0x3d5331fb	0.051561337
177	0x3bd4bd88	0.0064923204
178	0x3d705277	0.058672395
179	0xbd5d6e6d	-0.05406039
180	0xbd6a8f90	-0.057265818
181	0x3c4d6d58	0.012538277
182	0xbd063246	-0.03276279
183	0x3cb7a083	0.022415405
184	0xbc3a45e9	-0.011369207
185	0xbd3eb1e0	-0.046556354
186	0xbd0c1ac3	-0.03420521
187	0xbd1196de	-0.03554427
188	0x3c83d993	0.016094958
189	0xbac4d7e6	-0.0015017956
190	0x3d143d77	0.03619143
191	0x3d076103	0.033051502
192	0x3d07ce01	0.033155445
193	0xbd6f90a9	-0.058487568
194	0xbc7a3672	-0.01527177
195	0xbd01b3fd	-0.03166579
196	0x3d272da6	0.040815018
197	0xbd42b1d7	-0.047532883
198	0x3a98f0a4	0.0011668396
199	0x3d134406	0.035953544
200	0xbcae9b70	-0.021314353
201	0x3d19ff7e	0.037597172
202	0x3d05c4ca	0.032658376
203	0xbc8c2e39	-0.017111884
204	0x3d36eb7e	0.044658177
205	0x3b1f401f	0.0024299694
206	0x3d68dd6c	0.05685179
207	0xbce341af	-0.027741281
208	0x3d31ecb2	0.04343862
209	0xbc50b68d	-0.012738836
210	0x3d1bf273	0.038073014
211	0xbd5a686d	-0.053322244
212	0xbd3c0933	-0.04590721
213	0xbd002461	-0.031284694
214	0xbd04da54	-0.032434776
215	0xbd4371fd	-0.04771613
216	0x3ce74c07	0.028234495
217	0xbcd85c42	-0.02641118
218	0x3cbd2415	0.023088494
219	0x3d16f195	0.036851484
220	0x3c9b5d80	0.018965483
221	0x3ad25e97	0.0016049918
222	0xbd373fdf	-0.044738647
223	0x3c181bd9	0.009283983
224	0xbc8fb023	-0.017540043
225	0xbd403834	-0.0469286
226	0xbd420ea9	-0.047377262
227	0x3c86615f	0.016403852
228	0xbcad9f97	-0.021194262
229	0xbd56c9b8	-0.052438468
230	0x3d34c1d9	0.04413018
231	0x3ce3b813	0.027797734
232	0xbd472e35	-0.04862805
233	0xbd0486ef	-0.032355245
234	0x3c0e2353	0.008675414
235	0xbca60b7c	-0.020269148
236	0x3d38071b	0.04492865
237	0x3c0be7c7	0.008539147
238	0xbca21ad6	-0.019788187
239	0x3ca314c3	0.01990736
240	0xbce7a19a	-0.0282753
241	0xbd0044ae	-0.031315498
242	0x3d76ebba	0.0602834
243	0x3c6238ec	0.013807517
244	0xbbc86fd2	-0.0061168456
245	0xbd59fabd	-0.05321764
246	0xbd723b10	-0.059138358
247	0xbc5b8704	-0.013398889
248	0x3c00f911	0.007871882
249	0xbd54611a	-0.051850416
250	0x3d5090a4	0.05091919
251	0xbd0aea2b	-0.033914726
252	0xbc873e96	-0.016509335
253	0xbcc30445	-0.023805747
254	0x3d208cea	0.039196886
255	0x3c5d0f5f	0.013492434

noisy_fc2.weight_sigma f4 [256, 256]
0	0x3cc4328c	0.023949884
1	0x3ce23160	0.027611434
2	0x3ccc5fc9	0.024948018
3	0x3cb37b34	0.021909334
4	0x3ce2fa3e	0.027707215
5	0x3cb747c0	0.02237308
6	0x3cbbf73a	0.022945035
7	0x3ce02466	0.027361106
8	0x3cc7c4ed	0.024385894
9	0x3cb76417	0.022386594
10	0x3cc84dcb	0.024451157
11	0x3ce0ed1d	0.027456814
12	0x3cb7ece6	0.02245183
13	0x3cb7f4ce	0.0224556
14	0x3cca2ca2	0.024679486
15	0x3cd1d636	0.025614839
16	0x3ce2ce1d	0.027686173
17	0x3cb81800	0.022472382
18	0x3ccccccd	0.025
19	0x3ce3311e	0.027733382
20	0x3ccc01ef	0.024903266
21	0x3cbc682b	0.02299889
22	0x3cc21ca2	0.023695294
23	0x3ccf6b8a	0.025319833
24	0x3ce346ee	0.027743783
25	0x3ce43177	0.027855618
26	0x3cbe30f6	0.023216706
27	0x3ce3d394	0.02781085
28	0x3cdf7991	0.027279647
29	0x3cca2e8e	0.024680402
30	0x3ce0981a	0.027416278
31	0x3cc38230	0.02386579
32	0x3cb7cd88	0.022436872
33	0x3ce38c8d	0.02777698
34	0x3ccccccd	0.025
35	0x3cbcaa57	0.023030443
36	0x3ccc959c	0.024973683
37	0x3cc7c3d4	0.02438537
38	0x3ccf35a9	0.025294142
39	0x3cd1d2f7	0.025613291
40	0x3cca2e63	0.024680322
41	0x3cb60186	0.022217523
42	0x3cb77cce	0.022398379
43	0x3cd1d609	0.025614755
44	0x3cdd2cde	0.026998933
45	0x3ce12b6e	0.02748653
46	0x3cb597fe	0.022167202
47	0x3cd96873	0.026539063
48	0x3cb91707	0.022593988
49	0x3ccf35e6	0.025294255
50	0x3ce26219	0.027634667
51	0x3cca8633	0.024722194
52	0x3ce2d757	0.027690573
53	0x3cccc76e	0.02499744
54	0x3cb7e5a7	0.022448374
55	0x3ce20337	0.027589424
56	0x3ccd04a2	0.025026623
57	0x3cbc6655	0.022998014
58	0x3cb5616a	0.022141177
59	0x3ce16e40	0.027518392
60	0x3ce178f9	0.027523505
61	0x3ce21038	0.027595624
62	0x3ccaa00b	0.024734518
63	0x3cdec3be	0.027192947
64	0x3ce33de2	0.027739469
65	0x3ccbfa88	0.024899736
66	0x3cb799cf	0.022412209
67	0x3ce0b3b2	0.027429435
68	0x3cc33d0a	0.023832817
69	0x3cb2ad3c	0.02181112
70	0x3ce3c445	0.02780355
71	0x3cd6b96b	0.026211461
72	0x3ce2c8bd	0.02768361
73	0x3ce37242	0.027764443
74	0x3cdfca6a	0.027318198
75	0x3ccd2a30	0.02504453
76	0x3cdc8615	0.026919404
77	0x3cb76e66	0.02239151
78	0x3cc925b3	0.02455411
79	0x3cd1707d	0.025566334
80	0x3ce35c0f	0.027753858
81	0x3ccc92dd	0.024972374
82	0x3ccc955b	0.024973562
83	0x3ce3cee4	0.027808614
84	0x3cca2c6f	0.02467939
85	0x3cc646b3	0.024203634
86	0x3cb65343	0.0222565
87	0x3cb7a479	0.022417294
88	0x3cb6289d	0.022236163
89	0x3cb60f74	0.022224165
90	0x3cb589b2	0.022160385
91	0x3ccc9557	0.024973555
92	0x3cb79136	0.02240811
93	0x3ccceaae	0.025014248
94	0x3cc4d04b	0.024025103
95	0x3cdd9a87	0.027051223
96	0x3cdee7ab	0.027210077
97	0x3cc50749	0.024051325
98	0x3ce1afc1	0.027549626
99	0x3ccabb42	0.024747495
100	0x3cca63e1	0.02470583
101	0x3cca64fe	0.02470636
102	0x3cbc57eb	0.022991141
103	0x3ce3c836	0.027805429
104	0x3cbe067a	0.023196448
105	0x3cc938d5	0.024563232
106	0x3ccff0dd	0.025383407
107	0x3cc7c35d	0.024385149
108	0x3cc2cc92	0.023779187
109	0x3cbfd70b	0.02341797
110	0x3cca63a5	0.024705717
111	0x3cb76b89	0.022390144
112	0x3cb73716	0.022365134
113	0x3ccf6d30	0.02532062
114	0x3cb64694	0.022250451
115	0x3cd7eeb1	0.026358934
116	0x3ccccccd	0.025
117	0x3ccc95a0	0.02497369
118	0x3cce0608	0.02514936
119	0x3cd9ab19	0.026570844
120	0x3cb79b74	0.022412993
121	0x3cca2c7a	0.024679411
122	0x3ce2ea15	0.02769951
123	0x3ce24c25	0.0276242
124	0x3cb85800	0.0225029
125	0x3cca63b4	0.024705745
126	0x3ce37c0c	0.027769111
127	0x3cd8c589	0.02646138
128	0x3cb61d10	0.022230655
129	0x3cc7c3af	0.024385301
130	0x3cc7c3a4	0.02438528
131	0x3cd1d5eb	0.0256147
132	0x3cb5cf49	0.022193568
133	0x3ce29cfd	0.027662748
134	0x3ce5b0ee	0.028038468
135	0x3cb632c3	0.022241002
136	0x3cb7f270	0.02245447
137	0x3cc7c6c4	0.024386771
138	0x3cb94cac	0.022619568
139	0x3cd3fe13	0.025877988
140	0x3cca63a7	0.024705721
141	0x3ce1c03c	0.027557485
142	0x3ce375e9	0.027766185
143	0x3cba00d0	0.022705466
144	0x3ccf33e7	0.025293304
145	0x3cb84281	0.022492649
146	0x3cba8bd9	0.022771763
147	0x3cda90d5	0.02668039
148	0x3ce21c56	0.027601402
149	0x3cc7cf1e	0.024390753
150	0x3cb65b3f	0.022260306
151	0x3cca2c70	0.024679393
152	0x3cb58ae4	0.022160955
153	0x3ccd0445	0.02502645
154	0x3ccf219e	0.025284585
155	0x3cc8d3a2	0.024514977
156	0x3ccd91ba	0.025093902
157	0x3ce3ab04	0.027791508
158	0x3ce43379	0.027856575
159	0x3cd1d2f5	0.025613287
160	0x3cca2c78	0.024679407
161	0x3cd1d64b	0.025614878
162	0x3ccd03a2	0.025026146
163	0x3ccf6cf4	0.025320508
164	0x3cb5e3ce	0.022203352
165	0x3ccc96bb	0.024974218
166	0x3cda36ca	0.026637454
167	0x3ce54984	0.027989157
168	0x3ccc95d4	0.024973787
169	0x3cb7b414	0.022424735
170	0x3cbab1cb	0.022789856
171	0x3cbc6764	0.02299852
172	0x3ce1d8de	0.02756923
173	0x3cca63b4	0.024705745
174	0x3cd53fad	0.02603134
175	0x3cd1d655	0.025614897
176	0x3ce46006	0.027877819
177	0x3ce0a1ac	0.027420841
178	0x3ccf6d29	0.025320606
179	0x3ccd1bed	0.02503773
180	0x3ccc9642	0.024973992
181	0x3cdc02f8	0.026856884
182	0x3cd1d2f2	0.025613282
183	0x3cb7487d	0.022373432
184	0x3cc1a482	0.023638014
185	0x3ccc95bd	0.024973745
186	0x3cdc9650	0.026927143
187	0x3cc7c7f5	0.02438734
188	0x3ce1f87c	0.027584307
189	0x3cc7c597	0.02438621
190	0x3ccf7bb7	0.025327547
191	0x3ccf6d2b	0.02532061
192	0x3cddc227	0.027070118
193	0x3cdfb8ec	0.027309857
194	0x3cb85ae5	0.02250428
195	0x3cb5434a	0.022126812
196	0x3ce2dbd3	0.027692711
197	0x3cddc46c	0.0270712
198	0x3ccff02e	0.025383081
199	0x3cccf6d5	0.025020042
200	0x3cc7c3d1	0.024385365
201	0x3ce3e420	0.02781874
202	0x3cb67076	0.022270422
203	0x3ce22a56	0.027608078
204	0x3ccccccd	0.025
205	0x3cb71371	0.022348138
206	0x3cd79727	0.026317192
207	0x3cc1ab9c	0.0236414
208	0x3cd1d636	0.025614839
209	0x3ccd03f0	0.025026292
210	0x3ce19865	0.027538488
211	0x3ce37769	0.0277669
212	0x3cb6a988	0.022297636
213	0x3ccf6d04	0.025320537
214	0x3ce1d6de	0.027568277
215	0x3cb5fbd3	0.022214806
216	0x3cb59ead	0.02217039
217	0x3cd15eb2	0.02555785
218	0x3cd1d5fd	0.025614733
219	0x3cc8fe27	0.024535252
220	0x3cc0545c	0.023477726
221	0x3cd73fc3	0.026275521
222	0x3cb598b9	0.02216755
223	0x3ce22d5b	0.027609518
224	0x3ccf35d9	0.025294231
225	0x3cbccbb2	0.023046348
226	0x3cd1d638	0.025614843
227	0x3cb58c87	0.022161735
228	0x3cc4e86f	0.024036614
229	0x3cb7beba	0.022429813
230	0x3cb7a28f	0.022416381
231	0x3ccd655e	0.02507275
232	0x3cb74ca5	0.022375414
233	0x3cb6c923	0.022312706
234	0x3cc7c344	0.024385102
235	0x3cd1d3b4	0.025613643
236	0x3cdbd93a	0.02683698
237	0x3cd1b8c4	0.025600798
238	0x3cb5ceb4	0.02219329
239	0x3ccf35e8	0.02529426
240	0x3ce1cf2a	0.027564604
241	0x3ccccccd	0.025
242	0x3cbc81ac	0.023011051
243	0x3cbccf5d	0.023048097
244	0x3ccf6cc6	0.025320422
245	0x3ce3d85d	0.027813131
246	0x3cc1b993	0.023648059
247	0x3cb86b2d	0.022512043
248	0x3cb8f401	0.022577288
249	0x3cdee67b	0.027209511
250	0x3ccccccd	0.025
251	0x3cb6a1fc	0.022294037
252	0x3ce1cb31	0.02756271
253	0x3cca9566	0.024729442
254	0x3cb70866	0.022342872
255	0x3cbf18c9	0.023327248

noisy_fc2.bias_mu f4 [256]
0	0xbb61ee2a	-0.0034474232
1	0x3d1388db	0.036019187
2	0x3caab6d5	0.020839134
3	0x3c9520b5	0.018204072
4	0xbd067e96	-0.032835566
5	0xbcd3c193	-0.02584914
6	0x3cb0fe97	0.021605773
7	0x3d888dfe	0.06667708
8	0x3c5a41bd	0.013321337
9	0xbd3d57ed	-0.04622643
10	0x3d988212	0.07446684
11	0x3d521666	0.051290892
12	0xbca19537	-0.019724471
13	0x3db8c8ed	0.090226986
14	0x3cc1050d	0.023561979
15	0x3da8a897	0.08235281
16	0xbd024733	-0.031806182
17	0x3dac2216	0.08404939
18	0x3d190ad0	0.037363827
19	0xbba010f1	-0.004884832
20	0x3d8f08ce	0.06984101
21	0x3d5edeeb	0.05441181
22	0x3d700245	0.058595914
23	0x3d8394ca	0.06424864
24	0xbba2405f	-0.0049515213
25	0x3ccde2cf	0.025132565
26	0x3da02b72	0.078207865
27	0x3d91ecef	0.071252696
28	0x3d0330fe	0.032029144
29	0xbc221c5c	-0.009894457
30	0x3d962e1e	0.07333015
31	0x3db6a2de	0.08917783
32	0xbc6fd586	-0.01463831
33	0xbcf03180	-0.029320478
34	0x3d018a6e	0.031626157
35	0xbd863128	-0.065523446
36	0x3dad718a	0.084689215
37	0x3bb57e6b	0.005538752
38	0x3d19a747	0.037513044
39	0x3cfa55f8	0.030558571
40	0x3d94caa6	0.072652146
41	0x3d1aa2fe	0.037753098
42	0xbc095971	-0.008383141
43	0xbce3303c	-0.02773296
44	0x3d2d33db	0.04228578
45	0xbcf2c61e	-0.029635485
46	0xbd6da805	-0.058021564
47	0xbca3dbba	-0.020002235
48	0x3d987047	0.0744329
49	0xbcea5a92	-0.02860764
50	0x3ba09ff3	0.00490188
51	0x3c01865d	0.00790557
52	0x3c90216c	0.017594062
53	0x3da046b6	0.07825987
54	0x3cd954d5	0.026529709
55	0x3db2c214	0.08728424
56	0x3da93fb5	0.08264104
57	0xb99f7d4d	-0.000304202
58	0x3cad6707	0.021167291
59	0x3cd3df3b	0.02586328
60	0x3db9aef6	0.09066574
61	0xbd6207ba	-0.05518315
62	0xbbfe1a3c	-0.007754592
63	0xbb8548ea	-0.00406753
64	0x3cfc4ea4	0.030799218
65	0x3b102c5e	0.00219991
66	0xbd44c6e1	-0.04804123
67	0x3d9acbee	0.07558428
68	0x3ccf6452	0.025316391
69	0xbd0c827b	-0.034304123
70	0xbc8d3202	-0.01723576
71	0x3d3b628b	0.045748275
72	0xbd0e9488	-0.03480962
73	0xbcb107ed	-0.021610225
74	0x3c8ffe92	0.017577443
75	0xbbad4416	-0.0052876575
76	0xbd6f1061	-0.05836523
77	0x3c5ef3dc	0.013607945
78	0x3dbf92c4	0.09354165
79	0x3d62dd91	0.055387083
80	0x3cc78271	0.024354191
81	0xbcc977d0	-0.024593264
82	0x3c940abb	0.018071523
83	0x3d6f28c8	0.0583885
84	0x3d2e88ea	0.04261104
85	0xbba6af08	-0.0050867833
86	0xbccca868	-0.024982646
87	0x3cca3cb6	0.024687152
88	0xbc87b1fc	-0.016564362
89	0x3c3e7c6d	0.011626345
90	0x3cc94d72	0.024573062
91	0x3d6b3714	0.057425573
92	0x3c82d48f	0.015970496
93	0xbcbbcd62	-0.022925083
94	0x3d48a44f	0.048984822
95	0x3c899bf2	0.016797993
96	0xbcdea6b9	-0.027179109
97	0xbd578a9e	-0.05262243
98	0x3b669fe0	0.0035190508
99	0x3b10f337	0.0022117624
100	0x3d77eeac	0.06053035
101	0xbd41a459	-0.047275875
102	0x3d54a6ac	0.051916763
103	0x3cb50016	0.022094768
104	0xbd0bf141	-0.034165625
105	0x3c9fd186	0.019509088
106	0xbd44672c	-0.047949955
107	0xbb1881af	-0.0023270657
108	0x3dabfbc2	0.08397628
109	0xbd4a7bf7	-0.04943463
110	0xbd143991	-0.036187712
111	0xbcbf3655	-0.023341337
112	0x3d83fc22	0.06444575
113	0x3d34ed57	0.044171657
114	0x3d293f4c	0.04132013
115	0x3d834582	0.06409742
116	0x3d99a473	0.07502069
117	0xbc38d721	-0.0112817595
118	0x3ca91d74	0.020643927
119	0x3db05499	0.08609886
120	0x3da56006	0.08074956
121	0xbd093051	-0.033493344
122	0x3d96a600	0.07355881
123	0x3d41816c	0.047242567
124	0x3d8a519e	0.067538485
125	0x3d094a80	0.033518314
126	0xbd442ee5	-0.047896285
127	0x3d70b268	0.05876389
128	0x3c96a17a	0.018387545
129	0xbd4a6b3b	-0.04941867
130	0x3dbb9e7b	0.09161087
131	0xbca85e16	-0.020552676
132	0xbcaf927c	-0.021432154
133	0x3d8658a9	0.06559879
134	0xbc8cdb5c	-0.017194442
135	0x3d67bfdf	0.056579467
136	0x3daf0a63	0.08546903
137	0xbc859964	-0.016308494
138	0x3d3fdb5a	0.04684005
139	0xbc04be55	-0.008102019
140	0x3c30df75	0.010795464
141	0x3d483854	0.048881844
142	0x3d710126	0.058838986
143	0xbcb27918	-0.021786258
144	0x3d336a45	0.04380252
145	0x3d4056c6	0.046957754
146	0xbd09b479	-0.033619378
147	0x3d122f50	0.035689652
148	0x3d723aa9	0.059137974
149	0xbc86e7ea	-0.016468007
150	0xbd5bd7bd	-0.05367254
151	0x3bbabe27	0.0056989375
152	0xbc89580c	-0.016765617
153	0x3d665f2b	0.056243103
154	0x3cd9c728	0.026584223
155	0x3bed832f	0.0072483043
156	0x3ca2c225	0.019867966
157	0x3d1707c6	0.036872648
158	0x3bc68128	0.006057877
159	0x3d81b701	0.06333733
160	0xbcd9b114	-0.026573695
161	0x3c7d3488	0.015454419
162	0x3c1bfc5c	0.009520616
163	0x3ca8d5bf	0.020609735
164	0x396af557	0.00022407375
165	0xbc6324fe	-0.0138638
166	0xbca5b31b	-0.020227006
167	0x3d5da73a	0.054114558
168	0x3c379442	0.011204781
169	0xbd035a70	-0.03206867
170	0xbc513146	-0.012768095
171	0x3d49da6a	0.04928056
172	0x3d18899e	0.037240617
173	0x3d987924	0.07444981
174	0x3dadb10c	0.08481035
175	0x3cec65c8	0.028857127
176	0x3c3d485d	0.011552897
177	0x3d8fe6f4	0.07026473
178	0xbd970fab	-0.07376035
179	0x3c547990	0.012968436
180	0xbcc1c557	-0.02365367
181	0x3c2fa8a8	0.010721363
182	0x3dae2013	0.085022114
183	0x3d07a937	0.03312036
184	0xbd02f3c4	-0.031970754
185	0xbbeb925f	-0.0071890797
186	0xbb94aa83	-0.004536928
187	0x3bcdcdbb	0.0062806285
188	0xbcdc4c63	-0.026891893
189	0x3d22fcab	0.039791744
190	0x3d6170d4	0.055039242
191	0xbcd9cfd6	-0.026588362
192	0xbaba3147	-0.001420536
193	0xba3afeb7	-0.00071332924
194	0xbbac3139	-0.0052548912
195	0x3ce5127a	0.027962912
196	0xbcd3f710	-0.025874645
197	0x3db158d8	0.08659524
198	0x3d48b7e8	0.04900351
199	0x3c99558e	0.018717553
200	0x3ae27fa1	0.0017280468
201	0xbc40e9a5	-0.011774455
202	0x3c675653	0.014119702
203	0x3bf241d3	0.0073931008
204	0xbb670f35	-0.0035256867
205	0x3da361b2	0.07977618
206	0x3d8a2a55	0.067463554
207	0x3d2fcb46	0.042918466
208	0xbc95ea1e	-0.018300112
209	0xbc7d4c5a	-0.015460098
210	0x3cde921a	0.027169276
211	0xbb392740	-0.0028252155
212	0x3d25d01c	0.04048167
213	0x3d794d79	0.0608649
214	0x3d811c3b	0.06304213
215	0xbcbe6564	-0.023241706
216	0x3d79199b	0.060815435
217	0x3d3dc3e0	0.04632938
218	0x3d698d17	0.05701932
219	0x3d8b426b	0.067997776
220	0xbd4d1f3e	-0.050078623
221	0x3c9891b7	0.01862417
222	0xbd0d0024	-0.034423962
223	0xbc37c76b	-0.011216979
224	0x3d0e6134	0.03476067
225	0x3d0d3a9f	0.034479734
226	0x3ae00a26	0.0017092868
227	0x3b1584d5	0.002281477
228	0xbca149f4	-0.019688584
229	0xbc8144d0	-0.015779883
230	0xbc9d2edc	-0.019187383
231	0x3d611e6d	0.054960657
232	0xbd73f530	-0.05956
233	0x3d0e73fa	0.034778573
234	0xba13ddba	-0.0005640645
235	0xbc53d435	-0.012929012
236	0xbc8bf281	-0.017083408
237	0xbcdf499b	-0.027256778
238	0xbd621eac	-0.055205032
239	0xbc8e915a	-0.017403293
240	0x3d8380c4	0.064210445
241	0x3db31913	0.08745017
242	0xbd1e7380	-0.038684368
243	0x3d6ca261	0.057772044
244	0x3d17952b	0.037007492
245	0x3d6e86ee	0.058234148
246	0xbc325057	-0.010883412
247	0xba1fbfa0	-0.0006093923
248	0xbd223bfd	-0.03960799
249	0x3cfb2430	0.030656904
250	0x3d082e3d	0.03324722
251	0xbd3d3bf9	-0.046199773
252	0xbd22b305	-0.039721508
253	0x3b3715cb	0.0027936574
254	0x3d6480e7	0.055786993
255	0x3baa5c72	0.0051990086

noisy_fc2.bias_sigma f4 [256]
0	0x3cb9a5cb	0.022662064
1	0x3d65e483	0.05612613
2	0x3d65f2b4	0.056139663
3	0x3d690281	0.056887154
4	0x3cb36979	0.02190088
5	0x3d4f77fe	0.050651543
6	0x3b21f9b8	0.0024715494
7	0x3d6d2f05	0.05790617
8	0xbc268610	-0.010163799
9	0x3caae634	0.020861723
10	0xbb86de93	-0.0041158884
11	0xbc2f44f7	-0.010697595
12	0x3cd18bb9	0.02557932
13	0xbc6362a9	-0.013878503
14	0x3d60bf22	0.05486978
15	0x3d845a63	0.064625524
16	0x3cd67f8a	0.026183862
17	0x3d4bcb6b	0.04975454
18	0x3cd7db23	0.02634961
19	0x3cbbc36b	0.022920331
20	0x3d7e8ea0	0.062147737
21	0x3d66c8ba	0.05634377
22	0x3d5ccaef	0.05390447
23	0xbc01b440	-0.00791651
24	0xbbf9bf6d	-0.0076216967
25	0xbbccbe21	-0.006248251
26	0xbc589fb0	-0.013221666
27	0x3d137865	0.03600349
28	0x3d4c685d	0.049904216
29	0x3d6b25b6	0.05740901
30	0x3d830fcd	0.06399498
31	0xbc209a7e	-0.009802459
32	0x3d55c2af	0.052187618
33	0x3d6b2c69	0.0574154
34	0x3ccccccd	0.025
35	0x3ce7801d	0.028259331
36	0x3d66b32f	0.056323227
37	0x3cdeefaa	0.02721389
38	0xbbc6ad08	-0.0060631074
39	0xbbd0af71	-0.0063685705
40	0x3d748d13	0.05970485
41	0x3d7922ac	0.06082408
42	0x3d723bb0	0.059138954
43	0x3d695a9b	0.056971174
44	0x3cd11bcb	0.025525948
45	0x3ccc4e4b	0.024939677
46	0x3ca8a939	0.020588504
47	0x3cd1d661	0.02561492
48	0x3d6cc81e	0.057808034
49	0x3cae6252	0.021287117
50	0xbb93776c	-0.00450032
51	0x3d4a87bf	0.049445864
52	0xbc19777a	-0.009366864
53	0xbc8b41b6	-0.016999107
54	0x3d674976	0.056466542
55	0xbb405f78	-0.0029353779
56	0xbbf2ca81	-0.0074093943
57	0xbc304202	-0.010757925
58	0x3cca2c66	0.024679374
59	0x3cddd1bd	0.02707755
60	0x3d7f70a2	0.062363274
61	0x3cc80320	0.024415553
62	0x3d693fbf	0.05694556
63	0x3d6f935d	0.058490146
64	0x3d68dd4c	0.05685167
65	0xbbc63fad	-0.006050071
66	0x3cde4c13	0.027135884
67	0xbbf6c3e4	-0.007530676
68	0x3c10f56d	0.008847577
69	0x3d36b8d3	0.044609856
70	0x3d6216cd	0.055197526
71	0x3cc5b049	0.02413191
72	0x3bd7d19a	0.0065862658
73	0x3d69628d	0.05697875
74	0xbbf158c7	-0.0073653194
75	0x3cbb4ec2	0.022864703
76	0x3c545ec6	0.012962049
77	0x3d0fcdd7	0.035108414
78	0x3d671ee2	0.056425937
79	0x3d78b873	0.06072278
80	0x3d64cba4	0.05585827
81	0x3cca639c	0.0247057
82	0x3ca07417	0.019586606
83	0xbb95a713	-0.004567036
84	0x3d5b1e95	0.053495962
85	0x3cd3f62a	0.025874216
86	0x3d76d331	0.06026
87	0x3cf749c3	0.03018654
88	0x3d70cdba	0.058789946
89	0xbd0718af	-0.032982524
90	0x3ccd3f40	0.025054574
91	0x3cc7c338	0.02438508
92	0x3d7645ae	0.060125045
93	0x3cdec7e8	0.027194932
94	0x3d57cc3c	0.052685007
95	0x3ccd0407	0.025026334
96	0x3ccd0420	0.025026381
97	0x3cda5724	0.02665288
98	0x3cd31b52	0.025769863
99	0x3d6cef42	0.05784536
100	0x3cc7cb63	0.024388975
101	0x3ca2af74	0.019859053
102	0xbc19c501	-0.009385348
103	0x3d83d61d	0.06437323
104	0x3cc8662d	0.024462784
105	0x3cd1d668	0.025614932
106	0x3cbeba60	0.02328223
107	0x3cd560e5	0.02604718
108	0xbb752a64	-0.00374093
109	0x3cbfd6b2	0.023417804
110	0x3c91a16b	0.017777165
111	0x3d18a8b8	0.037270278
112	0x3d80601d	0.06268332
113	0x3d7d6913	0.061867785
114	0x3cb08704	0.021548755
115	0x3b8669d4	0.004101971
116	0x3d732d06	0.05936911
117	0x3caacc8c	0.020849489
118	0x3d3d741a	0.0462533
119	0xbb45af83	-0.0030164428
120	0xbba22ca5	-0.0049491697
121	0x3cc7c337	0.024385078
122	0x3d1f34f8	0.038868874
123	0xbc097c44	-0.008391444
124	0x3b5085ea	0.00318181
125	0x3cca63a3	0.024705714
126	0x3cd1d666	0.025614928
127	0xbc1f2707	-0.009713895
128	0x3ce7e23f	0.028306125
129	0x3cd9c4b3	0.026583051
130	0x3d7326bd	0.059363116
131	0xbc28dfbb	-0.010307248
132	0x3d39c9f6	0.04535862
133	0x3d4b969b	0.049704175
134	0x3cb887b8	0.022525653
135	0x3d486694	0.04892595
136	0xbc39aa2b	-0.011332075
137	0x3d5ff802	0.054679878
138	0xbc3f5ad7	-0.011679373
139	0x3d6fd6e5	0.05855455
140	0x3d5b8c34	0.053600505
141	0x3c9bfea3	0.019042319
142	0x3d622cc6	0.05521848
143	0x3d3c6eac	0.046003982
144	0xbc3ab762	-0.011396261
145	0x3d5e211f	0.054230805
146	0x3d04bb90	0.032405436
147	0xbbcb189b	-0.0061980016
148	0xbb6b430e	-0.0035898122
149	0x3a847c1a	0.0010107786
150	0x3cabe5a9	0.020983534
151	0x3cd1d669	0.025614934
152	0x3cf05b20	0.029340327
153	0x3cc04d74	0.023474433
154	0x3ce4346e	0.027857032
155	0x3cbff3f1	0.02343175
156	0x3d55b60e	0.052175574
157	0xbb2f7310	-0.0026771463
158	0x3ceb2b5e	0.028707203
159	0x3d539a58	0.051660866
160	0x3ccccccd	0.025
161	0x3d766a0e	0.060159735
162	0x3d7e70c1	0.06211925
163	0x3ce6c269	0.028168874
164	0xbc57c078	-0.013168447
165	0xbc4a88ca	-0.012361715
166	0x3d6e74fd	0.058217037
167	0x3dbb515d	0.09146378
168	0xbc47996d	-0.012182576
169	0x3ce80289	0.028321521
170	0x3d6983b7	0.05701038
171	0x3ce0ce9d	0.02744227
172	0xbad3bc24	-0.0016154093
173	0xbbd8801a	-0.006607068
174	0xbb726b2a	-0.0036990144
175	0x3d0a7a03	0.033807766
176	0xbb8933b4	-0.0041870717
177	0x3d841d6e	0.06450926
178	0x3d1d9876	0.038475476
179	0x3cb69e79	0.022292363
180	0x3cdb4e0e	0.026770618
181	0xbbf39a50	-0.007434167
182	0x3d647b3d	0.05578159
183	0xbc0a11db	-0.008427109
184	0x3cb6e9e9	0.022328334
185	0x3ccb2b9c	0.024801068
186	0x3d738f08	0.059462577
187	0x3ac4760a	0.0014988792
188	0x3d5a6305	0.05331709
189	0x3cd1d65c	0.02561491
190	0x3cca63a7	0.024705721
191	0xbbceb17c	-0.006307779
192	0x3cca639b	0.024705699
193	0xbbab252d	-0.0052229376
194	0x3d7b03cd	0.06128292
195	0x3d670271	0.056398813
196	0x3ca418f2	0.020031426
197	0xbbaa55c1	-0.005198211
198	0x3d31d366	0.043414496
199	0x3ca5cf97	0.020240588
200	0x3d543712	0.05181033
201	0x3c94378b	0.018092891
202	0x3cfc82a8	0.03082402
203	0x3d4effe6	0.050537013
204	0x3d56f283	0.05247737
205	0x3d5bb018	0.053634733
206	0x3d6a0cc6	0.057141088
207	0x3ba90d6a	0.00515907
208	0xbc3c3cf6	-0.011489144
209	0x3d8d7090	0.06906235
210	0xbc3257be	-0.010885177
211	0x3cc531d1	0.024071606
212	0xbba5acb6	-0.005055989
213	0x3ccffd77	0.025389416
214	0x3d946feb	0.07247909
215	0x3ccb2531	0.024798008
216	0xbc04a38a	-0.008095631
217	0x3d674937	0.056466307
218	0x3d446299	0.047945593
219	0x3d1c4da1	0.03815997
220	0x3cd77b37	0.02630387
221	0x3d696140	0.05697751
222	0x3ccd0406	0.025026333
223	0x3d64da73	0.055872392
224	0x3ccc3ac6	0.02493037
225	0x3d3a4a5c	0.04548107
226	0xbcfacbb2	-0.030614708
227	0x3d65bf4c	0.056090638
228	0x3ce407d5	0.027835766
229	0xbc74cc2e	-0.014941258
230	0xbb9a1404	-0.004702093
231	0x3d66b37e	0.05632352
232	0x3ce801e0	0.028321207
233	0x3cbca676	0.023028594
234	0x3ccc9594	0.024973668
235	0x3d489912	0.048974104
236	0x3cc6607e	0.024215933
237	0x3d5abe75	0.05340429
238	0x3cfb7f2f	0.030700294
239	0x3cc7d58f	0.024393825
240	0x3d21902a	0.039444126
241	0xbb7056d5	-0.003667285
242	0x3cb6d668	0.022319034
243	0xbbf09f13	-0.007343182
244	0x37ef8c6e	2.8556413e-05
245	0xbb97d811	-0.0046339114
246	0x3c8d1cea	0.017225701
247	0x3cd08efc	0.025458805
248	0x3d2d8116	0.042359434
249	0x3cc90342	0.024537686
250	0x3d574a36	0.052561007
251	0x3cdba138	0.026810274
252	0x3d2d272d	0.04227369
253	0xbc885ba3	-0.016645258
254	0x3bf38212	0.007431277
255	0x3cccddc8	0.025008097

noisy_fc2.weight_epsilon f4 [256, 256]
0	0x3eefa2f0	0.46804
1	0xbe89159b	-0.26774296
2	0xbdef8b4b	-0.1169649
3	0xbe88eff5	-0.26745573
4	0xbe671781	-0.2256756
5	0x3e6f54f0	0.23372245
6	0x3eb0ac16	0.3450629
7	0xbe7486d9	-0.23879565
8	0xbe85141d	-0.25991908
9	0xbde63b64	-0.112417966
10	0xbe1a67b4	-0.15078622
11	0x3ecea616	0.4036109
12	0x3e405140	0.18780994
13	0x3e29415e	0.16528842
14	0xbe68b82f	-0.2272651
15	0x3e494faa	0.19659296
16	0xbe0b54ea	-0.13606611
17	0x3deacafa	0.11464496
18	0xbe7d1fef	-0.24719213
19	0x3eb95840	0.36200142
20	0x3eadc88a	0.33942062
21	0xbe0ce980	-0.13760948
22	0x3e6b63fe	0.22987363
23	0x3dbde79d	0.09272692
24	0x3e867902	0.26264197
25	0x3e3941f0	0.1809156
26	0x3d73fd62	0.059567817
27	0x3dc83c2a	0.097771004
28	0x3e67ae09	0.22624983
29	0xbeb2b8dd	-0.34906664
30	0xbe42379b	-0.18966524
31	0x3ea2dd9d	0.31809703
32	0x3e8f7df9	0.28025797
33	0x3eb5bff2	0.35498005
34	0xbe854a86	-0.2603342
35	0x3db0a299	0.08624763
36	0xbe43db11	-0.19126536
37	0xbe805c6a	-0.25070506
38	0xbda299e7	-0.07939511
39	0x3dd8763d	0.10569427
40	0xbec82fa2	-0.3909884
41	0xbd4041aa	-0.046937622
42	0x3e60fadf	0.219707
43	0x3e724fde	0.2366328
44	0x3e230065	0.15918119
45	0x3e8a851b	0.27054676
46	0xbe7e3614	-0.24825317
47	0xbea8ed05	-0.32993332
48	0xbe5c66dc	-0.21523613
49	0xbe2f237a	-0.17103377
50	0x3e605498	0.2190727
51	0x3d9c22bf	0.07623815
52	0xbe3814c7	-0.17976676
53	0x3e3ca728	0.1842314
54	0x3e251619	0.16121711
55	0xbe0c410a	-0.13696685
56	0x3e91f061	0.28503707
57	0xbea80fbf	-0.32824513
58	0xbe766baf	-0.24064516
59	0x3e8956e8	0.26824117
60	0xbeab9b5e	-0.33516973
61	0xbe5b9baa	-0.214461
62	0x3e27454d	0.1633503
63	0x3e8e583b	0.2780169
64	0xbe07a81a	-0.1324772
65	0xbe370507	-0.17873012
66	0x3e8e7598	0.27824092
67	0xbe4cd396	-0.20002589
68	0x3eb1b251	0.34706357
69	0x3e254e5c	0.16143173
70	0x3ec78eb2	0.38976055
71	0xbea93b56	-0.33053082
72	0xbec6757c	-0.38761508
73	0xbebe9760	-0.37224865
74	0x3e29ca75	0.16581137
75	0xbe657182	-0.22406581
76	0xbe4eeb6a	-0.20206991
77	0x3e931aa6	0.2873127
78	0x3e5b2a68	0.21402895
79	0x3e34f943	0.17673211
80	0x3ea85ef7	0.32884952
81	0xbe310b1c	-0.17289394
82	0xbe91bdec	-0.2846521
83	0x3e65f0e6	0.22455177
84	0xbe1b898d	-0.1518919
85	0xbe8bf8ad	-0.27338162
86	0x3e7a409a	0.24438706
87	0x3e5cd4fc	0.21565622
88	0xbe5cb841	-0.21554662
89	0xbe9ee8a1	-0.31036857
90	0xbebe9e63	-0.37230214
91	0xbe2dfea6	-0.16991672
92	0x3da1172a	0.07865746
93	0x3dce360d	0.10068903
94	0x3e92f1df	0.28700158
95	0xbe8d03a3	-0.27541837
96	0x3e1fad8f	0.15593551
97	0x3e219db8	0.15782821
98	0x3e16367f	0.14669226
99	0xbe42a9d5	-0.19010098
100	0x3e3467e8	0.17617762
101	0x3dbe847a	0.09302612
102	0x3eac61fa	0.336685
103	0x3ea383c2	0.3193646
104	0xbe29ea16	-0.16593203
105	0xbe17c724	-0.1482206
106	0xbec418f2	-0.38300282
107	0xbe7a8b64	-0.24467236
108	0xbe3d864e	-0.18508264
109	0x3e4e7c59	0.20164622
110	0x3ea04b06	0.31307238
111	0x3eb3b2dc	0.35097396
112	0x3d6b7e78	0.057493657
113	0x3e9147e2	0.28375155
114	0x3e9674c2	0.29385954
115	0xbdfe962f	-0.12430989
116	0xbe65a0ab	-0.22424571
117	0xbe3e7f62	-0.1860328
118	0x3e66c374	0.22535497
119	0xbeb5d4fb	-0.35514054
120	0x3e70e94a	0.23526493
121	0xbe2cb675	-0.16866477
122	0x3debc26a	0.11511691
123	0xbe337de5	-0.17528494
124	0x3ea4db31	0.3219848
125	0x3df1819e	0.11792301
126	0xbe5788a7	-0.21048222
127	0xbe8b541e	-0.27212614
128	0xbe88dd7a	-0.26731473
129	0xbe5d8051	-0.2163098
130	0xbe7e8d27	-0.24858533
131	0x3e606e2f	0.21917032
132	0xbdfacd57	-0.12246197
133	0xbe01bbc5	-0.12669285
134	0x3ea5862f	0.32328936
135	0xbdee4b29	-0.116354294
136	0x3ea947d7	0.33062622
137	0xbdf13450	-0.11777556
138	0x3e203283	0.15644269
139	0xbe855e17	-0.26048347
140	0x3e819957	0.25312302
141	0xbe2ce239	-0.16883172
142	0xbe456bdb	-0.19279425
143	0xbe92dbf1	-0.28683427
144	0xbe382991	-0.17984606
145	0x3dfaf679	0.12254042
146	0xbe8e7481	-0.2782326
147	0x3e503030	0.20330882
148	0xbdf74d67	-0.1207531
149	0xbe15b807	-0.14620982
150	0x3e7c5eaf	0.24645494
151	0xbe70de94	-0.23522407
152	0xbec4f178	-0.38465476
153	0x3e850028	0.25976682
154	0x3e796e62	0.24358514
155	0x3e82fd65	0.2558395
156	0xbe1ff5d4	-0.1562112
157	0x3e5813ab	0.21101253
158	0x3e2846f9	0.16433324
159	0x3cae2270	0.021256655
160	0xbe09c05b	-0.13452284
161	0x3e1b4505	0.15163048
162	0x3cfd5393	0.03092364
163	0x3e12c190	0.1433165
164	0xbe5097f3	-0.20370464
165	0xbe8686ed	-0.26274815
166	0xbde4a163	-0.111635946
167	0x3ea68a68	0.3252747
168	0xbe601b5c	-0.21885437
169	0x3e8dffe6	0.27734298
170	0xbe8dc518	-0.27689433
171	0xbe8618f9	-0.26190928
172	0xbec99f55	-0.39379373
173	0xbe7b8682	-0.2456303
174	0xbea327c9	-0.3186629
175	0x3e5abc35	0.21360858
176	0x3e3f697e	0.18692586
177	0xbeab9206	-0.33509845
178	0x3e7ba75d	0.24575563
179	0x3ea32d5b	0.3187054
180	0xbe8fdb2f	-0.2809691
181	0xbe7c74c1	-0.24653913
182	0x3d3466c0	0.044043303
183	0x3de5763a	0.112041906
184	0xbe965b25	-0.29366413
185	0xbe3f242f	-0.18666147
186	0xbe7d7835	-0.24752887
187	0xbe48084d	-0.19534416
188	0xbe9e2499	-0.30887297
189	0xbe8e39b9	-0.27778414
190	0xbdbc2b20	-0.09187913
191	0x3e96e11c	0.2946862
192	0x3ebb1587	0.36539862
193	0xbe8ac118	-0.27100444
194	0x3e9f0079	0.31055048
195	0xbeaeea4d	-0.34163132
196	0x3e5c4540	0.21510792
197	0xbe21e458	-0.15809762
198	0xbe8d99c0	-0.27656364
199	0x3e8eb353	0.2787119
200	0xbe853474	-0.2601658
201	0x3e6bbc75	0.2302111
202	0x3e9bf3e1	0.30459502
203	0xbe902e34	-0.2816025
204	0xbe2f364d	-0.17110558
205	0x3e9a96cf	0.30193183
206	0xbe6f6e23	-0.23381858
207	0x3ea8235c	0.32839477
208	0x3e9272fa	0.28603345
209	0x3e1070bb	0.14105503
210	0xbe1b5605	-0.15169533
211	0x3dd7c5d3	0.10535779
212	0xbde08b03	-0.109640144
213	0x3ecb2699	0.39677885
214	0x3e962680	0.29326248
215	0xbe74c23a	-0.23902217
216	0xbeb1e27b	-0.34743103
217	0xbe58e45a	-0.21180859
218	0x3e6e2372	0.23255709
219	0x3e93bc75	0.2885472
220	0xbe893fad	-0.26806393
221	0x3e417f00	0.18896103
222	0xbe9d115b	-0.30677304
223	0xbe3e24cf	-0.18568729
224	0xbe9bf15d	-0.30457583
225	0xbe7dffbe	-0.24804589
226	0x3ec4c8da	0.38434488
227	0xbe998636	-0.29985207
228	0xbe7e2721	-0.24819614
229	0xbe5a8cd8	-0.2134279
230	0x3e3f63e3	0.18690448
231	0x3ded01e4	0.11572626
232	0xbe788cb7	-0.24272428
233	0x3e5c2028	0.21496642
234	0xbea334bc	-0.3187617
235	0x3ea1d813	0.31610164
236	0xbe38bdaa	-0.18041101
237	0x3e682d73	0.22673588
238	0xbe7e9fbb	-0.2486562
239	0x3ebe7091	0.37195256
240	0xbe58d618	-0.2117542
241	0x3db4aec2	0.08822395
242	0xbe4085bd	-0.18801017
243	0x3e3b5425	0.18293817
244	0x3db4d237	0.08829158
245	0x3e25a7c6	0.16177282
246	0xbe7dfada	-0.24802724
247	0x3e432345	0.19056423
248	0x3db10852	0.08644165
249	0xbe8c1ddc	-0.2736653
250	0x3e646147	0.22302733
251	0x3e59cfb6	0.21270642
252	0xbe4f8e97	-0.20269237
253	0x3e07124c	0.13190573
254	0x3ce6e9a9	0.02818759
255	0x3d37dc3e	0.044887774
