algos/BCQ/behaviour_models/actor_checkpoint.pt (torch, 391959 bytes, 6 tensors)

linear1.weight f4 [300, 17]
00000000: 26bb 1440 e907 4ebf d711 1dbf 4f35 91be
00000010: 8a23 b93d 04cd 1a3f 071f 9a3f 3238 52be
00000020: 7ac2 ddbe c93c a23f e634 953c 4d06 433c
00000030: 073c c43c 8878 ae3d 6fa2 6e3d d0f4 bf3d
00000040: 8dfb 0bbd f6bf 5d40 6c28 9a3f afa7 1b3f
00000050: 789a 42bf 08be 50be 5811 3fbe 4ae0 89bd
00000060: e12d c33e a00f fa3d 5f82 443f b6fe 013f
00000070: 37c0 4b3d 3a7b 8b3d e502 c23a 2439 5d3d
00000080: a3e8 1d3d a411 d53a fbb8 8fbf 3bc4 dd3e
00000090: d404 91bf 1fdd 2ebf dfe4 84bd 4898 6ebf
000000a0: 0f7d 873e f6bd d3be 6815 38be 2277 8e3f
000000b0: 2632 2abf c28b 9ebd 29a4 b3bd c526 863c
000000c0: 1e56 383d 4c67 24bc b947 0abd ad81 6e40
000000d0: 9004 40bd 4393 5a3f 6cbe 353f 9048 60bc
000000e0: 1e21 e8bd 4acf 253d acf8 42be 05bb b83d
000000f0: f150 d93e 6edb 6dbe 7046 86bc d4e7 cbbc
00000100: 5cff ef3b 08dc 203d eede 8abd 0f1b 6cbd
00000110: c28c 38be ed61 933e 76bd e33e f9d0 e0be
00000120: 5578 1dbe d617 583f c5f9 b23f 3de0 af3c
00000130: f29d ecbe 642e e93e ead8 dabe cc9d 87bd
00000140: 8623 f5bd c1b9 033d d30b f73d 6753 483c
00000150: cac2 813d e64d 1040 ecaa 463e cd2a cbbe
00000160: 1c83 d0bf b01c 52bd b20b 543f 9ee6 3d3f
00000170: b272 52bd e586 63be 2708 243e 0b7f 2abe
00000180: 5f44 34bd c58f 26bc 0c32 32bc deaa a73c
00000190: 220b 003d e047 703c e908 cc3e 5619 1cbf
000001a0: f562 6cbe ea6b 0c3e 8702 7b3e 5f1d 23bd
000001b0: 5fc0 70bf 6ec0 05be 383f 8fbe 1d3d 53bf
000001c0: 4bb8 be3e b0dc 0abd 86b8 b1bc 1573 6c3c
000001d0: bb9a 5dbc 485b de3c 1de4 0f3c cafb df3d
000001e0: d0ef 833e 2184 a5bd 9366 0dbf da9a 2dbf
000001f0: abe0 a1bf 36fc ed3d 933a bb3c 7f55 c2be
00000200: e84d b73e 67ce 303e 7386 2e3e ce26 db3d
00000210: 9dbc db3c ce68 4cbd 5568 113e 7768 b7bd
00000220: 8480 eebd af2a 13bf d2ff 0a3f 09b1 883f
00000230: 2e67 343f d3bc 09bf a828 91bf 3c93 eebe
00000240: d4f7 933e d3f3 cbbc 214a 4cbd 2aea 9d3d
00000250: 581b 9a3d 35c4 b23b 1d79 41be 0214 4cbe
00000260: 5d15 99bd 0eb5 b63f 4ead e3bd 9ef8 283f
00000270: dc92 953f a98f f4bd acdb 103f 7f4d 2cbe
00000280: 9096 f13e b0cc 083e 7c07 ac3f f74e df3d
00000290: 473f f03b f5f8 823d 1c1c c23c a4cc bf3d
000002a0: 61aa a13c e987 b3ba 32f2 afbf ccab e1bd
000002b0: 8b78 183f 419e dd3f a0e6 6bbe d1cd 653d
000002c0: de80 5abf 9ea2 abbe 6f7f c1be 1d2f c63d
000002d0: bf8e e2bd 93bd bebc 585c d6bd 05aa 97bb
000002e0: 3844 283d 1145 ccba 78c1 29bd 3eea 1b40
000002f0: 2ffd ae3f 36c8 ad3e 6f78 9abd d3a7 c7be
00000300: 8027 063f 238d 21bf 833d 36bf ece7 4e3d
00000310: 2e24 ab3e 3a64 b5bd ad97 ea3c 6412 b03c
00000320: 52a3 03bd 6eb3 6fbd 6ae8 373d f4c0 a93c
00000330: 3d43 933e 9dd1 043e 0f2d b3bf edf1 83bf
00000340: 0e24 a3be 78bc 55bf 2048 033f 9ace d13e
00000350: 8df9 433e f06b b7bd dbdd b0bd 67a4 0dbe
00000360: 1583 c0bc ec3d 16bd 160d 163d 161c b33c
00000370: 6d3e 3bbb e669 77bf c083 b7be ebc9 b7bf
00000380: 708b 743f edbe 5abd 500e 81be 39fe 813e
00000390: f673 84bd 10e7 c3bd 5591 f13d caae c1be
000003a0: 78fa 7fbe 941a dabc 8890 7dbd 1961 1b3d
000003b0: 85f2 a53b 31de 553c f506 8140 fc85 abbc
000003c0: 7a1d 173f 8ba1 7cbe c4ad b5ba de26 35bf
000003d0: 8514 d3bd 9e72 1f3f a30c 81bd 1255 f0bd
000003e0: fe95 dabe f7d8 493d e56b a7bd be67 903a
000003f0: cdfa fcbd efad 7abd 52a8 863c 275b d3bf
2.3239226 -0.8048082 -0.61355346 -0.28360984 0.09039982 0.6046908 1.2040719 -0.2052925
-0.43312436 1.26748 0.0182137 0.011903358 0.023954405 0.08519083 0.058260377 0.09372866
-0.034175444 3.4648414 1.2043586 0.6080274 -0.7601695 -0.20384991 -0.1865896 -0.06732233
0.3812094 0.122100115 0.7676143 0.50779283 0.049743857 0.06810613 0.0014801888 0.05400957
0.038551938 0.0016255868 -1.1228327 0.43313774 -1.1329598 -0.68306154 -0.06488966 -0.9320111
0.264626 -0.41355866 -0.17976916 1.1130106 -0.6648277 -0.077415004 -0.087715454 0.016375909
0.045004003 -0.0100343935 -0.033759806 3.7266648 -0.04687935 0.85380954 0.70993686 -0.013689175
-0.113344416 0.04048089 -0.19040173 0.09020046 0.42444566 -0.23228237 -0.01639101 -0.024890818
0.0073241424 0.03927234 -0.06780802 -0.057642993 -0.18022445 0.2878565 0.44480485 -0.43909433
-0.15377934 0.8441137 1.3982474 0.02146923 -0.46214253 0.45543206 -0.42743617 -0.06621894
-0.11969666 0.03215957 0.12062802 0.012226916 0.06335981 2.2547545 0.19401139 -0.39681092
-1.6290011 -0.05129689 0.82830346 0.7418002 -0.051378913 -0.22219427 0.16018735 -0.16650026
-0.044010516 -0.010166113 -0.01087619 0.020467218 0.031260617 0.014665574 0.39850548 -0.6097616
-0.23084624 0.13713041 0.24512683 -0.039822932 -0.94043535 -0.13061687 -0.2797792 -0.82515126
0.3724998 -0.03390187 -0.021694433 0.014431735 -0.01352566 0.027143136 0.008782414 0.10936697
0.257689 -0.08081842 -0.5523464 -0.6781441 -1.2646688 0.11620371 0.022855079 -0.37955853
0.35801625 0.17266236 0.17043476 0.10700761 0.026823336 -0.049904637 0.14199956 -0.08955472
-0.11645606 -0.57487005 0.542966 1.0679027 0.7046994 -0.5380375 -1.1340532 -0.46596706
0.28900015 -0.024896538 -0.049875382 0.07710679 0.07524747 0.0054555186 -0.18893857 -0.19929507
-0.07474778 1.4274004 -0.111170396 0.6600436 1.1685443 -0.119414635 0.5658519 -0.16826437
0.47185183 0.13359332 1.3439784 0.10903733 0.007331762 0.06395141 0.023695044 0.09365204
0.019734563 -0.0013697121 -1.3745787 -0.11019096 0.59558934 1.731392 -0.23037195 0.056104485
-0.85352886 -0.33522505 -0.37792537 0.09676955 -0.11062383 -0.023283755 -0.10466832 -0.004628422
0.041080683 -0.0015584548 -0.04144427 2.436172 1.3671016 0.3394181 -0.07542502 -0.38995227
0.5240402 -0.6310598 -0.7118761 0.050514147 0.3342604 -0.08857007 0.028636778 0.021493144
-0.032138176 -0.058520727 0.04489938 0.02072189 0.28762236 0.12970586 -1.3998126 -1.0308205
-0.31863445 -0.83490705 0.5128193 0.40977937 0.19138165 -0.08956134 -0.086360656 -0.13832246
-0.023500005 -0.036680147 0.036633573 0.021863978 -0.0028571144 -0.96645963 -0.35842705 -1.4358495
0.95525265 -0.053404737 -0.25206232 0.2538927 -0.0646743 -0.09565556 0.11795298 -0.37828666
-0.2499789 -0.026624002 -0.061905414 0.037934396 0.005064311 0.013053463 4.0320992 -0.020937912
0.5902935 -0.24670999 -0.001386099 -0.7076243 -0.10306648 0.62284267 -0.063012384 -0.11734976
-0.4269256 0.04927918 -0.08174876 0.0011017246 -0.12352524 -0.061201032 0.016437683 -1.6512192

linear1.bias f4 [300]
00000000: 37cc c03d a871 51bf b983 bfbd 3538 013f
00000010: 5235 703e 5300 173f ceb5 5c3f 6fb1 40be
00000020: 1abf 20bf 5dd8 a6be 7675 88bd 4b52 13bd
00000030: a50e 4c3e 3bd7 40bf 1ab5 a23e 2f5e dd3e
00000040: f019 2b3f e55c 5abd 463d 0cbf 6a32 563f
00000050: ace2 2bbf 8079 97be 969a 08be 76cd 5abf
00000060: 07f4 60bf 330c c83e 5147 debd 904d 5a3f
00000070: b5be a23e f974 d1be c7df 563e ee09 14bf
00000080: be4c 05bf 0dc1 ddbe cd07 5bbf 9c9f c73e
00000090: a25a d2be 22f9 59bf 648a 15be 6d53 da3e
000000a0: add7 27bf 44f2 163d 26f7 143d 2548 6b3f
000000b0: 5d95 65bf 3050 21bf 1ab7 10be 8ad7 3d3e
000000c0: 9d03 4ebe 7ab0 6bbf 8b27 e3be f9b7 dabe
000000d0: aef4 2dbe e5a4 073f 2b7c f9be da9e 5fbf
000000e0: dc90 bcbe 22c2 10be 3364 933d a4f7 0c3b
000000f0: dbde 053f 0ee0 1cbf eb49 493e b6dc 193f
00000100: aee9 49bf 0e98 adbe 505f 913f 01d3 9b3f
00000110: 1835 f13c 5d79 8fbe c16d d9be 24d0 093e
00000120: 6c88 abbd 5a98 1dbf 054c e93d dd2a 473f
00000130: 7c89 733f 18d3 6cbf 1b23 f93e 7b5d a83e
00000140: b86b 25bf 8049 2bbf 897a c33e ac10 00bf
00000150: dc42 aabe 2ee2 96be b439 cbbe 935a 143f
00000160: 6c66 8dbe 7c56 1bbf 24e1 d03e 025b 133f
00000170: 7c69 ee3e 88a8 2ebf dbab bfbe 376f 5dbf
00000180: 0bec b4be 5f7e a6be b5f2 70be d6f3 803f
00000190: 22dd 673c 32b0 2abf d7a8 10bf 9693 c7be
000001a0: 2831 afbe c52d e1be 5eb6 703e f4b0 4c3f
000001b0: 5093 fcbd e6a3 debe 2983 cabd 60ed 71bf
000001c0: 33c0 2cbf 0aea d03d 89df e5be e600 b13d
000001d0: 4203 c7bc b60b efbe 6087 1fbe 6ee7 a33d
000001e0: b1bc a93e 1af1 d73e 56e7 883e bf24 1fbf
000001f0: 530b 05bf c74e 9d3e ed39 a7bd d964 43be
00000200: 54ff 9b3f 4e7c d53e e0d9 a5bc ad78 39bd
00000210: 32d0 b9be efb2 b2bd 590c a8bd 7b99 acbe
00000220: ac9e a5bd 5888 e6bd 4b96 f13e 4d2f 5abf
00000230: 34da 1d3f dcc7 16bf b464 95bb 24fe 7cbe
00000240: 2814 843d 7483 9e3d 5687 473e 6c1b bc3e
00000250: d355 c1be ad1e 703d 4977 0cbf 90b3 963e
00000260: e778 76be e11b 22bd 7fae 74be 8283 92be
00000270: 943a b9be d0ce 12bf 13e3 28bf 9d48 be3d
00000280: 6607 b9be 1be8 e3be 6b92 c1bb 0e92 423f
00000290: 672c 4ebe aeff 51be 3b84 50bf 9e26 d0be
000002a0: 3850 723f db2a 2cbe e560 12bf a548 373f
000002b0: 8b7e adbe 5a2f cb3f 68f6 59be 1d61 01be
000002c0: 4000 673f 24ce ccbe 0611 0cbf 5af6 cdbe
000002d0: 7cc6 043e 22c3 0bbd 2428 e63e 2212 fc3d
000002e0: 39f3 8c3e 3734 80be e85e 843f 57d9 8ebe
000002f0: b872 273f 3dde 7bbf 5694 963f 0bf6 62bf
00000300: 2fb6 c93e 6599 393f 6b5a 65bf da5d cebe
00000310: ad34 22bf fbb9 a0be 3af1 7abe 9f50 b33e
00000320: 3609 45bf e886 8dbe f891 813d 25a4 d5be
00000330: 4c00 1ebf c912 5ebf 2d43 e9be 0e42 573e
00000340: f68d b5bc b5e9 6d3e 1cdb 25bf 21ad ec3e
00000350: 691c 00bf e862 b1bd 4e9f cbbe 897f 533e
00000360: b97a c4be 8840 213f abe9 bcbe 8167 b3bc
00000370: 1d41 5d3e 0ab7 fa3c 953d a33e 360a 5dbe
00000380: d539 19bf a992 a2be 0230 613e 2243 14bf
00000390: 704b f3be 8f63 9cbe 5a07 0e3f 3792 2ebf
000003a0: e1fd d0be 9a7e 323f ecd1 d13e 7cb7 85be
000003b0: 94db 2cbf 8f60 c6be 8651 a4be 9b17 323b
000003c0: c09e adbe f7d3 853f 17c6 6a3e 045f 06bf
000003d0: 719e a8be a92b a4be 3780 013f 9eee 593f
000003e0: a5cd d2be 8438 7c3f 5e9c f0be 8a54 5fbe
000003f0: db65 81be 5768 2abf 97de f03d f1bc c9bd
0.09413951 -0.8181405 -0.09351296 0.5047639 0.2345784 0.5898487 0.8621491 -0.18817686
-0.627916 -0.32586947 -0.06663029 -0.035967153 0.19927461 -0.75328416 0.31778795 0.4323592
0.6683645 -0.053311247 -0.54780996 0.83670676 -0.6714275 -0.29584885 -0.1334022 -0.8546976
-0.87872356 0.39071807 -0.10853446 0.852746 0.31786123 -0.40909556 0.20983802 -0.5782765
-0.52070224 -0.4331135 -0.8555878 0.3898896 -0.41084772 -0.8514577 -0.14603573 0.42641774
-0.6556347 0.036852136 0.03636851 0.9190696 -0.89681035 -0.6301298 -0.14132348 0.18539253
-0.20118566 -0.92066157 -0.44366106 -0.42718485 -0.16987869 0.52985984 -0.48727545 -0.87351763
-0.3682927 -0.14136556 0.07196846 0.002150991 0.52293175 -0.6127938 0.19657104 0.60102403
-0.7887219 -0.3390507 1.1357212 1.2173768 0.029444262 -0.2802228 -0.42466548 0.13458306
-0.0837563 -0.61560595 0.11391453 0.7779978 0.9513166 -0.92509604 0.48659596 0.3288382
-0.6461749 -0.6690903 0.38179424 -0.5002544 -0.33254135 -0.29469436 -0.39692461 0.57950705
-0.27617204 -0.6067884 0.4079677 0.5756074 0.46564853 -0.6822591 -0.37435803 -0.86497825
-0.35336336 -0.32518288 -0.23530085 1.0074413 0.014151843 -0.666751 -0.5650763 -0.38979787
-0.3421719 -0.43980232 0.23507068 0.7995751 -0.12332785 -0.4348442 -0.09888298 -0.9450283
-0.6748077 0.102008894 -0.44897106 0.086427495 -0.024293546 -0.46688622 -0.15578985 0.08003126
0.33151773 0.42176133 0.26738995 -0.62165445 -0.51970404 0.30724165 -0.08165345 -0.19081439
1.2187295 0.416964 -0.020245492 -0.0452811 -0.36291653 -0.08725535 -0.0820548 -0.33710846
-0.08086905 -0.11256474 0.47184977 -0.85228425 0.61661077 -0.5889871 -0.004559124 -0.24706322
0.06449157 0.077399164 0.1948522 0.3673967 -0.3776079 0.058623005 -0.54869515 0.2943387
-0.24069558 -0.03957737 -0.2389469 -0.28615957 -0.36177504 -0.5734682 -0.6597149 0.09291194
-0.36138457 -0.4451302 -0.005907347 0.7600411 -0.20134126 -0.2050769 -0.8145177 -0.40654463
0.94653654 -0.16813223 -0.571791 0.7159522 -0.33885607 1.5873826 -0.21285403 -0.12634702
0.90234756 -0.40001023 -0.54713476 -0.40227014 0.12966341 -0.03412164 0.449525 0.12308146
0.27529314 -0.25039837 1.0341463 -0.27900192 0.6540942 -0.98385984 1.1764019 -0.8865668
0.39396808 0.72499686 -0.8959109 -0.40305978 -0.63361627 -0.31391892 -0.24506083 0.35022447
-0.7696718 -0.27641988 0.063266695 -0.41726795 -0.61719203 -0.86747414 -0.45559064 0.21021292
-0.022162419 0.23233683 -0.6478746 0.46225837 -0.5004335 -0.08661443 -0.39769977 0.2065412
-0.3837488 0.6298909 -0.36897025 -0.02189994 0.2160687 0.030604858 0.3188292 -0.21585926
-0.5985387 -0.31752518 0.2199097 -0.57914937 -0.47518492 -0.30544707 0.5547997 -0.68191856
-0.40818694 0.6972443 0.4098047 -0.2611655 -0.6752255 -0.38745543 -0.32093447 0.0027174714
-0.3391018 1.0455312 0.22927128 -0.5248873 -0.3293338 -0.3206456 0.50586265 0.85129726
-0.4117252 0.98523736 -0.469943 -0.21809593 -0.25273022 -0.6656546 0.11761206 -0.09850491

linear2.weight f4 [300, 300]
00000000: 2a22 67be 5f44 0cbe 67ae fbbb 7f09 fdbd
00000010: ce9e 7ebd ab8a b33d fb73 e7bc 0abf dfbc
00000020: 0477 163d 8b9d 3d3e 10e0 a4be e50f 9dbd
00000030: 9458 64bb bf2d ac3d d7be 913d 4163 b7be
00000040: 7901 5ebe 4e56 5dbd e04c 87bb d46d f7bd
00000050: d704 42bd 9558 c43d 6452 043e 27cf a43d
00000060: 364e fb3d 6d8e 123c 5c0c b7bd 97d8 3c3b
00000070: a3aa 32bd d302 bfbd a185 a2bd 7a2c 1f3d
00000080: 1eb8 04bd dbbf 5e3d cf1e 62be a5f9 76bb
00000090: b808 2f3e 65cb 33bd 757a 6cbe d36e 2bbd
000000a0: 33b1 4fbd 15ec cabd fd03 3dbe 2854 e53d
000000b0: ae52 d4bd a45d 53be 7c70 d03b 7f39 41bd
000000c0: 6553 c23d fba7 853d df78 53bb b168 31be
000000d0: fff5 40be ca84 a43b 0d0f d0bd f11f 18be
000000e0: bc9d 493d 58f3 aa3d 5147 683d 572b 023e
000000f0: 84ba 66be c897 5b3d fabb 64be 98a7 e63d
00000100: 9f9d 46be cea6 92be 18d0 d03d 2313 1fbb
00000110: 84a8 093a 6010 043b 4602 443e 0397 cdbd
00000120: c38e d7bc 725a 073d 6678 de3d 2def be3c
00000130: ad3e 593d ea8d 2cbd ef4b 22be 09b3 3cbd
00000140: e5b8 243e 2c56 8f3e abc2 f0bd a412 14bc
00000150: 6d51 693d 6cdf 043e 3c3c a03e 91f5 cabc
00000160: 1306 493d 965a 193d d0c1 9cbe 370c 95bd
00000170: d251 cb3c 6dca 8d3d d655 7dbd 95bd 61bd
00000180: a29f 11bd fdb9 b7bd 1982 91be 8eb1 5d3e
00000190: 6cf0 16bc 5b4b ca3d 54c5 16be acaa 9b3d
000001a0: 6a4b 8d3e d90a d53d 479d d4bc e103 823e
000001b0: 6f49 b63c 2202 ca3d 1ce2 4dbd 6f3f 293e
000001c0: 9079 f0bd 1a66 993d c6fc 303e 0700 0fbd
000001d0: d312 1d3d 1606 623d 7fc9 563e 29d6 c1be
000001e0: d12a 3abb 0067 b03d ca7a cc3c 2342 473e
000001f0: 2e6d 51bd 9841 613e 9291 283e 91bc cd3c
00000200: 4db9 cebd a7b1 2d3e 325e 4cbd 4251 33be
00000210: 9a8e 463c c5db ca3c b45e 0bbe e4a2 363e
00000220: 7749 9b3d bcdf 47bd fd81 91bd 1dcd 42be
00000230: fd0c dbbd 6e85 0e3d 96d3 6d3d 52ee 7a3d
00000240: 7a18 55be da17 9aba 547a 2bbd 8a06 0abe
00000250: 06d1 60bd 127a 71bc 9a91 243e ff01 783c
00000260: 0ae2 573e 5a98 9c3c 7418 62be af70 aebd
00000270: 0641 84bc e86c 863d d648 0fbe 6cdb 9ebc
00000280: b405 b5bc 0555 97bb 26cf 0ebe b905 d4bd
00000290: d783 61be bd28 d2bd f064 543d ed67 ff3d
000002a0: bf58 3abc dfa5 303d e032 23be 6785 723d
000002b0: f0b6 433e 5e8d 643d 52d5 d43c 4968 9c3d
000002c0: d213 12be c65b 84be 1196 eb3b 4048 17bc
000002d0: c78c 88be 7855 df3d ee3e ed3d bd63 29be
000002e0: 225b 46bd 4910 16be ac1e 8bbe 9430 ecbd
000002f0: 97fd 3bbe 052f 763e f0d6 093d 85d8 023c
00000300: 512e 503c a682 15be 74f9 65bb 881a 53be
00000310: 6706 15be ef08 34be 9996 5dbe 593a a9bd
00000320: 4680 873d 51e0 2cbb 6f1c 97be 27e0 f4be
00000330: 2fa1 26be d676 953d 8012 a73d 253b 07be
00000340: 55c4 84be 125d a13d de71 1b3e c62c 72bd
00000350: 8437 f0bd 0399 10be 8aa3 573d d898 8b3d
00000360: d3bc 813e 3170 733e 71e2 82bd 2960 45bc
00000370: 8a48 acbe 9827 26be f6c5 84bd 1093 f8bd
00000380: 221f 1f3e e65b 673d 1cf3 073d 0807 1cbd
00000390: 8ffd 3d3c 1a4f a2bd 7877 093d 4799 503e
000003a0: 3be4 eabd 47ac 77bc 336f 58bc b9cb 5dbe
000003b0: 2620 40bc 2ad3 18be c96c c23d 63c4 ea3d
000003c0: 4eda 99bd 0691 653e 5160 2a3d a13e 46bd
000003d0: a286 17bc 9ff6 36bc 8935 033e 1c90 1cbe
000003e0: 5963 e53c 38c7 49be a724 c2bd f422 9ebc
000003f0: 3606 8f3e 6f1f 833d 36bb d73c e796 60bd
-0.22571626 -0.13697957 -0.0076807025 -0.12355327 -0.062163167 0.08766683 -0.028253546 -0.027312774
0.036734596 0.18517129 -0.32202196 -0.07669047 -0.0034842836 0.08407163 0.07116478 -0.35817912
-0.2168025 -0.054037385 -0.0041290373 -0.12081495 -0.047367897 0.09587208 0.12922055 0.08047324
0.12270777 0.00894509 -0.08937904 0.002881562 -0.043619763 -0.093267106 -0.07935644 0.038860776
-0.03240215 0.054382186 -0.22082065 -0.003768542 0.1709317 -0.043895144 -0.23093589 -0.041853737
-0.0507061 -0.0990831 -0.18458553 0.11197692 -0.103673324 -0.2064119 0.0063610654 -0.047173973
0.094885625 0.0652618 -0.003226809 -0.17325093 -0.1884384 0.0050207125 -0.10159121 -0.14855935
0.049222693 0.083471954 0.056708638 0.12711845 -0.22532088 0.053611547 -0.22337332 0.11262435
-0.19396065 -0.28642887 0.10195941 -0.002427288 0.0005251246 0.0020151362 0.19141492 -0.10038569
-0.026313191 0.03304524 0.10862808 0.023307407 0.053038288 -0.042127527 -0.15849279 -0.04606918
0.16086157 0.2799543 -0.1175588 -0.009037647 0.05696242 0.12975854 0.31295955 -0.024775298
0.04907806 0.037439905 -0.30616617 -0.072777204 0.024819288 0.06923375 -0.061849438 -0.05511244
-0.03555263 -0.08971021 -0.2841957 0.21649763 -0.0092125945 0.09877654 -0.14723712 0.076009125
0.275966 0.1040246 -0.025953902 0.25393584 0.022251813 0.09863688 -0.050264463 0.16528104
-0.11741936 0.074901775 0.17283925 -0.034912135 0.03834803 0.055181585 0.20975302 -0.37858704
-0.0028406868 0.08613396 0.024960894 0.19458823 -0.051129512 0.21997678 0.1646178 0.02511433
-0.10093937 0.169623 -0.04989452 -0.17511466 0.01211896 0.024762997 -0.13610345 0.17835575
0.07582372 -0.048797354 -0.071048714 -0.19023557 -0.10695837 0.034795217 0.058063112 0.061262436
-0.20810118 -0.0011756376 -0.041864708 -0.13479057 -0.05488684 -0.0147385765 0.16071168 0.015137195
0.21082321 0.019115616 -0.2207964 -0.085175864 -0.016144287 0.06563741 -0.13992628 -0.019391738
-0.022097446 -0.0046182894 -0.13946208 -0.10352654 -0.22022949 -0.102616765 0.051854074 0.12470994
-0.011373698 0.043126937 -0.15937376 0.059209254 0.19112754 0.05579888 0.025980625 0.07637078
-0.14265373 -0.25851268 0.00718952 -0.009233534 -0.26669905 0.10904974 0.115842685 -0.16541953
-0.048426755 -0.1465465 -0.27171838 -0.11532703 -0.18358456 0.24041374 0.033652246 0.007986193
0.012706355 -0.1460062 -0.0035091313 -0.2061559 -0.14553224 -0.17581533 -0.2163948 -0.08263082
0.06616263 -0.002637882 -0.2951388 -0.47827265 -0.16272424 0.07298057 0.081578255 -0.13206156
-0.2593104 0.0787908 0.15180156 -0.05912473 -0.11729339 -0.1412087 0.052646197 0.06816262
0.25339374 0.23773266 -0.063908465 -0.012046852 -0.33649093 -0.16226041 -0.064830706 -0.12137425
0.1553922 0.056484126 0.03319083 -0.038092643 0.011596098 -0.07925244 0.0335612 0.2037097
-0.11469313 -0.015116758 -0.013210106 -0.21659745 -0.011726415 -0.14924303 0.09493405 0.11463239
-0.075123414 0.22418603 0.04159576 -0.04839957 -0.009248408 -0.0111671975 0.12813391 -0.15289348
0.028001474 -0.19704902 -0.09479647 -0.019303776 0.27934426 0.0640248 0.026334386 -0.05483141

linear2.bias f4 [300]
00000000: dd8b ecbc 77a5 89be 12cb fabe 3eb4 2c3d
00000010: 915d b73d 43cb 3f3d b586 803d a205 37be
00000020: 7c72 7dbe c61b 03be bef9 f43d a1de 1c3c
00000030: ee2e 28be 4be5 06bd 903c 60be 1591 5abd
00000040: a30a 8ebd 067f 483e b4a5 473d 2624 ae3c
00000050: ed2f 3dbe e36a 3bbe b133 f7bd b7ed 983e
00000060: 9431 aebe fb52 bbbe cc3f 95bd 8597 c8be
00000070: cec4 4cbe 9a52 913d a727 e63b 166a 53be
00000080: 5c81 97bc 8e31 a1be e1e2 6bbd 615a 99be
00000090: 5a31 60be 143a 82be c469 553d 2374 52be
000000a0: 94a3 2e3e 08a3 96be 60af 1dbe 0fcf e4bd
000000b0: b527 10bf d6f6 a1be 3af7 a03c 83e3 c2bd
000000c0: ec3c 63be 5ce2 26bf 3949 913d d75d 03be
000000d0: 1979 0abe 11b6 bdbd 2828 aebd 0b68 22be
000000e0: e231 78be bb9c 7a3d 5fda 373d 9c4d 45be
000000f0: 3a0b b6be b163 5c3e 2fa2 b73a ad0e bebd
00000100: fbb8 14be a1ea b5bd ff2a fabe 8a39 24bd
00000110: ba22 11bf b57a 96be 6599 e13c d23f c93d
00000120: b5a4 92bd 0344 f3bb 44f4 51bb e8e9 a5bd
00000130: 588a d9bd 2fe1 d1be 6d6a ebbe e1f4 883e
00000140: 8e88 263e 7cc4 cebd b76b 303e 9359 e7be
00000150: 07f2 0cbe 09dd 353e 5056 3e3e 1161 2e3d
00000160: bef4 a9be 0657 79bd 3ecd e5be 7c6b df3e
00000170: 78cd 9d3e 5bdf 3dbe 3aa5 f3be ff90 94be
00000180: 17b2 86bd a834 14be 1ba7 18be 0271 92be
00000190: 2cb4 ea3c 656d e73a e6d1 77bd f8d9 343e
000001a0: a62a 8ebd 66f1 04be a9f6 9fbc ed82 a5be
000001b0: d068 c0bd 6535 99be 92dc 0fbe 10a4 1d39
000001c0: bad5 73be 61a4 b0be da5b 5fbe 6b14 73bc
000001d0: 50d3 c53c 3077 b1be f849 36be 02da adbd
000001e0: c3f8 b3be 0e38 78be bec9 87be 2b88 47be
000001f0: da5b 1ebe ae64 a8bd d831 3d3c 93e7 573d
00000200: 585e 06be dbd5 02be f01f 643e c7f0 443e
00000210: 22cc 0ebe e57a 6c3d 38f1 713d d778 30be
00000220: a612 90be cc6a a1bd 81a8 03be e858 563e
00000230: e034 cfbe 5619 41be 179b 7cbe bcac 76bc
00000240: c66e b5bd 0ba6 33bc 9c24 d0be 0b45 28be
00000250: b090 753d 5946 34bd 98cb 27be 09e1 fdbd
00000260: bfb6 88be 0862 0e3e 1dc6 43be 70aa cf3d
00000270: 93b2 fbbd 5817 e13d 2ace f4bd 9e82 603e
00000280: a3cf ce3c b724 2abe 78d7 ecb8 27f0 2cbe
00000290: fdb5 7abb 589a 8fbc 4331 4bbe ed43 61be
000002a0: 77cd 55bf 9daf 95be 9a66 0c3e bb0e 3e3e
000002b0: 9def 3f3c 37f1 de3c 4585 96be 2628 cf3d
000002c0: 20a7 a8be 2cae 3c3c 88b8 243e 8a9b 8dbd
000002d0: 131e 66be 53ba 1e3e bec8 e3bd 1f7b 88be
000002e0: 192a 783e c032 09be 0a57 0c3d e1b6 d5bd
000002f0: 00b2 513c 311e 92be 9521 ba3d a33f 4abb
00000300: f6cd ef3d cc5d 14bd 4ab3 c0bc 4919 78be
00000310: 5f40 c53d a5b0 303e b736 6dbe 3284 963d
00000320: e621 8fbe 52b1 82be 9bd2 933e d208 f33e
00000330: ec73 86be bc60 55bf 5fcd a0be 2416 d1be
00000340: b946 dfbd 902d 2d3d 37d7 973c c81a b2bd
00000350: bc3e f63d 6eb0 12be b6d8 1dbd 4d91 7cbe
00000360: 26d6 ccbd b293 0abe a5b7 93be 8cca 8a3e
00000370: 43fc d7bd 96da 4ebe c411 963d a326 35be
00000380: c82b 21bd 8c0e 0cbc 52c0 9fbe 7de9 48be
00000390: 99b0 66bd 2dbb 87be a3b0 fcbd f2d7 67be
000003a0: 4fa2 853c 3ed0 95be 7d1c ffbd f964 24bf
000003b0: 5fc4 1abe 0093 c4bd 7521 913c 1178 053d
000003c0: 5fd1 58be 9f9e 71be 0025 55be 5d04 8bbe
000003d0: e305 49be 148e f1bd 31c1 943d 29f6 2b3e
000003e0: 9a0a c6be 8423 5e3d 460c 57be bbc3 233d
000003f0: 8090 48be ed0f c6bd e93c ca3d 9bd4 e9bd
-0.028875286 -0.26884052 -0.48983055 0.04216408 0.08953393 0.046824705 0.06275693 -0.17873242
-0.24750704 -0.12803563 0.11961697 0.009574563 -0.16424152 -0.032933515 -0.21898103 -0.053361017
-0.069356225 0.19579706 0.04874201 0.021257471 -0.18475313 -0.18302493 -0.12070406 0.29868862
-0.340222 -0.36586747 -0.07287559 -0.391781 -0.1999695 0.07095833 0.00702377 -0.20645937
-0.0184943 -0.3148312 -0.057589415 -0.29951766 -0.21893826 -0.25434935 0.05210282 -0.20552115
0.17054588 -0.29421258 -0.15398932 -0.11172306 -0.5631059 -0.31633633 0.019649137 -0.09516051
-0.22191209 -0.65189147 0.07094044 -0.12828766 -0.13522758 -0.09263242 -0.08503753 -0.15860002
-0.24237779 0.061184626 0.04488599 -0.19267887 -0.3555544 0.21522404 0.0014010126 -0.09280143
-0.1452369 -0.088826425 -0.48860928 -0.040093936 -0.56693614 -0.29390493 0.027538965 0.09826626
-0.071603216 -0.007423879 -0.0032036463 -0.08101255 -0.1062209 -0.40992114 -0.45979634 0.26749328
0.16263029 -0.1009607 0.1722859 -0.45185527 -0.13764201 0.177601 0.18587613 0.04257304
-0.33194536 -0.060874008 -0.4488315 0.43636692 0.30820823 -0.18542235 -0.47586995 -0.29016873
-0.06576937 -0.14473212 -0.14907496 -0.28601843 0.028650366 0.0017656503 -0.06050291 0.17661273
-0.06941728 -0.12982711 -0.019526796 -0.3232645 -0.093949914 -0.2992355 -0.14048985 0.00015033805
-0.23811999 -0.3450041 -0.21812382 -0.014836411 0.024148613 -0.34661245 -0.17801654 -0.08488847
-0.35150728 -0.24240133 -0.26521105 -0.19485538 -0.15464726 -0.08222328 0.011547528 0.05271108
-0.13121927 -0.12776892 0.22277808 0.19232474 -0.13945058 0.05773439 0.059067935 -0.17233597
-0.28139228 -0.07881698 -0.12857248 0.20932353 -0.40470028 -0.18857321 -0.24668537 -0.0150558315
-0.08859019 -0.010964881 -0.4065293 -0.16432588 0.059952438 -0.0440124 -0.16386259 -0.12396438
-0.26701924 0.13904583 -0.19118543 0.1013993 -0.1228992 0.109907806 -0.11953385 0.21924827
0.025245493 -0.16615568 -0.00011293491 -0.16888486 -0.0038255446 -0.017529652 -0.1984301 -0.21998568
-0.8351664 -0.29235545 0.13711014 0.18560307 0.011714843 0.02721463 -0.29398552 0.101150796
-0.32940006 0.011516135 0.16086018 -0.06914432 -0.2247241 0.15500765 -0.11122273 -0.26656434
0.24234809 -0.13398266 0.034262694 -0.10435272 0.012798786 -0.2853866 0.090884365 -0.0030860684
0.11709206 -0.036222264 -0.023522992 -0.24228396 0.096314184 0.17254885 -0.23165403 0.07349433
-0.2795555 -0.2552591 0.28871617 0.47467667 -0.26260316 -0.8335073 -0.31406686 -0.40837204
-0.10902161 0.04227978 0.01853524 -0.08696514 0.120236844 -0.14325115 -0.03853675 -0.24664803
-0.10001783 -0.13532904 -0.28851047 0.27107656 -0.10546162 -0.20200571 0.07327607 -0.1769052
-0.039348394 -0.00854839 -0.31201416 -0.19620319 -0.05632076 -0.2650999 -0.12338378 -0.2264097
0.016312746 -0.2926044 -0.124566056 -0.6421657 -0.15113972 -0.095983505 0.017716149 0.032585207
-0.21173619 -0.23595665 -0.20814896 -0.27151766 -0.19631152 -0.117946774 0.07263411 0.16793121
-0.38679963 0.05423309 -0.21000776 0.039981585 -0.19586372 -0.09671006 0.09874899 -0.114175044

linear3.weight f4 [6, 300]
00000000: 43e8 00be 06c1 a73e 46d7 93bd a4c1 da3e
00000010: 3c05 b5be 6249 9ebe 5480 593e 9081 063f
00000020: 070a 9a3d 50c7 c23d 47e3 2fbd ab2c d53c
00000030: e803 a23f 77f7 1cbe d445 c13e 4d49 ab3c
00000040: 1049 bc3d a6be 03bf 60bd f8bd edbe adbc
00000050: 2572 7d3e b40b dbb9 6dfd dbbd 6db1 2a3f
00000060: 028e c53e ea0b 0f3e 1f7e cdbd 0d70 003f
00000070: 6137 97bd c9f7 cbbd 5bb6 22bd 80e2 16be
00000080: eeb4 5c3b c9b6 1b3e 83b0 bbbd 3a3b 053e
00000090: 6590 ad3e 63a4 43bd 5d98 f33d ff66 f93e
000000a0: 4116 fc3c f0fa cabf 0573 13bf 7866 50be
000000b0: cedd 82be 3db4 1d3e 0d67 c1be 7d2c 313e
000000c0: d96c a2be 4aa6 97be 25bf 0dbd 7afd 293d
000000d0: 44a1 0fbe 2c53 fa3e ab93 0a3d 8626 04bf
000000e0: df90 07bc 5d40 cbbe 097b 9fbe 9284 6fbe
000000f0: a483 1dbe 1dd5 bbbc ec46 dc3e 9e07 30be
00000100: 690c 303e ba9c 4abe 6227 16bf 09a4 863b
00000110: 091f 983c 45d2 483f a267 7dbd 476b 24bd
00000120: 078e 39be f866 093e d639 703c b49f dd3d
00000130: f2ea bb3d ad24 413d 7e03 aa3d 77d3 d93d
00000140: 3ece ce3c a7d3 c1be 7745 113e 52f8 19ba
00000150: 15d9 113e 4eb8 a23e 8b04 35be 0aaf 95bb
00000160: 6966 11be 3594 f2be d97e c2bd 46e9 ab3d
00000170: 01c5 5a3c c532 8cbd 27d6 05bf 79ff fa3d
00000180: 0097 e5ba d59d dd3e e500 f4bb 5a78 26be
00000190: 27fd febd 6d8f 973d 4848 3c3d 5797 283e
000001a0: a022 cd3e 81cc 043d 9de0 07bd f363 23bf
000001b0: 1b51 f43e 109c 37bf 1e48 c23d a498 083f
000001c0: 7a84 d5bd d6d6 42be d3f3 7c3d 8c2f d738
000001d0: 21f2 b23e 9c33 0ebe f9e1 88bd c9b4 d0be
000001e0: 5cb7 383e dab4 bebd c115 013d 5708 ff3d
000001f0: e28f 71be 519d 26be c0e6 1f3f b9ea 0c3e
00000200: 364d 0abe 1751 993e c07f 963c 9f4a 1f3e
00000210: 1d2b 353e a5ac 393e f5d6 573d 1395 8d3e
00000220: 2d23 983e 86fe a1be 85ea a23e 4d01 bcbc
00000230: a729 debe bb1f 03be 64dc a6bd 899a 65be
00000240: 6417 25bc 6323 d53d 0dcf 21bf c0dd ccbe
00000250: 5749 17be cbba aabe d144 963d d137 e0be
00000260: d0bf f63e 2ae6 f33c e074 f73e 30b7 2bbe
00000270: cc82 313e a658 b6bd f4bd 193f 572f 97be
00000280: 5d8f e63d 7ef3 59be 2b4f d7bf db40 37be
00000290: e5bc adbe 4a9a 2abe 5a48 2bbe eeaa 8b3d
000002a0: dc03 bc3f 5537 c0bd a99f 1ebf 9b63 3e3f
000002b0: 63b6 9ebc 36b7 9c3e ad85 d23d 772f c53d
000002c0: 71a1 fbbe 9211 1dbe 09d5 06bf 4b38 f43d
000002d0: 88b6 333f 9b6b 453c fe9a c03d e2b5 10bd
000002e0: 4c20 20be a3fd fe3d 0585 02bc 2f31 d3bc
000002f0: 4499 08be b2e5 edbd bb14 023e 20e1 163f
00000300: 833b 4b3e 2321 f83d aec3 8b3e ee0a c93d
00000310: fbf0 1e3f b6e7 ad3e cd28 4a3e 7070 333e
00000320: 7110 d2be d993 4cbf eafe 043e ef7b 833c
00000330: b8ab 743d 4504 93bf 2f7e 213e faad c0be
00000340: 0387 bbbd 99e5 bdbe af12 723e c729 da3d
00000350: 6eba c93c c19e 9039 7a84 fc3d 6369 933f
00000360: c5fd 0abe 2442 84bc 8bff f9bd 13cb 7a3d
00000370: 9eb7 2bbf 8634 c73b 1523 81be b6fd 653e
00000380: 28cd 6a3d 595e e13b 4931 44be 337e 453e
00000390: 19a4 a83e dffa b7be 8914 2f3e fb55 e5be
000003a0: 2a00 59be 7f94 a43e 8cec 883d d619 113f
000003b0: e3ed b2be a256 53be 63d9 83bd de1b f6be
000003c0: fe97 ab3d bf2a 823e a0f5 00be 9db5 083f
000003d0: e177 173f e00b 06bf 43e0 2c3d 803f 813d
000003e0: 6eea 1d3b f0ca 62be c3bb 47bd 067a 953e
000003f0: 9f94 2fbe d3bb 443e 0c19 a8bb 8d09 3abc
-0.12588601 0.32764453 -0.072187945 0.4272586 -0.35355556 -0.30915362 0.2124036 0.52541447
0.07521444 0.09510672 -0.042941358 0.026022276 1.2657442 -0.15328775 0.37748587 0.020908976
0.09193623 -0.5146278 -0.121454954 -0.021209205 0.24750574 -0.00041779655 -0.107416965 0.6667698
0.38584906 0.13969389 -0.10033821 0.50170976 -0.073836096 -0.09959371 -0.03972469 -0.1473484
0.0033677178 0.15206446 -0.09164526 0.13010874 0.33899227 -0.047764193 0.11894295 0.48711392
0.03077233 -1.585783 -0.5759738 -0.20351589 -0.2555985 0.15400787 -0.37773934 0.17302127
-0.3172367 -0.29619056 -0.034606118 0.0415015 -0.14026362 0.4889158 0.033832233 -0.5162128
-0.008274286 -0.39697543 -0.31148556 -0.23390415 -0.15382248 -0.022928769 0.4302286 -0.17190406
0.17192234 -0.19786349 -0.58653843 0.00410891 0.018569486 0.78445846 -0.06186641 -0.04014137
-0.18120585 0.13418186 0.014662227 0.108214766 0.09175672 0.047154117 0.08301447 0.10636037
0.025244828 -0.3785679 0.14186655 -0.00058734894 0.14242966 0.31781238 -0.17677514 -0.0045679854
-0.14199223 -0.47378698 -0.094968505 0.08394103 0.013352633 -0.06845621 -0.52279896 0.12255759
-0.0017516315 0.4328448 -0.0074463957 -0.16256848 -0.12450629 0.07400403 0.04596737 0.16463982
0.4006548 0.032421593 -0.033173192 -0.63824385 0.4771813 -0.7172251 0.094864115 0.5335791
-0.104256585 -0.19027266 0.061755966 0.00010260855 0.34950355 -0.13886875 -0.06683726 -0.40762928
0.18038696 -0.093118384 0.031514887 0.124527626 -0.23590043 -0.16270949 0.6246147 0.13761415
-0.13506016 0.2994468 0.018371463 0.1555581 0.17692228 0.18132265 0.052695233 0.27652797
0.29714337 -0.31639498 0.3181955 -0.022949839 -0.43391153 -0.12805073 -0.08147505 -0.22422232
-0.010076378 0.1040714 -0.6320656 -0.40012932 -0.1477407 -0.33345637 0.073373444 -0.43792585
0.48193216 0.029772837 0.48331356 -0.16769099 0.17335051 -0.08903627 0.6005547 -0.29528305
0.11257813 -0.21284291 -1.6821035 -0.17895834 -0.33933178 -0.16660419 -0.16726819 0.068197116
1.4688678 -0.09385554 -0.6196237 0.74370736 -0.019374078 0.3060853 0.10279403 0.09628194
-0.49146608 -0.15338734 -0.52668816 0.119247995 0.70200396 0.012049581 0.094045624 -0.035329707
-0.1563732 0.12450721 -0.007966285 -0.025780289 -0.13339716 -0.116160765 0.1270322 0.58937263
0.1984692 0.12115695 0.2729773 0.09816538 0.62086457 0.33965844 0.19742127 0.1752336
-0.4102817 -0.799131 0.12987867 0.016050307 0.059734076 -1.1485678 0.15770791 -0.37632734
-0.09156611 -0.37089232 0.2363994 0.106525 0.02462503 0.000275841 0.123299554 1.1516536
-0.13573368 -0.01614482 -0.12206944 0.061228823 -0.6707705 0.0060792593 -0.25222078 0.22460064
0.05732456 0.006877702 -0.19159426 0.19286422 0.32937697 -0.35933587 0.17097677 -0.4479216
-0.21191469 0.32144544 0.06685743 0.5668005 -0.34947118 -0.20638517 -0.064379476 -0.48068136
0.083785996 0.25423238 -0.12593699 0.5340212 0.59167296 -0.5236187 0.04220606 0.0631094
0.002409603 -0.22147727 -0.048763048 0.2919466 -0.17146538 0.19212274 -0.005129939 -0.011354816

linear3.bias f4 [6]
00000000: 45e0 e5bd f5b4 b1bd ae25 3bbe bc5f 483e
00000010: b73e 973d 2bfe 27be
-0.11224417 -0.08677093 -0.18276092 0.1956777 0.07385009 -0.16405551
