benchmarks/Pendulum-v1/Test_gym_mp_TD3_20230416-221428/models/critic_1.pth (torch, 271127 bytes, 5 tensors)

fc1.weight f4 [256, 4]
0	0xbe55f373	-0.2089365
1	0x3f1f8f2b	0.6232783
2	0x3ece51b3	0.40296707
3	0x3dd2091c	0.10255644
4	0x3ee95b21	0.45577338
5	0x3e3c97a7	0.18417226
6	0xbdb7eb3d	-0.08980415
7	0x3a7065db	0.0009170451
8	0x3f9be999	1.2180663
9	0xbf678865	-0.90442497
10	0xbecbe66c	-0.39824235
11	0xbd4b5a72	-0.049646802
12	0x3e899655	0.26872507
13	0xbf1ff7e6	-0.6248764
14	0xbdbd0baf	-0.09230744
15	0xbd013478	-0.03154418
16	0x3f4d4e2f	0.80197424
17	0x3f22ab9a	0.63543093
18	0x3e92e432	0.28689724
19	0x3d3f8360	0.04675615
20	0xbf3875f5	-0.7205499
21	0xbf6e52ea	-0.93095267
22	0xbe72cacb	-0.23710172
23	0xbc8238db	-0.015896251
24	0x3ed1ebbb	0.4100016
25	0xbfae88d8	-1.3635511
26	0xbd3c6432	-0.04599399
27	0x3bd1e2cf	0.0064052115
28	0x3f5c7d90	0.86129093
29	0xbf0f7d7e	-0.5605086
30	0xbe9f3299	-0.3109329
31	0xbd526abf	-0.051371332
32	0xbd10f944	-0.03539397
33	0xbe2ab020	-0.16668749
34	0xbb3d37be	-0.0028872336
35	0x3d6eaca1	0.0582701
36	0xbf12c425	-0.5733054
37	0xbe9e1e04	-0.30882275
38	0x3d2a1181	0.0415206
39	0x3cc1aaca	0.023641009
40	0x3f2e1d25	0.6801322
41	0x3e51ae8b	0.20476739
42	0xbddf149f	-0.10892605
43	0x3c714e2a	0.014728108
44	0xbe88b494	-0.2670027
45	0x3fa5016a	1.2891057
46	0x3e7c2ca4	0.24626404
47	0x3d2688ac	0.040657684
48	0x3eebdf04	0.46068585
49	0x3fa28d38	1.2699347
50	0x3d3febbe	0.04685568
51	0xbc475f52	-0.012168722
52	0x3f3762da	0.7163521
53	0x3f7d1f5c	0.98875976
54	0x3e2cbf67	0.16869889
55	0x3d0c9094	0.034317568
56	0xbedf41ff	-0.4360504
57	0x3f32eeb1	0.69895464
58	0xbd28a8bb	-0.04117654
59	0xbb255958	-0.0025230255
60	0x3f012bdd	0.50457555
61	0x3ef9588d	0.4870037
62	0xbdefc159	-0.117068
63	0x3e02b7bd	0.12765403
64	0x3e0909e9	0.13382687
65	0xbd4e69ed	-0.050393987
66	0xbefd6907	-0.49494192
67	0xbdcd3e23	-0.10021617
68	0x3f280f58	0.6564841
69	0xbe6313c1	-0.22175504
70	0xbeab721e	-0.33485502
71	0xbd86d55c	-0.06583664
72	0x3f84652b	1.0343374
73	0x3f726c1b	0.94696206
74	0x3e815ebc	0.2526759
75	0x3cee8ba0	0.029119313
76	0xbe097438	-0.1342324
77	0x3fad77d6	1.3552196
78	0x3e0cc504	0.1374703
79	0x3c5196d3	0.012792307
80	0x3e8c9862	0.2746001
81	0x3d35db5a	0.044398643
82	0xbe92663a	-0.28593618
83	0xbda37256	-0.07980792
84	0xbe65380a	-0.22384658
85	0xbe89e6c7	-0.26933882
86	0x3aad59d8	0.0013225628
87	0x3d5111fc	0.05104254
88	0x3e3a9fdf	0.18225048
89	0xbf8be751	-1.0929967
90	0xbd6e3600	-0.058156967
91	0xbd70e9ac	-0.058816597
92	0x3f19fcb4	0.6015122
93	0xbdf1d281	-0.118077286
94	0xbe988345	-0.2978765
95	0xbd2b9547	-0.04189041
96	0x3ec3f569	0.3827317
97	0xbd281c4a	-0.041042604
98	0xbe918f89	-0.2842982
99	0xbb237e5b	-0.002494714
100	0x3efb9841	0.49139598
101	0xbf7df113	-0.99195975
102	0xbe749942	-0.23886588
103	0xbd4d2ec8	-0.050093442
104	0x3f0115e2	0.50424016
105	0xbe2ad341	-0.1668215
106	0x3ea3257c	0.31864536
107	0xbc4c84b3	-0.01248281
108	0x3f47a25d	0.7798212
109	0x3f7ff101	0.9997712
110	0xbd9fd8f2	-0.07805051
111	0x3c331e4a	0.010932514
112	0x3df9734e	0.12180196
113	0x3f01e252	0.5073596
114	0x3e82ea0a	0.25569183
115	0x3d8f306d	0.06991658
116	0x3edc9527	0.43082544
117	0xbee8775b	-0.4540356
118	0x3e402921	0.1876569
119	0x3c8ee6f0	0.017444104
120	0x3f73cf77	0.9523844
121	0xbf698123	-0.9121267
122	0xbea09e09	-0.3137057
123	0xbd86a973	-0.065752886
124	0x3f382b8e	0.7194146
125	0xbebfb7fa	-0.3744505
126	0xbeb6681c	-0.35626304
127	0xbd4bbff3	-0.049743604
128	0x3dae9a0c	0.08525476
129	0xbe13b4e5	-0.14424475
130	0xbc4165a7	-0.011804021
131	0x3b28ee65	0.002577686
132	0x3eeec90e	0.46637768
133	0xbf57f0d6	-0.8435186
134	0x3e1a1e37	0.15050589
135	0x3c2fe866	0.01073656
136	0x3dd589b2	0.10426654
137	0xbf66b960	-0.9012661
138	0x3e9bd497	0.3043563
139	0xbc94a812	-0.018146548
140	0xbf4dc592	-0.80379593
141	0x3f2e2606	0.6802677
142	0x3e542491	0.20717074
143	0xbc161507	-0.009160287
144	0x3e0a3eff	0.13500594
145	0xbfacff85	-1.3515478
146	0xbe84bce9	-0.25925377
147	0xbd65b43b	-0.056080084
148	0x3f1bc2c7	0.6084408
149	0x3fa71b30	1.3055172
150	0x3e333073	0.1749895
151	0xbca4e15b	-0.02012699
152	0x3f4b92e1	0.79520994
153	0xbe91a027	-0.284425
154	0xbecd9009	-0.40148953
155	0xbd591a0f	-0.053003367
156	0x3ee8df5b	0.45482907
157	0xbe8551db	-0.26039013
158	0xbe47b541	-0.19502737
159	0xbcb63340	-0.022241235
160	0x3f106bc0	0.56414413
161	0xbf8fcf88	-1.1235209
162	0xbe88e3d0	-0.26736307
163	0xbd46efce	-0.04856854
164	0x3e99dc96	0.30051106
165	0x3f09f9ca	0.5389677
166	0xbd6d8231	-0.05798549
167	0xbd093e01	-0.033506397
168	0x3eae2a81	0.34016803
169	0x3f75aa42	0.9596292
170	0xbf0d9834	-0.5531037
171	0xbe090440	-0.13380527
172	0x3f3f9504	0.74836755
173	0x3e67ffac	0.22656125
174	0x3eb53963	0.35395345
175	0x3d3e7aaa	0.0465037
176	0x3eafef63	0.34362325
177	0x3f4b3049	0.7937055
178	0xbe914408	-0.28372216
179	0xbcd48fbe	-0.025947448
180	0x3e77bcff	0.2419319
181	0x3f72cce7	0.94843906
182	0x3c6b1c3a	0.014349991
183	0x3bb85761	0.0056256508
184	0x3f203e32	0.625949
185	0xbea488fb	-0.32135758
186	0xbe8e2333	-0.2776123
187	0xbd01492e	-0.03156393
188	0xbe31648b	-0.1732351
189	0x3f4ee7b5	0.80822307
190	0xbd68686c	-0.05674021
191	0x3d8e5e8f	0.06951629
192	0x3f54b1ba	0.8308369
193	0xbf9fbc1f	-1.2479285
194	0xbe301a68	-0.17197573
195	0xbcec231d	-0.028825337
196	0x3f974b15	1.1819788
197	0x3f80d0c9	1.0063716
198	0x3e9bb0c6	0.30408305
199	0x3d85a418	0.06525439
200	0xbf26d3bb	-0.65166825
201	0x3e9d109b	0.3067673
202	0x3e139417	0.1441196
203	0x3bb936b8	0.005652275
204	0x3f8a46c3	1.0802845
205	0x3f418a7d	0.7560194
206	0x3ec897d5	0.3917834
207	0x3d93203d	0.07183883
208	0x3f67e720	0.90587044
209	0x3f908ca8	1.1292925
210	0x3e5be76e	0.21475002
211	0x3cc63d54	0.024199165
212	0x3f38fd8e	0.72261894
213	0x3f24bf74	0.64354634
214	0x3e56df30	0.20983577
215	0x3d4ae184	0.049531475
216	0x3ebcc218	0.36866832
217	0xbd9a1abc	-0.075246304
218	0xbe90bfc5	-0.2827131
219	0xbd83b168	-0.06430322
220	0xbf038c84	-0.51386285
221	0x3f82cee6	1.021939
222	0x3e1fc49c	0.15602344
223	0x3cbd1d58	0.023085281
224	0xbebc6fa4	-0.36803925
225	0xbf1def30	-0.61693096
226	0x3d4bc940	0.049752474
227	0x3d7d1e07	0.061796214
228	0x3f8f0c12	1.1175559
229	0xbf29f401	-0.66387945
230	0xbed9deb9	-0.42552736
231	0xbd666b5f	-0.05625474
232	0x3f13a4e9	0.5767351
233	0x3e8810d9	0.26575354
234	0x3e91133d	0.2833499
235	0x3d4e7223	0.050401818
236	0x3ce7b605	0.028285036
237	0x3fb77c2c	1.4334769
238	0x3e877e6c	0.2646364
239	0x3cc680de	0.02423137
240	0x3e66b90a	0.22531524
241	0x3efc4264	0.49269402
242	0x3e517149	0.20453371
243	0x3d9c2487	0.076241545
244	0x3e8ff04d	0.28113022
245	0x3f89cada	1.076503
246	0x3e1242ba	0.14283267
247	0x3c8bab25	0.017049382
248	0x3f56baae	0.838786
249	0x3e5369a2	0.20645764
250	0xbe0a37f7	-0.13497911
251	0x3c1c6aef	0.009546979
252	0xbf28b8d7	-0.65907043
253	0xbf10a547	-0.56502193
254	0xbdef299f	-0.116778605
255	0xba9c525c	-0.00119264

fc1.bias f4 [256]
0	0xbe871657	-0.2638423
1	0xbf0958cc	-0.5365112
2	0xbf176c5e	-0.5914973
3	0xbee19757	-0.44060776
4	0xbf034c97	-0.5128874
5	0x3ed09190	0.40736055
6	0xbf27fe03	-0.65621966
7	0xbf22554f	-0.6341142
8	0xbef23339	-0.47304705
9	0xbdf7d6a1	-0.12101484
10	0xbf40611d	-0.75148183
11	0xbd2c2779	-0.04202983
12	0xbf0fc1dc	-0.5615518
13	0xbeb9b4ce	-0.36270756
14	0x3eef0cdb	0.46689495
15	0xbf17af34	-0.59251714
16	0xbf2805a6	-0.6563362
17	0xbf81a73c	-1.0129161
18	0xbf144b99	-0.5792785
19	0xbde74fd4	-0.11294523
20	0xbdaded6a	-0.08492549
21	0xbf351e10	-0.70748997
22	0x3cd399f7	0.025830252
23	0xbf79f82d	-0.9764431
24	0xbf6d1473	-0.9260933
25	0xbf378679	-0.71689564
26	0xbfa63017	-1.2983426
27	0xbf1ffa45	-0.62491256
28	0xbf7a874c	-0.97862697
29	0xbf8758f1	-1.0574018
30	0xbec0dee7	-0.3767006
31	0xbf81eec8	-1.0150995
32	0xbe8a3e6e	-0.27000755
33	0xbeec2514	-0.46122038
34	0xbe5162a1	-0.2044778
35	0x3f286d5e	0.6579188
36	0xbf1e02ea	-0.61723197
37	0xbe88e815	-0.26739565
38	0xbf9162e8	-1.1358309
39	0xbefae0d1	-0.48999646
40	0xbf4f5e3f	-0.81003183
41	0xbe16a09d	-0.14709707
42	0xbf09621b	-0.5366532
43	0xbf8fe353	-1.1241249
44	0xbe2f7310	-0.17133737
45	0xbe9397bd	-0.28826705
46	0xbf3a5428	-0.7278466
47	0x3ea5ae43	0.32359514
48	0xbeb5d62f	-0.35514972
49	0xbf2a9712	-0.66636765
50	0x3f2e96d8	0.6819892
51	0xbf436fcf	-0.7634248
52	0xbee8b31b	-0.45449147
53	0xbebe8e8e	-0.37218136
54	0xbf8463cc	-1.0342956
55	0xbe094ffd	-0.1340942
56	0x3eec9a6f	0.46211573
57	0xbf7481c0	-0.9551048
58	0xbf61ec89	-0.8825155
59	0xbf150863	-0.5821592
60	0xbf663d76	-0.8993753
61	0x3b19e852	0.002348442
62	0xbf6dfa0e	-0.9295968
63	0x3eee5061	0.465457
64	0xbf4467dd	-0.7672098
65	0xbeba114c	-0.3634132
66	0x3ed731d2	0.42030197
67	0x3eed78e6	0.463813
68	0x3f0e03a3	0.554743
69	0xbf928adb	-1.1448625
70	0xbe8937c2	-0.26800352
71	0xbf35c14c	-0.7099807
72	0xbf83fc21	-1.0311319
73	0xbd952a06	-0.07283406
74	0xbf32d177	-0.6985087
75	0xbddbdf12	-0.10735907
76	0xbf4a9161	-0.7912808
77	0xbe945a85	-0.2897531
78	0x3f0d17e8	0.55114603
79	0xbf1e8b9b	-0.6193177
80	0xbf001681	-0.5003434
81	0xbd590013	-0.052978586
82	0xbf2cd1f2	-0.6750785
83	0xbf0e3f20	-0.5556507
84	0xbf5eb605	-0.8699649
85	0xbe78930a	-0.24274841
86	0xbf5e1f95	-0.8676694
87	0xbf311b83	-0.69182605
88	0xbe8eedf3	-0.27915916
89	0x3f0935ce	0.53597724
90	0xbf8ac8ee	-1.0842569
91	0x3eec9a0c	0.46211278
92	0xbf8adf05	-1.084931
93	0xbf50b826	-0.8153099
94	0x3ef4fc64	0.4784881
95	0xbf8a6491	-1.081194
96	0xbf3223ca	-0.6958586
97	0x3eccf379	0.40029505
98	0xbef018fc	-0.46894062
99	0x3e840d55	0.25791422
100	0x3e1d0993	0.15335684
101	0xbe20b526	-0.15694103
102	0xbf537d52	-0.826131
103	0xbf2f1799	-0.6839538
104	0x3f0fd98c	0.56191325
105	0x3eb787a7	0.35845682
106	0xbf4c4a82	-0.7980119
107	0xbee85a58	-0.45381427
108	0xbebe6679	-0.37187555
109	0xbeab680b	-0.33477816
110	0xbf54efb2	-0.83178246
111	0xbeaf08b1	-0.3418632
112	0xbeacd3c6	-0.3375532
113	0xbead1705	-0.33806625
114	0xbf66f072	-0.9021064
115	0xbf735088	-0.95044756
116	0xbf081a9e	-0.53165615
117	0xbf63bcc3	-0.889599
118	0x3ec2a39e	0.38015455
119	0xbeab1b82	-0.33419424
120	0xbee978e5	-0.45600048
121	0x3eaacdd5	0.33360162
122	0xbf343224	-0.7038901
123	0xbf5d3c40	-0.8642006
124	0x3ebe5d29	0.3718045
125	0xbe668609	-0.22512068
126	0xbf2533eb	-0.64532346
127	0xbf578597	-0.84188217
128	0xbf60ec79	-0.8786083
129	0xbf1543fa	-0.5830685
130	0x3eee26f6	0.465141
131	0xbf0dab11	-0.5533915
132	0xbebc91fb	-0.36830124
133	0x3ef3e098	0.4763229
134	0xbeb50ebe	-0.3536281
135	0x3e6879d3	0.22702722
136	0xbee18a8d	-0.44051018
137	0xbe0a2a2f	-0.13492654
138	0xbf11aeeb	-0.5690753
139	0x3f2295fd	0.63510114
140	0xbea3fb3f	-0.32027623
141	0xbf1a9be0	-0.60394096
142	0xbe84e2bd	-0.25954238
143	0xbf0181ea	-0.5058886
144	0xbf2e84b1	-0.6817122
145	0xbebd7a8a	-0.37007552
146	0xbf63574e	-0.8880509
147	0x3e87967c	0.26481998
148	0xbf79d209	-0.97586113
149	0x3ed6a8cd	0.4192566
150	0xbec70163	-0.38868245
151	0xbf0b0f66	-0.5432037
152	0xbf77b473	-0.9675972
153	0xbf9ed788	-1.2409525
154	0x3efb66c4	0.4910184
155	0xbf453c25	-0.770449
156	0xbe977739	-0.29583147
157	0xbe65cdc5	-0.22441776
158	0x3e232b87	0.15934573
159	0xbdf9acc2	-0.12191154
160	0xbe5360a8	-0.2064234
161	0xbdff0703	-0.12452509
162	0xbeaf92cb	-0.34291682
163	0xbf85de8d	-1.0458542
164	0xbe1b1c88	-0.15147603
165	0xbf3fbb99	-0.74895626
166	0x3ed29f4e	0.41137165
167	0x3ef83fa7	0.48486063
168	0xbea8536e	-0.32876152
169	0xbe3d87f8	-0.18508899
170	0xbf83580a	-1.0261242
171	0xbec62855	-0.38702646
172	0xbeaced5d	-0.33774844
173	0xbf933370	-1.1500072
174	0x3c2c02da	0.010498727
175	0xbf957aa2	-1.167805
176	0xbeee4cbf	-0.46542928
177	0x3e063634	0.13106614
178	0x3f1551b9	0.58327824
179	0xbf2b8351	-0.6699725
180	0xbe267727	-0.1625639
181	0xbf70c194	-0.94045377
182	0xbf2fe00e	-0.68701255
183	0xbf7e95a8	-0.9944711
184	0xbe35bb1b	-0.17747156
185	0xbf63bd56	-0.8896078
186	0xbf43071a	-0.7618271
187	0xbf4226a8	-0.75840235
188	0xbf4b409a	-0.7939545
189	0xbed02eb1	-0.40660623
190	0x3ed6db49	0.41964176
191	0xbec2e028	-0.38061643
192	0xbebada7e	-0.3649482
193	0xbe93f407	-0.28897116
194	0xbf2ee2f5	-0.6831506
195	0xbf2394ae	-0.6389874
196	0x3e909a39	0.28242663
197	0xbf6a3d6c	-0.9149997
198	0xbf5e6378	-0.8687053
199	0x3f1dca0c	0.61636424
200	0xbea83b7d	-0.32857886
201	0xbf7398f1	-0.95155245
202	0xbf3d458c	-0.73934245
203	0xbc3e7a36	-0.011625817
204	0x3f095475	0.53644496
205	0xbf456081	-0.7710038
206	0xbe599f1d	-0.21252103
207	0x3eaa5572	0.33268315
208	0xbeb43cbf	-0.35202596
209	0xbe9bd956	-0.30439252
210	0xbf0583f7	-0.5215449
211	0xbf1f61e0	-0.6225872
212	0xbc501e61	-0.012702555
213	0xbeb85591	-0.36002782
214	0xbf3bd8d6	-0.7337774
215	0xbed8d37d	-0.42348853
216	0x3d2605c6	0.04053285
217	0xbd2976fa	-0.04137323
218	0x3f352fc0	0.70775986
219	0x3e193767	0.1496254
220	0x3e5f8e4c	0.21831626
221	0xbf14a369	-0.58061844
222	0xbe4357d7	-0.19076477
223	0x3d0045df	0.031316634
224	0xbf151871	-0.5824042
225	0x3f04c431	0.51861864
226	0xbf4628dc	-0.77406096
227	0x3ea0ffea	0.31445247
228	0xbee7fc21	-0.45309547
229	0xbd3e8554	-0.04651387
230	0xbedb4106	-0.42823046
231	0xbf261f46	-0.6489147
232	0xbe8e04e9	-0.2773812
233	0xbeefe488	-0.46854043
234	0x3ea65212	0.3248449
235	0xbf7dbdb7	-0.99117607
236	0xbdd3cad6	-0.10341422
237	0x3ebc52ff	0.3678207
238	0xbf2e2762	-0.68028843
239	0x3f0e369d	0.55552083
240	0xbed5ceda	-0.41759378
241	0xbf86068c	-1.0470748
242	0xbf204e19	-0.6261917
243	0xbdd1bce9	-0.1024111
244	0xbefc84c1	-0.49320033
245	0xbef8e65e	-0.48613256
246	0xbf32517d	-0.6965559
247	0x3c907ed6	0.017638605
248	0xbef72be4	-0.48275673
249	0xbf136081	-0.5756913
250	0xbead797e	-0.33881754
251	0x3e4047fd	0.18777461
252	0xbf24685f	-0.6422176
253	0xbeeccffb	-0.46252427
254	0xbf131bfa	-0.57464564
255	0xbf0c4d81	-0.5480576

fc2.weight f4 [256, 256]
0	0xbe2a01c9	-0.16602243
1	0xbe3ca2ad	-0.18421431
2	0xbe0b04e3	-0.13576083
3	0xbdc2f509	-0.09519393
4	0xbe373a17	-0.17893253
5	0x3e5b21ec	0.21399659
6	0xbde78ae5	-0.11305789
7	0xbe58618c	-0.21130961
8	0xbc382a48	-0.011240549
9	0xbe478e8b	-0.1948797
10	0xbe338977	-0.17532907
11	0x3d2145a5	0.03937306
12	0xbd97732a	-0.07395013
13	0xbe15c5b1	-0.14626195
14	0x3fa39245	1.2779013
15	0xbe58ec82	-0.2118397
16	0x3fabba10	1.3416157
17	0x3b6feebf	0.003661081
18	0xbdec0001	-0.11523438
19	0x3e8449f7	0.2583768
20	0x3fb56647	1.4171838
21	0x3cc980b9	0.024597513
22	0xbdf30974	-0.118670374
23	0xbe7e8ecd	-0.24859162
24	0x3de801f1	0.11328495
25	0xbde4a7d4	-0.11164823
26	0xbe57dd7b	-0.21080582
27	0x3ebffd2d	0.37497845
28	0xbdd592df	-0.10428404
29	0xbda14dfb	-0.07876202
30	0xbe483239	-0.19550408
31	0xbe1619a9	-0.14658226
32	0x3c0a46d0	0.008439735
33	0xbdb58c71	-0.08864678
34	0xbdaab39e	-0.083350405
35	0x3e9d484c	0.3071922
36	0xbce44e2c	-0.027869307
37	0x3e6fb6c4	0.23409563
38	0x3ca106b6	0.01965652
39	0xbe1ab413	-0.15107755
40	0xbe0cb7a6	-0.13741931
41	0x3f83c203	1.0293583
42	0x404a127f	3.157379
43	0xbe6c9d60	-0.23106909
44	0x3f53517e	0.8254622
45	0x3ebdccd3	0.3707033
46	0xbe5d9a70	-0.21640944
47	0x3f59afbb	0.8503377
48	0xbd85e41e	-0.065376505
49	0xbdcc898b	-0.09987172
50	0x3e7d0508	0.2470895
51	0xbe34e5cf	-0.1766579
52	0xbe054790	-0.1301558
53	0xbd73a8b6	-0.059487067
54	0xbd95f47f	-0.073220246
55	0x3c315d54	0.010825474
56	0xbe10f5e7	-0.14156304
57	0xbdd84f8e	-0.10562049
58	0xbe74bc0d	-0.2389986
59	0xbe1b4a7d	-0.15165134
60	0xbe01c2e6	-0.12672004
61	0x3df222cc	0.11823043
62	0xbe285145	-0.16437252
63	0x3f16bc51	0.588811
64	0xbce90ebf	-0.028449414
65	0xbe10d80b	-0.14144914
66	0x3f83a499	1.0284606
67	0x3f051a07	0.5199284
68	0x3da35a52	0.079762116
69	0xbea1f913	-0.3163534
70	0xbda0f96c	-0.078600734
71	0xbe2d4ada	-0.16923085
72	0xbe1f7b80	-0.15574455
73	0xbd9eaba4	-0.077475816
74	0xbe22691a	-0.15860406
75	0x3ed4f02d	0.4158949
76	0x3c097595	0.00838985
77	0xbd3bbbac	-0.045833275
78	0x3f0788c3	0.52943057
79	0xbe08a443	-0.13343911
80	0xbe2f4570	-0.17116332
81	0xbd8a054d	-0.06739292
82	0xbbcd7308	-0.0062698163
83	0xbe21600c	-0.15759295
84	0xbe42c7ca	-0.19021526
85	0xbbf73fb2	-0.007545435
86	0xbe2ad247	-0.16681777
87	0xbd77a90e	-0.060463957
88	0x3e6f78da	0.23385945
89	0x3cf18ddd	0.029486591
90	0xbdecc489	-0.115609236
91	0x3f9b67ba	1.214103
92	0xbe43e336	-0.19129643
93	0xbd9c7fd5	-0.076415695
94	0x3f22c7b3	0.63585967
95	0xbe0affec	-0.13574189
96	0xbe6cb106	-0.23114404
97	0x3e91b0e7	0.28455278
98	0xbe380133	-0.17969207
99	0xbe21a8cf	-0.15787052
100	0x3fb0c31d	1.3809544
101	0xbe0c91df	-0.1372752
102	0x3d1b635f	0.037936565
103	0xbdc8e74e	-0.09809743
104	0x3e3da575	0.18520148
105	0x3fb4db46	1.4129417
106	0xbe13372f	-0.1437652
107	0xbdf6c169	-0.12048609
108	0xbd254148	-0.04034546
109	0xbe417b1c	-0.18894619
110	0xbe5d7477	-0.21626459
111	0x4031397d	2.7691338
112	0xbd9793d0	-0.0740124
113	0xbe146177	-0.14490305
114	0xbdf94cca	-0.121728495
115	0x3f857b52	1.0428259
116	0xbc2c2e06	-0.01050902
117	0xbe471766	-0.1944252
118	0x3f18c2db	0.59672326
119	0xbe2677f1	-0.16256692
120	0xbe45bc0e	-0.19310018
121	0x3d9f2b16	0.0777189
122	0xbde796e4	-0.11308077
123	0xbd46861f	-0.04846775
124	0xbe1d637a	-0.15369979
125	0x3e1b4047	0.15161239
126	0xbdd7f422	-0.105446115
127	0xbe485f42	-0.19567588
128	0xbe87aa9d	-0.26497355
129	0xbda0395b	-0.0782344
130	0x3f666462	0.8999692
131	0xbdfa2e4d	-0.122158624
132	0xbdde8bbf	-0.10866498
133	0x3e9d4ac5	0.30721107
134	0xbde4c348	-0.111700594
135	0xbe415da3	-0.18883376
136	0xbe26fae5	-0.16306646
137	0xbd74db84	-0.05977966
138	0xbdc7ea4d	-0.09761486
139	0x3f4489f2	0.7677299
140	0xbe4f42d5	-0.20240338
141	0xbdd4e06b	-0.10394367
142	0xbdfc9bd0	-0.123344064
143	0xbdbd2aa8	-0.09236652
144	0xbdcd3207	-0.100193076
145	0xbdcd965d	-0.10038445
146	0xbdf741ed	-0.12073121
147	0x3e5c41f4	0.21509534
148	0xbe4cb9d7	-0.19992767
149	0x3ed97fcf	0.42480323
150	0x3e8d9ada	0.27657205
151	0xbe66d963	-0.22543864
152	0xbe038dde	-0.12847087
153	0xbc4bc446	-0.012436932
154	0xbe338b42	-0.17533591
155	0xbe590eba	-0.21197024
156	0xbd6941ee	-0.05694764
157	0xbda6d084	-0.0814524
158	0xbe12128d	-0.14264889
159	0x3cec9f7e	0.028884646
160	0x3e5f0568	0.21779406
161	0xbc4391e7	-0.011936641
162	0x3dbde702	0.09272577
163	0xbdef1c0e	-0.11675273
164	0xbdfaecac	-0.12252173
165	0xbe34c51f	-0.1765332
166	0x3eb238ca	0.34808952
167	0x3fb96b9e	1.4485967
168	0xbe202343	-0.15638451
169	0xbd7e00d3	-0.062012505
170	0xbe3ccce1	-0.1843753
171	0xbe2dd4ab	-0.16975658
172	0xbe0ad4f2	-0.13557795
173	0xbe4c5209	-0.19953169
174	0xbe5c8096	-0.21533427
175	0xbe1c7164	-0.1527763
176	0xbdcaee4d	-0.099087335
177	0xbe4a5991	-0.1976073
178	0x3f5a03ef	0.8516225
179	0xbd16176b	-0.036643427
180	0xbdde5983	-0.10856917
181	0xbd803f55	-0.062620796
182	0xbe076199	-0.13220824
183	0xbe400387	-0.18751346
184	0xbd20fa94	-0.03930147
185	0xbe3d3a88	-0.18479359
186	0xbe17805e	-0.14795062
187	0xbd98f75f	-0.07469057
188	0xbe2d27e9	-0.16909756
189	0x3f84465a	1.033397
190	0xbe135335	-0.1438721
191	0x3e8c26bf	0.2737331
192	0xbe377674	-0.1791628
193	0x3feb3187	1.837449
194	0xbdec43a1	-0.11536337
195	0x3d71a6c2	0.058996923
196	0x3f19a534	0.60017705
197	0xb9bc54b8	-0.00035921275
198	0xbe24fcac	-0.16112012
199	0xbd6c1d73	-0.057645272
200	0xbdc83afb	-0.09776875
201	0xbde3957d	-0.11112497
202	0xbe22009d	-0.15820546
203	0x3f71e7c1	0.94494253
204	0xbe22b4d2	-0.1588929
205	0xbe334dd5	-0.1751016
206	0xbe0a55e2	-0.13509324
207	0x3edca8af	0.43097445
208	0xbe4b92d8	-0.19880235
209	0xbddf965a	-0.10917349
210	0xbda5ee47	-0.081020884
211	0xbda5f8a8	-0.08104068
212	0x3d06877d	0.032844055
213	0x40104b6d	2.2546036
214	0xbe38a2e0	-0.18030882
215	0xbe1a65a7	-0.1507784
216	0x3fddd17b	1.7329553
217	0x3e025c59	0.1273054
218	0x3ecbb327	0.3978512
219	0x3dcdef0c	0.1005536
220	0xbd4b53b5	-0.049640376
221	0xbe04caf9	-0.12968053
222	0x3ca4537d	0.020059342
223	0xbe4c6028	-0.19958556
224	0xbdaf8fb6	-0.085723326
225	0x3ea9d8b9	0.3317316
226	0xbe584c2d	-0.21122809
227	0xbd980131	-0.07422102
228	0xbccc430c	-0.024934314
229	0xbe445d45	-0.19176205
230	0xbddde84f	-0.10835325
231	0xbd88139d	-0.06644366
232	0x3d053445	0.03252055
233	0xbdeaeea7	-0.114713006
234	0x3eef3be1	0.4672537
235	0xbe489e37	-0.19591604
236	0xbd0d38c7	-0.034477975
237	0x3e0381fb	0.12842552
238	0xbe2c103d	-0.1680307
239	0x3fab9e2d	1.3407646
240	0x3f3482c2	0.7051202
241	0xbdade257	-0.084904365
242	0xbdcf90a6	-0.101350114
243	0x3dbdb1e0	0.092624426
244	0xbe4c0942	-0.19925407
245	0x40708de1	3.7586596
246	0xbe0dff1d	-0.13866849
247	0xbe027f3d	-0.1274385
248	0x3daa8b45	0.08327345
249	0x3b8c6f64	0.0042857397
250	0xbdefcc90	-0.11708939
251	0xbdf45c54	-0.11931673
252	0xbe10e16c	-0.14148492
253	0xbd81b9e8	-0.06334287
254	0xbd218eb5	-0.039442737
255	0xbe52ec9e	-0.20598075

fc2.bias f4 [256]
0	0xbdb2c76f	-0.08729445
1	0xbde8bc70	-0.113640666
2	0x3e88ab37	0.26693127
3	0x3e70ce0c	0.235161
4	0xbdac3eca	-0.084104136
5	0x3bd786b4	0.006577337
6	0xbe6137b0	-0.219939
7	0x3c8f439c	0.017488293
8	0xbd127912	-0.035759993
9	0xbcf2e948	-0.029652253
10	0xbd2c405b	-0.04205356
11	0x3cd881f5	0.026429156
12	0x3f21a0c1	0.63135916
13	0x3ece445b	0.40286526
14	0x3bfac69f	0.007653072
15	0x3f0874cc	0.5330322
16	0x3e24f706	0.16109857
17	0xbc73885b	-0.014864053
18	0x3ebfe118	0.3747642
19	0x3dd69500	0.10477638
20	0xbd42ec7e	-0.047588818
21	0x3f093da5	0.5360969
22	0xbe25bba4	-0.1618486
23	0xbcd405b8	-0.025881633
24	0xbd35c27e	-0.044374935
25	0xbcac7f9f	-0.021056948
26	0xbcf5d57f	-0.03000903
27	0x3d315f33	0.04330368
28	0xbd3d9adc	-0.046290264
29	0x3cdc6fad	0.02690872
30	0x3dd681ed	0.10474
31	0xbde7c23e	-0.11316346
32	0x3ea07d28	0.31345487
33	0xbce1c698	-0.027560517
34	0xbd8a8e09	-0.06765372
35	0xbd005e42	-0.03133989
36	0xbbb1abc7	-0.005422089
37	0x3d70dcc6	0.058804296
38	0xbd93cd7a	-0.07216926
39	0x3d2879b2	0.041131683
40	0xbca41a41	-0.02003205
41	0x3e6f4742	0.23367026
42	0xbdcaf8ef	-0.099107616
43	0xbd3b904c	-0.04579191
44	0xbdf38fd7	-0.1189267
45	0x3e4c4550	0.19948316
46	0x3e4e595e	0.20151278
47	0xbd900286	-0.07031731
48	0xbd94e804	-0.07270816
49	0xbd5ff51e	-0.05467712
50	0x3f1c29d5	0.6100133
51	0x3e85eb43	0.26156053
52	0x3b919865	0.0044432157
53	0x3c125027	0.008930243
54	0x3cfe24e8	0.031023458
55	0x3c496e46	0.012294358
56	0x3cfac7f4	0.030612923
57	0xbdea3e8c	-0.11437711
58	0x3d81eb63	0.063437246
59	0x3ef99d64	0.48752892
60	0x3cc24f9d	0.023719603
61	0x3c5263a8	0.012841143
62	0xba123813	-0.0005577814
63	0x3f1927b8	0.5982623
64	0x3d465d19	0.04842863
65	0xbd9d5ec8	-0.07684094
66	0x3d08b440	0.033375025
67	0x3dbef6ae	0.09324394
68	0xbd68a088	-0.05679372
69	0xbce2d2bb	-0.027688375
70	0x3b2787f4	0.0025563212
71	0x3f114234	0.5674164
72	0x3ee85c00	0.4538269
73	0x3d038d33	0.03211708
74	0xbd47461b	-0.048650842
75	0xbdc0b05b	-0.09408637
76	0xbd4b11d6	-0.049577557
77	0xbca37811	-0.019954713
78	0x3cea9e72	0.028640006
79	0x3f15e6f1	0.58555514
80	0xbd8fa3cd	-0.070136644
81	0xbd656b3e	-0.056010477
82	0x3d424c77	0.047436204
83	0xbd909f34	-0.070616156
84	0x3b9f7bfb	0.0048670745
85	0x3f0a902d	0.54126245
86	0xbd8dc91b	-0.069231234
87	0xbd69644c	-0.056980416
88	0xbc80aab6	-0.015706401
89	0x3c38a19f	0.011269002
90	0x3c3ac199	0.011398696
91	0x3d7c2253	0.06155617
92	0x3d92b958	0.07164258
93	0x3ccf9d6a	0.025343616
94	0x3ed7eb8d	0.42171898
95	0xbd12c21c	-0.03582965
96	0x3e9c8911	0.30573323
97	0xbb25a4df	-0.0025275273
98	0x3d4ee5f5	0.050512273
99	0x3dabbf4a	0.08386095
100	0x3e5c59d5	0.21518643
101	0x3ef0fcc2	0.4706784
102	0x3ce9502d	0.028480614
103	0xbd361b11	-0.044459406
104	0xbd196465	-0.03744926
105	0xbd87ea8b	-0.066365324
106	0x3f1f06d1	0.62119776
107	0xbdcebfb7	-0.100951605
108	0xbda44d15	-0.08022515
109	0x3f183ad6	0.59464777
110	0x3cb4ee23	0.022086209
111	0xbc65f171	-0.014034615
112	0x3ec775c9	0.3895705
113	0xbd1e44a1	-0.03863967
114	0x3f02f78e	0.5115899
115	0x3cc9eab6	0.024648052
116	0x39188f2d	0.00014549187
117	0xbd9c61e0	-0.07635856
118	0x3ec89c18	0.3918159
119	0x3d019246	0.031633638
120	0x3c976c46	0.018484246
121	0x3f0b49c7	0.5440945
122	0xbd34d2a9	-0.044146214
123	0xbc98c1ec	-0.018647157
124	0x3e5b8294	0.2143653
125	0x3f0ba3a3	0.54546565
126	0xbd844055	-0.06457583
127	0xbd75d538	-0.060017794
128	0x3f021d3b	0.5082585
129	0xbdaed55f	-0.08536791
130	0xbe82cb7c	-0.2554587
131	0x3e2d073d	0.16897292
132	0xbd145569	-0.036214266
133	0x3eb2c99c	0.3491944
134	0x3ce9c8fd	0.028538221
135	0xbca7d6da	-0.020488191
136	0x3e10ff68	0.1415993
137	0x3ecd6641	0.40117076
138	0x3f0a69ff	0.5406799
139	0xbd4a2991	-0.049356047
140	0x3d02d6d9	0.031943176
141	0x3def000b	0.1166993
142	0x3d7d692c	0.061867878
143	0x3daa34be	0.08310841
144	0xbd6af2de	-0.057360522
145	0xbd40f56c	-0.047109053
146	0xbc7e5f84	-0.015525702
147	0x3f09b9bc	0.53799033
148	0xbc33b8bd	-0.010969338
149	0x3ecc0948	0.3985083
150	0x3bede163	0.007259534
151	0x3c96683c	0.01836025
152	0xbce685ae	-0.028139915
153	0xbdf0c373	-0.11756029
154	0x3ea8d0a2	0.32971674
155	0x3d444904	0.047921196
156	0x3d52194f	0.051293667
157	0xbd77ef20	-0.06053078
158	0x3c1eb020	0.009685546
159	0x3cb7ff0d	0.022460485
160	0x3ec5e855	0.38653818
161	0x3d0190dd	0.031632293
162	0x3ccdb092	0.02510861
163	0x3e331f98	0.17492521
164	0xbd57aa8f	-0.05265289
165	0x3e4c7a79	0.19968595
166	0xbd154a2b	-0.036447685
167	0xbf0855d5	-0.5325597
168	0xbcc5af70	-0.024131507
169	0x3d336453	0.04379685
170	0x3a0ad5ac	0.0005296122
171	0x3d0187d2	0.03162367
172	0xbe1ae1ea	-0.15125242
173	0xbd640d4f	-0.055676755
174	0xbd8ae73c	-0.06782386
175	0xbd767f65	-0.060180087
176	0xbc3c31c3	-0.0114864735
177	0x3f1e9097	0.61939377
178	0x3eff0088	0.49805093
179	0x3c27a7b0	0.010232851
180	0xbce69cec	-0.028150998
181	0x3e34cf83	0.17657284
182	0xbd891cec	-0.066949695
183	0xbcce631c	-0.025193743
184	0x3cc1a749	0.023639338
185	0x3c808ffa	0.015693653
186	0x3d1eb6ca	0.03874854
187	0xbd805995	-0.062670864
188	0x3f0408e0	0.5157604
189	0x3f083819	0.532106
190	0x3ef58eb0	0.47960424
191	0x3f0ea524	0.55720735
192	0x3bd75340	0.0065712035
193	0xbc7583f2	-0.0149850715
194	0x3f002890	0.50061893
195	0xbd9b153e	-0.07572411
196	0xb8d79156	-0.0001027907
197	0xbd98d910	-0.074632764
198	0x3ce578f7	0.028011782
199	0x3eaf644c	0.34256208
200	0x3d326739	0.043555472
201	0x3d33b5e8	0.04387465
202	0x3ec3f884	0.3827554
203	0xbd80befb	-0.06286427
204	0xbdba7963	-0.09105184
205	0x3ea2d17d	0.31800452
206	0xbd15318a	-0.036424197
207	0x3caa85fb	0.02081584
208	0xbb337214	-0.0027381228
209	0x3c521f77	0.012824885
210	0x3e379bca	0.17930523
211	0x3c729aa9	0.014807382
212	0xbd935c48	-0.071953356
213	0x3d773244	0.06035067
214	0xbd423419	-0.047412965
215	0xbda7e47a	-0.08197875
216	0xbd9829d3	-0.07429852
217	0xbd04e281	-0.032442573
218	0x3c2f8e07	0.010715014
219	0x3af7d8b0	0.0018909182
220	0xbc9eeda0	-0.019400418
221	0x3f0b323c	0.54373527
222	0x3d51e9e9	0.051248465
223	0xbc3726dc	-0.011178698
224	0xbd33a099	-0.04385433
225	0x3e5ffdc6	0.2187415
226	0xbd079372	-0.0330996
227	0x3cfd2dfd	0.030905718
228	0x3c4a9761	0.012365193
229	0xbe34df16	-0.17663226
230	0xbd76234f	-0.060092267
231	0xbd7141a6	-0.058900498
232	0x3ef555f9	0.47917154
233	0xbc49dc04	-0.012320522
234	0x3d8010ba	0.0625319
235	0x3e82580b	0.25457796
236	0xbccc0a45	-0.02490724
237	0xbdb6107e	-0.088898644
238	0x3d4c122e	0.049822025
239	0x3eb37e32	0.35057217
240	0x3f02f4c4	0.5115473
241	0x3dadf63f	0.08494233
242	0xbac05192	-0.0014672747
243	0xbce4196a	-0.02784415
244	0x3ee18613	0.44047603
245	0xbde4fb94	-0.11180797
246	0x3d41314e	0.04716616
247	0x3f160e08	0.5861516
248	0x3ef03e32	0.4692245
249	0x3f1ca216	0.61184824
250	0x3cffe015	0.03123478
251	0xba57625f	-0.00082162576
252	0xbd93667f	-0.07197284
253	0xbd61c309	-0.05511764
254	0x3dae3578	0.08506292
255	0x3eedcad7	0.46443817

fc3.weight f4 [1, 256]
0	0xbd7536b6	-0.05986663
1	0x3d74f7ee	0.059806757
2	0xbfbb6b52	-1.4642127
3	0xbfd87d0b	-1.691316
4	0x3aaedd4b	0.0013341097
5	0x3a7da4df	0.0009675752
6	0xbd24278b	-0.040076774
7	0x3d294261	0.04132307
8	0x3c8a0bd6	0.016851347
9	0x3eee3abc	0.46529186
10	0x3b0a9dd2	0.0021151197
11	0x3a244ce8	0.00062675634
12	0xbee0deb4	-0.4391991
13	0xbf91a623	-1.1378826
14	0x37a583d7	1.9730925e-05
15	0xbeb37474	-0.35049784
16	0xbe5e7e0f	-0.21727775
17	0x3c839570	0.016062468
18	0xbeee625d	-0.4655942
19	0xbe7c10fc	-0.24615854
20	0xbd51dcdc	-0.05123602
21	0xbe7bb38d	-0.24580212
22	0x3d590a0e	0.052988105
23	0xbd451b6a	-0.048121847
24	0xbd8a9abb	-0.06767794
25	0x3c7cb1b0	0.015423223
26	0xbb47d1f3	-0.003049013
27	0x3cdb0cc0	0.026739478
28	0x3bb628e4	0.0055590738
29	0xbb206b3e	-0.0024477984
30	0x3eb38527	0.35062525
31	0x3d580c3b	0.05274604
32	0xbe0fd777	-0.14047037
33	0x3d462227	0.048372414
34	0x3bb53018	0.005529415
35	0xbd2b4cff	-0.041821476
36	0xbc8f3abe	-0.017484065
37	0xbd1ea421	-0.038730744
38	0x3df27c23	0.118400835
39	0xb9ab96b1	-0.00032727935
40	0x3c18e680	0.009332299
41	0xbf869144	-1.0513082
42	0xbd273818	-0.04082498
43	0x3cf9b7c6	0.030483138
44	0xbbdaf599	-0.0066821096
45	0xbfce2363	-1.6104549
46	0xbe14cafd	-0.14530559
47	0x3c019c78	0.00791084
48	0x3cc5dd80	0.024153471
49	0xbd1bc7c2	-0.0380323
50	0xbe930fde	-0.28723043
51	0x3f0eb394	0.55742764
52	0xbebc969d	-0.3683366
53	0xbc027aa7	-0.007963813
54	0x3a1a1e6a	0.0005879166
55	0x3ce59df1	0.028029414
56	0xbca89335	-0.020578006
57	0xbd3129f4	-0.0432529
58	0x4018c151	2.386799
59	0xbec57e4b	-0.38572916
60	0xbbf0e489	-0.0073514623
61	0x3c331ca1	0.010932119
62	0x3c048925	0.008089338
63	0xbee1a6f7	-0.44072697
64	0x3d0cb0d1	0.034348313
65	0x3f8101f2	1.0078719
66	0xbc5d9734	-0.013524819
67	0xbe07f169	-0.13275684
68	0x3d3250d8	0.04353413
69	0xbc9dc3b3	-0.019258356
70	0xbd2f04da	-0.042729236
71	0xbeb87b57	-0.360316
72	0xbe922767	-0.28545687
73	0xbcd3f5bc	-0.025874011
74	0xbd3d535e	-0.046222083
75	0xbca4fd03	-0.020140177
76	0x3c59ad21	0.013285906
77	0x3c057999	0.008146667
78	0x3d2b6562	0.041844733
79	0xbea2047f	-0.31644055
80	0xbd62d1e9	-0.055375967
81	0x3d20da16	0.039270483
82	0xbba51f9e	-0.0050391695
83	0x3d4c84c2	0.049931295
84	0xbc69cb2d	-0.014269632
85	0xbe9b6f25	-0.30358234
86	0x3c4fb7e4	0.01267812
87	0x3ce1f1f4	0.027581193
88	0x3cfddcfa	0.030989159
89	0x3caad071	0.020851346
90	0x3a90b0aa	0.0011038978
91	0xbc4cf1fe	-0.012508867
92	0xbe1c1fae	-0.1524646
93	0x3ca4935c	0.020089798
94	0xbe6402aa	-0.22266641
95	0x3a21a022	0.0006165524
96	0xbe46c37e	-0.19410512
97	0x3b86468b	0.004097765
98	0xbd99058c	-0.07471761
99	0xbec5ed18	-0.3865745
100	0xbf88d563	-1.069012
101	0xbe358b65	-0.17728956
102	0xbc2cbb63	-0.010542723
103	0x3ac9a8fc	0.0015385444
104	0x3c11de55	0.008903106
105	0xbce6bc38	-0.028165922
106	0xbed9b4ac	-0.42520654
107	0x3d396865	0.045265574
108	0x3d28ae35	0.04118176
109	0xbecfa506	-0.4055559
110	0x3c5904b6	0.013245752
111	0x3c46ad76	0.012126317
112	0xbe25c6ba	-0.1618909
113	0xbc910fab	-0.017707666
114	0xbeced6ea	-0.4039834
115	0xbc4f3923	-0.0126479
116	0x394c6e60	0.00019496074
117	0x3c9b9474	0.018991686
118	0xbeefb582	-0.46818167
119	0x3d3a3d7f	0.045468803
120	0x3d39dfc3	0.04537941
121	0xbe79c680	-0.24392128
122	0x3d1a5229	0.03767601
123	0x3c9870a9	0.018608408
124	0xbfed46ae	-1.8537195
125	0xbe759074	-0.23980886
126	0xbd6ec4ef	-0.05829328
127	0x3b1eb473	0.0024216443
128	0xbe9dc549	-0.3081458
129	0xbcfdb670	-0.030970782
130	0x3b53745d	0.0032265403
131	0x3efc05a7	0.49223062
132	0x39479649	0.00019034104
133	0xbfabbb13	-1.3416466
134	0x39d95749	0.00041454498
135	0x3c836141	0.016037585
136	0xbea839c8	-0.32856584
137	0xbeda6c22	-0.42660624
138	0xbe97ba62	-0.29634386
139	0x3b30e6fd	0.0026993148
140	0x3d1810bd	0.037125338
141	0xbe8b7c78	-0.272434
142	0xbec83857	-0.39105484
143	0xbbca1f2f	-0.006168268
144	0x3d21e621	0.03952611
145	0x3d2ee533	0.04269905
146	0xb8c6c103	-9.477327e-05
147	0xbe792c8d	-0.24333401
148	0xbc59b37e	-0.013287423
149	0xbe4194fb	-0.18904488
150	0x3d368f7b	0.044570427
151	0xbace7dea	-0.0015754078
152	0x3a94c813	0.0011351131
153	0x3ca31a18	0.019909903
154	0xbe87e281	-0.26539996
155	0x397505fa	0.00023367247
156	0x3ce9480f	0.028476743
157	0x3abb5ceb	0.001429466
158	0xba230c7b	-0.0006219816
159	0xba262c50	-0.00063390005
160	0xbf8643e2	-1.0489466
161	0xbeccdaf0	-0.40010786
162	0x3c5df5cd	0.013547373
163	0x3f0c7e19	0.5487991
164	0xbc6e68ca	-0.014551351
165	0xbfb46590	-1.4093494
166	0x3ce9a363	0.028520292
167	0xbe9e13c3	-0.30874452
168	0xbc6d4dd2	-0.014483886
169	0xbca6ba8e	-0.020352628
170	0x3d18853e	0.037236445
171	0xbd8ca2c2	-0.06866981
172	0x3d42bc07	0.047542598
173	0x3c850d61	0.016241731
174	0x3cadf6f9	0.02123593
175	0xbcd9edd0	-0.026602656
176	0x3d54210f	0.05178934
177	0xbed76f37	-0.42077038
178	0xbeeaff5b	-0.45897946
179	0x3cd2598e	0.025677469
180	0xbb50939f	-0.003182627
181	0xbf546127	-0.8296074
182	0x3bb30e82	0.005464376
183	0xba8e8ce6	-0.0010875731
184	0xbebc120d	-0.36732522
185	0xbaf1f993	-0.001846122
186	0x3b6f9865	0.003655934
187	0x3a337b0f	0.0006846645
188	0xbebd2b69	-0.36947182
189	0xbededf66	-0.43529814
190	0xbe979225	-0.29603687
191	0xbea53734	-0.3226868
192	0xbc97b9a8	-0.018521145
193	0x3cd93cff	0.026518343
194	0xbeabd6af	-0.33562228
195	0x3d4afb88	0.049556285
196	0x3d00ba37	0.03142759
197	0x3b157cd7	0.0022810006
198	0x3c70afff	0.014690398
199	0xbe9b58e5	-0.3034126
200	0x3cf1e545	0.02952827
201	0x3ca15fe1	0.019699039
202	0xbf028c97	-0.50995773
203	0x3cf74905	0.030186186
204	0x3d340b9b	0.04395638
205	0xbdcb1ed8	-0.09917992
206	0xbb0724eb	-0.002062137
207	0x3d0835a5	0.033254284
208	0x3cb4be96	0.022063535
209	0x3cd89525	0.026438305
210	0xbeabb135	-0.33533636
211	0xbd04972f	-0.032370742
212	0xbbbebe88	-0.005821053
213	0xbeb5f16e	-0.3553576
214	0xbc63e8ac	-0.013910454
215	0x3d42704a	0.04747037
216	0x3c74671b	0.01491716
217	0x3cae3e69	0.021269994
218	0x3d1020c7	0.03518751
219	0xbdd8994a	-0.105761126
220	0x3c2b4df0	0.0104555935
221	0xbe923cf0	-0.28562117
222	0xbd5e3608	-0.054250747
223	0xbc4fd1fb	-0.012684341
224	0x3d203e59	0.03912196
225	0xbec1ee7e	-0.37877268
226	0xbd06c2d8	-0.03290066
227	0xbcbeb90c	-0.023281597
228	0xbd732028	-0.05935684
229	0x3d8abe8b	0.067746244
230	0x3cc280d1	0.023743065
231	0x3d25ca40	0.040476084
232	0xbe2e1449	-0.16999926
233	0x3c0443b1	0.0080727795
234	0x3b448834	0.002998841
235	0x3ef78909	0.48346737
236	0xbccb3cb3	-0.024809217
237	0x3d1803ae	0.037112884
238	0x3cf53bd8	0.029935762
239	0xbdb24972	-0.08705415
240	0xbebacc71	-0.364841
241	0xbed60b48	-0.41805482
242	0xbdb445c7	-0.088023715
243	0xbb0c0d99	-0.002137041
244	0xbe32cbe2	-0.17460588
245	0x384c224a	4.8669324e-05
246	0xbc15ea10	-0.009150043
247	0xbe80aee6	-0.25133437
248	0xbe57b042	-0.21063331
249	0xbeab8acd	-0.33504334
250	0x3bf49f6e	0.0074652946
251	0x3cd18c4e	0.025579598
252	0x3c0253fb	0.007954593
253	0xbad7bf13	-0.0016460143
254	0xbe1d7009	-0.1537477
255	0xbe1d864a	-0.15383258
