algos/TD3_BC/notebooks/model/critic_2.pth (torch, 290647 bytes, 5 tensors)

fc1.weight f4 [256, 23]
0	0x3ea348db	0.31891522
1	0xbe1681fa	-0.1469802
2	0x3f264d92	0.6496211
3	0x3f1f6bf6	0.6227411
4	0x3e65cc91	0.22441317
5	0xbf8efb6a	-1.1170475
6	0x3daec2f3	0.08533277
7	0xbf669c8e	-0.90082633
8	0xbf03820c	-0.5137031
9	0x3f96b9d5	1.1775461
10	0xbd62657d	-0.055272568
11	0x3eced0a1	0.40393546
12	0x3e813427	0.25235102
13	0x3ea10be1	0.31454375
14	0x3e07a2a7	0.1324564
15	0xbf8019cc	-1.0007873
16	0xbf3a9233	-0.7287933
17	0x3e56a564	0.20961529
18	0x3e956397	0.29177544
19	0x3eeb2ef8	0.45934272
20	0x3e689563	0.22713237
21	0xbe8895a3	-0.26676664
22	0x3e315b28	0.1731993
23	0x3d785207	0.060625102
24	0x3f2cbc8d	0.67475206
25	0x3f5fe938	0.8746524
26	0x3e61e929	0.220616
27	0x3dcd15dd	0.10013936
28	0xbc106352	-0.008812742
29	0xbd7cb362	-0.06169451
30	0xbe5d3845	-0.21603496
31	0xbd29ad5c	-0.041425094
32	0x3e1df17f	0.15424155
33	0x3d1c8319	0.038210962
34	0xbd5f82aa	-0.05456797
35	0x3e8fa97f	0.28059003
36	0x3e04af2c	0.12957448
37	0x3d874d1f	0.066065066
38	0x3d326dbe	0.04356169
39	0x3da42dd0	0.080165505
40	0xbeecd698	-0.46257472
41	0xbdc960ab	-0.09832891
42	0xbcc5a1c4	-0.024124987
43	0xbf0bb9d2	-0.54580414
44	0x3d114097	0.03546199
45	0xbd674cd2	-0.056469746
46	0xbf80c667	-1.0060548
47	0xbf497206	-0.7868961
48	0x3f173f2e	0.5908078
49	0xbe463ba8	-0.19358695
50	0x3f2aa715	0.66661197
51	0xbf4c9e0f	-0.7992868
52	0x3e069581	0.13142969
53	0x3f31ee74	0.69504476
54	0x3c6b00a0	0.014343411
55	0xbf0765b1	-0.52889544
56	0xbf9951fb	-1.1978143
57	0xbf00fe8e	-0.5038842
58	0xbec099b2	-0.3761726
59	0x3e1e7e5e	0.15477893
60	0xbf23ecd0	-0.6403322
61	0x3e85bfda	0.26122934
62	0x3e545c6a	0.20738378
63	0xbead39d0	-0.3383317
64	0xbf107785	-0.5643237
65	0xbfac7373	-1.3472732
66	0x3f773cdf	0.96577257
67	0xbeffae00	-0.4993744
68	0xbec14c84	-0.3775369
69	0xbf67f76d	-0.90611917
70	0xbde2ed64	-0.11080435
71	0xbecd0364	-0.4004165
72	0xbfa6baaf	-1.3025721
73	0xbd3f8fd7	-0.046768036
74	0xbf2a1740	-0.66441727
75	0xbfb7f6a5	-1.4372145
76	0x3e8d0b6f	0.27547786
77	0xbd9a057f	-0.075205795
78	0x3f4f0102	0.8086091
79	0xbd9b9e5d	-0.07598565
80	0xbd8f528c	-0.069981664
81	0xbe0eac1e	-0.13932845
82	0x3e39a6df	0.18130063
83	0xbfd757b1	-1.6823636
84	0xbf5886a9	-0.84580475
85	0xbf056495	-0.521066
86	0x3edb14ac	0.4278921
87	0xbe7c0f20	-0.24615145
88	0x3f4c77a4	0.7987006
89	0xbf131266	-0.5744995
90	0xbee81160	-0.45325756
91	0xbe894e9a	-0.2681778
92	0x3eeede66	0.46654052
93	0xbcea761f	-0.028620778
94	0x3c6a9e51	0.014319972
95	0x3e0525ad	0.13002653
96	0x3ec23989	0.3793452
97	0xbe086645	-0.13320263
98	0x3cda6347	0.026658667
99	0xbe90da25	-0.2829143
100	0x3f0671a0	0.5251713
101	0x3e5ba4e7	0.21449624
102	0xbea44c4d	-0.32089463
103	0xbefbc8e0	-0.49176693
104	0x3f04564a	0.51694167
105	0xbe53b73a	-0.20675364
106	0xbeb3aa49	-0.35090855
107	0x3d5cb4a0	0.053883195
108	0xbdf069d9	-0.11738939
109	0x3ec81e18	0.3908546
110	0xbd809f39	-0.06280369
111	0xbea18342	-0.31545454
112	0xbe331ae4	-0.17490727
113	0x3e01c477	0.12672602
114	0x3ee66dfa	0.4500578
115	0x3f6b0ef9	0.9181972
116	0xbf28d9ae	-0.6595715
117	0xbe55a05d	-0.20861955
118	0x3e610486	0.21974382
119	0xbe9f898a	-0.3115962
120	0x3f4ce3ba	0.80034983
121	0xbe0af8f8	-0.13571537
122	0x3d9f749b	0.077859126
123	0xbf3d053a	-0.738361
124	0x3f63e9e0	0.8902874
125	0xbe77f85a	-0.24215832
126	0xbed934fd	-0.4242324
127	0x3eafafe9	0.34313896
128	0xbedae0fc	-0.42749774
129	0x3f8138ad	1.0095421
130	0x3f0d4b85	0.5519336
131	0xbf038792	-0.5137874
132	0xbe5049d6	-0.20340666
133	0xbee454ca	-0.4459594
134	0xbe91674b	-0.2839912
135	0xbf4b4e06	-0.7941593
136	0xbdff6cfb	-0.12471958
137	0xbf022b1c	-0.5084703
138	0x3f5b7fd7	0.85741943
139	0xbcdf7477	-0.027277214
140	0xbf3e9df4	-0.7445977
141	0x3fdfec1e	1.7493932
142	0x3e0dbfa6	0.1384264
143	0xbeb3cb90	-0.35116243
144	0x3f155dde	0.58346355
145	0xbf6e1588	-0.93001604
146	0x3e969c45	0.294161
147	0x3f590cdb	0.8478524
148	0x3f825048	1.018075
149	0x3ea2077b	0.31646332
150	0x3fa93ae2	1.3221095
151	0x3efd3575	0.49454847
152	0x3e6b4b29	0.2297789
153	0xbf2d4b2b	-0.6769282
154	0x3f2554bf	0.6458244
155	0xbe66d548	-0.22542298
156	0x3ecaef00	0.39635468
157	0xbf0eccf3	-0.5578148
158	0xbe2194e8	-0.1577946
159	0xbf010c7e	-0.50409687
160	0x3f56d04f	0.83911604
161	0x3df52f1a	0.119718745
162	0xbea8fad4	-0.33003867
163	0xbfe2c5ae	-1.7716577
164	0xbefe8e48	-0.49717927
165	0xbc2bd6ab	-0.010488193
166	0xb7672ec3	-1.37795605e-05
167	0x3ec055bc	0.3756541
168	0xbef04ddd	-0.46934405
169	0x3f67b1e1	0.90505797
170	0xbe40bd60	-0.18822241
171	0x3eedf954	0.46479285
172	0x3f573733	0.840686
173	0x3c917482	0.01775575
174	0xbe8615f7	-0.26188633
175	0xbdc5b840	-0.096542835
176	0xbe9a27a4	-0.30108368
177	0xbd49ed15	-0.049298365
178	0x3d11315b	0.03544746
179	0xbec52438	-0.38504195
180	0xbf8a5355	-1.0806681
181	0xbd2c7ce0	-0.042111278
182	0x3f9d7292	1.2300589
183	0xbf1a99d4	-0.60390973
184	0x3dfc02fc	0.12305257
185	0xbf3ae5f4	-0.7300713
186	0xbed67e6c	-0.41893327
187	0x3cff27f5	0.031146983
188	0xbd9cfb15	-0.076650776
189	0x3e1196b6	0.14217648
190	0xbdc43624	-0.09580639
191	0xbeb8da4f	-0.36104056
192	0xbe3ef90f	-0.18649696
193	0x3f1e3bfd	0.61810285
194	0xbf20962b	-0.6272914
195	0x3d349297	0.04408511
196	0xbe98fb27	-0.29879114
197	0xbdc7404c	-0.097290605
198	0xbe1ba29f	-0.15198754
199	0xbee91827	-0.4552624
200	0xbd7e7a96	-0.062128626
201	0x3f0d37ae	0.55163085
202	0xbd577f9a	-0.052611925
203	0x3ea0cd4e	0.31406635
204	0x3e63eed6	0.22259077
205	0xbf15c2fd	-0.58500654
206	0xbe21d01c	-0.15802044
207	0x3ea573da	0.3231495
208	0xbf635035	-0.8879426
209	0x3d6aaab6	0.05729171
210	0xbd1e73bc	-0.03868459
211	0x3d00fd5e	0.03149163
212	0xbf02c249	-0.51077706
213	0xbf278271	-0.6543341
214	0xbe0d40d4	-0.13794261
215	0xbd831aed	-0.0640162
216	0xbe1ac891	-0.15115573
217	0x3e786a24	0.2425924
218	0x3eeda287	0.4641306
219	0x3ed99ff6	0.42504853
220	0x3d1d9929	0.038476143
221	0xbe64de22	-0.22350362
222	0xbee93d81	-0.45554736
223	0xbe018ca3	-0.12651305
224	0x3da7c2fb	0.081914864
225	0x3e4d270b	0.20034425
226	0x3e71b3fa	0.23603812
227	0xbe034b8f	-0.12821792
228	0xbd57402f	-0.052551445
229	0xbf117a88	-0.5682759
230	0x3e6d2452	0.23158386
231	0xbf5cc0ff	-0.8623199
232	0xbf080a10	-0.53140354
233	0xbf0aa43d	-0.5415686
234	0xbeda4232	-0.42628628
235	0x3f4bf409	0.79669243
236	0xbe589c50	-0.21153378
237	0x3ec0a8f9	0.37628916
238	0x3e862e15	0.26207033
239	0x3e35ce31	0.17754437
240	0x3e945424	0.28970444
241	0xbe9eb608	-0.30998254
242	0x3f01408a	0.50489104
243	0xbec6ba7a	-0.38814145
244	0xbf7fdea6	-0.9994911
245	0xbf5e9eb3	-0.86960906
246	0xbd8373ce	-0.06418572
247	0x3f3601af	0.7109632
248	0x3dd70188	0.10498339
249	0xbdd97fad	-0.10620055
250	0xbd2b7dd4	-0.041868046
251	0xbf4e9046	-0.80688894
252	0xbe65ce20	-0.22441912
253	0x3f0241ce	0.5088166
254	0x3e9b5931	0.30341485
255	0x3fe1f4d7	1.7652844

fc1.bias f4 [256]
0	0xbfb6d51b	-1.4283785
1	0x400c8134	2.195386
2	0xbe6b8889	-0.23001303
3	0xbf21304d	-0.62964326
4	0x3f8d0c75	1.1019427
5	0xbfc68a49	-1.5510951
6	0xbf76e8c0	-0.964489
7	0xbf3e150e	-0.74250877
8	0x3fe5dba2	1.7957652
9	0x3f68d96e	0.9095677
10	0x3fd62bf3	1.6732162
11	0xbf9dcde4	-1.2328458
12	0xbf4595c5	-0.77181655
13	0x3f76657e	0.96248615
14	0xbfcc4834	-1.5959535
15	0xbc13c734	-0.009019662
16	0xbd4a9076	-0.049454175
17	0x3f8934b3	1.0719208
18	0xbf65e83d	-0.8980749
19	0xbf449029	-0.7678247
20	0xbfc378f9	-1.5271293
21	0xbf3228f6	-0.6959375
22	0xbef63635	-0.48088232
23	0xbfa671d5	-1.3003489
24	0x3fd6efff	1.6791991
25	0x400ae5ec	2.1702833
26	0x3e9755b0	0.29557562
27	0x3fc4d2ff	1.5376891
28	0x3f5d9df6	0.86569154
29	0xbfc6703b	-1.5503
30	0x3fc770e0	1.5581322
31	0x3f96ca47	1.178048
32	0xbeadccfc	-0.33945453
33	0xbebebb02	-0.3725205
34	0x3fb3e280	1.4053497
35	0xbf883dae	-1.0643823
36	0xbec7d7d4	-0.3903185
37	0xbfe69be0	-1.8016319
38	0xbf3fe7e6	-0.74963224
39	0x3fcd568a	1.6042035
40	0xbe6a6446	-0.22889814
41	0xbef0869f	-0.46977708
42	0x4015add0	2.3387337
43	0xbff3a1f0	-1.9033794
44	0x3ecb9673	0.3976322
45	0x3ed13a44	0.40864766
46	0xbf45adda	-0.772184
47	0xbf47b4cb	-0.78010243
48	0xbf48a5b6	-0.78377855
49	0xbf91e09d	-1.1396672
50	0x3dac845f	0.08423685
51	0xbfa852eb	-1.3150305
52	0x3eaf6fb5	0.34264913
53	0x3f9cf2f1	1.226164
54	0xbf1c4a0a	-0.61050475
55	0x3fefc7ff	1.8732909
56	0x3ef2e60d	0.4744114
57	0xbf93dad2	-1.1551154
58	0xbf980d17	-1.1878995
59	0x3fd4fff2	1.6640608
60	0x3f00ae21	0.502657
61	0xbee07686	-0.43840426
62	0xbf378250	-0.71683216
63	0xbe97d6ab	-0.29655966
64	0xbef0be8d	-0.4702038
65	0xbf2effbc	-0.6835897
66	0xbf599d8d	-0.8500603
67	0xbfd9c36b	-1.7012762
68	0x3fc1a98f	1.512987
69	0xbd197b01	-0.03747082
70	0x3ed2ceaf	0.41173312
71	0x3fb7e28b	1.436601
72	0x3fad90ed	1.3559853
73	0xbf7e1db1	-0.99264055
74	0x3a95d517	0.0011431304
75	0xbf714b54	-0.94255567
76	0x3f724206	0.94631994
77	0x3f422fa8	0.7585397
78	0xbf03e4aa	-0.5152079
79	0xbf1e4ed2	-0.6183902
80	0x3f4c7725	0.798693
81	0xbf5e4256	-0.8681997
82	0xbf9f7a96	-1.2459285
83	0xbfbdbef4	-1.4823899
84	0x3f94a903	1.1614078
85	0x3f889f20	1.0673561
86	0x3e11486d	0.14187784
87	0x3f24960b	0.6429145
88	0xbde6efb7	-0.11276191
89	0x3f0cc753	0.54991645
90	0x3eb44cc6	0.35214823
91	0x3e9c9f3c	0.30590236
92	0x3f75c765	0.96007377
93	0x3fef1ae5	1.8680083
94	0xbfc2964d	-1.5202118
95	0x3d256232	0.04037685
96	0x3f23201a	0.6372086
97	0x3f77bc08	0.9677129
98	0xbf128f04	-0.57249475
99	0x3fad1380	1.3521576
100	0xbe36cc75	-0.17851432
101	0xbf119e61	-0.5688229
102	0x3fac4dd5	1.3461252
103	0x3e5d605e	0.21618792
104	0x3fe8c697	1.8185605
105	0x3f03d944	0.51503396
106	0xbf947036	-1.1596744
107	0x3cc760b7	0.02433811
108	0x3ff81f91	1.9384633
109	0x3ff6b5f2	1.9274275
110	0xbf3c1616	-0.734712
111	0xbf94af21	-1.1615945
112	0xbfe43e22	-1.7831461
113	0xbfbf27ac	-1.4933982
114	0x3cb484d9	0.022036003
115	0x3e4360f7	0.19079958
116	0xbe977df1	-0.29588273
117	0xbfad2494	-1.3526788
118	0xbfb936a1	-1.4469796
119	0x3e0ff69d	0.14058919
120	0x3fd16230	1.635809
121	0x3f3c0e00	0.7345886
122	0xbf5aee53	-0.85519904
123	0x3fd7f437	1.6871403
124	0xbf1e9017	-0.61938614
125	0x3f2e9b6e	0.68205917
126	0xbee7d865	-0.45282283
127	0x3fda64c9	1.7062007
128	0xbf0d250d	-0.5513466
129	0x3feebad2	1.8650763
130	0x3f8ae15d	1.0850025
131	0x3fd46906	1.6594551
132	0xbf8f7003	-1.1206058
133	0xbfbc6053	-1.4716896
134	0xbf9126fc	-1.1340022
135	0xbf9b2eb0	-1.2123623
136	0x3e253160	0.16132116
137	0x4003b362	2.0578237
138	0x3ef5982a	0.47967654
139	0xbe4530bc	-0.19256872
140	0xbf893e3d	-1.0722119
141	0xbf7f7508	-0.9978795
142	0xbfc03996	-1.5017574
143	0x3e39b8c3	0.18136887
144	0x3fbaef0d	1.4604203
145	0xbfaabe34	-1.3339295
146	0xbfe0d8a0	-1.7566109
147	0xbfb94280	-1.4473419
148	0xbebf980e	-0.37420696
149	0xc013954c	-2.3059874
150	0x3fc1c67d	1.5138699
151	0x3d43adf5	0.04777332
152	0xbf3ebacc	-0.7450378
153	0x3ffa2ca3	1.9544872
154	0x3f111b6f	0.56682485
155	0x3f9caebb	1.2240824
156	0xbfafb8a9	-1.3728229
157	0xbf860ef1	-1.047331
158	0x3fb98df7	1.4496449
159	0xbf582b9d	-0.8444155
160	0x3d6f6c2c	0.05845277
161	0xbf819c30	-1.012579
162	0x4003609f	2.0527723
163	0xbfbce56c	-1.4757514
164	0xbcd86466	-0.026415061
165	0xbfa36fd8	-1.2768507
166	0x3d13f706	0.03612425
167	0xbf903161	-1.1265069
168	0xbf6c7352	-0.92363465
169	0xbf7a4a31	-0.9776946
170	0x3fdbc744	1.7170186
171	0xbf0eca25	-0.557772
172	0x3cc4d19e	0.024025735
173	0xbf6d9857	-0.9281058
174	0xbe72200f	-0.23645042
175	0xbf8fde46	-1.1239707
176	0xbfff5537	-1.994788
177	0x3f9b441d	1.2130162
178	0x3fd15596	1.6354244
179	0x400fb172	2.2452054
180	0xbfc104da	-1.5079606
181	0x3ecfca2b	0.4058393
182	0x3e37914b	0.17926519
183	0x3fef1ff8	1.8681631
184	0x4011e71b	2.2797306
185	0x3eb17e24	0.3466655
186	0x3ffdc40f	1.9825457
187	0xbf197830	-0.59949017
188	0xbf94460d	-1.1583878
189	0x3f98bccb	1.1932615
190	0x3fb4d561	1.4127618
191	0xbf45303c	-0.77026725
192	0x3f3288a6	0.6973976
193	0x3fc7e780	1.5617523
194	0xbf30c7bb	-0.69054765
195	0x3ff1385f	1.8845328
196	0x3e8d1ccb	0.2756103
197	0xbcc86d44	-0.024466164
198	0x3fc1fbba	1.5154946
199	0x3fb7dd52	1.4364417
200	0xbd429fcb	-0.04751567
201	0x3db920d6	0.09039466
202	0x3ff12b68	1.8841372
203	0x3fa63cce	1.2987306
204	0xbfb1bbf9	-1.388549
205	0x3f10de5f	0.5658931
206	0x3f0942de	0.53617656
207	0xbb7fae9f	-0.0039013994
208	0x3fb962cb	1.4483274
209	0x3fc6d403	1.5533451
210	0x3e56407c	0.20923036
211	0xbfaaee07	-1.335389
212	0x4043b826	3.0581145
213	0xbf62cc99	-0.8859344
214	0x3ff76dd1	1.9330388
215	0x3fe9afe8	1.8256807
216	0xbfb1cb0f	-1.3890094
217	0x3e1edc6d	0.15513773
218	0xbfb850ea	-1.4399693
219	0xbf3fbe84	-0.7490008
220	0x3f9ea5eb	1.2394384
221	0x3fe8eaaf	1.819662
222	0xbdbbf065	-0.09176711
223	0xbe5cc1dd	-0.21558328
224	0xbf252cdb	-0.6452157
225	0xbe888da1	-0.26670554
226	0xbf8c2f20	-1.0951881
227	0x40382c74	2.8777132
228	0x40126259	2.2872527
229	0x400f91dc	2.2432775
230	0xbd898d6b	-0.067164265
231	0xc0008b65	-2.008508
232	0x3fdee418	1.7413359
233	0x3f8c5f96	1.096667
234	0x3fbb9169	1.4653751
235	0xbf222f24	-0.6335318
236	0xbec371ef	-0.38172862
237	0xbfd3bd42	-1.6542132
238	0x3fa53161	1.2905694
239	0xbf6f76c1	-0.9354058
240	0x3cd4e5c0	0.02598846
241	0x3f6202ee	0.8828572
242	0x3fba5ba8	1.4559221
243	0xbe6e7866	-0.23288116
244	0xbf70540c	-0.93878245
245	0xbfbab0f8	-1.4585257
246	0x3eb748ce	0.35797733
247	0x4009e6d2	2.1547132
248	0x3fcbcdb0	1.5922146
249	0x3fea2760	1.8293266
250	0xbf878d55	-1.0590006
251	0xbf5c68c3	-0.86097354
252	0x3f665942	0.89979947
253	0xbf1a966c	-0.60385776
254	0x3f9745b3	1.1818146
255	0x3ebbaf03	0.3665696

fc2.weight f4 [256, 256]
0	0x3e5ab0d3	0.21356516
1	0x3bbfcc4a	0.0058532106
2	0x3e9156ec	0.2838663
3	0xbeae4e6d	-0.3404421
4	0x3eaaae7c	0.33336246
5	0xbdf2f02f	-0.11862218
6	0xbf1c8c30	-0.6115141
7	0x3f5bba10	0.85830784
8	0xbdfe1d33	-0.12407913
9	0x3ecee1ce	0.4040665
10	0x3ec6d41c	0.38833702
11	0x3f28a2fa	0.6587368
12	0xbecb39e3	-0.39692602
13	0xbe8ca977	-0.2747304
14	0xbf2658b6	-0.6497911
15	0x3c789523	0.015172276
16	0xbf0e5d65	-0.5561126
17	0xbe1795f5	-0.14803298
18	0xbd2df6bc	-0.042471632
19	0xbe769f99	-0.24084319
20	0xbf1d1bdb	-0.6137063
21	0xbf85f1cb	-1.0464414
22	0xbea52e64	-0.32261956
23	0x3da3df8b	0.08001622
24	0xbe9c498e	-0.30524868
25	0xbef71625	-0.48259082
26	0x3f68936a	0.90849936
27	0x3f0274c4	0.5095942
28	0xbeb62739	-0.355768
29	0xbe9d1b72	-0.30685002
30	0xbef91706	-0.48650378
31	0xbca6abbf	-0.020345567
32	0x3f679576	0.90462434
33	0xbee3a48e	-0.44461483
34	0xbe1bb014	-0.15203887
35	0x3e95aaae	0.2923178
36	0xbdbab34e	-0.09116231
37	0xbdde2d33	-0.10848465
38	0xbfdb98a0	-1.7155952
39	0xbf2f6115	-0.6850751
40	0x3fa017eb	1.2507299
41	0xbf10e4b0	-0.5659895
42	0xbf1a8694	-0.603616
43	0x3e4958ba	0.19662753
44	0xbf607177	-0.87673134
45	0x3f0bfc18	0.5468154
46	0xbe34e39e	-0.17664954
47	0x3ee3d3ab	0.44497427
48	0x3f5f8bdf	0.873228
49	0xbeeb2e12	-0.45933586
50	0xbf1bb5f3	-0.6082451
51	0xbd1fb22c	-0.038988277
52	0x3fb520a5	1.4150587
53	0x3eba6fc0	0.36413383
54	0xbd728c78	-0.059215993
55	0x3e0162e6	0.12635383
56	0x3ebef9cd	0.37299958
57	0xbfb4b1fb	-1.4116815
58	0x3e76c20c	0.2409746
59	0x3f381178	0.71901655
60	0xbeff1a74	-0.4982487
61	0xbdbc52f1	-0.09195507
62	0xbe870d9f	-0.2637758
63	0xbdadfa85	-0.084950484
64	0xbece8b29	-0.40340546
65	0x3ebdddc9	0.3708327
66	0xbf10e50a	-0.56599486
67	0x3ea9de8e	0.33177608
68	0x3dc052ac	0.093907684
69	0xbefaec81	-0.49008563
70	0x3e2193b6	0.15779004
71	0xbe395688	-0.18099415
72	0xbef5420a	-0.47901946
73	0x3fb65810	1.4245625
74	0x3ec256f5	0.37956968
75	0x3ef5e5f1	0.48026994
76	0xbf430e87	-0.7619404
77	0xbf0f9bae	-0.56096923
78	0x3f2eec13	0.6832897
79	0x3f806e5b	1.0033678
80	0xbe192312	-0.14954785
81	0x3f27e7af	0.65587896
82	0x3fbaa12a	1.4580433
83	0x3f857329	1.0425769
84	0xbc0048ff	-0.007829904
85	0x3fa431aa	1.2827656
86	0x3ed196b9	0.40935305
87	0x3e94e4b9	0.29080752
88	0x3fa0c359	1.2559615
89	0x3f6705e0	0.9024334
90	0xbf9e2c84	-1.2357335
91	0xbef286c4	-0.47368443
92	0x3e751d2d	0.23936911
93	0xbeb19beb	-0.34689268
94	0x3f3b4b01	0.7316132
95	0x3e856b9c	0.26058662
96	0xbe3bd823	-0.18344168
97	0xbf429424	-0.76007295
98	0x3e8302b9	0.25588015
99	0xbc47ba84	-0.012190465
100	0x3da3da51	0.08000625
101	0xbf1be5df	-0.6089763
102	0xbe6d729c	-0.23188251
103	0xbf8a42ec	-1.0801673
104	0xbe3cf03e	-0.1845102
105	0x3e1227ca	0.14272991
106	0x3ed7367c	0.42033756
107	0x3e6f0625	0.23342188
108	0xbda0a946	-0.07844786
109	0x3eccfed5	0.4003817
110	0xc006df8e	-2.1073947
111	0x3eb81ab4	0.35957873
112	0x3ec8980f	0.39178512
113	0x3f14535d	0.579397
114	0xbfbd96d5	-1.4811655
115	0xbe7af2b4	-0.24506646
116	0x3f45918b	0.77175206
117	0x3e4856ce	0.19564363
118	0xbf4efd47	-0.8085522
119	0xbecf39d8	-0.4047382
120	0xbc1b23d3	-0.00946899
121	0xbd93228a	-0.07184322
122	0xbd8dddcd	-0.06927071
123	0xbe507015	-0.20355256
124	0x3f8a6ba2	1.0814097
125	0xbf26d4a2	-0.651682
126	0xbd5a240d	-0.053257037
127	0xbe6276b9	-0.22115602
128	0xbe938123	-0.2880946
129	0xbf4ee87f	-0.8082351
130	0xbdd14e9c	-0.10220072
131	0xbf22f26a	-0.63651145
132	0x3f8dcfc5	1.1079031
133	0x3b9cf1b7	0.004789557
134	0x3e50897f	0.2036495
135	0x3eb61c26	0.3556835
136	0xbf3d76cb	-0.7400939
137	0xbf2073b6	-0.6267656
138	0x3e7d69f7	0.24747454
139	0x3f7dbce4	0.9911635
140	0xc00e6610	-2.2249794
141	0x3fcf38ad	1.6189171
142	0x3f920ef8	1.1410818
143	0xbf87baf6	-1.0603931
144	0xbefe914c	-0.49720228
145	0x3ef3d0cd	0.4762024
146	0xbf38db16	-0.722093
147	0xbe5d643b	-0.21620266
148	0xbeaa27a3	-0.33233365
149	0x3f80e1a6	1.0068862
150	0xbe7982ec	-0.24366349
151	0x3f461827	0.77380604
152	0xbd3315da	-0.04372201
153	0x3f4f48fa	0.8097073
154	0x3e7a118d	0.24420758
155	0xbdbb221b	-0.091373645
156	0x3f8ad992	1.0847647
157	0x3f62d0b8	0.8859973
158	0xbf22ebd1	-0.6364108
159	0x3fda031e	1.7032201
160	0x3f6847fc	0.9073484
161	0xbf7da3ae	-0.9907788
162	0xbf193aba	-0.59855235
163	0xbf2c2264	-0.67239976
164	0xbfc6d9a2	-1.5535166
165	0x3f4fbdab	0.81148785
166	0xbed22047	-0.4104025
167	0xbf0f0aba	-0.5587574
168	0x3d86073d	0.06544349
169	0x3fc0f7d8	1.5075636
170	0x3ce4559c	0.027872853
171	0x3ff9c31f	1.9512671
172	0x3eff9a00	0.4992218
173	0x3f9a7c3d	1.2069165
174	0x3e420372	0.18946627
175	0x3e73da88	0.23813832
176	0xbf5382cb	-0.8262145
177	0x3e77a5c4	0.24184328
178	0xbe8f280e	-0.27960247
179	0xbed08cf4	-0.4073254
180	0xbfcba8ca	-1.5910885
181	0xbedd5742	-0.43230635
182	0xbee18ad2	-0.44051224
183	0xbed6953e	-0.41910738
184	0xbe976f95	-0.29577318
185	0xbe7bef35	-0.24602969
186	0xbf206bea	-0.62664664
187	0x3c3115a3	0.010808381
188	0x3f54df22	0.83152974
189	0xbd9425af	-0.0723375
190	0xbeb94deb	-0.3619226
191	0x3d4cf185	0.05003502
192	0xbea5fb0d	-0.324181
193	0xbd3f96cb	-0.046774667
194	0x3e4454ff	0.19173048
195	0xbf678f1b	-0.90452737
196	0xbf5fdf5a	-0.8745018
197	0x3f2b4230	0.6689787
198	0xbe81325e	-0.2523374
199	0xbeeb4213	-0.45948848
200	0x3deaea71	0.114704974
201	0xbeaf6527	-0.3425686
202	0xbdf9ccbd	-0.12197254
203	0x3e9e704a	0.30945045
204	0x3f828b3e	1.0198743
205	0x3f2c6e4e	0.6735581
206	0xbf201c76	-0.6254343
207	0xbfa54a79	-1.2913352
208	0xbefa3659	-0.4886959
209	0xbe7e05ca	-0.24806896
210	0x3f82579c	1.0182986
211	0x3fca8018	1.5820341
212	0xbe89283d	-0.26788512
213	0x3f93cbed	1.1546608
214	0x3f26cded	0.6515797
215	0xbebbcd63	-0.36680135
216	0xbf218e2b	-0.63107556
217	0xbdf33c3b	-0.118767224
218	0xbf0b8314	-0.54496884
219	0x3f9538f5	1.1658007
220	0xbeb2982d	-0.34881726
221	0x3f37dd12	0.718217
222	0x3f48a298	0.783731
223	0xbeff6f77	-0.49889728
224	0xbf10d505	-0.5657504
225	0x3ed03e14	0.40672362
226	0xbec69602	-0.38786322
227	0xbec8beb6	-0.39208
228	0xbe385edc	-0.18004936
229	0x3d74567a	0.059652783
230	0x3f0e9cce	0.55708015
231	0xbeac8c91	-0.33700994
232	0xbe8b35b0	-0.27189398
233	0xbf269da6	-0.650843
234	0xbe0bafd4	-0.13641292
235	0xbf730b17	-0.94938797
236	0x3f8a2521	1.0792581
237	0xbfa63370	-1.2984447
238	0xbf014f42	-0.5051156
239	0x3e27be18	0.16381109
240	0xbe95fb35	-0.29293218
241	0xbeba076c	-0.36333787
242	0xbe994b56	-0.2994029
243	0xbe6db7b0	-0.23214602
244	0x3e5149bf	0.20438288
245	0x3e34707d	0.17621036
246	0x3eaa3599	0.33244017
247	0xbd9d2e9f	-0.07674908
248	0x3e250a1c	0.16117138
249	0x3f02a069	0.51026016
250	0x3f2fe2fb	0.6870572
251	0x3e1c3053	0.15252809
252	0x3f005527	0.5012993
253	0x3d95984f	0.07304441
254	0xbe5a1fbf	-0.21301173
255	0x3f26d113	0.6516277

fc2.bias f4 [256]
0	0x3ecc7eac	0.39940393
1	0x3eb3087f	0.3496742
2	0x3ceb0d1b	0.028692773
3	0x403e01bf	2.9688566
4	0xbfd7012f	-1.6797236
5	0x404b1a70	3.1734886
6	0x3fc72aae	1.55599
7	0xbc3df437	-0.01159387
8	0x3fad9827	1.3562058
9	0x3ff1f132	1.8901732
10	0x3f4c68af	0.79847234
11	0x40492ea4	3.1434717
12	0xbfc40aaa	-1.5315754
13	0xbd0057a5	-0.031333584
14	0xbf079492	-0.52961075
15	0x3fd8b179	1.692916
16	0xbf77e7ff	-0.9683837
17	0x3f8efea1	1.1171457
18	0xbe783700	-0.24239731
19	0xbc17c187	-0.009262449
20	0x3f8895b2	1.0670683
21	0x3f840aa6	1.031575
22	0xbd010d52	-0.031506844
23	0xbd6453f2	-0.05574412
24	0x3f9e4ddb	1.236751
25	0x40409a38	3.0094128
26	0x3fd67605	1.6754767
27	0xbd82b968	-0.0638302
28	0xbd47e817	-0.048805322
29	0xbd96cdd9	-0.07363481
30	0xbfda28fc	-1.7043757
31	0x3f03f8a2	0.5155126
32	0x3f860eb6	1.047324
33	0x3e8aee38	0.2713487
34	0x3ff2f165	1.8979918
35	0x4052c16a	3.293055
36	0xbfab2104	-1.336945
37	0x3ca916f4	0.020640828
38	0x3fa1e15c	1.2646899
39	0xbb928b0a	-0.004472141
40	0x3f9ad12a	1.2095082
41	0xc00497fb	-2.0717762
42	0x3f95e42f	1.1710261
43	0x3fa4c61c	1.2872958
44	0x3fe6afc4	1.802239
45	0x40362a92	2.8463483
46	0xbf86ec40	-1.0540848
47	0x3fb54c22	1.4163859
48	0x3f95b0d1	1.1694585
49	0xbfc557a4	-1.5417371
50	0x3ffbd53a	1.9674447
51	0x3fc7664d	1.5578095
52	0x3fb42ab7	1.4075536
53	0xbfb3ae37	-1.4037541
54	0xbd2e9ee9	-0.042632017
55	0x3fd2c7c5	1.6467215
56	0x404261e9	3.037226
57	0xbd8905c7	-0.06690555
58	0x3f5a68ec	0.8531635
59	0x3d30cf03	0.04316617
60	0xc000c30d	-2.011905
61	0x404d0ea1	3.2040179
62	0x4050bbbe	3.2614589
63	0x3ec94ba1	0.39315513
64	0x3f9cf879	1.2263328
65	0xbfd3688e	-1.6516283
66	0x40450ec2	3.0790257
67	0x3faa3574	1.3297563
68	0xbcad53ee	-0.021158185
69	0x3f96d55f	1.1783866
70	0x4054cf5f	3.325157
71	0x3f857427	1.0426072
72	0x3ed12fcd	0.40856782
73	0xbd32a98d	-0.043618727
74	0x40177df3	2.3670623
75	0x4006ae5b	2.1043918
76	0xbcb7eaf0	-0.022450894
77	0x3d40fffd	0.04711913
78	0xbfc55a3a	-1.541816
79	0x3ff0cbcf	1.8812197
80	0x3e98fd1e	0.29880613
81	0x3c2afd07	0.010436303
82	0xbc821029	-0.015876846
83	0xbd009cae	-0.03139942
84	0x3d547315	0.051867563
85	0x3fb2a44a	1.3956387
86	0x3f92126a	1.141187
87	0x400d1092	2.2041364
88	0x3d48a721	0.04898751
89	0xbfcea34d	-1.6143585
90	0x40541394	3.313695
91	0x3a8ddbbd	0.0010822933
92	0xc002bbc1	-2.0427096
93	0x3f9b1a0e	1.2117326
94	0x4009fca2	2.1560445
95	0x3f8c79fb	1.0974725
96	0x3ed00a31	0.40632775
97	0x3cbabfc7	0.022796525
98	0xbeb64948	-0.35602784
99	0x3f88e28d	1.0694138
100	0x3ffb0573	1.9611038
101	0x3f4d63f2	0.8023063
102	0x3fba5949	1.4558498
103	0x3fc007bf	1.5002364
104	0x3cd300df	0.025757251
105	0x3fbe88e4	1.4885526
106	0x3fb47204	1.4097295
107	0x3f8ac1f7	1.0840443
108	0x3efb2683	0.4905282
109	0x3cf34346	0.029695164
110	0xc0023c58	-2.034933
111	0x3fc8c628	1.5685472
112	0x3f973f08	1.1816111
113	0xc00ec51e	-2.230781
114	0x3f9646d7	1.1740369
115	0x3e30e132	0.17273405
116	0x3f8691bb	1.0513223
117	0x3fbad350	1.4595737
118	0x3fadb049	1.3569423
119	0x3f151618	0.5823684
120	0x3f9164cc	1.1358886
121	0x3c8f6576	0.017504435
122	0x400c49a0	2.1919937
123	0x404ce6bc	3.201583
124	0x3cf4980c	0.029857658
125	0x3fb13218	1.3843412
126	0xbe86d873	-0.26337013
127	0x3fccd066	1.6001098
128	0xbc7fe744	-0.015619103
129	0x3f87171e	1.055393
130	0x3fae11a7	1.3599137
131	0xbd84cbbf	-0.06484174
132	0xbed31c9b	-0.41232762
133	0xbeeb64e9	-0.45975426
134	0xbf42385f	-0.75867265
135	0x3feca93a	1.8489144
136	0x3fc8c49c	1.5685
137	0x3fb4480d	1.4084488
138	0x3f6d6f4b	0.92747945
139	0x3f2c7572	0.6736671
140	0x3f16468d	0.587014
141	0xbb361204	-0.0027781734
142	0xbd7d587d	-0.061851967
143	0x3fea0c79	1.8285056
144	0x3fd4b448	1.6617517
145	0x40011e59	2.0174773
146	0x3fdd04d7	1.7267102
147	0x403feb0f	2.9987218
148	0xbf59700f	-0.8493661
149	0x3ff69f4c	1.9267364
150	0x3fbb765c	1.4645495
151	0x3fcf8da1	1.6215097
152	0x3aeb37e7	0.0017945737
153	0xbf06eaeb	-0.52702206
154	0x3fc2f810	1.5231953
155	0xbd3f8232	-0.046755023
156	0x3b0302c0	0.0019990653
157	0x3faad9b3	1.3347687
158	0x3f9f0156	1.2422283
159	0x40456f0e	3.0849032
160	0x3fd2dbf3	1.6473373
161	0xbf60f2fd	-0.8787077
162	0x3f84563c	1.0338817
163	0x400ccf12	2.2001386
164	0x392f5b69	0.00016723353
165	0x400444c8	2.066698
166	0x404ceaae	3.2018237
167	0x3f5ebf0e	0.87010276
168	0x3fa81a02	1.3132937
169	0x3fb6ac77	1.4271382
170	0x3fabaed4	1.3412728
171	0xbd65e334	-0.05612488
172	0xbf9fa160	-1.2471123
173	0x3f938748	1.152566
174	0xbcfdf5f1	-0.031001063
175	0xc005d997	-2.0914056
176	0x3f800f47	1.0004662
177	0x3f8c8553	1.0978187
178	0xbd199cc4	-0.03750302
179	0xbd444918	-0.04792127
180	0x40482a5c	3.1275854
181	0xbfb1c536	-1.3888309
182	0xbcb02696	-0.021502774
183	0xbf71c751	-0.9444476
184	0x4051b027	3.2763765
185	0x3fffcf80	1.9985199
186	0x3f9754e3	1.182278
187	0x3d5f123d	0.054460753
188	0x3f8e82a5	1.113362
189	0xbd5b4521	-0.053532723
190	0x3fba365b	1.4547838
191	0x3d52324f	0.05131751
192	0xbfca93cd	-1.5826355
193	0x3c3cfb81	0.011534573
194	0x40436867	3.0532472
195	0x3fd9cbc3	1.7015308
196	0xbd8022d7	-0.06256645
197	0x403ddc92	2.9665875
198	0x403480f2	2.8203702
199	0x3f9198bf	1.137474
200	0xbcc26f4c	-0.023734711
201	0xbd8dde89	-0.06927211
202	0x3f813225	1.0093428
203	0xbf1a1863	-0.6019346
204	0xbf5eb29c	-0.86991286
205	0xbf0d1bb7	-0.55120414
206	0xbf8c2463	-1.0948604
207	0x3fbcb417	1.4742459
208	0x400f8f6b	2.2431285
209	0xbf0be731	-0.54649645
210	0x3f5dfe21	0.86715895
211	0x3fbc1ee3	1.4696926
212	0x3f92e939	1.1477424
213	0xbeb9931f	-0.36245057
214	0x3fd6c250	1.677805
215	0x3f84888c	1.0354171
216	0x3fd5509e	1.6665227
217	0xbfb356e3	-1.4010891
218	0xbed98172	-0.4248157
219	0xbf9f3fb8	-1.244132
220	0xbd80c2a8	-0.06287128
221	0x3fdbea70	1.718092
222	0x3cdd7d5a	0.027037311
223	0x3bf746a9	0.007546265
224	0x3fd94975	1.6975542
225	0x3f8406f4	1.0314622
226	0x3fca4332	1.5801756
227	0x3d0adcc8	0.03390196
228	0xbef728e4	-0.48273385
229	0x3f94bf22	1.1620829
230	0x3f97d8a3	1.1862987
231	0x3fc85501	1.5650941
232	0xbd38a46f	-0.04507869
233	0xbda6b5d0	-0.08140147
234	0xbd078952	-0.033089943
235	0x403f6157	2.9903162
236	0x3fcd49a8	1.6038103
237	0x3fa36c07	1.2767342
238	0xbf997de5	-1.1991545
239	0x3d5ce01e	0.053924672
240	0x3fb2e6dd	1.3976704
241	0xc01cfa38	-2.4527721
242	0xbd049d36	-0.03237649
243	0x4000f83a	2.0151505
244	0x4008555f	2.1302106
245	0x3c97ef2a	0.01854666
246	0x3faf3307	1.3687447
247	0x3fb40c65	1.4066283
248	0x3f89e711	1.0773641
249	0x3f90e41c	1.1319613
250	0x3fabb90a	1.3415844
251	0x3f8c5b87	1.0965432
252	0xbfd7b4cb	-1.6852049
253	0xbd9432a6	-0.07236223
254	0xbd20dab1	-0.03927106
255	0x3d236643	0.039892446

fc3.weight f4 [1, 256]
0	0x3f566f9f	0.8376407
1	0x3fd9dc39	1.7020332
2	0xbc263899	-0.01014533
3	0x3dba8dc3	0.0910907
4	0xbebf5a28	-0.3737347
5	0x3e541cc0	0.20714092
6	0x3c1504ce	0.009095384
7	0xbc2722a4	-0.01020113
8	0x3c29b434	0.010357905
9	0xbc5423d0	-0.0129479915
10	0xbf8e9b3f	-1.1141127
11	0x3e55df54	0.20885974
12	0xbe3364c1	-0.17518903
13	0xbc8dbf18	-0.017303035
14	0xbf105422	-0.56378376
15	0xbbae4f83	-0.005319537
16	0xbf0a7db3	-0.5409805
17	0xbc318cd6	-0.010836801
18	0xbeff511c	-0.4986657
19	0xbd4aaba3	-0.04948009
20	0x3c1c77da	0.009550059
21	0xbbcc557b	-0.006235776
22	0xb997ff40	-0.0002899114
23	0xbc4d8d29	-0.012545862
24	0xbc0909c6	-0.008364147
25	0x3e0e021e	0.13867995
26	0x3c41be14	0.011825103
27	0xbd1ac33f	-0.037783857
28	0xbc6c48a4	-0.014421616
29	0x3abad445	0.0014253935
30	0xbef16be2	-0.4715262
31	0xbf6b461a	-0.9190384
32	0x3f0ec54d	0.5576981
33	0x3ee7d9a7	0.45283243
34	0xbf7140e0	-0.94239616
35	0x3ea04470	0.31302214
36	0xbeb03e42	-0.344225
37	0xbca7b019	-0.020469712
38	0xbf9895ee	-1.1920755
39	0xbcc3b55f	-0.023890195
40	0xbcb77a54	-0.022397198
41	0x3f6dc985	0.9288562
42	0x3b7564e9	0.003744418
43	0x3c458899	0.012056493
44	0x3eb4defd	0.35326377
45	0x3dba556f	0.090983264
46	0xbea93c69	-0.33053902
47	0xbc73b9ad	-0.0148758115
48	0xbaccf602	-0.0015637281
49	0xbec07af4	-0.37593806
50	0xbcaf8306	-0.021424782
51	0xbf102464	-0.5630553
52	0x3bd415e9	0.0064723385
53	0xbe91a791	-0.28448156
54	0xbd45e2d0	-0.04831201
55	0x3bfaa79a	0.007649374
56	0x3e04788e	0.12936613
57	0x3c0f5c63	0.008750054
58	0x3f15c7c7	0.5850796
59	0xbca15497	-0.019693656
60	0xbe001614	-0.12508422
61	0x3eb321b4	0.3498665
62	0x3ea91379	0.3302267
63	0xc083d756	-4.120036
64	0x3ba1495a	0.0049220743
65	0xbeae50ef	-0.34046122
66	0x3e4c7316	0.19965777
67	0xbb8d0bda	-0.0043043913
68	0xbd2bf49d	-0.04198133
69	0xbc4e4c5d	-0.012591449
70	0x3efbe88d	0.4920086
71	0x3c2abadd	0.010420528
72	0x3fab2e10	1.3373432
73	0xbc38c7a7	-0.01127807
74	0x3d324e15	0.043531496
75	0xc0162b04	-2.3463755
76	0xbd299c54	-0.04140885
77	0xbd015159	-0.03157172
78	0xbf1bf1c0	-0.60915756
79	0x3e730f8e	0.23736402
80	0x3f136dd6	0.5758947
81	0xbcde9c82	-0.027174238
82	0xbc783954	-0.015150387
83	0xbd3b1f36	-0.045684062
84	0xbf9b95f1	-1.2155133
85	0x3be1b8f8	0.006888505
86	0xbd8ccdf2	-0.068752185
87	0x3ef17ff5	0.47167936
88	0xbd53713b	-0.051621657
89	0xbef23021	-0.47302344
90	0x3edf2e23	0.43589887
91	0x3c0b9fac	0.008521955
92	0xbe3c6913	-0.18399458
93	0x3c4ea5a5	0.012612735
94	0xbb7294e3	-0.0037015013
95	0xbc50434c	-0.012711357
96	0xbf67559a	-0.9036499
97	0x3a1270d1	0.0005586269
98	0xbec14318	-0.377465
99	0x3f33d0ef	0.7024068
100	0xbed889aa	-0.4229253
101	0xbf9d1b63	-1.2273983
102	0xbccb1ad2	-0.024793062
103	0xbc62d8ee	-0.013845665
104	0x3a45778d	0.0007532768
105	0xbc23556f	-0.009969099
106	0x3bc91905	0.0061370158
107	0xbfdabe6e	-1.7089365
108	0x3f18c972	0.5968238
109	0xbd13bf2b	-0.036070984
110	0xbeca1bf6	-0.39474458
111	0xbc0588f2	-0.008150326
112	0xbc1613bb	-0.009159978
113	0xbe3f6142	-0.18689445
114	0xbbc544c2	-0.0060201595
115	0x3f0c96a3	0.54917353
116	0xbc043e3f	-0.008071481
117	0xbae7c354	-0.0017682114
118	0xbc518dca	-0.012790153
119	0x3f24dd32	0.6440002
120	0xc012b5aa	-2.292338
121	0xbd4176c8	-0.04723242
122	0x3b69a32e	0.0035650241
123	0x3ebf6a04	0.3738557
124	0xbd1323f7	-0.03592297
125	0x3c57a2cb	0.013161371
126	0xbf6a9276	-0.9162973
127	0x3aa289f1	0.0012400729
128	0xbd3d3a38	-0.0461981
129	0x3c7f3e5e	0.015578834
130	0xbb246720	-0.0025085881
131	0xbc66f714	-0.014096994
132	0xbf4581e0	-0.771513
133	0xbff712d7	-1.9302624
134	0xbf6ea2ca	-0.93217146
135	0xbab0f3ac	-0.0013500354
136	0x3ede7611	0.43449453
137	0xbc80377c	-0.015651457
138	0x3c7032c9	0.014660546
139	0x3f1b914f	0.607686
140	0x3ef26f59	0.47350577
141	0xbc38980e	-0.011266721
142	0xbcc46bff	-0.023977278
143	0x3ef7586e	0.48309654
144	0x3b9d39c5	0.0047981464
145	0x3e60df9c	0.219603
146	0xbc45522f	-0.01204352
147	0x3dc4558e	0.09586631
148	0xbf0fade9	-0.5612474
149	0xbc807d5e	-0.01568478
150	0x3a80a291	0.0009814074
151	0xbbe0c7a4	-0.0068597365
152	0xbbfb4022	-0.0076675573
153	0xbee9dac3	-0.45674714
154	0xbc1dba0a	-0.009626875
155	0x3c093447	0.00837428
156	0xbf8f73c0	-1.1207199
157	0x3f75fdac	0.960902
158	0xbfb6d45f	-1.428356
159	0x3e2a4814	0.16629058
160	0x3c038b86	0.00802887
161	0xbf1a33ce	-0.602353
162	0xbc6d3b5a	-0.014479483
163	0xbec25a5f	-0.37959573
164	0xbd23a1e0	-0.039949298
165	0xbc8b6692	-0.017016683
166	0x3ebdc436	0.3706376
167	0xbff1be03	-1.8886112
168	0xbb9df277	-0.004820164
169	0xbb2a3d4f	-0.0025976484
170	0x3ba48c14	0.0050215814
171	0x3bd63c25	0.0065379315
172	0xbf7d10fb	-0.98854035
173	0xbf5b8714	-0.8575299
174	0x3a78ff1f	0.0009498465
175	0xbe8766e4	-0.26445687
176	0xbd322b80	-0.043498516
177	0x3c25f74a	0.010129759
178	0xbd12d9f5	-0.03585239
179	0xbd5b9ad6	-0.05361446
180	0x3e8179e5	0.2528831
181	0xbed38730	-0.41314077
182	0xc0c113a3	-6.033647
183	0xbf536a02	-0.8258363
184	0x3ee12116	0.43970555
185	0x3cd848c9	0.026401894
186	0xbb9d1684	-0.004793944
187	0xbd144410	-0.036197722
188	0xbf618df0	-0.88107204
189	0xbd09ae1f	-0.03361332
190	0x3c8d973a	0.017284025
191	0xbd26f278	-0.04075858
192	0xbeb882ab	-0.36037192
193	0x3c211a93	0.009832996
194	0x3e31586e	0.1731889
195	0xbc4268d9	-0.011865818
196	0xbcaa93f1	-0.020822497
197	0x3d822ae0	0.06355834
198	0x3d979391	0.07401193
199	0x3b80603e	0.003917723
200	0xbc3fc3f1	-0.011704431
201	0x3c057ce7	0.008147455
202	0xbbdd592a	-0.006755014
203	0xbed0124c	-0.4063896
204	0xbf2a8a3b	-0.6661717
205	0xbf421538	-0.7581363
206	0xbee3ac16	-0.4446723
207	0xbc19beee	-0.0093839
208	0x38bcee70	9.008951e-05
209	0xbee4605e	-0.44604772
210	0x3bac2981	0.005253971
211	0xbb7a34c5	-0.0038178426
212	0x3f4662f8	0.77494764
213	0xbecdb3b9	-0.4017618
214	0xbff42210	-1.9072895
215	0xbac57ce0	-0.0015067123
216	0xbc0a0511	-0.0084240595
217	0xbec3bbc2	-0.38229185
218	0xbf250833	-0.64465636
219	0xbed2eb5e	-0.41195196
220	0x3c61d5c5	0.013783877
221	0xbfb602f2	-1.4219649
222	0xbd090c1a	-0.033458807
223	0xbd0825a0	-0.033239007
224	0x3ec4b51d	0.38419428
225	0xbc73de13	-0.01488449
226	0x3b39e8a9	0.0028367436
227	0xbbf7f3d8	-0.0075669102
228	0xbed97fd9	-0.42480353
229	0xbc0b57dd	-0.008504835
230	0x3f307637	0.6893038
231	0xbc7eab86	-0.015543824
232	0xbc3c64bc	-0.011498626
233	0xbd3404d1	-0.043949906
234	0xbc510272	-0.012756931
235	0x3e37550a	0.17903534
236	0x4016103b	2.3447406
237	0xbc70eb20	-0.014704496
238	0xbe83e974	-0.25764048
239	0xbaf16ee1	-0.0018419885
240	0xbb2ef883	-0.0026698417
241	0xbe82a2f4	-0.25514948
242	0xbce1a722	-0.027545515
243	0xbfb39ae7	-1.4031647
244	0x3c5e167b	0.013555164
245	0xbb19679f	-0.002340771
246	0x3c5cdad4	0.013479907
247	0xbf07ff40	-0.53123856
248	0x3c25a4a7	0.010110057
249	0xbb15a3ef	-0.0022833308
250	0x3bec9eed	0.007221094
251	0xc0108f9a	-2.2587647
252	0xbe865f16	-0.2624442
253	0xbbb6f644	-0.0055835564
254	0xbd33ed6c	-0.043927595
255	0xbbf0a356	-0.00734369
