benchmarks/CliffWalking-v0/Train_CliffWalking-v0_DQN_20230426-192139/models/checkpoint.pt (torch, 280403 bytes, 7 tensors)

layers.0.layer.weight f4 [48, 8]
0	0xbf7caac0	-0.98698044
1	0x3c03fa9c	0.008055355
2	0xbecdc9ae	-0.40192932
3	0x3f88db77	1.0691975
4	0x3d871587	0.06595903
5	0xbf1ffb5f	-0.62492937
6	0x3e961320	0.29311466
7	0x3f2d91aa	0.6780039
8	0x3f51dfb2	0.81981957
9	0x3f2f599a	0.68496096
10	0x3f614d52	0.88008606
11	0x3f0a07a9	0.5391794
12	0xbf24f905	-0.64442474
13	0xbf062ce1	-0.5241223
14	0x3f63ad30	0.8893614
15	0x3f323165	0.6960662
16	0x3da3a44d	0.07990322
17	0x3ce688c5	0.028141389
18	0xbec6eb64	-0.38851464
19	0x3f966c67	1.1751832
20	0xbf821a51	-1.0164281
21	0x3ef8bde2	0.4858237
22	0x3fe851e6	1.8149993
23	0x3f9627eb	1.1730932
24	0xbf3a3f71	-0.72753054
25	0xbf39c499	-0.7256561
26	0xbf576784	-0.8414233
27	0x3fc4f5eb	1.5387548
28	0xbeb2f171	-0.3494983
29	0xbd40a3df	-0.04703128
30	0x3ed625b6	0.41825646
31	0xbc78a93f	-0.01517707
32	0xbe0072d4	-0.12543803
33	0x3f3915ba	0.7229878
34	0x3e601994	0.21884757
35	0xbe897123	-0.2684413
36	0x3d4fdbfa	0.050746895
37	0xbf19d153	-0.6008503
38	0xbec99be7	-0.39376757
39	0xbeebedb5	-0.46079794
40	0x3db31d9e	0.087458834
41	0x3fb23fc6	1.3925712
42	0x3e92d84f	0.28680655
43	0x3e3f92a8	0.18708289
44	0xbdcad424	-0.09903744
45	0xbdb39113	-0.08767905
46	0x3dcf1c7d	0.101128556
47	0xbe8a5a6b	-0.27022108
48	0xbf5a17e4	-0.85192704
49	0xbe18113f	-0.14850329
50	0xbe884042	-0.26611525
51	0x3f8f3d20	1.1190529
52	0x3f6aacad	0.9166973
53	0xbe6310a4	-0.22174317
54	0xbf662acb	-0.89909047
55	0x3d81bcb5	0.06334821
56	0xbe7d0dd8	-0.24712312
57	0x3f91737e	1.136337
58	0xbfded9d1	-1.7410222
59	0x3d095cf4	0.033535913
60	0x3e9add38	0.30246902
61	0x3fd588b2	1.6682341
62	0xbee9bed7	-0.45653412
63	0xbf65f41f	-0.89825624
64	0x3f9c013b	1.2187876
65	0x3ea290a3	0.31750974
66	0xbdbd5493	-0.09244647
67	0xbe01218d	-0.12610455
68	0x3ea057e0	0.31317043
69	0x3f248dd1	0.64278895
70	0xbf8d99ef	-1.1062602
71	0xbf8316d3	-1.024134
72	0x3fc64d53	1.5492347
73	0x3f15bb83	0.58489245
74	0xbed0f274	-0.40809977
75	0x3ebea48e	0.3723492
76	0xbf59528e	-0.84891593
77	0xbf2200f8	-0.6328273
78	0x3f8d0ae4	1.1018949
79	0xbfa1f12a	-1.2651722
80	0x3e285f06	0.16442499
81	0xbe32dabb	-0.17466252
82	0x3cfbf34d	0.030755663
83	0xbe8631c7	-0.26209852
84	0x3fcae3f8	1.585082
85	0xbf9e83e0	-1.2383995
86	0x3d75633c	0.05990909
87	0xbeb0f34a	-0.34560615
88	0x3ec95c9d	0.3932847
89	0xbf00a4c6	-0.50251424
90	0x3f4fce69	0.8117433
91	0x3efce9a0	0.49396992
92	0x3f6b1f8a	0.91845
93	0x3e660f75	0.22466834
94	0x3eeb4296	0.4594924
95	0xbe93718f	-0.28797576
96	0x3efe3b79	0.4965475
97	0x3d1d0d49	0.038342748
98	0x3f2479bb	0.64248246
99	0x3e359547	0.17732726
100	0xbe5d598a	-0.21616188
101	0xbed1272c	-0.40850198
102	0x3fdb3a66	1.7127197
103	0x3f7d2342	0.98881924
104	0x3e0d086a	0.13772741
105	0x3e730aca	0.23734584
106	0xbf7bbb6b	-0.9833285
107	0x3fdfdde5	1.7489592
108	0xbd8841a1	-0.06653143
109	0xbf4fb36f	-0.8113317
110	0x3f820804	1.0158696
111	0xbf8bf8a6	-1.0935256
112	0xbf4b00cb	-0.79298085
113	0x3f254fc5	0.64574844
114	0x3f14cef9	0.58128315
115	0x3c29c05d	0.010360804
116	0x3e5067ed	0.20352145
117	0x3e8e0155	0.2773539
118	0xbf07c5d6	-0.5303625
119	0x3f371841	0.71521384
120	0xbf2ea96b	-0.6822726
121	0xbe2a15cf	-0.16609882
122	0xbefc831e	-0.49318784
123	0xbf73b90a	-0.9520422
124	0x3f309131	0.68971545
125	0xbd129250	-0.035784066
126	0xbeb4ccd9	-0.35312536
127	0xbe3784d9	-0.17921771
128	0x3e055370	0.1302011
129	0x3ef9d713	0.487969
130	0x3f80870e	1.0041215
131	0xbf436793	-0.76329917
132	0x3f0077ea	0.50182974
133	0x3e921963	0.28534994
134	0x3ed9c7a2	0.4253512
135	0x3f0812c1	0.53153616
136	0x3ea934e1	0.33048156
137	0x3edb525e	0.4283628
138	0xbdd9cf1b	-0.10635205
139	0xc013a586	-2.3069777
140	0x3edbd4b6	0.42935723
141	0x3fd938fd	1.6970516
142	0xbf117003	-0.5681154
143	0x3f8f4e0f	1.1195697
144	0x3f0ba467	0.54547733
145	0x3f045aa5	0.5170081
146	0x3f80bc5d	1.0057484
147	0x3e937ee9	0.28807762
148	0x3df3b581	0.118998535
149	0xbf31f5f6	-0.6951593
150	0xbea1e0cc	-0.3161682
151	0x3e493e23	0.1965261
152	0x3eec35c7	0.4613478
153	0x3ef338db	0.47504315
154	0xbe3c92ad	-0.18415327
155	0xbef082dc	-0.46974838
156	0xbeafe4dc	-0.34354293
157	0xbefc015a	-0.4921978
158	0x3e850050	0.259768
159	0xbfae05ad	-1.3595482
160	0xbf229ed9	-0.6352363
161	0xbfe6e3d1	-1.8038274
162	0xbe39e8bd	-0.18155189
163	0xbef0df8d	-0.47045556
164	0x3fe411af	1.7817897
165	0xbfc38579	-1.5275108
166	0xbfe9e88c	-1.8274093
167	0x3f1b98b6	0.60779893
168	0xbf1e0555	-0.61726886
169	0x3ddf52b9	0.1090445
170	0x3f53b6a7	0.8270058
171	0xbd3a8013	-0.045532297
172	0x3f0cb0ab	0.54957074
173	0x3e2b0fea	0.1670529
174	0x3d1814ab	0.037129086
175	0x3ed93656	0.42424268
176	0x3f195fb6	0.5991167
177	0xbee51b05	-0.44747177
178	0x3f1f0cd8	0.62128973
179	0xbe92d889	-0.28680828
180	0xbe9c936a	-0.30581218
181	0xbe259694	-0.16170722
182	0xbd42cee5	-0.04756059
183	0xbf2d5399	-0.67705685
184	0x3da08cc5	0.0783935
185	0x3f34f90b	0.7069251
186	0xbf3cf5b2	-0.738124
187	0x4016c940	2.3560333
188	0xbf2ae28c	-0.66751933
189	0x3f0566ca	0.5210997
190	0x3f418004	0.7558596
191	0x3e16bb05	0.1471978
192	0x3f085147	0.5324902
193	0x3e2732a0	0.16327906
194	0xbfae4710	-1.3615437
195	0x3ef37580	0.47550583
196	0x3f0eb202	0.5574037
197	0xbed8924b	-0.42299113
198	0x3f3675ea	0.7127367
199	0xbfed57a5	-1.8542372
200	0x3e2a00a4	0.16601807
201	0xbfebde98	-1.8427305
202	0x3f478f1b	0.77952737
203	0xbee823f0	-0.45339918
204	0xbf9fa738	-1.2472906
205	0xbeaec5ae	-0.34135193
206	0x3f28ccfe	0.65937793
207	0xbeac8283	-0.33693323
208	0xbe62419c	-0.2209534
209	0x3ffcffae	1.9765527
210	0xbfc3fe84	-1.5312047
211	0x3e5118c1	0.20419599
212	0xbe2e08d9	-0.16995563
213	0xbfa05da9	-1.2528583
214	0xbec7f106	-0.39051074
215	0x3f57020c	0.839875
216	0xbeddec4e	-0.4334435
217	0xbe7a502b	-0.24444644
218	0x3f070649	0.52743965
219	0xbe3fd357	-0.18732964
220	0xbf1160a3	-0.5678808
221	0xbfaa303a	-1.3295968
222	0x400d7084	2.2099924
223	0xbf9429fd	-1.1575314
224	0xbec67edb	-0.38768658
225	0xbfe5b642	-1.7946246
226	0x3fc5dab7	1.5457371
227	0xbfdb3eec	-1.7128577
228	0xbd426bd6	-0.04746612
229	0x3e876949	0.26447514
230	0x3dfe31a4	0.12411812
231	0xbea246ff	-0.3169479
232	0x3f8e22cc	1.1104369
233	0x3efa5ece	0.48900455
234	0x3ed912d4	0.42397177
235	0x3f92f3d9	1.1480666
236	0xbf70fe2c	-0.94137836
237	0x3fbcf3f3	1.4761947
238	0xbf967f1d	-1.1757542
239	0x3e075b67	0.13218461
240	0xbeec1aee	-0.46114296
241	0xbfb0137d	-1.3755947
242	0xbe426f54	-0.18987781
243	0x3dd9aa98	0.10628241
244	0xbe351b4d	-0.17686196
245	0xbf892d9b	-1.0717043
246	0xbf780627	-0.9688439
247	0xc0047995	-2.0699208
248	0x3e25c515	0.16188462
249	0xbfbdd1d6	-1.4829662
250	0x3f1aad6a	0.6042086
251	0x3f38a940	0.72133255
252	0x3d9e991c	0.07744047
253	0x3f936f02	1.1518252
254	0xbfd0d675	-1.6315447
255	0xbfd84681	-1.6896516

layers.1.0.weight f4 [256, 8]
0	0xbef732ca	-0.48280936
1	0xbe3b32d6	-0.18281111
2	0x3e8e51fc	0.27796924
3	0x3cbfa142	0.023392323
4	0xbdd6f6aa	-0.10496266
5	0xbe053fb8	-0.13012588
6	0x3ddfded5	0.10931174
7	0xbe8aa83d	-0.2708148
8	0x3dc2dbb1	0.09514559
9	0xbe594807	-0.21218883
10	0x3e9fa025	0.31176868
11	0xbdbcadf5	-0.09212867
12	0xbeaf642a	-0.34256107
13	0x3eaee2bb	0.34157357
14	0x3dcc181a	0.099655345
15	0x3d84d01e	0.06485008
16	0xbef3b576	-0.4759938
17	0x3e26800b	0.16259782
18	0xbe3e8c53	-0.18608217
19	0xbf23024f	-0.636754
20	0xbe3138ab	-0.17306773
21	0x3c6e6971	0.014551506
22	0xbeca1792	-0.39471108
23	0x3e76d818	0.2410587
24	0xbe017860	-0.12643576
25	0xbec4e346	-0.38454646
26	0x3ecaadeb	0.39585814
27	0x3d85d64f	0.06535017
28	0x3e8ea561	0.2786055
29	0x3e686e35	0.2269829
30	0x3ee20821	0.44146827
31	0x3d2ab605	0.041677494
32	0xbed2560a	-0.41081268
33	0xbd9425a8	-0.07233745
34	0xbd05f328	-0.032702595
35	0xbe28bb5a	-0.16477719
36	0x3d823e04	0.06359485
37	0x3d65d67e	0.05611276
38	0x3e91c18a	0.2846797
39	0xbe089160	-0.13336706
40	0xbede13dd	-0.4337453
41	0xbec3103c	-0.38098323
42	0x3e5338d5	0.20627148
43	0x3e591fc8	0.2120353
44	0x3eca1106	0.39466113
45	0xbd90190a	-0.07036026
46	0x3e70bffe	0.23510739
47	0xbed4aada	-0.415366
48	0xbd028bde	-0.03187167
49	0x3e6d4ef9	0.23174657
50	0x3d948e69	0.07253725
51	0x3e90391d	0.28168574
52	0xbede394a	-0.43403083
53	0xbdc81b31	-0.09770811
54	0xbf18bbe3	-0.5966169
55	0xbc1599f3	-0.009130943
56	0x3e3f0598	0.18654478
57	0xbe90648d	-0.28201714
58	0x3eea5a39	0.4577196
59	0x3cbf6a1a	0.023366023
60	0xbe8cfa5e	-0.27534765
61	0x3ee8608b	0.45386156
62	0x3e2d1ce1	0.16905548
63	0x3e0a2c4f	0.13493465
64	0x3e37c954	0.17947894
65	0x3bae47b8	0.005318608
66	0xbeb81680	-0.35954666
67	0xbdae4e04	-0.08510974
68	0xbf03f70a	-0.51548827
69	0xbe908b0b	-0.2823108
70	0xbc160391	-0.009156124
71	0x3e66bf75	0.22533973
72	0x3f4d0857	0.8009085
73	0xbe217dcc	-0.15770644
74	0x3c8a6560	0.016894042
75	0xbeb47f53	-0.3525339
76	0x3eba69cb	0.3640884
77	0xbdc0ac6f	-0.09407889
78	0x3dfe3d20	0.124140024
79	0xbd558da9	-0.05213705
80	0xbd8f9ff2	-0.07012929
81	0xbda711fd	-0.08157728
82	0x3d887c25	0.06664304
83	0x3e760671	0.24025895
84	0xbec22c87	-0.37924597
85	0xbe38756c	-0.18013543
86	0x3cab9740	0.020946145
87	0xbd96f7fa	-0.073715165
88	0x3dddd3f4	0.108314425
89	0xbe60fd33	-0.21971588
90	0x3e621d3d	0.22081466
91	0x3c8e7422	0.01738936
92	0x3d20e967	0.03928509
93	0x3ea791d7	0.32728454
94	0x3d972ab1	0.073811896
95	0x3e86a778	0.26299644
96	0xbe1e6659	-0.1546873
97	0x3e8dac01	0.2767029
98	0x3e891675	0.26774946
99	0xbe29e226	-0.16590175
100	0xbf25a08a	-0.6469809
101	0xbe80449b	-0.25052342
102	0xbe034d7e	-0.1282253
103	0xbe30c7ac	-0.17263669
104	0xbe012e85	-0.12615402
105	0x3e7ff1bc	0.24994558
106	0x3ef94c7f	0.48691174
107	0x3d19bd11	0.037533823
108	0xbedf116e	-0.43567985
109	0xbec657b8	-0.387388
110	0xbe67f238	-0.22650993
111	0x3e6e0c41	0.23246862
112	0xbd8343dd	-0.06409428
113	0xbe846f1e	-0.25866026
114	0x3d34e3e6	0.044162653
115	0xbd84dd77	-0.064875536
116	0x3ebfedcc	0.37486112
117	0x3ef5ad16	0.47983617
118	0x3ed96f90	0.42467928
119	0x3bf62ff5	0.007513041
120	0xbea9053b	-0.33011803
121	0xbe87ac35	-0.2649857
122	0x3e1dfc7e	0.1542835
123	0x3e23988b	0.1597616
124	0x3e84d20e	0.2594151
125	0x3c3db994	0.01157989
126	0x3e100bb8	0.1406697
127	0xbe8d04de	-0.27542776
128	0xbb1644c1	-0.0022929164
129	0x3ea65993	0.32490215
130	0xbe222ce4	-0.15837437
131	0x3dc756c0	0.09733343
132	0xbf5ff6f5	-0.874862
133	0xbeafc000	-0.34326172
134	0xbf519436	-0.81866777
135	0x3e44ccb2	0.1921871
136	0x3ea75dbd	0.32688704
137	0x3ef3ec43	0.4764119
138	0xbede7120	-0.43445683
139	0x3dbf0b81	0.09328366
140	0xbd326a8b	-0.04355864
141	0xbe616dd8	-0.22014558
142	0xbe8f2d95	-0.27964464
143	0x3f07c5bd	0.530361
144	0xbd786590	-0.060643733
145	0xbec92a1b	-0.39289936
146	0x3dfccba0	0.12343526
147	0x3de7f23d	0.113255
148	0xbf19fbd1	-0.60149866
149	0x3d8426ea	0.06452735
150	0xbe4e44bd	-0.20143409
151	0xbd89ded2	-0.06731953
152	0x3deb0982	0.11476423
153	0xbe88d279	-0.26723078
154	0x3f00b0d8	0.5026984
155	0x3e435461	0.19075157
156	0x3e230d77	0.15923105
157	0x3ec1c0a7	0.37842295
158	0x3cfd8e97	0.030951781
159	0x3eb8a923	0.3606654
160	0x3ca84b96	0.020543855
161	0x3c9ba04d	0.018997336
162	0x3ed3d455	0.41372934
163	0xbd3436cc	-0.04399757
164	0xbd5c2989	-0.05375055
165	0x3ee192ac	0.44057214
166	0x3e0d5851	0.13803221
167	0x3dd9652a	0.10614999
168	0xbe95da15	-0.29267946
169	0xbed8fbea	-0.42379695
170	0xbce54d35	-0.027990917
171	0xbdd18a6d	-0.10231481
172	0xbf40d70b	-0.7532813
173	0xbda09795	-0.07841412
174	0x3cd22f07	0.02565719
175	0xbe78d1a9	-0.24298729
176	0xbf232d26	-0.63740766
177	0x3e4669c8	0.1937629
178	0x3e64d5a2	0.2234712
179	0xbe5516c2	-0.20809463
180	0xbcf87e96	-0.030333798
181	0x3e8baf62	0.27282244
182	0x3e036937	0.12833105
183	0x3dbc4a71	0.09193886
184	0x3e0dc2f9	0.13843907
185	0x3d9e7026	0.07736234
186	0xbef3ac7e	-0.4759254
187	0xbdad247e	-0.08454226
188	0xbd2cdf51	-0.04220516
189	0xbf10b23a	-0.5652195
190	0x3ecef417	0.404206
191	0x3ea1e1c4	0.31617558
192	0x3ebe2a25	0.3714153
193	0x3ee2257b	0.4416922
194	0x3debb5e6	0.11509304
195	0x3e919135	0.28431097
196	0xbf11a0ce	-0.56885993
197	0x3db3c16a	0.08777125
198	0xbe04a516	-0.129536
199	0xbe89d934	-0.26923525
200	0xbe616329	-0.22010483
201	0xbde219a6	-0.11040048
202	0x3e6afbdb	0.22947638
203	0x3cdd2a00	0.026997566
204	0xbc1f2460	-0.009713262
205	0x3dade6ab	0.08491262
206	0x3e027877	0.12741266
207	0xbea560c0	-0.32300377
208	0xbe9bcb8d	-0.30428734
209	0xbf05ac97	-0.52216476
210	0xbe8d6044	-0.27612507
211	0x3f56c6b3	0.8389694
212	0x3cea88ab	0.028629621
213	0x3d5a2671	0.053259317
214	0x3ebfc90f	0.37458083
215	0x3edbe5c9	0.4294875
216	0xbebb20f7	-0.36548588
217	0xbe7ce39c	-0.24696201
218	0xbef43941	-0.4769993
219	0x3f060219	0.5234695
220	0xbe12448a	-0.14283958
221	0x3ecb3318	0.3968742
222	0x3ea1a7df	0.31573388
223	0x3d3c0eb6	0.045912467
224	0xbed42921	-0.4143763
225	0xbb59532a	-0.0033161142
226	0xbb58f93b	-0.0033107537
227	0x3e1a6bf5	0.15080245
228	0x3ed4851a	0.41507798
229	0x3d86c2ca	0.06580122
230	0x3e242924	0.16031319
231	0xbf0eedfc	-0.55831885
232	0xbf05a5ce	-0.5220612
233	0xbccc3f43	-0.02493251
234	0xbdd05455	-0.10172335
235	0xbe15a22a	-0.14612642
236	0xbdbfefd3	-0.09371915
237	0x3e52a68b	0.20571344
238	0xbd3c9615	-0.046041567
239	0xbe447cc1	-0.19188215
240	0xbf0bc5e3	-0.54598826
241	0xbeacbc6e	-0.3373751
242	0xbdef72e2	-0.11691834
243	0x3f086e94	0.5329373
244	0x3eb670fe	0.3563308
245	0x3e852ab8	0.26009154
246	0x3ed18ea1	0.4092913
247	0x3d93c06a	0.072144344
248	0x3bec87cd	0.007218337
249	0x3e8c7fb0	0.27441168
250	0x3f42e121	0.7612477
251	0xbee92824	-0.45538437
252	0x3d3158ef	0.043297704
253	0xbe51a771	-0.2047403
254	0x3ea430e0	0.3206854
255	0x3d8cc28b	0.068730436

layers.1.0.bias f4 [256]
0	0xbe243fd4	-0.16039973
1	0xbdfd62ae	-0.12372337
2	0x3f000165	0.5000213
3	0x3e50b703	0.20382313
4	0xbd8b9729	-0.06815941
5	0x3df9bdfe	0.12194441
6	0x3e2613b6	0.16218457
7	0xbd3dd755	-0.046347935
8	0x3cf65582	0.03007007
9	0x3e4c6586	0.19960603
10	0x3ec103f2	0.37698323
11	0x3c915b13	0.017743623
12	0x3ef4b175	0.4779164
13	0x3eaf1cde	0.3420171
14	0x3dec32ab	0.11533102
15	0x3d1f7f55	0.038939793
16	0xbe6be763	-0.23037486
17	0xbd239ef4	-0.03994651
18	0x3d7fad17	0.06242093
19	0x3d8e6a58	0.06953877
20	0x3d30099e	0.04297792
21	0x3dfaa48e	0.122384176
22	0x3eb2b70c	0.3490528
23	0xbb23dd70	-0.0025003813
24	0x3e85630a	0.26052123
25	0xbd25aa33	-0.040445518
26	0xbe1d4094	-0.15356666
27	0xbe7898f3	-0.24277095
28	0xbd826553	-0.06366982
29	0x3e25c5cd	0.16188736
30	0xbce86820	-0.028369963
31	0xbceeeb33	-0.029164886
32	0x3f01ae41	0.50656515
33	0xbe13f850	-0.14450192
34	0xbd97fb7b	-0.07421013
35	0xbd0114ab	-0.03151385
36	0xbe1d8e96	-0.15386423
37	0x3ca08adb	0.019597461
38	0xbe815a1a	-0.25264055
39	0xbe8c7e6d	-0.27440205
40	0x3e906644	0.28203022
41	0xbd34258c	-0.04398112
42	0xbdac486b	-0.0841225
43	0xbd4bb6a2	-0.04973472
44	0x3db9ba6d	0.09068761
45	0xbe0baf3e	-0.13641068
46	0x3e6a689d	0.2289147
47	0xbe4a82fd	-0.1977653
48	0xbe4477e9	-0.19186367
49	0xbdede1f6	-0.11615364
50	0xbe0cea8b	-0.13761346
51	0xbebadedf	-0.36498162
52	0x3cf623c1	0.030046346
53	0xbdaa7054	-0.08322206
54	0x3e55aa8d	0.20865841
55	0x3dcead60	0.100916624
56	0x3e344ccf	0.17607425
57	0x3dad6a5f	0.08467554
58	0xbd3cce07	-0.04609492
59	0x3dd1c767	0.10243111
60	0xbd8e1194	-0.069369465
61	0xbe4c30fe	-0.19940564
62	0xbe8776fb	-0.26457962
63	0x3e399ac7	0.18125449
64	0x3db92bbf	0.09041547
65	0xbd9c89bb	-0.076434575
66	0xbde983f2	-0.1140212
67	0x3e84ba0f	0.259232
68	0xbe954c9d	-0.29160014
69	0xbeb803cb	-0.35940394
70	0x3e3dee8a	0.18548027
71	0xbc549a29	-0.012976208
72	0x3ebd8417	0.3701484
73	0xbe03f2ba	-0.12885562
74	0x3ea1aeaa	0.3157857
75	0xbeb2ff48	-0.3496039
76	0x3dbdfe67	0.09277039
77	0xbdbdbd56	-0.092646286
78	0xbe85ef03	-0.26158914
79	0xbe98a232	-0.29811245
80	0x3ecacf1e	0.39611143
81	0x3cd6172f	0.026134102
82	0xbeb13a60	-0.3461485
83	0x3f0ddc36	0.5541414
84	0x3eac63af	0.33669803
85	0xbd070788	-0.032966167
86	0xbdbffd39	-0.0937447
87	0x3e862e19	0.26207045
88	0x3b67fc69	0.003539825
89	0x3de584e8	0.112069905
90	0xbe51aa40	-0.20475101
91	0x3d412999	0.04715881
92	0xbec199fe	-0.378128
93	0xbce2dd0d	-0.027693296
94	0x3e662834	0.22476274
95	0xbed53e0d	-0.41648903
96	0x3e0438d8	0.12912309
97	0xbe6561c9	-0.22400583
98	0xbe113c1a	-0.14183083
99	0x3e8a4cec	0.27011812
100	0xbe7c1c1f	-0.24620102
101	0xbc9cd222	-0.019143168
102	0xbdb73410	-0.08945477
103	0xbeb2b3b1	-0.3490272
104	0x3de927ec	0.113845676
105	0xbe85df46	-0.26146907
106	0xbe19601d	-0.1497807
107	0x3b94762e	0.0045306897
108	0x3e68e072	0.22741869
109	0x3e903c10	0.28170824
110	0x3db46450	0.088081956
111	0xbeb7648d	-0.35818902
112	0x3ea033aa	0.31289417
113	0xbe6bd378	-0.23029888
114	0x3e9a7cd6	0.30173367
115	0x3dcfa29c	0.10138437
116	0x3ed332df	0.4124975
117	0x3e3d153e	0.18465135
118	0xbde5f257	-0.11227863
119	0x3e4561a2	0.19275525
120	0x3ed93617	0.4242408
121	0x3ddbcf81	0.107329376
122	0xbe240dbf	-0.16020869
123	0x3e082bee	0.13298008
124	0x3d2d35c6	0.04228761
125	0x3e42f0b2	0.1903713
126	0xbdc4d3f0	-0.09610736
127	0xbd84d0c3	-0.06485131
128	0x3e318d6e	0.17339107
129	0x3f19975e	0.59996593
130	0xbdf7c155	-0.12097422
131	0x3d41cafc	0.04731272
132	0x3df5196e	0.11967741
133	0x3f0da7c4	0.55334115
134	0xbe01000e	-0.12597677
135	0x3e02ed2f	0.12785791
136	0x3e82ef36	0.25573128
137	0xbdab6d92	-0.08370508
138	0x3eb0dc8c	0.34543264
139	0xbdee8746	-0.11646895
140	0x3d7de82c	0.061988994
141	0xbe669c8f	-0.2252066
142	0xbe8062ae	-0.25075287
143	0xbe786c01	-0.2425995
144	0xbeafdd3c	-0.34348476
145	0x3d52b2fa	0.051440217
146	0x3ca9f583	0.020746952
147	0x3e93305f	0.28747842
148	0x3e9b495b	0.30329403
149	0xbec0c773	-0.37652168
150	0x3e1baf10	0.152035
151	0x3e0039ed	0.12522097
152	0xbd6d9bae	-0.058009796
153	0xbe9f0369	-0.3105729
154	0x3dba25d5	0.09089247
155	0x3cbcc13f	0.023041366
156	0xbe0b1dd2	-0.13585594
157	0xbd8f8844	-0.070084125
158	0xbd5939d1	-0.053033654
159	0xbdd17da6	-0.10229044
160	0x3e64ba2e	0.22336647
161	0x3dab0bcb	0.08351859
162	0x3eb97b3e	0.3622684
163	0x3d716a32	0.058939166
164	0x3df2c8bd	0.11854694
165	0x3dc432ea	0.095800236
166	0xbbd1ae3f	-0.0063989456
167	0x3e02f6c1	0.12789442
168	0x3d2357a3	0.0398785
169	0xbd8e1b51	-0.06938804
170	0xbe44e40e	-0.19227621
171	0x3e995d5e	0.29954046
172	0x3e90f3be	0.2831096
173	0xbe618d74	-0.22026616
174	0x3e9d9e7e	0.30784982
175	0xbe681624	-0.22664696
176	0x3ea2f819	0.31829908
177	0xbda8fe43	-0.082516216
178	0x3d8ec4aa	0.069711044
179	0xbdb3eaba	-0.08785005
180	0x3ec23fc8	0.37939286
181	0xbe454976	-0.19266304
182	0x3e1043a7	0.14088307
183	0xbe89d2d9	-0.26918676
184	0xbea6e9ff	-0.326004
185	0x3d32b1f8	0.043626755
186	0xbe3fc0ac	-0.18725842
187	0x3eb637d9	0.35589483
188	0x3d8a5934	0.067552954
189	0x3ed2b71a	0.4115532
190	0xbe17d17f	-0.1482601
191	0x3d965cc6	0.07341914
192	0x3d2109bf	0.039315935
193	0x3dfb15a3	0.12259986
194	0x3e355cf6	0.17711243
195	0xbe9a5506	-0.30142993
196	0xbe625800	-0.22103882
197	0x3db42954	0.08796945
198	0xbeb24d27	-0.34824488
199	0xbeb027cf	-0.34405372
200	0x3da5666f	0.08076178
201	0xbd5ca8d1	-0.053871933
202	0x3ef69395	0.4815947
203	0x3e1fdd2e	0.15611717
204	0xbe739188	-0.23785985
205	0x3d2d220f	0.04226881
206	0x3e117835	0.14206012
207	0x3e8106bf	0.2520046
208	0xbebc0c76	-0.36728257
209	0x3e106365	0.14100416
210	0x3dbf0855	0.09327761
211	0x3e28746f	0.16450666
212	0x3d35a37f	0.044345375
213	0x3e5f42ac	0.21802777
214	0x3ef94621	0.48686317
215	0x3e6ff91e	0.23434874
216	0x3d22e022	0.03976453
217	0x3e604316	0.21900591
218	0xbe6fb0ba	-0.2340726
219	0xbe70f413	-0.23530607
220	0x3ae960c5	0.0017805329
221	0x3e9857bc	0.29754436
222	0xbeacdefd	-0.33763877
223	0x3eb297de	0.3488149
224	0x3ebcd305	0.36879745
225	0xbd8a0819	-0.06739826
226	0x3e37e8c0	0.17959881
227	0x3d1bce91	0.038038794
228	0xbe085043	-0.13311867
229	0xbd5ac8a0	-0.053413987
230	0x3dc88f45	0.097929515
231	0x3dd8183c	0.10551497
232	0x3e80fcfc	0.25193012
233	0xbded5d73	-0.1159009
234	0x3dd8bc97	0.10582846
235	0x3d87f94f	0.06639349
236	0x3eb5c1e4	0.3549949
237	0xbd5810f6	-0.05275055
238	0x3e2e1cbf	0.17003153
239	0x3eb28142	0.3486424
240	0xbd97a5a9	-0.07404644
241	0xbe015337	-0.126294
242	0x3ebf9e30	0.37425375
243	0x3df39105	0.11892895
244	0x3e26152f	0.16219018
245	0x3ed293c1	0.41128352
246	0x3efbeac3	0.49202546
247	0xbe458fe9	-0.19293179
248	0xbd91328c	-0.07089719
249	0x3e29b31d	0.16572233
250	0x3e1cb8aa	0.15304819
251	0xbddf960c	-0.10917291
252	0xbe7a3cb5	-0.2443722
253	0x3a5781d5	0.00082209456
254	0x3e32646c	0.1742112
255	0x3dfff47a	0.12497802

layers.2.0.weight f4 [256, 256]
0	0x3d226ffd	0.03965758
1	0xbd24dc3e	-0.0402491
2	0xbc3d7287	-0.01156295
3	0xbd15f2e6	-0.0366086
4	0xbd5ccd07	-0.053906467
5	0xbd25a529	-0.040440712
6	0x3d1b3364	0.037890807
7	0xbc136d3c	-0.0089982115
8	0xbd83d293	-0.06436648
9	0xbd40f80b	-0.047111552
10	0xbc76fa88	-0.01507438
11	0x3d45ae66	0.048262022
12	0xbcaaf4df	-0.020868717
13	0xbd160b39	-0.036631797
14	0x3cd6dbb7	0.026227815
15	0x3d229adf	0.039698478
16	0x3d3c42a9	0.04596201
17	0x3bfc1bc0	0.0076937377
18	0xbd983a8c	-0.07433042
19	0x3d1d757c	0.03844212
20	0xbd5d4c7d	-0.054028023
21	0x3d0a3961	0.033746127
22	0x3b50948d	0.0031826824
23	0x3beda976	0.0072528673
24	0x3c65ac55	0.014018138
25	0x3d4c8e37	0.049940314
26	0xbc12af0c	-0.008952867
27	0x3cc2af84	0.023765333
28	0xbd94c24d	-0.072636224
29	0xbd8d9641	-0.06913424
30	0xbd0a5e46	-0.033781312
31	0xbd14a7ad	-0.03629272
32	0xbbcce2bb	-0.0062526143
33	0xbd0193fb	-0.031635266
34	0x3a94b131	0.0011344311
35	0x3cde5287	0.027138961
36	0xbcf9b670	-0.0304825
37	0x3d271812	0.04079444
38	0x3d04e3c5	0.03244378
39	0x3d1ed663	0.038778674
40	0xbd6075bc	-0.05479978
41	0xbd9166a0	-0.07099652
42	0x3cc9be91	0.024627002
43	0xbcbce564	-0.0230586
44	0x3ae8f107	0.0017772027
45	0xbc3c950f	-0.011510148
46	0xbd7215d5	-0.059102852
47	0x3d1c2400	0.03812027
48	0x3c768474	0.015046228
49	0xbd70fe59	-0.058836315
50	0x3c7a6da6	0.015284931
51	0xbd6ba528	-0.057530552
52	0x3b9e2e02	0.004827262
53	0x3ccdb54b	0.025110861
54	0x3d0cd11a	0.034379102
55	0x3c22c243	0.009934011
56	0x3bdcaeae	0.0067346906
57	0x3cbe8f5d	0.02326172
58	0xbbf5bd3b	-0.0074993647
59	0x3cbbb60f	0.02291396
60	0xbd0ea9c0	-0.034829855
61	0xbd003e18	-0.031309217
62	0x3cfbd494	0.030741014
63	0xbcc8bf90	-0.024505407
64	0xbd80b019	-0.06283588
65	0x3b26ddcc	0.002546179
66	0xbd729e7a	-0.059233166
67	0xbd619dc6	-0.055082105
68	0x3b61ec96	0.0034473292
69	0x3d0196a9	0.03163782
70	0xbd826ce0	-0.063684225
71	0xbc4bdeea	-0.012443284
72	0xbd92474f	-0.07142507
73	0xbd39ff80	-0.04540968
74	0xbd3b1e55	-0.045683224
75	0xbd7b515f	-0.0613569
76	0xbd0a5c98	-0.03377971
77	0x3d0ad3bd	0.033893336
78	0xbd6c7a01	-0.05773354
79	0xbb6bc9a1	-0.0035978334
80	0xbcb37231	-0.021905037
81	0x3cdf5dbb	0.027266374
82	0xbcc98df2	-0.024603818
83	0xbc074464	-0.008256052
84	0x3d1caa2e	0.038248233
85	0xbd8e7f88	-0.069579184
86	0x3bda50a4	0.006662445
87	0xbc82a5d4	-0.015948214
88	0xbd9a52e7	-0.075353436
89	0xbd10abf6	-0.035320245
90	0xbd31681e	-0.043312185
91	0xbd504592	-0.050847597
92	0xbb8baa9a	-0.0042622807
93	0x3d3d9ae1	0.046290282
94	0x3b7fe4ec	0.003904636
95	0x3d2a16ed	0.04152577
96	0xbd8d4ed1	-0.06899799
97	0x3d3e403e	0.046447985
98	0xbcc5eec1	-0.024161698
99	0xbd8d0f69	-0.06887705
100	0xbd115cfd	-0.03548907
101	0x3d4f6d34	0.050641254
102	0x3cbbfce9	0.022947745
103	0xbd1adc70	-0.03780788
104	0x3c7f3540	0.015576661
105	0x3d261e1e	0.040556066
106	0x3d497436	0.049183093
107	0x3d3bdd1b	0.04586516
108	0xbc8ab079	-0.016929852
109	0xbcd0f445	-0.025507102
110	0x3c93d6e0	0.018046796
111	0xbd8a8206	-0.06763081
112	0xbb8c51b7	-0.004282202
113	0x3d20c9f7	0.03925511
114	0xbcd79a61	-0.02631873
115	0xbd6100b7	-0.054932322
116	0x3d14f72f	0.036368545
117	0xbd031fa8	-0.03201261
118	0x3c59520b	0.0132641895
119	0x3c857aef	0.01629397
120	0xbce7eb00	-0.028310299
121	0x3d532afa	0.051554658
122	0x3ba86d7b	0.005140004
123	0xbc5a7dcb	-0.013335655
124	0x3d35c21d	0.044374574
125	0x3d362db0	0.044477165
126	0x3d2a19b9	0.041528437
127	0xbd565bf8	-0.052333802
128	0xbc5dae6e	-0.013530357
129	0x3d62f1ce	0.055406384
130	0x3c696932	0.014246272
131	0xbd1fb034	-0.0389864
132	0xbca2345e	-0.019800361
133	0x3c3cb721	0.011518271
134	0x3d2a0b7d	0.041514862
135	0xbbca4e29	-0.006173868
136	0xbce8379d	-0.028346831
137	0x3c95d52f	0.01829013
138	0xbd642d60	-0.055707335
139	0xbcd43368	-0.025903419
140	0xbc92d17c	-0.017922156
141	0xbc22c8d8	-0.00993558
142	0xbd5c625a	-0.053804733
143	0xbd2eb268	-0.04265061
144	0x3b2bbb92	0.002620433
145	0x3d0e786e	0.03478282
146	0x3d0e5c6a	0.0347561
147	0xbc87ceb5	-0.016578058
148	0xbc697346	-0.014248675
149	0xbd1fb810	-0.038993895
150	0x3b95f0ef	0.0045758407
151	0x3bb873fd	0.0056290613
152	0xbd560e13	-0.052259516
153	0xbd8ec593	-0.06971278
154	0xbd08a019	-0.033355806
155	0xbce35efc	-0.027755253
156	0x3ce169a0	0.027516186
157	0xbc20785e	-0.009794323
158	0xbb3958a0	-0.0028281584
159	0x3bcfc384	0.006340446
160	0xbc55b90a	-0.013044605
161	0xbc16efa3	-0.009212407
162	0x3c4b6517	0.012414238
163	0x3d44176b	0.047873896
164	0x3d512c31	0.051067535
165	0xbd01428a	-0.031557597
166	0xbc95353e	-0.018213864
167	0xbd6b1e97	-0.05740222
168	0xbd46d35e	-0.04854142
169	0xbc53a985	-0.012918835
170	0xbd158878	-0.0365071
171	0x3d1f0a2c	0.03882806
172	0xbd54a9b6	-0.05191966
173	0x3c29aca2	0.0103561
174	0xbd3d40e7	-0.046204474
175	0xbc2f25d4	-0.010690171
176	0x3d3818cc	0.044945523
177	0x3d0a1b4f	0.03371745
178	0x3c5062fd	0.012718913
179	0xbd30cfbc	-0.04316686
180	0xbd0dede4	-0.0346507
181	0xbb88d752	-0.004176059
182	0xbc22da38	-0.009939723
183	0xbd161b58	-0.03664717
184	0x3d4f0ffc	0.050552353
185	0xbd6495a5	-0.055806775
186	0xbd657f53	-0.05602963
187	0x3d3db4dd	0.046315063
188	0x3c2ba67b	0.010476704
189	0x3cf7b3ae	0.030237045
190	0x3c20d880	0.009817243
191	0xbd8fa231	-0.070133574
192	0xbd87395c	-0.06602737
193	0x3c9535ec	0.018214189
194	0x3d0f9e20	0.03506291
195	0x3d4710b8	0.04859993
196	0x3b66a9a2	0.0035196324
197	0x3c868faf	0.016425936
198	0xbd40c874	-0.047066167
199	0xbc14fb87	-0.009093172
200	0x3d44ac2d	0.048015762
201	0xbc89814f	-0.016785292
202	0x3c8cf91e	0.017208632
203	0xbd660617	-0.05615815
204	0x3d644aa4	0.055735245
205	0x3d254910	0.04035288
206	0x3b817371	0.0039505293
207	0xbd007169	-0.031358156
208	0xbd41d34e	-0.047320656
209	0xbcd9f1e2	-0.026604597
210	0x3ce3044d	0.027712012
211	0x3d12a945	0.03580596
212	0x3c6fbd62	0.014632555
213	0xbd0c3b7d	-0.03423642
214	0xbd8869c3	-0.066607974
215	0xbd3f3c49	-0.04668835
216	0xbd161edb	-0.03665052
217	0xbd8cd8c7	-0.068772845
218	0x3d7a2370	0.061068952
219	0x3d14a6ef	0.036292013
220	0x3d1453ba	0.03621266
221	0x3ca27c4f	0.019834666
222	0xbd83da62	-0.064381376
223	0xbd838b5b	-0.06423064
224	0x3ccebcbc	0.02523648
225	0x3caf827a	0.02142452
226	0x3d004be6	0.031322382
227	0xbc3b98ed	-0.011450035
228	0x3d2bf54c	0.04198198
229	0xbb48e37a	-0.0030653165
230	0xbd558a78	-0.052134007
231	0xbd29fce7	-0.041500952
232	0x3c8e479a	0.017368127
233	0x3d5119ec	0.05105011
234	0xbcf77d44	-0.030211098
235	0x3d2a1572	0.041524358
236	0x3d05a7eb	0.032630842
237	0xbd0cfa90	-0.034418643
238	0xbb43c76c	-0.0029873503
239	0xbd898f58	-0.06716794
240	0xbd23e92c	-0.040017292
241	0xbb8aadf7	-0.004232164
242	0x3d139ee3	0.036040198
243	0xbbbd3fa2	-0.005775408
244	0xbc90c740	-0.017673135
245	0xbbbb266a	-0.0057113664
246	0xbd6561c3	-0.056001436
247	0xbbadd080	-0.005304396
248	0x3c8cd0b6	0.017189365
249	0xbd48a864	-0.048988715
250	0xbd829d83	-0.06377699
251	0x3d1c8e3b	0.03822158
252	0x3c959fa9	0.018264608
253	0x3b827380	0.003981054
254	0xbd94061b	-0.07227727
255	0xbd8da7e7	-0.069167905

layers.2.0.bias f4 [256]
0	0xbd2cc25b	-0.04217754
1	0x3d1b8483	0.03796817
2	0xbc38dde3	-0.011283371
3	0x3c608266	0.013702964
4	0x3d18156a	0.037129797
5	0xbce7c67c	-0.028292887
6	0xbc9d6345	-0.019212374
7	0x3cb96e3d	0.022635574
8	0x3b48b0aa	0.0030622878
9	0xbb3f5b85	-0.0029198837
10	0xba4c3472	-0.00077897974
11	0x3c301536	0.010747245
12	0xbd0defe5	-0.03465261
13	0xbd133424	-0.035938397
14	0x3dff428e	0.12463866
15	0xbcfacd66	-0.03061552
16	0x3e477c91	0.19481112
17	0x3d76e2a2	0.060274728
18	0xbce40e57	-0.027838869
19	0xbd9f6034	-0.07782021
20	0xbdcab0cd	-0.09897003
21	0xbc1e392a	-0.009657184
22	0xbc95329f	-0.018212615
23	0xbd38b3e6	-0.04509344
24	0x3d05b736	0.032645427
25	0xbd836527	-0.06415778
26	0x3d944120	0.07238984
27	0xbd14c626	-0.03632178
28	0xbd3e0263	-0.046388995
29	0xbd86dee9	-0.065854855
30	0xbdb6115c	-0.0889003
31	0x3eafb01e	0.34314054
32	0xbb563161	-0.003268324
33	0x3d02f858	0.03197512
34	0xbdb8a820	-0.09016442
35	0xbd13a0e4	-0.03604211
36	0xbd026cdf	-0.03184211
37	0x3cfcf4c6	0.030878436
38	0x3d384f20	0.044997334
39	0xbe10a3d0	-0.1412499
40	0xbda37a3f	-0.07982301
41	0xbc5caed6	-0.0134694185
42	0xbd46272a	-0.048377194
43	0x3e7c16a4	0.24618012
44	0x3bcb0a28	0.006196279
45	0xbd0883ee	-0.033328943
46	0x3ebc6a03	0.3679963
47	0x3cdd3968	0.027004912
48	0x3d26ec0b	0.040752452
49	0xbd17b28a	-0.037035502
50	0x3e88f2af	0.26747653
51	0x3e56f377	0.20991312
52	0x3dd75308	0.10513884
53	0x3d785a2a	0.060632862
54	0x3cea270f	0.028583078
55	0x3c0bab94	0.008524794
56	0x3eb2c24b	0.3491386
57	0x3ead02b0	0.33791113
58	0x3d28278e	0.041053347
59	0x3cd28fca	0.02570333
60	0xbcaececa	-0.02133884
61	0xbdf416e0	-0.119184256
62	0xbc1de626	-0.009637391
63	0xbaf4c2c0	-0.0018673763
64	0xbd4e0817	-0.050300684
65	0xbbddb242	-0.0067656348
66	0x3e36822e	0.17823097
67	0x3e09751d	0.13423581
68	0xbd52b2e7	-0.051440146
69	0x3cf655ba	0.030070174
70	0xbc98e515	-0.018663922
71	0xbb914384	-0.0044330973
72	0x3cc409c6	0.023930442
73	0x3d6e22bc	0.058138594
74	0xbaa61e6c	-0.0012673861
75	0xbd4eb0a1	-0.050461415
76	0x3c3f8454	0.011689264
77	0x3cf494cb	0.029856106
78	0xbd71fa2e	-0.05907648
79	0xbd2ce31a	-0.04220877
80	0xbdc282f8	-0.094976366
81	0xbe2a710f	-0.16644691
82	0xbcdd2228	-0.026993826
83	0x3e8de71a	0.2771538
84	0x3d32b78b	0.04363207
85	0x3d4c66eb	0.049902838
86	0xbcebaae4	-0.02876801
87	0xbcad061f	-0.021121083
88	0x3c555886	0.013021594
89	0xbdaf7050	-0.08566344
90	0x3d5423c6	0.05179193
91	0xbe10f6c3	-0.14156632
92	0xbd66964f	-0.05629569
93	0x3c56e99f	0.013117223
94	0x3df25ee5	0.11834506
95	0xbcc7d6f9	-0.0243945
96	0xbb6d9410	-0.0036251582
97	0x3c904fcf	0.01761618
98	0xbdccaa97	-0.09993475
99	0xbc7c64de	-0.015404908
100	0x3ca4b537	0.020105941
101	0x3e88731b	0.26650319
102	0x3cfc72b1	0.030816408
103	0x3d170e48	0.036878854
104	0x38c7462c	9.50213e-05
105	0xbdaa1ac7	-0.083058886
106	0x3c95eec7	0.018302334
107	0xbd388b4d	-0.045054723
108	0xbd23ca94	-0.039988115
109	0xbd908f72	-0.0705861
110	0x3ed45d5b	0.41477475
111	0x3d290099	0.041260336
112	0xbd26d99f	-0.040734883
113	0x3cbc5b90	0.02299288
114	0x3d0616b5	0.0327365
115	0x3e4251d0	0.18976521
116	0x3e1c20fe	0.1524696
117	0x3d35563c	0.044271693
118	0xbc489050	-0.012241438
119	0xbcc358cb	-0.02384605
120	0x3e8935ea	0.26798946
121	0x3d20a3d1	0.039218727
122	0x3ea4dd16	0.32199925
123	0x3ea4f4e7	0.32218096
124	0xbd1721f0	-0.0368976
125	0x3eb83cac	0.3598379
126	0x3c9b1ea5	0.01893551
127	0x3d877f40	0.06616068
128	0xbd51884d	-0.051155377
129	0xbd72bc89	-0.059261832
130	0xbd49ab6f	-0.049235757
131	0x3cb18957	0.021671934
132	0xbc60512e	-0.01369123
133	0x3cf11fd2	0.029434118
134	0xbd351936	-0.044213496
135	0x3c622760	0.013803333
136	0x3d22333a	0.039599635
137	0xbd4e942e	-0.050434284
138	0x3d2e73e8	0.042591006
139	0xbd763831	-0.060112182
140	0x3c9ff996	0.019528192
141	0xbd5aa113	-0.05337627
142	0xbe356e2e	-0.17717811
143	0x3ceb4cc8	0.028723136
144	0xbc81d021	-0.015846314
145	0x3ca9dbc6	0.020734679
146	0xbd79221e	-0.060823552
147	0x3ddad95a	0.10685988
148	0xbd4a0174	-0.049317792
149	0x3e8dd934	0.27704775
150	0x3c064a70	0.008196458
151	0x3de131f7	0.10995858
152	0x3c968761	0.0183751
153	0xbc3a213c	-0.011360463
154	0x3cc66f3d	0.024222964
155	0xbd6c8127	-0.057740357
156	0x3d3b9d92	0.045804568
157	0xbb358111	-0.0027695338
158	0xbd0df955	-0.03466161
159	0xbe0ffa9e	-0.14060447
160	0xbd23f8d8	-0.040032238
161	0x3ce4f63f	0.02794945
162	0x3e905eaa	0.28197223
163	0xbd71f841	-0.059074644
164	0x3dc1eaab	0.094685875
165	0xbcabdb4a	-0.020978589
166	0x3c9645a4	0.018343754
167	0x3daafabd	0.08348606
168	0xbd2ca3fd	-0.04214858
169	0xbcaf87fb	-0.021427145
170	0x3c9b26d7	0.018939419
171	0x3e978afb	0.2959822
172	0xbcc1b4f4	-0.023645855
173	0x3e7b1117	0.24518238
174	0x3dec9252	0.11551346
175	0x3cb00cc3	0.02149046
176	0x3da68721	0.081312425
177	0x3d4614b8	0.048359603
178	0xbb85ada6	-0.0040795384
179	0x3d00545e	0.03133046
180	0xbbbcf007	-0.005765918
181	0x3e807312	0.25087792
182	0x3e89dc8f	0.26926085
183	0x3dcccddf	0.10000204
184	0xbd9667d8	-0.073440254
185	0x3cd0be83	0.025481468
186	0xbd3a8ab0	-0.04554242
187	0xbb135d77	-0.002248613
188	0x3c94b9e8	0.018155053
189	0x3dda5332	0.106603995
190	0x3e4c7043	0.199647
191	0x3d08eaac	0.033426926
192	0x3eb944e2	0.36185366
193	0xbca06ab4	-0.01958213
194	0x3cfe9c0e	0.031080272
195	0xbdc3179d	-0.09525988
196	0x3e07c5f6	0.1325911
197	0x3df6a838	0.12043804
198	0x3bafae34	0.005361343
199	0xbd0541c4	-0.032533422
200	0x3d04af96	0.032394014
201	0x3deaa40d	0.114570715
202	0xbd254131	-0.040345374
203	0x3e2c99cc	0.16855544
204	0xbc4831fe	-0.01221895
205	0x3d0ef98f	0.034905966
206	0x3cd22a27	0.025654865
207	0x3d1ea51f	0.03873169
208	0x3b36b540	0.002787903
209	0x3e1ae9cf	0.15128253
210	0xbcb2c598	-0.021822736
211	0xbc9fc287	-0.019501938
212	0xbdc6883b	-0.09693953
213	0x3dcdc2c0	0.10046911
214	0xbd7ba66c	-0.06143801
215	0xbd83cc2e	-0.064354286
216	0x3e66c91d	0.22537656
217	0xbd88195a	-0.066454604
218	0xbdf3d528	-0.11905891
219	0xbcaa10dc	-0.020759992
220	0xbd86ba97	-0.06578558
221	0xbce312f4	-0.027718998
222	0x3d326c04	0.043560043
223	0xbddf1db8	-0.1089434
224	0x3e985986	0.297558
225	0x3e84b05b	0.259158
226	0xbc36a4f7	-0.011147729
227	0xbe08bef7	-0.13354097
228	0x3bb99b1b	0.005664242
229	0xbc00a5d6	-0.007852038
230	0xbd91871f	-0.071058504
231	0xbd73283b	-0.05936454
232	0x3c0e8d07	0.008700616
233	0xbda9f20f	-0.08298122
234	0xbccabab9	-0.02474724
235	0x3eabbdc4	0.33543217
236	0xbc49396a	-0.012281755
237	0xbde3922c	-0.111118644
238	0xbd862e13	-0.06551757
239	0x3e8a4c3f	0.27011296
240	0x3e0e4042	0.138917
241	0x3d3b47cc	0.045722768
242	0xbd3abdce	-0.045591168
243	0x3e09fa12	0.134743
244	0xbc0207bc	-0.007936414
245	0x3dc15c36	0.09441416
246	0x3c708021	0.014678986
247	0xbc53966c	-0.012914281
248	0x3d62b536	0.055348597
249	0x3c7d8194	0.015472788
250	0xbd8c8c27	-0.068626694
251	0xbd2d9be9	-0.042385016
252	0x3cca7a36	0.024716478
253	0xbce64e6e	-0.02811357
254	0xbe1fd741	-0.15609457
255	0x3d1e6f70	0.038680494

layers.3.0.weight f4 [4, 256]
0	0x3d20e45f	0.03928029
1	0xbbdeb680	-0.006796658
2	0xbd84a8b3	-0.06477489
3	0x3cb932b0	0.022607177
4	0xbd99cddf	-0.0750997
5	0xba9bbfec	-0.0011882759
6	0x3d361a39	0.0444586
7	0x3c550f70	0.013004169
8	0xbc28b034	-0.010295916
9	0x3c15baf3	0.00913881
10	0x3cddc196	0.027069848
11	0xbc3551d9	-0.011066877
12	0xba233aee	-0.0006226738
13	0x3c7fdbb5	0.015616347
14	0x3e1dde94	0.15416938
15	0x3caee66c	0.021350108
16	0x3dc13140	0.09433222
17	0xbbbe162d	-0.0058009834
18	0xbd247212	-0.04014785
19	0x3deaf7e7	0.11473065
20	0xbc064fb8	-0.008197717
21	0x3dc61a66	0.09673004
22	0xbcb21c13	-0.021741902
23	0x3d495add	0.04915892
24	0x3bbfcab0	0.0058530197
25	0x3bce2a57	0.0062916684
26	0x3cba9412	0.022775684
27	0xbce61b8e	-0.028089311
28	0xbe162d8f	-0.14665817
29	0x3a9ba2e0	0.0011874102
30	0x3bed348f	0.0072389315
31	0xbddb7e0d	-0.10717402
32	0xbca76065	-0.020431707
33	0x3cbec111	0.02328542
34	0xbd6450a9	-0.055740986
35	0xbd5a6f51	-0.053328816
36	0xbd0af576	-0.033925496
37	0xbd5f8d3b	-0.054578047
38	0xbe8d0fa5	-0.27550998
39	0x3cff8bb9	0.031194555
40	0xbe14b2ef	-0.14521383
41	0x3d31bbe8	0.043392092
42	0x3cd2b1f4	0.02571962
43	0x3dcf1df5	0.10113136
44	0xbb26ea80	-0.0025469363
45	0xbd3e8154	-0.046510056
46	0xbd9cabee	-0.076499805
47	0x3d32884c	0.043587014
48	0x3d2e25b2	0.042516418
49	0xbce000fc	-0.02734422
50	0x3b90c704	0.0044182558
51	0x3d883991	0.06651605
52	0x3cfa71c0	0.030571818
53	0xbcac301d	-0.021019036
54	0xbd70ec78	-0.058819264
55	0x3d1011aa	0.035173096
56	0xbd725152	-0.059159584
57	0xbd50c28d	-0.050966788
58	0x3d0b305d	0.03398167
59	0x3d407cb8	0.04699394
60	0xbe0e7686	-0.139124
61	0x3db986ac	0.0905889
62	0x3ccc3d00	0.02493143
63	0x3c29c3a4	0.010361586
64	0x3d1fa54f	0.03897601
65	0x3c1ba448	0.009499617
66	0xbd7b2636	-0.061315738
67	0xbdbbc88b	-0.0916911
68	0x3d13c585	0.03607704
69	0x3d066da2	0.032819398
70	0xbd2c7849	-0.0421069
71	0xbd2f965c	-0.042868003
72	0xbbe00b28	-0.0068372674
73	0xbe00f268	-0.1259247
74	0x3cdea541	0.027178409
75	0xbd8baf39	-0.068205304
76	0xbd0501fc	-0.032472596
77	0xbc7c7d46	-0.015410727
78	0xbccf069c	-0.025271706
79	0xbe0e2961	-0.13882972
80	0x38b4bed6	8.618615e-05
81	0x3d784bd3	0.060619187
82	0x3c310cf0	0.010806307
83	0xbd4155b5	-0.047200877
84	0xbdca7828	-0.09886199
85	0x3d16e218	0.036836714
86	0xbd289e99	-0.041166876
87	0xbbf7ed7a	-0.007566151
88	0x3cbe992f	0.023266403
89	0x3d34aec7	0.044111993
90	0xbd77cd9a	-0.06049881
91	0xbbd527d1	-0.0065049906
92	0x3dc31b7a	0.09526725
93	0x3b953766	0.004553723
94	0x3d0ea831	0.03482837
95	0x3a918480	0.001110211
96	0x3d312ce4	0.0432557
97	0xbd283020	-0.04106152
98	0x3db3bd79	0.087763734
99	0x3cc23990	0.023709089
100	0xbc525e92	-0.01283993
101	0xbd38afb0	-0.045089424
102	0xbd0db50a	-0.03459648
103	0x3dff2688	0.12458521
104	0x3beb05e7	0.0071723345
105	0x3b4f3542	0.0031617437
106	0xbc993788	-0.018703237
107	0xbc237d42	-0.009978594
108	0xbd75eb2c	-0.06003873
109	0x3d0d8db9	0.034558985
110	0x3d6adc9c	0.057339296
111	0x3d9d4328	0.07678825
112	0xbdc14a4a	-0.09437998
113	0x3cb15c84	0.02165056
114	0x3c1263ad	0.008934897
115	0x3d39d925	0.0453731
116	0xbd23d168	-0.039994627
117	0x3eae24c7	0.34012434
118	0x3d39c11f	0.04535019
119	0xbd5dda38	-0.054163188
120	0xbd48f1db	-0.049058776
121	0x3c501f73	0.012702811
122	0xbdc6849c	-0.09693262
123	0xbde6abea	-0.11263259
124	0xbd2a5798	-0.041587442
125	0xbcef7859	-0.02923219
126	0x3d313d4b	0.043271344
127	0xbd2bc45e	-0.041935317
128	0x3c8f5a20	0.01749903
129	0x3d25b014	0.040451124
130	0x3d2d8682	0.042364605
131	0xbce77c37	-0.028257472
132	0x3c0e1f8e	0.008674515
133	0x3d2e453a	0.04254649
134	0x3c9e9bf8	0.019361481
135	0x3bfa8bdf	0.0076460685
136	0xbd33e3e3	-0.0439185
137	0xbca0467c	-0.01956486
138	0x3c430179	0.011902207
139	0xbd82110b	-0.06350907
140	0x3ca6af11	0.02034715
141	0x3d8c027c	0.06836411
142	0x3c1e041a	0.009644533
143	0x3d5cbcc6	0.053890966
144	0x3d148557	0.036259975
145	0x3cf04f64	0.029334731
146	0xbd496f16	-0.049178205
147	0xbc24bb72	-0.010054456
148	0xbd1f4c36	-0.03889104
149	0xbdb8ec3d	-0.09029434
150	0x3d2de459	0.042454097
151	0x3d29d3ca	0.041461743
152	0x3d29042f	0.041263755
153	0x3d971b97	0.07378309
154	0x3d662976	0.056191884
155	0xba3dd000	-0.0007240772
156	0xbac9e9af	-0.0015404726
157	0x3d3a944b	0.04555158
158	0xbd0da374	-0.03457971
159	0x3d1f9ed5	0.038969833
160	0xbc941c2c	-0.01807984
161	0x3d074386	0.03302338
162	0xbdc8ac2c	-0.09798464
163	0xbd3138e2	-0.04326714
164	0xbd69247a	-0.056919552
165	0xbd9591f0	-0.07303226
166	0xbb977646	-0.0046222536
167	0x3d81f65d	0.06345818
168	0x3a1dbd6d	0.00060173013
169	0xbd3be8a2	-0.045876153
170	0x3b86c5e9	0.004112948
171	0xbdb63ae3	-0.088979505
172	0xbc9ab371	-0.018884392
173	0xbd0c63a7	-0.034274723
174	0x3c270379	0.010193699
175	0x3b16085e	0.002289317
176	0x3c2657c8	0.010152765
177	0xbdfbcd89	-0.12295062
178	0xbd1723e6	-0.03689947
179	0x3c1954d9	0.009358608
180	0xbd302448	-0.04300335
181	0xbd66abc6	-0.05631616
182	0xbd9e1c85	-0.077202834
183	0x3d26ef74	0.040755704
184	0x3c19de00	0.009391308
185	0x3c054480	0.008134007
186	0x3d537c20	0.051632047
187	0xbbaf912a	-0.005357881
188	0xbb6c43d6	-0.0036051176
189	0xbca7e6ea	-0.02049585
190	0xbd881bca	-0.06645925
191	0x3d754188	0.05987695
192	0x3ea86915	0.3289267
193	0x3ddbdbea	0.10735305
194	0xbc734cbe	-0.01484984
195	0xbd09c252	-0.033632584
196	0x3d2fd07c	0.042923436
197	0x3d03c7e4	0.032173052
198	0x3d2c68d8	0.042092174
199	0xbe722115	-0.23645432
200	0x3cc25107	0.023720277
201	0xbc933950	-0.017971665
202	0xbd3867d2	-0.045020886
203	0xbe0ae86b	-0.13565223
204	0xbcfc8b3c	-0.03082811
205	0x3df7dd14	0.12102714
206	0x3c0d944c	0.008641314
207	0xbd408416	-0.047000967
208	0xbd33393d	-0.04375576
209	0xbdcdc557	-0.10047405
210	0x3cabc8a3	0.020969694
211	0xbc817c54	-0.015806355
212	0xbdb237d5	-0.08702055
213	0x3bcc3cd0	0.0062328354
214	0x3d11e535	0.03561898
215	0x3e0719c0	0.13193417
216	0xbcb75a34	-0.02238188
217	0x3cad698c	0.021168493
218	0x3c03d019	0.00804522
219	0xbc624664	-0.013810728
220	0xbd504d96	-0.05085524
221	0xbc9b4fb4	-0.018958904
222	0x3c87face	0.016599085
223	0x3d020749	0.03174523
224	0xbdc70fc6	-0.097198054
225	0xbd9a18d7	-0.07524269
226	0xbd6212f8	-0.05519387
227	0x3c18d538	0.009328179
228	0xbc23592c	-0.009969991
229	0xbb50cf49	-0.0031861833
230	0xbb144e9c	-0.0022629863
231	0x3d3f797c	0.046746716
232	0x3b86b3b0	0.004110776
233	0x3d0db212	0.03459365
234	0x3d3a002e	0.045410328
235	0xbde23081	-0.11044408
236	0xbd20fd9a	-0.039304353
237	0x3c3bb955	0.011457761
238	0x3caec6eb	0.021335086
239	0x3d84cd68	0.06484491
240	0x3e25fca7	0.1620966
241	0x3c259982	0.0101074
242	0x3d9962ef	0.07489573
243	0xbd6198e3	-0.055077445
244	0x3e2fb627	0.1715933
245	0xbbfd4cb0	-0.007730089
246	0xbc0dc468	-0.008652784
247	0xbaa2f65b	-0.0012433039
248	0xbcb3dc73	-0.021955704
249	0x3d14b4fd	0.036305416
250	0xbc06e918	-0.008234285
251	0x3d144f7d	0.03620862
252	0xbd782aa2	-0.060587533
253	0x3d3572ef	0.044299062
254	0x3d939673	0.0720643
255	0xbd3ca228	-0.04605308

layers.3.0.bias f4 [4]
0	0x3edb35b4	0.4281441
1	0x3e9ff0e1	0.31238464
2	0xbdfd1933	-0.12358322
3	0x3edc98a1	0.43085197
