benchmarks/Train/Train_LunarLander-v2_PPO_20230402-223154/models/critic.pth (torch, 275223 bytes, 5 tensors)

fc1.weight f4 [256, 8]
-0.3313681 -0.8943171 -0.009230632 0.4176072 0.23961473 0.17349614 -0.45466283 -0.0096787615
0.3514666 -0.3709396 0.3606362 0.037232794 -0.035435874 0.21135469 0.10110101 -0.2802035
0.31747866 -0.2000832 0.21408407 -0.043906998 -0.28280443 0.3912827 -0.58597493 -0.071118705
0.10573796 -0.020766439 0.104723275 0.16324402 0.1475032 -0.017720018 -0.13967723 0.019565798
-0.087641716 -0.28789753 0.27793905 0.35974473 0.07066145 0.04776468 -0.07426972 -0.29414794
-0.20623028 -0.9364304 0.6085801 0.38320976 -0.5071892 -0.11493782 -0.03287528 0.058632277
0.3924395 0.07682685 0.4239112 0.3464909 -0.25532565 0.20820142 0.30502394 -0.21942514
-0.5961557 -0.0023374378 0.45049375 0.14864649 0.36641896 -0.11913237 -0.09848247 0.27126148
-0.092104025 0.055564146 0.5879301 -0.46138087 0.22801296 -0.36333627 0.22233917 0.5334562
0.04941729 -0.049297642 0.07664274 0.5755034 -0.14937238 0.34933305 0.08804647 -0.3641027
0.15850282 0.102793604 -0.39764687 -0.7282938 -0.08727455 0.12916133 -0.0630057 -0.27180773
0.0060331556 -0.36933768 -0.08566981 0.076364264 -0.120857395 -0.05189021 -0.19825546 -0.30284253
0.19197428 -1.072167 0.20457847 0.3391462 0.2289199 0.0030096439 -0.12331981 -0.31620553
0.16401653 -0.9437174 -0.082454994 0.9035146 -0.30440345 0.4194515 -0.41129515 0.023606656
0.0823083 0.06414028 0.28404623 -0.13104194 -0.30075973 0.2718936 -0.28444302 -0.060198214
0.27238125 -0.20920716 -0.29154143 0.86468625 0.7281457 -0.47883883 0.14064127 0.24472682
0.3913498 -0.019861529 -0.09174907 0.3026912 -0.47723842 0.16750804 -0.5305994 -0.0010763477
0.01362314 -0.67259467 0.2656929 0.50393224 -0.102648884 0.173698 -0.2531762 -0.3018778
0.25225535 0.015106581 -0.34886163 -0.29397413 -0.41588444 0.533239 -0.156002 -0.028943866
0.31260344 0.017493708 0.30035165 -0.4744173 1.4050153 -0.10014913 -0.20001453 0.24864425
-0.15832219 -0.027800186 -0.27286953 0.14439087 -0.008848395 0.21469644 -0.17135255 -0.41387248
0.07737679 0.15632145 0.038739227 0.1548311 -0.2335766 -0.5790262 0.302881 -0.116208784
0.13011311 0.35355225 -0.2639858 -0.59287983 -0.38359424 -0.06819574 -0.1699409 -0.19051665
-0.0060125124 0.19250718 -0.20054738 0.084524356 0.10687439 -0.028711624 -0.28273517 -0.3209039
0.20674336 -0.20330948 -0.062524185 -0.17806454 -0.022456566 0.85646456 -0.001956691 0.09417728
0.1930907 -0.1830024 0.0400158 0.010122973 0.025562096 -0.054686412 -0.46877912 -0.03615369
-0.36476085 -0.36228365 -0.053883485 0.49905822 -0.48230845 0.21867125 0.07341212 -0.1352322
0.23521608 -0.18577056 -0.21683018 0.24341515 -0.395422 0.013613632 -0.28400555 -0.22011602
-0.089174524 -0.180033 0.06985787 0.42317286 -0.22107536 0.248368 -0.28970888 -0.3975137
0.22105098 -0.5465515 -0.20647831 -0.26427624 0.073214486 -0.28208828 0.16984627 -0.1036586
0.23344441 -0.20563774 0.22250096 -0.14844415 -0.026552543 0.008949579 -0.08306866 -0.14519759
-0.28764307 -0.5701934 0.23549587 0.4805338 0.38153383 -0.50831413 -0.46492073 0.27870828
00000000: 14a9 a9be f7f1 64bf 143c 17bc 9cd0 d53e
00000010: 905d 753e f9a8 313e 91c9 e8be ab93 1ebc
00000020: 6ef3 b33e cceb bdbe 4fa5 b83e 6a81 183d
00000030: 3525 11bd 5d6d 583e 0c0e cf3d d576 8fbe
00000040: 908c a23e 9ce2 4cbe db38 5b3e d3d7 33bd
00000050: becb 90be 3556 c83e 7402 16bf afa6 91bd
00000060: 258d d83d 611e aabc 2879 d63d 7129 273e
00000070: 140b 173e 9229 91bc 8c07 0fbe 7448 a03c
00000080: 807d b3bd 4e67 93be 074e 8e3e 7630 b83e
00000090: f3b6 903d e6a4 433d b91a 98bd 8f9a 96be
000000a0: 082e 53be e7b9 6fbf e8cb 1b3f 1234 c43e
000000b0: 27d7 01bf 8564 ebbd 3ba8 06bd 6628 703d
000000c0: d5ed c83e 6557 9d3d e40a d93e 4167 b13e
000000d0: 0bba 82be c132 553e 192c 9c3e fcb0 60be
000000e0: a99d 18bf b32f 19bb 1ea7 e63e c936 183e
000000f0: 449b bb3e acfb f3bd 2db1 c9bd c9e2 8a3e
00000100: 09a1 bcbd 3b97 633d 9682 163f 1d3a ecbe
00000110: 3b7c 693e 3607 babe e1ac 633e 9690 083f
00000120: c969 4a3d 53ec 49bd def6 9c3d 3154 133f
00000130: 13f5 18be c8db b23e b551 b43d ab6b babe
00000140: 904e 223e 7485 d23d 5f98 cbbe 7671 3abf
00000150: 00bd b2bd de42 043e 2209 81bd 622a 8bbe
00000160: c7b1 c53b d419 bdbe a773 afbd de64 9c3d
00000170: 1584 f7bd d48a 54bd 7b03 4bbe 2d0e 9bbe
00000180: e894 443e c53c 89bf 057d 513e 92a4 ad3e
00000190: fa69 6a3e 723d 453b 198f fcbd b1e5 a1be
000001a0: f3f3 273e 7797 71bf 2ade a8bd bc4c 673f
000001b0: c5da 9bbe 59c2 d63e 4795 d2be bf62 c13c
000001c0: 4191 a83d fb5b 833d 826e 913e dc2f 06be
000001d0: 2efd 99be a335 8b3e 84a2 91be 6792 76bd
000001e0: 8e75 8b3e 673a 56be eb44 95be 145c 5d3f
000001f0: c267 3a3f 5d2a f5be 4404 103e ab99 7a3e
00000200: 005f c83e a5b4 a2bc f0e6 bbbd 57fa 9a3e
00000210: 9858 f4be 3a87 2b3e 5dd5 07bf 3c14 8dba
00000220: 9733 5f3c 2a2f 2cbf e608 883e b401 013f
00000230: 9439 d2bd e3dd 313e 50a0 81be ba8f 9abe
00000240: 9d27 813e 9881 773c fe9d b2be c783 96be
00000250: ceee d4be 5a82 083f fdbe 1fbe b01b edbc
00000260: 8f0d a03e f74e 8f3c b1c7 993e d3e6 f2be
00000270: 8bd7 b33f fd1a cdbd 9cd0 4cbe 999c 7e3e
00000280: 361f 22be 37bd e3bc 8eb5 8bbe 33db 133e
00000290: dcf8 10bc 62d9 5b3e 0b77 2fbe 18e7 d3be
000002a0: b977 9e3d bb12 203e 06ad 1e3d 0b8c 1e3e
000002b0: b42e 6fbe 103b 14bf 3813 9b3e dffe edbd
000002c0: 5f3c 053e cd04 b53e 2629 87be f9c6 17bf
000002d0: 7766 c4be 35aa 8bbd fd04 2ebe cc16 43be
000002e0: 9c04 c5bb 9a20 453e 4b5c 4dbe 1b1b ad3d
000002f0: f6e0 da3d a434 ebbc aac2 90be 844d a4be
00000300: 88b4 533e 5c30 50be ae0c 80bd 8d56 36be
00000310: d5f6 b7bc 4341 5b3f d43b 00bb 05e0 c03d
00000320: 92b9 453e fb64 3bbe 9ce7 233d d3da 253c
00000330: 9a67 d13c dcfe 5fbd d103 f0be e415 14bd
00000340: efc1 babe 3e7d b9be eeb4 5cbd 8f84 ff3e
00000350: 22f1 f6be 5beb 5f3e 1859 963d 4f7a 0abe
00000360: 7cdc 703e a33a 3ebe bb08 5ebe d241 793e
00000370: c174 cabe b60b 5f3c 2d69 91be 1866 61be
00000380: 22a1 b6bd 925a 38be a511 8f3d 1daa d83e
00000390: 9461 62be 2e54 7e3e b954 94be ea86 cbbe
000003a0: 305b 623e cdea 0bbf 0d6f 53be 374f 87be
000003b0: 7af1 953d e06d 90be 2eec 2d3e f64a d4bd
000003c0: 0d0c 6f3e b392 52be 4bd7 633e be01 18be
000003d0: b884 d9bc 41a1 123c e71f aabd adae 14be
000003e0: f445 93be 32f8 11bf d425 713e 8708 f63e
000003f0: 6758 c33e e020 02bf 170a eebe dab2 8e3e

fc1.bias f4 [256]
-0.0029984901 -0.1755002 -0.2217458 -0.20800976 -0.0112406975 -0.055047177 -0.22089614 0.09840049
-0.102163106 -0.23982912 -0.33071652 -0.12376038 0.17079306 0.09172175 -0.3015929 -0.24167894
0.06473021 -0.029916901 -0.2239837 -0.15412952 -0.22903602 -0.31003332 -0.28087598 -0.3647197
-0.18856883 -0.13935606 -0.116328284 -0.21687822 0.12652276 -0.22696736 -0.16620916 0.056472126
-0.02503677 -0.13433236 -0.14490342 -0.35715544 0.34280187 -0.13624044 -0.5630768 -0.20003922
-0.38776067 -0.3898593 -0.38756758 -0.17571022 -0.43928346 -0.050060418 0.21766649 -0.20453392
-0.39008126 0.033125956 -0.19261539 -0.26170558 -0.39024085 0.042934895 -0.33906722 -0.09143308
-0.084187284 -0.19775242 -0.15534388 -0.22979794 -0.3068513 -0.1291937 -0.30357686 -0.23263326
-0.18983015 -0.07442474 -0.22139059 0.24879348 -0.4200994 -0.41622394 -0.185573 -0.1722307
-0.24770603 -0.2343518 0.26245028 -0.1387435 -0.18457298 -0.037253585 -0.27353832 0.07692822
0.011252783 -0.3558044 0.026959125 0.3213363 0.29387736 -0.055300165 -0.21624924 0.18570691
-0.27189264 -0.14712462 -0.31442332 -0.52244544 -0.026110584 -0.07466868 -0.26707375 -0.26532972
0.20575939 -0.33974674 0.19600964 -0.4112712 -0.27189437 -0.17056556 -0.011166273 -0.02206104
-0.03389711 -0.17909473 -0.5549585 0.009687852 -0.2511192 -0.19366765 -0.095164694 -0.091150686
0.3001492 -0.40975457 -0.103286035 -0.12316336 -0.16376849 -0.24024415 0.0032181244 -0.35064226
-0.3980588 -0.1731289 -0.18660963 -0.07224993 -0.2161123 -0.020604247 -0.17234914 0.05176856
-0.24015543 0.097647816 -0.039008316 -0.032334886 -0.10401344 -0.38287637 -0.13535945 -0.16768059
-0.3492297 -0.21640196 -0.16179553 -0.42880115 -0.29501072 -0.21118051 0.06622356 -0.23400295
-0.3319642 0.033004303 -0.047755804 0.4799732 -0.278554 -0.15545757 -0.30107877 0.11426277
-0.3019259 -0.15845783 -0.041733444 -0.11823242 -0.1472742 0.19451548 0.09868227 -0.3143098
-0.2077095 0.055055786 -0.3761308 -0.24630825 -0.15710743 -0.4257186 -0.41407 0.06367393
-0.054411188 -0.113212064 -0.051335663 -0.36195868 -0.26052666 0.11643667 -0.27588627 -0.21786141
-0.28075242 -0.23775315 0.09935101 -0.023619095 -0.16700271 -0.27718505 -0.23344833 -0.11585959
-0.29616487 -0.35455212 -0.03986058 -0.09888742 -0.11492797 -0.18766141 -0.28600645 -0.16783893
0.4038018 -0.14310887 0.03378786 -0.1383575 0.22425961 -0.3027506 0.033891547 -0.21894251
-0.26117614 -0.106959 -0.038538642 -0.09769557 -0.1316709 -0.25573295 0.08931317 -0.28120318
0.36375767 -0.41130072 -0.26031235 -0.20414838 -0.15178299 -0.17603433 -0.31944796 -0.14880826
-0.14323796 0.06316305 0.03096318 -0.25189 -0.28255907 -0.3257097 -0.22036688 -0.13492271
0.07365871 -0.29519603 -0.42661843 0.10644956 -0.19507468 -0.17067224 -0.17774661 -0.3622679
-0.28850502 -0.24484953 -0.45249942 -0.2364821 -0.0624868 -0.11272527 -0.21931851 0.03475405
-0.118517704 -0.19975711 -0.059731636 -0.47552374 -0.48336834 -0.07662923 -0.03256526 0.23481183
0.14078328 -0.17409153 -0.18267825 -0.051921688 -0.17353208 -0.399202 0.15235002 -0.3308014
00000000: 5182 44bb 53b6 33be 5511 63be 8300 55be
00000010: e72a 38bc 2679 61bd 9932 62be 3286 c93d
00000020: e43a d1bd c495 75be ad53 a9be 1576 fdbd
00000030: 60e4 2e3e 9dd8 bb3d 626a 9abe af7a 77be
00000040: 4691 843d 4a14 f5bc fc5b 65be 21d4 1dbe
00000050: 6b88 6abe b0bc 9ebe face 8fbe 8abc babe
00000060: 3018 41be 5bb3 0ebe 863d eebd 5315 5ebe
00000070: 2f8f 013e 226a 68be bc32 2abe 514f 673d
00000080: ea19 cdbc 6c8e 09be 9061 14be 14dd b6be
00000090: ba83 af3e 9d82 0bbe cd25 10bf 15d7 4cbe
000000a0: 9188 c6be a39b c7be 426f c6be 61ed 33be
000000b0: c3e9 e0be 270c 4dbd f7e3 5e3e 5771 51be
000000c0: bbb8 c7be 15af 073d f83c 45be 46fe 85be
000000d0: a6cd c7be 80dc 2f3d 389a adbe 4441 bbbd
000000e0: 626a acbd 9c7f 4abe 7712 1fbe 2750 6bbe
000000f0: 9d1b 9dbe 5a4b 04be 6d6e 9bbe 6a37 6ebe
00000100: d662 42be 006c 98bd 37b4 62be b8c3 7e3e
00000110: 4517 d7be 4e1b d5be d906 3ebe 3f5d 30be
00000120: a6a6 7dbe ebf9 6fbe e25f 863e c712 0ebe
00000130: b300 3dbe 3797 18bd 370d 8cbe 8b8c 9d3d
00000140: 985d 383c ff2b b6be 62d9 dc3c 3186 a43e
00000150: 1877 963e 6d82 62bd 7170 5dbe f429 3e3e
00000160: 8335 8bbe d6a7 16be 18fc a0be fcbe 05bf
00000170: dde5 d5bc e5eb 98bd e4bd 88be 4cd9 87be
00000180: 97b2 523e 49f3 adbe c0b6 483e 2492 d2be
00000190: bd35 8bbe bda8 2ebe bef2 36bc 5bb9 b4bc
000001a0: b2d7 0abd 9c64 37be c311 0ebf ccb9 1e3c
000001b0: b292 80be d050 46be b5e5 c2bd 36ad babd
000001c0: 28ad 993e 5acb d1be a187 d3bd 123d fcbd
000001d0: edb2 27be 9002 76be 2be7 523b 6287 b3be
000001e0: 5dce cbbe b448 31be 9816 3fbe c5f7 93bd
000001f0: 8b4c 5dbe 3dca a8bc 4b7c 30be 450b 543d
00000200: 4eeb 75be 94fb c73d 2fc7 1fbd 9671 04bd
00000210: 0005 d5bd 5f08 c4be ab9b 0abe 76b4 2bbe
00000220: 3cce b2be 7a98 5dbe baad 25be d38b dbbe
00000230: a50b 97be b43f 58be 38a0 873d 789e 6fbe
00000240: 36f7 a9be 852f 073d 979b 43bd 0cbf f53e
00000250: a19e 8ebe 4530 1fbe ff26 9abe 9902 ea3d
00000260: 0896 9abe c542 22be b0f0 2abd d723 f2bd
00000270: 0ccf 16be 112f 473e ee19 ca3d 37ed a0be
00000280: cdb1 54be 2d82 613d 3794 c0be 3b38 7cbe
00000290: c5e0 20be caf7 d9be fc00 d4be 7a67 823d
000002a0: 44de 5ebd badb e7bd 5845 52bd a652 b9be
000002b0: c063 85be 5976 ee3d f740 8dbe 1017 5fbe
000002c0: c8be 8fbe 9075 73be 8b78 cb3d d57c c1bc
000002d0: c202 2bbe 33eb 8dbe 140d 6fbe cb47 edbd
000002e0: eca2 97be db87 b5be d944 23bd 7d85 cabd
000002f0: 5b5f ebbd 502a 40be 706f 92be f8dd 2bbe
00000300: 1cbf ce3e 228b 12be 2465 0a3d 97ad 0dbe
00000310: 50a4 653e 2002 9bbe ddd1 0a3d 7732 60be
00000320: e1b8 85be 520d dbbd b2da 1dbd 9d14 c8bd
00000330: bdd4 06be 6eef 82be d3e9 b63d ddf9 8fbe
00000340: 723e ba3e 0296 d2be a947 85be 460c 51be
00000350: 006d 1bbe 5842 34be af8e a3be 3161 18be
00000360: f9ac 12be a15b 813d 7fa6 fd3c baf7 80be
00000370: 95ab 90be 6cc3 a6be dba7 61be 2e29 0abe
00000380: 61da 963d ef23 97be bb6d dabe 3a02 da3d
00000390: a8c1 47be b4c4 2ebe 3503 36be 2e7b b9be
000003a0: eeb6 93be d6b9 7abe 01ae e7be 5d28 72be
000003b0: 29f2 7fbd 82dc e6bd 0895 60be 435a 0e3d
000003c0: 69b9 f2bd 218d 4cbe 29a9 74bd d977 f3be
000003d0: 0e7c f7be c9ef 9cbd 2663 05bd 8372 703e
000003e0: 7e29 103e 0d45 32be 0210 3bbe d6ab 54bd
000003f0: 65b2 31be 3464 ccbe a501 1c3e cd5e a9be

fc2.weight f4 [256, 256]
-0.025757855 -0.33145174 -0.07656303 -0.11937425 -0.06838606 -0.1269121 -0.13116495 -0.19556534
-0.11078891 -0.0029842614 0.14289361 -0.08685755 0.008692219 -0.2697361 -0.2115034 -0.17034559
-0.35932004 -0.061491746 -0.16709623 -0.107299484 -0.09863183 -0.00463569 0.15413576 -0.06306963
-0.102887414 -0.18531653 -0.27095738 -0.013588731 -0.37074113 -0.01430494 -0.1333002 -0.037447046
-0.060141765 -0.19882281 -0.29696575 -0.042383257 -0.115531035 0.056481205 -0.008689184 -0.004556397
0.19103523 0.19457617 0.12136643 -0.27391413 0.2612982 -0.08379628 0.11697225 -0.19091074
-0.22400975 -0.09367778 -0.13750742 -0.053510524 -0.05713413 0.14297624 -0.18333566 0.16893883
-0.11102225 -0.19155155 0.32866514 0.02025722 -0.20839012 0.07675527 0.008756576 -0.09489504
-0.00840795 -0.03912445 0.04717946 -0.46802798 0.031583175 -0.008620683 -0.14393069 0.07084998
-0.16124229 -0.031315178 -0.5269905 -0.105862305 0.23883788 -0.029676273 -0.07670429 -0.19802924
0.049937673 -0.04765237 -0.25894952 -0.08169542 0.02354275 -0.17908949 -0.014971737 -0.26524487
-0.38773462 -0.28710476 -0.2603241 -0.40817872 -0.1579376 0.038857553 -0.22594105 -0.009373668
-0.11043384 -0.032945715 -0.03290308 -0.044118047 -0.24336505 -0.13317181 -0.0532075 -0.21847834
0.15774973 -0.07437233 0.112616375 0.27431357 -0.06137244 -0.3699365 -0.10771771 0.34311122
0.19802278 -0.093892954 -0.35521773 0.013357631 -0.04417849 0.12486107 -0.13033329 -0.22171098
-0.0911631 0.11596293 -0.034733877 -0.3887507 0.0090465 -0.16184857 0.0011501729 0.09188183
-0.18423434 -0.0014766866 -0.06957007 -0.22542877 -0.44556242 -0.06326108 0.050395712 -0.04644285
-0.044010617 -0.04204256 -0.15068601 -0.07128206 0.023487896 -0.01800521 0.14569995 -0.15920272
0.21056373 0.0410191 0.035491683 -0.031985603 -0.014665664 -0.12106725 -0.14846864 -0.15072834
-0.3238717 -0.14087573 -0.1581499 -0.043414682 0.08276245 -0.059280224 -0.1855189 -0.14383508
-0.27437285 0.018888867 -0.10030209 -0.26296413 -0.08543808 -0.21151699 -0.080556504 -0.01950095
-0.16930583 0.14396076 0.106971145 -0.045463998 -0.29180655 -0.09341269 -0.13538933 0.39606887
0.038186945 -0.014374896 -0.33119783 -0.08073297 -0.3390733 -0.23786068 -0.15145321 0.005636932
-0.14801165 0.007275791 -0.10053623 0.03437446 0.023420133 -0.07720142 0.00086687744 -0.16651992
-0.2571165 -0.048370857 -0.28008258 0.31592253 -0.11049676 0.30162212 -0.17303087 -0.17996281
-0.02918885 -0.29890925 -0.043160465 0.0041474556 -0.08394713 -0.21703474 0.0060864575 -0.12729385
-0.018148603 -0.23325077 -0.13123107 0.03539809 0.10523458 -0.17018844 -0.008569851 -0.062776096
-0.32467955 -0.16750582 0.07895542 0.16907457 -0.1116692 -0.3589793 -0.073132254 -0.14518826
0.054510977 -0.06190491 -0.24836579 0.0028438177 -0.014274878 -0.27121708 0.12800841 -0.021653108
-0.3425187 -0.04753887 0.24854745 -0.045668818 -0.3693565 -0.18678585 -0.3296097 0.11304003
-0.29333523 -0.011402198 -0.07081836 -0.2860213 -0.32189587 -0.09531778 -0.17382696 -0.23895974
-0.13816442 -0.19534747 -0.09393565 0.0054254276 -0.044774786 -0.06375221 -0.29321784 0.15599129
00000000: 2302 d3bc 0bb4 a9be 14cd 9cbd 7d7a f4bd
00000010: fe0d 8cbd 3ff5 01be 1b50 06be 4842 48be
00000020: 4ce5 e2bd 9993 43bb b452 123e 5fe2 b1bd
00000030: cf69 0e3c da1a 8abe 5994 58be 136f 2ebe
00000040: ccf8 b7be c5de 7bbd 461b 2bbe d5bf dbbd
00000050: 7cff c9bd fce6 97bb c4d5 1d3e a62a 81bd
00000060: a3b6 d2bd 9ec3 3dbe edba 8abe 45a3 5ebc
00000070: c8d1 bdbe 445f 6abc d97f 08be 1362 19bd
00000080: 3657 76bd 3598 4bbe e50b 98be 119a 2dbd
00000090: 899b ecbd d658 673d 145d 0ebc d44d 95bb
000000a0: bd9e 433e fa3e 473e f68e f83d 793e 8cbe
000000b0: e1c8 853e 629d abbd 268f ef3d 1b7e 43be
000000c0: d062 65be 23da bfbd bfce 0cbe da2d 5bbd
000000d0: 7a05 6abd 5d68 123e 58bc 3bbe 4dfe 2c3e
000000e0: a25f e3bd 1726 44be cc46 a83e 78f2 a53c
000000f0: 3864 55be de31 9d3d be77 0f3c 5558 c2bd
00000100: 80c1 09bc f640 20bd 403f 413d 5da1 efbe
00000110: 5c5d 013d c43d 0dbc 9162 13be cb19 913d
00000120: b31c 25be 5844 00bd d9e8 06bf 56ce d8bd
00000130: eb91 743e a81b f3bc 2417 9dbd 2dc8 4abe
00000140: 728b 4c3d 222f 43bd 0895 84be ee4f a7bd
00000150: badc c03c 3c63 37be 044c 75bc 2dce 87be
00000160: 2785 c6be 65ff 92be 3349 85be cdfc d0be
00000170: 65ba 21be 1929 1f3d 175d 67be 0394 19bc
00000180: 232b e2bd 16f2 06bd 61c5 06bd 20b5 34bd
00000190: b034 79be 315e 08be 1cf0 59bd c9b8 5fbe
000001a0: 2589 213e 8550 98bd 6aa3 e63d d472 8c3e
000001b0: ab61 7bbd 5168 bdbe 1a9b dcbd 46ac af3e
000001c0: 7cc6 4a3e f34a c0bd 19df b5be f7d9 5a3c
000001d0: 81f4 34bd 29b7 ff3d 1776 05be 3408 63be
000001e0: b8b3 babd f97d ed3d 1c45 0ebd 550a c7be
000001f0: c537 143c a2bb 25be 66c1 963a 8a2c bc3d
00000200: eda7 3cbe 618d c1ba c17a 8ebd cdd6 66be
00000210: c220 e4be 068f 81bd bc6b 4e3d dc3a 3ebd
00000220: 7a44 34bd d234 2cbd 6f4d 1abe 54fc 91bd
00000230: b069 c03c aa7f 93bc 5e32 153e 0a06 23be
00000240: 059e 573e a503 283d ba5f 113d 5603 03bd
00000250: 4148 70bc 1bf2 f7bd 2a08 18be 8858 1abe
00000260: 83d2 a5be ba41 10be 0cf2 21be 98d3 31bd
00000270: 5c7f a93d d2cf 72bd abf8 3dbe 8149 13be
00000280: 997a 8cbe d3bc 9a3c 2f6b cdbd 3ca3 86be
00000290: 29fa aebd e997 58be cffa a4bd 75c0 9fbc
000002a0: 825e 2dbe 736a 133e b013 db3d 7538 3abd
000002b0: ab67 95be 274f bfbd 80a3 0abe 8ac9 ca3e
000002c0: ea69 1c3d af84 6bbc c392 a9be 5457 a5bd
000002d0: 049b adbe c091 73be 8d16 1bbe 03b6 b83b
000002e0: 5e90 17be c269 ee3b f0e5 cdbd 3ccc 0c3d
000002f0: 94db bf3c c71b 9ebd 293f 633a 3384 2abe
00000300: c6a4 83be 8520 46bd fc66 8fbe 99c0 a13e
00000310: 204c e2bd 376e 9a3e 012f 31be 2c48 38be
00000320: 751d efbc a20a 99be 07c9 30bd 61e7 873b
00000330: 79ec abbd 5b3e 5ebe e870 c73b 5259 02be
00000340: 61ac 94bc 4ad9 6ebe 7061 06be 96fd 103d
00000350: 3a85 d73d e145 2ebe 8f68 0cbc c190 80bd
00000360: 663c a6be a586 2bbe 61b3 a13d e221 2d3e
00000370: d2b2 e4bd 23cc b7be 5dc6 95bd 3bac 14be
00000380: e746 5f3d 0190 7dbd 9a53 7ebe 585f 3a3b
00000390: 2ee1 69bc f7dc 8abe a314 033e dc61 b1bc
000003a0: 9c5e afbe 1eb8 42bd 3983 7e3e 3a0f 3bbd
000003b0: 4c1c bdbe ca44 3fbe 9ac2 a8be 8881 e73d
000003c0: 0930 96be 49d0 3abc 3709 91bd 6271 92be
000003d0: 89cf a4be f835 c3bd b2ff 31be ddb1 74be
000003e0: f97a 0dbe 2b09 48be 5661 c0bd c9c7 b13b
000003f0: c465 37bd 8590 82bd a620 96be 2ebc 1f3e

fc2.bias f4 [256]
-0.014162046 0.08502147 -0.026102474 -0.40903953 -0.2501134 -0.12262217 -0.27802393 -0.13801576
-0.042957783 -0.32967827 -0.05767986 -0.07477994 -0.00867424 -0.075866535 -0.09271021 -0.20215678
0.37939024 -0.093697146 -0.09809828 -0.12823226 -0.06503417 -0.09621389 0.07622264 -0.017066833
0.09419306 -0.051241882 -0.08148344 -0.12806374 -0.079836875 -0.07481851 -0.03569228 0.25855199
-0.026881708 -0.10677179 -0.031049479 -0.20146947 -0.031005524 -0.100015886 -0.06724919 0.03443871
-0.1071891 -0.14228302 -0.024668569 -0.06258898 -0.048324496 -0.08554862 -0.108901255 -0.15296838
-0.01626074 -0.045579165 0.088095404 -0.055635072 -0.034224883 -0.24042393 -0.02040303 -0.010073005
-0.17260218 -0.11523587 -0.2116693 -0.06165005 -0.04558075 -0.05290137 0.20515312 -0.16193587
-0.1704012 0.026447546 -0.09683217 -0.19649492 0.13062638 -0.042554293 -0.09043604 -0.22001965
-0.039420865 -0.15552567 -0.12454686 -0.13161434 -0.05876827 -0.0937211 -0.048913073 -0.12108606
-0.058897965 -0.06539381 -0.030893775 -0.015408862 -0.072440684 -0.07462458 -0.08404772 -0.17518795
-0.051568877 -0.22074719 -0.008720108 0.038145773 -0.06194066 -0.082383655 -0.14794384 -0.22183442
-0.11391566 -0.09180958 -0.06842243 -0.12538885 -0.070277154 -0.02674136 -0.05201361 -0.12317724
-0.20909481 -0.04770978 -0.0806981 -0.16228953 -0.06354259 -0.26203328 -0.2030134 -0.0716647
-0.12633115 -0.035583727 0.25801513 -0.05818972 0.11803391 -0.031467624 -0.15423268 -0.19026788
0.017610354 -0.08064123 -0.21994819 -0.19935489 -0.1068313 -0.09187538 0.02635528 -0.02919912
0.18486147 -0.027394356 -0.1683779 -0.04304062 -0.08012433 -0.04963355 -0.049170397 -0.03776237
-0.004137789 -0.14120802 0.036376707 -0.12294359 0.013740427 0.04049854 -0.4224325 -0.23176382
-0.088208675 -0.16028522 0.10453854 -0.07409989 -0.03638184 -0.08841277 -0.06731121 -0.06442066
-0.08671276 -0.030464727 -0.23624092 0.18796532 -0.037135858 -0.16865565 -0.24690591 -0.07917903
-0.10487874 -0.15022714 -0.07844987 -0.061523497 -0.07149003 0.010641287 -0.095630154 -0.04197341
-0.0375298 -0.03910987 0.13455144 -0.08339833 -0.06282242 -0.1311629 -0.051261194 -0.18877007
-0.37422186 -0.15536377 -0.052706107 -0.06578513 0.009008974 -0.08500016 -0.045290284 -0.020004308
-0.06705133 -0.061133716 -0.09283873 0.30903542 -0.060176 -0.07024155 -0.030574746 -0.119406395
-0.09333813 -0.06898407 -0.11556752 -0.24302338 0.07713597 -0.037562925 -0.07447814 -0.06257092
-0.07750319 0.007244571 -0.13586773 -0.046295837 -0.02842299 -0.22317237 -0.06919532 -0.20312046
-0.035602335 -0.08393176 -0.18078654 -0.036489908 -0.09078783 0.1450059 -0.2722263 -0.039138187
-0.15893549 -0.04744208 -0.047381308 -0.2645537 -0.2885519 -0.118128665 0.20485567 -0.0746433
-0.023367608 -0.061728165 -0.16127709 -0.08694259 -0.06881547 0.10787546 -0.1578853 -0.06063154
-0.039294776 -0.37885186 -0.11158302 -0.061874084 -0.061518494 -0.16787894 -0.0881629 -0.054322667
-0.21099727 -0.03328989 -0.07261781 -0.1551266 -0.093956515 -0.06978964 -0.04022802 -0.14540689
-0.00426059 -0.23229598 -0.08647903 0.18233198 -0.033933897 -0.17514622 -0.02556047 -0.104683936
00000000: ed07 68bc bd1f ae3d dbd4 d5bc a16d d1be
00000010: dd0e 80be 5521 fbbd 2759 8ebe 0154 0dbe
00000020: 80f4 2fbd 97cb a8be b841 6cbd 3a26 99bd
00000030: 661e 0ebc ea5f 9bbd dade bdbd 3002 4fbe
00000040: 703f c23e 4ae4 bfbd c0e7 c8bd 514f 03be
00000050: a330 85bd ca0b c5bd 9e1a 9c3d becf 8bbc
00000060: 4be8 c03d 02e3 51bd cae0 a6bd 2423 03be
00000070: 8481 a3bd 723a 99bd 1132 12bd ed60 843e
00000080: 0737 dcbc 2bab dabd 7a5b febc 034e 4ebe
00000090: 4cff fdbc 21d5 ccbd f1b9 89bd 9b0f 0d3d
000000a0: f585 dbbd a4b2 11be bd15 cabc a72e 80bd
000000b0: e8ef 45bd 1d34 afbd 9f07 dfbd bea3 1cbe
000000c0: 3e35 85bc 38b1 3abd 5d6b b43d 9ae1 63bd
000000d0: 642f 0cbd b131 76be 4124 a7bc 3f09 25bc
000000e0: a0be 30be c900 ecbd d6bf 58be c384 7cbd
000000f0: e1b2 3abd 1baf 58bd a913 523e 84d2 25be
00000100: a77d 2ebe 86a8 d83c f24f c6bd f735 49be
00000110: ecc2 053e 694d 2ebd 8836 b9bd d54c 61be
00000120: c677 21bd 1f42 1fbe 6d12 ffbd e9c5 06be
00000130: ffb6 70bd d9f0 bfbd 1359 48bd f8fb f7bd
00000140: fe3e 71bd 31ed 85bd f114 fdbc 7475 7cbc
00000150: c85b 94bd c6d4 98bd 3621 acbd 7864 33be
00000160: e339 53bd 8d0b 62be c9de 0ebc be3e 1c3d
00000170: 7db5 7dbd c3b8 a8bd 977e 17be 9028 63be
00000180: 9d4c e9bd a906 bcbd 0f21 8cbd ef65 00be
00000190: 78ed 8fbd b210 dbbc 390c 55bd 5944 fcbd
000001a0: f31c 56be 556b 43bd 0c45 a5bd 3a2f 26be
000001b0: 9e22 82bd 3a29 86be bfe2 4fbe f1c4 92bd
000001c0: f45c 01be 3ec0 11bd 8f1a 843e 5858 6ebd
000001d0: c3bb f13d 32e4 00bd 2cef 1dbe 95d5 42be
000001e0: 9743 903c 3b27 a5bd 193a 61be b023 4cbe
000001f0: 5eca dabd 2929 bcbd 07e7 d73c fe32 efbc
00000200: 534c 3d3e 216a e0bc 426b 2cbe 5c4b 30bd
00000210: 3a18 a4bd 8d4c 4bbd e666 49bd b7ac 1abd
00000220: 4a96 87bb d698 10be beff 143d d9c9 fbbd
00000230: 871f 613c cce1 253d 1349 d8be 7f53 6dbe
00000240: c0a6 b4bd cf21 24be 4d18 d63d afc1 97bd
00000250: 2005 15bd c111 b5bd 76da 89bd fbee 83bd
00000260: 7696 b1bd 2a91 f9bc 24e9 71be fb79 403e
00000270: c51b 18bd 11b4 2cbe e7d4 7cbe 9e28 a2bd
00000280: aaca d6bd 25d5 19be 53aa a0bd 1000 7cbd
00000290: 5d69 92bd cb58 2e3c bed9 c3bd 4fec 2bbd
000002a0: d9b8 19bd ac31 20bd dac7 093e becc aabd
000002b0: 0aa9 80bd 914f 06be 42f7 51bd f14c 41be
000002c0: 029a bfbe ae17 1fbe 5ce2 57bd 5bba 86bd
000002d0: 609a 133c 9014 aebd 4e82 39bd 13e0 a3bc
000002e0: 3552 89bd 5967 7abd 3b22 bebd e439 9e3e
000002f0: 1c7b 76bd cdda 8fbd e477 fabc 578b f4bd
00000300: 1028 bfbd 8547 8dbd aaae ecbd 1fdb 78be
00000310: 77f9 9d3d 95db 19bd ff87 98bd 2f25 80bd
00000320: feb9 9ebd de63 ed3b e920 0bbe b4a0 3dbd
00000330: 55d7 e8bc 4c87 64be 47b6 8dbd cffe 4fbe
00000340: c1d3 11bd 6ae4 abbd 1b20 39be 7176 15bd
00000350: f8ee b9bd 6d7c 143e 3f61 8bbe 5d4f 20bd
00000360: fcbf 22be a052 42bd e712 42bd 9573 87be
00000370: 13bd 93be 71ed f1bd afc5 513e 96de 98bd
00000380: 6d6d bfbc acd6 7cbd d225 25be f50e b2bd
00000390: 20ef 8cbd cfed dc3d afac 21be c758 78bd
000003a0: 8ff3 20bd dff8 c1be a385 e4bd ae6f 7dbd
000003b0: d1fa 7bbd 75e8 2bbe c08e b4bd 7281 5ebd
000003c0: ab0f 58be fb5a 08bd a5b8 94bd 82d9 1ebe
000003d0: 466c c0bd dfed 8ebd 23c6 24bd 8be5 14be
000003e0: 6b9c 8bbb ffde 6dbe eb1b b1bd 3cb5 3a3e
000003f0: 45fe 0abd 8859 33be 3164 d1bc 8864 d6bd

fc3.weight f4 [1, 256]
0.027157241 -0.017227782 -0.051401906 0.027763 0.00054815476 0.026205596 0.114486225 -0.050620362
0.026407208 0.17037246 -0.0009644089 0.024300322 0.007175347 -0.031175243 -0.032443453 0.027395014
-0.29054412 0.03916361 -0.13708387 -0.04106184 -0.05439583 -0.05411965 -0.31097063 -0.04987632
0.02470895 -0.019151464 -0.029317321 0.019089911 0.01057869 -0.010598029 -0.031112587 0.26144713
0.003128484 0.28439876 0.04417852 -0.09466698 0.032143246 0.0021480077 -0.021946285 -0.050463133
0.15215947 -0.021306599 -0.023697706 0.043428514 -0.016946435 -0.051050078 -0.010393445 -0.022420252
-0.023796003 0.05412677 -0.14448847 -0.1732286 -0.002613666 0.022626996 -0.07595735 -0.010486293
0.044777267 0.042599484 0.14667009 0.062939234 0.070733786 0.018062513 -0.19559047 0.00959028
-0.010589487 -0.0057415487 -0.022405013 -0.086616464 -0.0587901 0.116525516 0.060776837 -0.010295244
-0.074724555 -0.05125535 -0.09900611 -0.0052045914 -0.082184725 -0.031687357 -0.0249801 -0.01922179
0.0068772426 -0.063228905 0.009175079 0.0072054924 0.025843726 0.016607046 -0.02464537 -0.0024829763
-0.005176714 0.0696556 0.0048788786 -0.043429285 0.015815156 -0.019768164 0.07721254 0.0073567405
-0.00835943 -0.12124982 0.009020842 -0.009545372 0.0011392686 0.0048562805 -0.003605459 -0.0005097672
0.0044490164 -0.03065916 -0.02111633 -0.0013956563 -0.0072507053 0.05366913 0.027296735 -0.037978247
-0.002340718 -0.11052213 -0.21276021 0.01130096 0.009925801 -0.0009051433 0.012984505 0.041734938
-0.15246959 0.013324457 0.0062190937 0.03344409 -0.11271953 -0.030611863 -0.0038005882 -0.02867281
-0.23290461 -0.05627455 0.016931567 0.21410275 0.0043149586 -0.061700154 0.013994907 0.04392117
-0.029065968 0.0037405374 -0.034892317 0.02518173 0.006499126 -0.022468654 0.064262606 0.008850142
-0.058495853 0.04241763 0.041382607 -0.07749331 0.04553067 -0.063524075 -0.041799787 -0.012144606
0.013425249 -0.08692582 -0.007677855 -0.05365351 -0.030688208 -0.010889601 0.03198922 0.012194344
0.034957632 0.023035035 -0.028077515 -0.04371122 -0.0022055793 0.013177271 0.09923999 -0.017295644
0.040736604 0.005381175 -0.2292181 -0.010937965 0.002689506 0.035234 -0.02040085 -0.015004056
0.014872138 0.05380119 -0.004085474 0.030611206 -0.09187343 0.05762968 0.013284955 0.00047788778
0.03177652 -0.004205079 -0.041855063 -0.10184401 -0.017616805 -0.0053832284 -0.009131403 -0.023841776
-0.07816738 0.024135996 -0.026959054 0.06563465 -0.12929772 0.038999863 -0.17756203 0.008206922
0.012620452 0.010066858 0.035491977 0.18731321 -0.048339497 0.19990407 -0.0004373139 0.04415891
-0.010854608 -0.0053814393 -0.08347329 0.012825473 -0.030832889 -0.10011193 0.006751478 -0.039555985
-0.008912861 -0.012361155 0.08744201 0.012810325 0.02467865 0.04328532 -0.21753728 0.024268625
-0.037135556 0.044183932 -0.007008508 -0.016266216 -0.01142576 0.15618229 0.044301987 -0.22473109
-0.05110479 0.036563843 0.004189682 0.02809615 -0.037128307 0.026588434 -0.049613576 0.003095951
0.018314088 0.012792267 -0.04919243 0.08733316 -0.15284444 -0.104559146 -0.024497997 -0.0017004195
-0.03152864 0.016707923 0.0074217548 -0.24547017 -0.021252207 -0.020549014 0.04692968 0.0061340895
00000000: dd78 de3c 4721 8dbc ce8a 52bd 3b6f e33c
00000010: 0bb2 0f3a 1ead d63c c177 ea3d 4c57 4fbd
00000020: ee53 d83c 1e76 2e3e 63d0 7cba 7811 c73c
00000030: 2c1f eb3b 3963 ffbc 6de3 04bd 826b e03c
00000040: 33c2 94be 066a 203d b75f 0cbe 7630 28bd
00000050: 29ce 5ebd 91ac 5dbd 8b37 9fbe 1d4b 4cbd
00000060: 6d6a ca3c 88e3 9cbc e12a f0bc 7262 9c3c
00000070: 3e52 2d3c 5ba3 2dbc d3df febc 66dc 853e
00000080: 4007 4d3b b79c 913e 89f4 343d c3e0 c1bd
00000090: a3a8 033d 97c5 0c3b b2c8 b3bc 6eb2 4ebd
000000a0: b1cf 1b3e 2d8b aebc b121 c2bc 19e2 313d
000000b0: 40d3 8abc e319 51bd 4549 2abc adaa b7bc
000000c0: d6ef c2bc 08b4 5d3d c9f4 13be d762 31be
000000d0: 0a4a 2bbb 405c b93c 878f 9bbd b3ce 2bbc
000000e0: 5e68 373d cc7c 2e3d af30 163e 49e6 803d
000000f0: e0dc 903d d6f7 933c de48 48be 8d20 1d3c
00000100: 877f 2dbc 9a23 bcbb b88a b7bc f963 b1bd
00000110: e3cd 70bd eea4 ee3d 22f1 783d 62ad 28bc
00000120: 3009 99bd 21f1 51bd b7c3 cabd 478b aabb
00000130: 7750 a8bd 9aca 01bd 11a3 ccbc 0477 9dbc
00000140: 7e5a e13b 287e 81bd 1253 163c 0d1c ec3b
00000150: 39b6 d33c 800b 883c 16e5 c9bc 6eb9 22bb
00000160: 6da1 a9bb 98a7 8e3d 00df 9f3b e8e2 31bd
00000170: c98e 813c d8f0 a1bc 9c21 9e3d d010 f13b
00000180: fef5 08bc d351 f8bd 27cc 133c 3164 1cbc
00000190: 8353 953a 6f21 9f3b 9049 6cbb e6a1 05ba
000001a0: 0ec9 913b eb28 fbbc 27fc acbc 74ee b6ba
000001b0: 5397 edbb 29d4 5b3d 679d df3c 148f 1bbd
000001c0: bb66 19bb 6d59 e2bd d0dd 59be a927 393c
000001d0: d49f 223c 2347 6dba f6bc 543c 41f2 2a3d
000001e0: fd20 1cbe d34e 5a3c 8ac9 cb3b acfc 083d
000001f0: 7fd9 e6bd bbc5 fabc 4a13 79bb 3ee3 eabc
00000200: 8c7e 6ebe 2480 66bd 12b4 8a3c c03d 5b3e
00000210: 7f64 8d3b 4db9 7cbd e54a 653c afe6 333d
00000220: c11b eebc ce23 753b 3feb 0ebd ea49 ce3c
00000230: 9ff6 d43b 2f10 b8bc 1d9c 833d 3000 113c
00000240: 5999 6fbd 1cbe 2d3d cf80 293d d0b4 9ebd
00000250: 5e7e 3a3d e918 82bd 4136 2bbd 2bfa 46bc
00000260: 93f5 5b3c 2a06 b2bd 8496 fbbb c8c3 5bbd
00000270: d665 fbbc 4c6a 32bc 2107 033d c9ca 473c
00000280: bc2f 0f3d f8b3 bc3c d102 e6bc 890a 33bd
00000290: 7b8b 10bb 7be5 573c 563e cb3d 98af 8dbc
000002a0: 6ddb 263d 9154 b03b 26b8 6abe 2635 33bc
000002b0: 6c42 303b 8751 103d af1f a7bc 92d3 75bc
000002c0: 45aa 733c a35e 5c3d 71df 85bb 5ac4 fa3c
000002d0: 2328 bcbd 190d 6c3d 24a9 593c 038d fa39
000002e0: 1928 023d c2ca 89bb 3770 2bbd 9893 d0bd
000002f0: 1e51 90bc cb65 b0bb e19b 15bc d44f c3bc
00000300: 3816 a0bd dab8 c53c 3cd9 dcbc 766b 863d
00000310: 9f66 04be 52be 1f3d d2d2 35be 5376 063c
00000320: 03c6 4e3c 76ef 243c 0960 113d 09cf 3f3e
00000330: a3ff 45bd a7b3 4c3e 4747 e5b9 f9df 343d
00000340: 87d7 31bc c956 b0bb 0bf4 aabd ef21 523c
00000350: 4195 fcbc 7c07 cdbd 813b dd3b 7505 22bd
00000360: 4007 12bc 7186 4abc cc14 b33d 66e2 513c
00000370: e12a ca3c f34b 313d 18c2 5ebe ffce c63c
00000380: 741b 18bd 36fa 343d a0a7 e5bb ba40 85bc
00000390: 1c33 3bbc 40ee 1f3e 0076 353d e81f 66be
000003a0: 4253 51bd f8c3 153d 9a49 893b e629 e63c
000003b0: da13 18bd fdcf d93c 9b37 4bbd 70e5 4a3b
000003c0: 6d07 963c a896 513c 007e 49bd badb b23d
000003d0: 4183 1cbe 1b23 d6bd 06b0 c8bc 9ce0 deba
000003e0: 2d24 01bd 0edf 883c 3132 f33b 885c 7bbe
000003f0: 1c19 aebc 6856 a8bc 5639 403d 7900 c93b
