benchmarks/BipedalWalkerHardcore-v3/Train_BipedalWalkerHardcore-v3_TD3_20230506-003018/models/actor.pth (torch, 185879 bytes, 6 tensors)

fc1.weight f4 [200, 24]
-0.57320946 -0.2735692 0.76129824 -0.7111734 0.28981328 -0.020362968 0.22509868 0.14475559
-0.010779224 0.20461781 0.07277731 0.038923513 -0.015811997 0.18966362 -0.30633128 -0.18746941
-0.18339758 -0.07390495 0.0428688 -0.17112806 0.054771356 0.12502994 -0.07371246 -0.04857833
0.5450488 0.24663347 -1.3915219 -0.42732868 -0.50724405 -0.06879863 0.025836997 0.05051443
-0.07602572 0.10227693 -0.10677896 0.089300156 -0.0408026 0.33199686 0.12227214 0.14295685
-0.16575636 -0.20698741 -0.5111085 -0.20581207 -0.1300628 -0.09426293 0.18766436 0.21189433
-0.05517563 -0.66404027 -0.37978485 -0.81052774 0.18140316 -0.0037460993 -0.18448256 0.0775607
0.108531624 0.18669966 0.001112566 0.05329165 0.053703744 0.05060755 -0.24213083 -0.2730561
-0.28868482 0.28931043 0.47065297 0.58003086 0.21384196 -0.2740294 -0.5270255 0.2890904
-0.08140543 -1.5085713 -0.36531395 -0.021140171 0.05511521 -0.008192042 0.36929822 -0.056736566
-0.19565386 -0.31628394 -0.0023428923 -0.14054766 0.048377734 0.21634531 0.025200548 -0.07415522
-0.19228184 -0.1172904 0.11670966 0.05046682 0.18223298 -0.3790607 0.088151716 0.20620967
-0.35312998 -1.504486 1.1139803 0.5895514 -0.18742199 0.049393 0.04191779 -0.0076950802
-0.85641235 -0.08679453 -0.019224223 -0.0011834989 0.0053974595 -0.1453808 0.1717319 -0.082513854
-0.22240412 -0.0021008148 0.039948292 -0.14661634 0.14464003 0.20814529 -0.23916364 -0.1072445
0.48894066 -0.24112333 -0.8134359 2.8901746 0.049880568 -0.092740916 0.40925488 -0.102979794
0.08958584 -0.05569652 -0.025516052 -0.28640407 -0.015097409 -0.03757454 -0.045566082 -0.01718371
-0.27468514 -0.0015476033 0.13714866 0.18128698 -0.13446291 0.37526283 -0.02446122 0.03243622
0.039737344 -2.121738 0.19531989 -0.122821406 0.019508082 -0.068850674 -0.0055537266 -0.053736355
0.09910457 0.09948178 -0.067141004 -0.23859115 0.0023090101 -0.7472032 -0.24353187 0.07549811
0.29289258 -0.09637147 -0.097256154 -0.09989653 0.19246885 0.11405783 0.22326855 -0.19781916
0.40273973 -1.1967059 -0.048110645 -1.313628 0.08528787 -0.04536326 -0.15923595 -0.007893023
-0.030136257 0.05843803 -0.16414443 -0.19594575 0.02531609 0.054797556 -0.037921082 -0.13679053
0.022354482 -0.36716783 -0.067403354 0.17492953 0.21460238 -0.5997633 -0.13414086 0.051786907
0.33965608 0.596394 -0.18830515 -1.1165941 0.2170106 -0.042539157 0.13827768 0.045707695
-0.024162639 -0.063504204 0.05675104 -0.26485267 0.040012196 -0.76774603 0.004152734 0.39095885
0.4737495 0.112392694 -0.20591281 -0.44823352 -0.23558986 0.47669917 -0.2619011 -0.14823723
-0.48795682 -2.4372468 -0.37574252 0.21795568 -0.07718848 -0.061269134 -0.2314886 -0.014578521
-0.08163318 0.108055234 -0.11637679 0.10155771 -0.047888592 -0.037428714 -0.4397824 -0.2774189
-0.4827898 0.06845467 0.33240446 0.40093246 0.2055355 0.06672633 -0.27864918 0.2482705
0.92730224 1.283246 -0.651522 1.1583757 0.42252856 0.040917173 0.24778692 -0.030793695
-0.06848057 -0.021345055 0.024534272 0.06196026 -0.00784978 0.005312333 0.11872028 0.027100123
00000000: dbbd 12bf 4311 8cbe 71e4 423f 760f 36bf
00000010: 6862 943e 3dd0 a6bc 4580 663e cf3a 143e
00000020: 589b 30bc 5587 513e 450c 953d 436e 1f3d
00000030: 2988 81bc 2e37 423e 74d7 9cbe fbf7 3fbe
00000040: 93cc 3bbe 7a5b 97bd 3297 2f3d 323c 2fbe
00000050: ee57 603d d907 003e 8ff6 96bd 12fa 46bd
00000060: 5188 0b3f 7c8d 7c3e 641d b2bf d3ca dabe
00000070: bfda 01bf 4ce6 8cbd 1ca8 d33c 38e8 4e3d
00000080: 5fb3 9bbd 9176 d13d edae dabd 00e3 b63d
00000090: a120 27bd 7efb a93e d169 fa3d 4863 123e
000000a0: 09bc 29be 82f4 53be 02d8 02bf 66c0 52be
000000b0: 2f2f 05be ec0c c1bd 162b 403e d4fa 583e
000000c0: d7ff 61bd 8bfe 29bf 2973 c2be bf7e 4fbf
000000d0: c0c1 393e 1e81 75bb ffe8 3cbe 25d8 9e3d
000000e0: d445 de3d 322e 3f3e 85d3 913a 5848 5a3d
000000f0: 75f8 5b3d dd49 4f3d 25f1 77be 02ce 8bbe
00000100: 7fce 93be 7f20 943e 6df9 f03e e77c 143f
00000110: 63f9 5a3e 954d 8cbe 25eb 06bf a803 943e
00000120: e4b7 a6bd dd18 c1bf 6e0a bbbe 272e adbc
00000130: 7dc0 613d ea37 06bc a814 bd3e 9a64 68bd
00000140: 7c59 48be f8ef a1be 368b 19bb baeb 0fbe
00000150: bb27 463d a089 5d3e 6171 ce3c b1de 97bd
00000160: 88e5 44be f335 f0bd 7905 ef3d 4cb6 4e3d
00000170: 489b 3a3e 3e14 c2be e388 b43d a128 533e
00000180: 74cd b4be ff92 c0bf e896 8e3f d7ec 163f
00000190: 8deb 3fbe 5050 4a3d fdb1 2b3d 0327 fcbb
000001a0: d73d 5bbf 55c1 b1bd 1e7c 9dbc a21f 9bba
000001b0: 2cdd b03b b4de 14be 7dda 2f3e 06fd a8bd
000001c0: e8bd 63be d3ad 09bb d2a0 233d 9822 16be
000001d0: 841c 143e 0a24 553e 50e7 74be 01a3 dbbd
000001e0: 6e56 fa3e 09e9 76be 563d 50bf 9ff8 3840
000001f0: 914f 4c3d f3ee bdbd db89 d13e 12e7 d2bd
00000200: c878 b73d 0922 64bd 0a07 d1bc 8ea3 92be
00000210: 1f5b 77bc c3e7 19bd 80a3 3abd dac4 8cbc
00000220: 88a3 8cbe f3d8 caba b370 0c3e 4ba3 393e
00000230: a5b0 09be 7322 c03e e562 c8bc d8db 043d
00000240: a0c3 223d 8eca 07c0 f001 483e ca89 fbbd
00000250: 6acf 9f3c 9501 8dbd 09fc b5bb a71a 5cbd
00000260: 56f7 ca3d 1abd cb3d 3981 89bd 3d51 74be
00000270: c352 173b b548 3fbf 6b60 79be c19e 9a3d
00000280: 04f6 953e 685e c5bd 3c2e c7bd 8d96 ccbd
00000290: 8e16 453e 2797 e93d 83a0 643e 1b91 4abe
000002a0: e733 ce3e a92d 99bf ab0f 45bd f624 a8bf
000002b0: 68ab ae3d d3ce 39bd c00e 23be bd51 01bc
000002c0: 50e0 f6bc b75c 6f3d 7a15 28be 01a6 48be
000002d0: b063 cf3c 6773 603d 2353 1bbd d112 0cbe
000002e0: bf20 b73c 6cfd bbbe c50a 8abd ba20 333e
000002f0: bac0 5b3e 168a 19bf 395c 09be 821e 543d
00000300: 67e7 ad3e 47ad 183f 11d3 40be 8eec 8ebf
00000310: 0738 5e3e 8a3d 2ebd aa98 0d3e fe37 3b3d
00000320: baf0 c5bc 7e0e 82bd c773 683d c59a 87be
00000330: d4e3 233d 018b 44bf a813 883b c22b c83e
00000340: 4b8f f23e 242e e63d cfda 52be dd7e e5be
00000350: 783e 71be ea11 f43e e717 86be 80cb 17be
00000360: 7ad5 f9be dafb 1bc0 5361 c0be c62f 5f3e
00000370: fe14 9ebd 58f5 7abd 590b 6dbe c0da 6ebc
00000380: 4c2f a7bd 104c dd3d f456 eebd 7dfd cf3d
00000390: d426 44bd da4e 19bd 292b e1be da09 8ebe
000003a0: 3a30 f7be f631 8c3d eb30 aa3e 0547 cd3e
000003b0: e677 523e d0a7 883d 1bab 8ebe 9f3a 7e3e
000003c0: ae63 6d3f 6841 a43f 25ca 26bf a845 943f
000003d0: aa55 d83e c498 273d dbbb 7d3e 0f43 fcbc
000003e0: 8b3f 8cbd d3db aebc 19fc c83c 0bca 7d3d
000003f0: 5d9c 00bc 1413 ae3b 9e23 f33d 1401 de3c

fc1.bias f4 [200]
-0.025542796 0.27178594 0.12018407 0.34306526 -0.08624891 0.04927109 -0.14712018 0.3157127
0.1490397 0.29536918 0.056295525 0.18688712 -0.081523106 0.07718804 0.24808912 0.35443917
-0.0859376 0.050057497 -0.2159624 -0.08917926 -0.09855914 -0.16048986 -0.24552543 0.22618774
0.066028364 -0.17973492 -0.0434548 -0.023030765 0.018221999 -0.10890792 -0.17798957 0.19264911
0.030509181 0.117336765 0.21013959 -0.30331594 0.07167752 0.15992256 -0.24631825 -0.4695496
0.41691485 0.08430054 0.39865494 0.21077351 0.23397093 0.34583554 -0.0041123917 -0.12008872
-0.49998173 0.048448283 0.20086703 -0.03861382 0.20466915 -0.0578623 0.026393956 -0.16065167
0.1819048 -0.10880738 0.45675752 0.16267791 -0.18097807 -0.04734681 0.41994953 -0.040266044
-0.01997203 0.5134649 -0.05626188 0.106242515 -0.072248206 0.21038094 0.19478923 0.12038786
-0.33076513 0.1763043 0.26035845 -0.08699485 -0.03481991 -0.056573875 0.13096233 0.07450868
-0.042370286 -0.4609595 0.15046343 -0.0014555369 -0.29078537 -0.041392025 -0.009417646 -0.08573013
0.16833231 0.32108918 0.09908253 -0.03471046 0.096520536 -0.22751649 0.13938802 -0.5599433
-0.04084706 -0.33943582 0.20072721 -0.036217883 0.03332108 0.14471808 0.151299 -0.13327946
0.26687264 -0.018540718 0.36641267 -0.029115314 -0.1031465 0.11610702 0.09911135 0.19117574
0.4289831 -0.089472264 0.040135663 -0.012924775 0.2066277 -0.05568255 -0.13432442 -0.28278422
0.19260855 0.17148916 0.13929556 0.255581 0.15962571 -0.093632095 0.3349379 -0.08412863
0.1794453 -0.06321611 0.2980472 0.040686224 -0.018975724 -0.3040807 -0.028584687 0.3055305
-0.27445084 -0.0045848773 0.09633253 -0.072316684 0.21168257 0.17487253 -0.15154982 -0.15854207
-0.049077846 -0.0028439423 0.15458146 -0.020370701 -0.05198496 0.17274623 -0.4308227 -0.053637926
-0.16733058 0.18094636 -0.06412261 0.36800775 -0.11895457 -0.019460842 -0.19688508 0.26842982
0.21780232 -0.00062041415 0.17777736 -0.07463102 -0.05186205 -0.24678403 0.21749084 0.09888946
-0.12512237 -0.0020989901 -0.19937138 0.20996363 0.26932898 0.15555379 0.11028713 0.03901781
0.09083637 0.09586515 -0.046334784 0.3701438 -0.30888745 -0.29056484 0.3455277 -0.12366043
0.09316763 0.25433296 -0.3777719 -0.2709719 -0.21267176 0.22707036 -0.059797082 -0.073374145
0.50115985 0.13289894 0.23635387 -0.11295532 -0.3788069 -0.008292083 0.01744543 0.13166583
00000000: 203f d1bc 8727 8b3e 1123 f63d 40a6 af3e
00000010: 45a3 b0bd 7cd0 493d aca6 16be 18a5 a13e
00000020: dd9d 183e a13a 973e 2396 663d 565f 3f3e
00000030: 96f5 a6bd c314 9e3d 130b 7e3e 0d79 b53e
00000040: 0d00 b0bd 1709 4d3d 3f25 5dbe 9ea3 b6bd
00000050: 60d9 c9bd 7457 24be 056b 7bbe c29d 673e
00000060: e139 873d 6e0c 38be a9fd 31bd 04ab bcbc
00000070: 4d46 953c 1e0b dfbd e642 36be cf45 453e
00000080: 64ee f93c 424e f03d d52e 573e 3a4c 9bbe
00000090: aacb 923d bdc2 233e da3a 7cbe ce68 f0be
000000a0: dd75 d53e c3a5 ac3d 801c cc3e 03d5 573e
000000b0: 1396 6f3e 5b11 b13e 3ec1 86bb 13f1 f5bd
000000c0: 9bfd ffbe b571 463d 16b0 4d3e 8629 1ebd
000000d0: ca94 513e 0501 6dbd 2338 d83c df81 24be
000000e0: 4045 3a3e 67d6 debd 1fdc e93e 0a95 263e
000000f0: 5152 39be bbee 41bd a003 d73e 02ee 24bd
00000100: 629c a3bc 7072 033f db72 66bd ad95 d93d
00000110: def6 93bd 1a6e 573e d476 473e e98d f63d
00000120: 0c5a a9be 1d89 343e b44d 853e 5b2a b2bd
00000130: 529f 0ebd 02ba 67bd fd1a 063e 0298 983d
00000140: 778c 2dbd e202 ecbe 1613 1a3e b7c7 beba
00000150: d2e1 94be af8a 29bd 784c 1abc 4793 afbd
00000160: 4e5f 2c3e cd65 a43e c8eb ca3d 8e2c 0ebd
00000170: 8fac c53d 15fa 68be bcbb 0e3e 7258 0fbf
00000180: 3f4f 27bd 88ca adbe 6f8b 4d3e 3459 14bd
00000190: af7b 083d fa30 143e 20ee 1a3e 697a 08be
000001a0: 88a3 883e b4e2 97bc 719a bb3e 3d83 eebc
000001b0: 793e d3bd 84c9 ed3d e4fa ca3d 93c3 433e
000001c0: aca3 db3e 3c3d b7bd 4b65 243d 6fc2 53bc
000001d0: 3696 533e 6313 64bd 578c 09be 18c9 90be
000001e0: 2d3b 453e db9a 2f3e 7fa3 0e3e 83db 823e
000001f0: ec74 233e 2fc2 bfbd fb7c ab3e a24b acbd
00000200: 82c0 373e 7377 81bd a599 983e 99a6 263d
00000210: fa72 9bbc 77b0 9bbe 6f2a eabc 7e6e 9c3e
00000220: d284 8cbe bd3c 96bb fd49 c53d c51a 94bd
00000230: 51c3 583e c911 333e e02f 1bbe da58 22be
00000240: da05 49bd 6f61 3abb 9a4a 1e3e 75e0 a6bc
00000250: 2eee 54bd 63e4 303e cb94 dcbe 71b3 5bbd
00000260: b558 2bbe 014a 393e b752 83bd 836b bc3e
00000270: 749e f3bd 586c 9fbc 3e9c 49be a26f 893e
00000280: 9207 5f3e 4aa3 22ba 450b 363e 26d8 98bd
00000290: 4d6d 54bd f4b4 7cbe ebb5 5e3e 8f86 ca3d
000002a0: 1420 00be 368f 09bb 0328 4cbe b500 573e
000002b0: 7de5 893e 7e49 1f3e 38de e13d 24d1 1f3d
000002c0: 6b08 ba3d f354 c43d 8bc9 3dbd 7d83 bd3e
000002d0: 7f26 9ebe eac4 94be 02e9 b03e ae41 fdbd
000002e0: acce be3d ee37 823e 526b c1be d4bc 8abe
000002f0: a0c6 59be 2285 683e c9ed 74bd 2f45 96bd
00000300: 034c 003f a916 083e c006 723e 1e55 e7bd
00000310: faf2 c1be 84db 07bc b8e9 8e3c 68d3 063e

fc2.weight f4 [200, 200]
0.3567479 -0.14718689 -0.068506874 -0.37134573 -0.18116915 -0.20943336 0.32978138 -0.24302247
0.22306247 -0.29965633 0.3318429 0.1663366 0.2544864 0.18399759 -0.07737802 0.07278272
0.23317397 0.15605152 -0.07666283 0.17506532 0.2711446 -0.21690862 -0.04112918 0.11141457
0.40757954 0.30747947 0.27889508 -0.18902534 -0.06831885 -0.24380001 0.03775363 0.22164528
-0.20465681 0.06627836 -0.38820988 0.26594406 0.25372478 -0.6445512 0.0052286587 0.260989
-0.31480163 -0.11417555 0.05472203 0.1961618 0.3436966 0.14141533 -0.053742427 0.3153203
0.106492735 0.22611669 -0.1125219 0.06720178 -0.012112081 0.036861073 0.21487647 0.19401862
-0.019729216 -0.20925297 -0.021361887 0.30311152 -0.63171995 0.13545707 -0.11930918 0.1897209
-0.22664565 0.09828779 0.438229 0.21537113 0.09768024 0.30184203 0.12858719 0.59678
-0.025543235 0.10141525 -0.2245913 -0.26242307 -0.0026875685 0.055985123 -0.1276274 -0.20809071
0.106629185 0.22122225 -0.220301 -0.33954197 0.12882021 0.3076959 0.32748035 0.3937251
-0.26994085 -0.011931052 0.18824281 -0.37567046 0.13657863 0.16051732 -0.0031338285 0.42544448
-0.044003118 0.71380335 0.23459363 -0.055905104 0.003884727 0.5731684 0.10545197 0.13884014
-0.12719388 -0.025383662 0.017329121 0.17246795 0.19713387 -0.21934123 -0.04969887 -0.0416809
0.017409625 0.16894417 0.45203924 -0.23665754 -0.114064604 -0.2571832 0.24527246 0.14576653
0.1476235 0.09569559 0.33142713 -0.031866085 -0.20503987 -0.10514919 -0.054431744 -0.017662445
0.31216347 0.18500371 -0.44015098 0.18272138 0.17145869 0.0038954704 0.16001229 0.34022173
-0.6180194 -0.039428636 0.16723502 0.33199343 0.33629623 -0.27869868 0.21489456 -0.014438995
0.052849837 0.079524 -0.09176753 0.24054722 -0.61442643 -0.095820665 0.34002104 0.16456579
-0.0359576 0.3766607 0.073157005 -0.6361219 0.00231912 -0.21425521 0.6234062 0.3755897
-0.11772788 0.047471166 0.2152882 0.29375476 -0.0078361835 0.8389368 -0.09199683 0.2885775
-0.2677374 -0.22072726 -0.07730526 -0.057437737 -0.6699381 -0.31786394 0.07294091 -0.48258024
-0.07129689 -0.060777437 0.25401127 -0.6963172 0.2263397 0.04976202 -0.037985884 0.061057657
0.014851834 -0.68202233 -0.32449546 0.08564656 -0.28042838 0.058971092 0.053527046 0.4119529
-0.3488671 0.034281723 0.05069729 -0.30672184 0.20243742 0.4232009 -0.09380359 -0.3048335
0.2538229 -0.08938669 0.09475617 0.20466319 -0.19227715 0.13510825 0.25791278 0.30155233
-0.12201088 0.028446306 0.11123131 -0.0007692611 0.06147046 -0.064221695 -0.38682052 -0.025441617
-0.21188183 0.3955052 0.12618518 -0.1729619 0.3863299 0.15177909 0.39626938 0.046417993
-0.05862772 -0.35928646 -0.027219722 0.07422455 0.17053854 0.14773758 0.085393436 -0.51385343
0.023949366 -0.065865315 0.24516803 0.02119708 -0.053290244 0.07279719 0.031234778 0.14355758
-0.3362389 -0.26263258 0.32866034 0.042721134 -0.008040483 -0.047736127 0.22141746 0.52800465
0.1646728 -0.3460638 0.1328765 -0.09177666 -0.05302725 -0.028834933 -0.16343392 0.04057182
00000000: a9a7 b63e 29b8 16be 554d 8cbd 0721 bebe
00000010: 6884 39be b375 56be 1bd9 a83e e2da 78be
00000020: 7d6a 643e 8e6c 99be 50e7 a93e 2454 2a3e
00000030: 0b4c 823e dd69 3c3e 5e78 9ebd 1b0f 953d
00000040: 28c5 6e3e f8cb 1f3e 6701 9dbd 5344 333e
00000050: 77d3 8a3e 4b1d 5ebe 1277 28bd 522d e43d
00000060: 44ae d03e f36d 9d3e 56cb 8e3e dc8f 41be
00000070: c1ea 8bbd b6a6 79be 8da3 1a3d fbf6 623e
00000080: 8e91 51be f3bc 873d 72c3 c6be d229 883e
00000090: 37e8 813e 4f01 25bf 2b55 ab3b 5aa0 853e
000000a0: ae2d a1be dfd4 e9bd 3524 603d a4de 483e
000000b0: 00f9 af3e 2ecf 103e 0521 5cbd aa71 a13e
000000c0: dd18 da3d 228b 673e e271 e6bd 16a1 893d
000000d0: c071 46bc a3fb 163d 9408 5c3e d1ac 463e
000000e0: 2a9f a1bc 6946 56be 20ff aebc 6f31 9b3e
000000f0: 66b8 21bf 42b5 0a3e 5f58 f4bd 3246 423e
00000100: cc15 68be 1c4b c93d 8d5f e03e 408a 5c3e
00000110: 940c c83d 0a8b 9a3e 5cac 033e 93c6 183f
00000120: 0c40 d1bc ccb2 cf3d 43fb 65be 515c 86be
00000130: eb21 30bb a850 653d c2b0 02be bb15 55be
00000140: 6760 da3d 1688 623e 9696 61be 72d8 adbe
00000150: 72e9 033e 518a 9d3e 81ab a73e 5696 c93e
00000160: b035 8abe 767a 43bc b9c2 403e e157 c0be
00000170: 45db 0b3e a75e 243e eb60 4dbb dcd3 d93e
00000180: 9d3c 34bd d1bb 363f 5039 703e c0fc 64bd
00000190: e796 7e3b 2abb 123f 34f7 d73d 1c2c 0e3e
000001a0: 1d3f 02be 66f1 cfbc cdf5 8d3c 709b 303e
000001b0: 76dd 493e fd9a 60be 0b91 4bbd 97b9 2abd
000001c0: a19e 8e3c b3ff 2c3e b071 e73e 5b56 72be
000001d0: b49a e9bd 84ad 83be b428 7b3e d243 153e
000001e0: 9d2a 173e 0dfc c33d d1b0 a93e 0386 02bd
000001f0: f9f5 51be 7558 d7bd d2f3 5ebd d5b0 90bc
00000200: e4d3 9f3e 9d71 3d3e 785b e1be 501b 3b3e
00000210: de92 2f3e 264b 7f3b 43da 233e 8b31 ae3e
00000220: 8536 1ebf ec7f 21bd a83f 2b3e 0bfb a93e
00000230: 052f ac3e 98b1 8ebe 520d 5c3e 8991 6cbc
00000240: 1279 583d 7bdd a23d 9df0 bbbd 0352 763e
00000250: 0d4b 1dbf a03d c4bd 3d17 ae3e ef83 283e
00000260: 4748 13bd acd9 c03e 57d3 953d e3d8 22bf
00000270: 61fc 173b b865 5bbe 8c97 1f3f 4b4d c03e
00000280: 511b f1bd 2071 423d 8374 5c3e 0667 963e
00000290: 5663 00bc 90c4 563f d668 bcbd 6ec0 933e
000002a0: e014 89be 5406 62be 3852 9ebd d543 6bbd
000002b0: 1081 2bbf 10bf a2be 0b62 953d c214 f7be
000002c0: 1b04 92bd c3f1 78bd c40d 823e d841 32bf
000002d0: 98c5 673e 43d3 4b3d 1697 1bbd 9817 7a3d
000002e0: 1b55 733c 0499 2ebf 4524 a6be 7767 af3d
000002f0: 4f94 8fbe ac8b 713d 2d3f 5b3d 7eeb d23e
00000300: b59e b2be fe6a 0c3d f6a7 4f3d a50a 9dbe
00000310: c14b 4f3e caad d83e 191c c0bd 2313 9cbe
00000320: 13f5 813e 5e10 b7bd 860f c23d 3a93 513e
00000330: 4de4 44be d159 0a3e 250d 843e 1165 9a3e
00000340: d7e0 f9bd 3a08 e93c 3ecd e33d 3da8 49ba
00000350: 73c8 7b3d aa86 83bd 570d c6be f06a d0bc
00000360: 8df7 58be a87f ca3e b036 013e ed1c 31be
00000370: 08cd c53e fa6b 1b3e d2e3 ca3e cb20 3e3d
00000380: 9f23 70bd 65f4 b7be e5fb debc 0a03 983d
00000390: a8a1 2e3e 8548 173e c1e2 ae3d e68b 03bf
000003a0: 7631 c43c 65e4 86bd 540d 7b3e 80a5 ad3c
000003b0: df46 5abd b116 953d 14e0 ff3c c200 133e
000003c0: 8127 acbe c777 86be 2b46 a83e 5bfc 2e3d
000003d0: 3bbc 03bc f586 43bd 42bb 623e 502b 073f
000003e0: fd9f 283e 462f b1be c710 083e 67f5 bbbd
000003f0: 1a33 59bd 3d37 ecbc 395b 27be a32e 263d

fc2.bias f4 [200]
-0.09790609 -0.04651891 -0.055422828 -0.041214686 0.037353735 -0.013512548 -0.029039327 -0.06853771
0.024040947 -0.005939571 0.0831834 -0.005068735 -0.077106275 -0.051005602 0.11328775 -0.06204612
-0.07289112 0.019679861 -0.007509681 0.037370097 -0.15519655 -0.0746208 0.05601307 0.086969025
-0.1419746 0.29203725 0.088717945 -0.07177336 -0.008567734 0.10025951 0.052043892 -0.042242393
0.038561348 -0.0062272134 0.0016851719 -0.082858026 -0.0033137174 0.1355778 -0.07781684 0.06933404
-0.065684214 -0.22112288 -0.012286379 -0.06464345 -0.06326162 -0.052695796 -0.07174317 0.056757953
-0.035475492 -0.13253778 0.1067467 -0.058531143 0.15396093 -0.040343396 0.018916102 0.07351152
0.14505768 0.043523118 -0.019068578 -0.11229678 0.112679586 -0.067038536 -0.06549962 0.09821891
-0.031340994 0.004858027 -0.04834016 0.09820822 -0.09076877 -0.014509701 0.040951718 -0.04492821
-0.010311637 -0.037876904 0.010705343 0.051047586 0.10813107 0.1040913 0.0070890137 -0.03019282
-0.08408427 -0.12408187 0.09026607 -0.051994875 -0.086085685 -0.18555243 0.0905193 -0.009944059
0.08379789 0.043982066 -0.0005858527 -0.04430244 -0.16846828 -0.0298483 0.03667517 -0.18223092
0.030551722 0.18187542 -0.036834363 0.08458404 0.05985985 0.011056942 -0.064261705 0.018357696
-0.009920008 0.112429954 -0.037915226 -0.019947726 0.056015108 -0.021748416 0.11046983 0.1922586
-0.007194814 -0.105657354 -0.001281407 0.07628675 0.024403578 0.085531965 0.078464486 -0.0651156
0.044364467 -0.035061955 0.106946364 0.12830734 0.18669161 0.021192022 -0.05250669 -0.035749678
-0.015831804 -0.10774228 0.04488666 -0.019938143 -0.10334127 0.034265928 0.031621527 0.110503025
-0.060673606 -0.004955782 0.061303906 -0.1419271 -0.015906777 -0.0125303455 -0.010799809 0.08130125
0.16627918 -0.05755699 -0.12904991 -0.11045496 -0.1537545 -0.05561321 0.05196956 0.05245453
0.009003199 0.09937555 0.040586524 -0.054035567 0.090274595 0.06552329 0.032439277 0.042988554
0.13061817 0.11165158 0.054467723 0.057049986 0.042371653 -0.09725823 -0.034600157 -0.20958324
0.043323554 -0.06349102 -0.06895393 0.030300548 0.0472097 -0.1446725 0.020645482 -0.024855161
-0.07683096 -0.064968616 0.04127924 -0.023488848 0.019085087 -0.2354572 -0.009216874 0.0040860283
-0.016246347 -0.20071217 0.1165064 0.095998496 -0.017742502 -0.0035871821 0.1360392 -0.06502142
0.04086678 0.08865253 0.014604848 0.056914687 0.119357035 0.14054503 -0.02416032 0.16530332
00000000: fd82 c8bd 9d8a 3ebd 0c03 63bd bbd0 28bd
00000010: 3b00 193d bc63 5dbc e2e3 edbc 805d 8cbd
00000020: 85f1 c43c bca0 c2bb 0f5c aa3d a217 a6bb
00000030: e5e9 9dbd 40eb 50bd 6803 e83d 1324 7ebd
00000040: f147 95bd a937 a13c c513 f6bb 6311 193d
00000050: d8eb 1ebe cad2 98bd f66d 653d d11c b23d
00000060: ca61 11be e885 953e c1b1 b53d e9fd 92bd
00000070: ae5f 0cbc dc54 cd3d fa2b 553d 5c06 2dbd
00000080: 81f2 1d3d a70d ccbb fce0 dc3a 78b1 a9bd
00000090: f42a 59bb e8d4 0a3e 6f5e 9fbd 01ff 8d3d
000000a0: 7285 86bd 096e 62be cf4c 49bc c963 84bd
000000b0: 4f8f 81bd 8cd7 57bd 15ee 92bd 077b 683d
000000c0: c04e 11bd fcb7 07be 049e da3d 5abe 6fbd
000000d0: efa7 1d3e 1e3f 25bd f1f5 9a3c 358d 963d
000000e0: 008a 143e 4c45 323d b535 9cbc dbfb e5bd
000000f0: 8ec4 e63d 804b 89bd aa24 86bd ff26 c93d
00000100: 6a5f 00bd 1630 9f3b 5500 46bd 6421 c93d
00000110: fae4 b9bd 19ba 6dbc fdbc 273d a506 38bd
00000120: 24f2 28bc d024 1bbd 7765 2f3c 4617 513d
00000130: d373 dd3d d22d d53d f54a e83b ef56 f7bc
00000140: 6034 acbd a31e febd 6bdd b83d 94f8 54bd
00000150: b14d b0bd 7501 3ebe 2f62 b93d 68ec 22bc
00000160: 3a9e ab3d 8a26 343d e993 19ba 7a76 35bd
00000170: f382 2cbe 6c84 f4bc b438 163d be9a 3abe
00000180: 9b47 fa3c 8d3d 3a3e a1df 16bd 663a ad3d
00000190: 9a2f 753d 2d28 353c a49b 83bd e162 963c
000001a0: 8787 22bc ad41 e63d ff4c 1bbd 6a69 a3bc
000001b0: 1970 653d bc29 b2bc 023e e23d 70df 443e
000001c0: 79c2 ebbb e262 d8bd e2f4 a7ba 3a3c 9c3d
000001d0: 03ea c73c 622b af3d fdb1 a03d 545b 85bd
000001e0: 84b7 353d 209d 0fbd b206 db3d 0063 033e
000001f0: 162c 3f3e e49a ad3c 4111 57bd 416e 12bd
00000200: b3b1 81bc fca7 dcbd 13db 373d 5155 a3bc
00000210: 96a4 d3bd 6e5a 0c3d 9385 013d 694f e23d
00000220: e384 78bd 1d64 a2bb ce19 7b3d 5655 11be
00000230: ee4e 82bc 144c 4dbc aff1 30bc 4581 a63d
00000240: 1745 2a3e e1c0 6bbd a925 04be 3636 e2bd
00000250: d271 1dbe adca 63bd 09de 543d 90da 563d
00000260: 2782 133c 6985 cb3d 0e3e 263d 6654 5dbd
00000270: e3e1 b83d 1331 863d 0cdf 043d c414 303d
00000280: c5c0 053e 95a9 e43d 8c19 5f3d 3fad 693d
00000290: e68d 2d3d 532f c7bd e5b8 0dbd fd9c 56be
000002a0: 0a74 313d 9407 82bd b837 8dbd db38 f83c
000002b0: f55e 413d 0725 14be b720 a93c 0d9d cbbc
000002c0: 8d59 9dbd 440e 85bd 6c14 293d af6b c0bc
000002d0: 5458 9c3c b11b 71be 5f02 17bc 17e4 853b
000002e0: 0f17 85bc 7e87 4dbe e89a ee3d dc9a c43d
000002f0: b958 91bc ee16 6bbb dc4d 0b3e f329 85bd
00000300: ed63 273d 758f b53d 2c49 6f3c 601f 693d
00000310: 7671 f43d 09eb 0f3e ddeb c5bc 4645 293e

fc3.weight f4 [4, 200]
-0.69616985 0.45782304 -0.37811288 -0.058404706 0.9030453 1.1843995 0.23141906 0.059080303
0.042585563 -0.057588007 0.062569454 1.7945349 -0.7350981 -0.7060312 0.79514974 -0.8338213
1.5435827 0.28385812 -0.916568 0.020830566 -0.88143474 0.0014287247 -1.5612992 0.1311969
-1.3849822 -0.19550359 -0.4124924 0.6839283 -2.1329565 -0.74621016 -0.009143383 0.18127844
0.04788539 -0.38454518 -0.18716729 1.5468473 -1.362178 -0.46488887 0.027526814 -0.46729544
-1.6857438 -1.8431593 -0.60662127 -0.7694397 0.4421933 -0.36265677 1.3775525 1.0191013
0.30489266 0.18637605 0.2177687 -0.03485208 0.3588116 0.4015041 -1.038851 0.4121934
0.35775918 0.07107575 0.6121897 -0.14034116 -1.7323238 1.0312988 -0.35904658 0.07920364
-0.02365988 0.71661365 1.0929248 0.41911653 -0.46043134 -0.02493292 1.506045 -1.2735574
-0.25031838 -0.9502854 -0.6701053 -0.03568362 -0.06442561 -1.4603585 0.33635953 0.17899127
0.047338534 -0.37603518 0.4812973 -1.4414252 -0.073320456 1.8107327 0.27148283 -0.35992166
-0.7508344 0.38445368 -0.024617327 -2.9006095 -0.7349142 -0.068891875 0.22130585 0.0694681
0.33678237 0.75607497 0.20462474 -0.8912188 -0.015485361 -0.038112525 0.8514522 1.1050113
-0.6077228 0.05993885 -0.091460235 -0.40293798 -0.6424587 0.45571572 -2.2594564 0.42868084
-0.512972 0.8396785 -0.89418435 0.6322333 -1.1104064 -0.7909828 0.838244 -0.03760321
0.04843687 0.3689288 -2.6700966 0.37713328 0.59180367 0.23124886 -0.019029249 0.009534872
1.5268309 0.639787 -0.071008086 0.30808556 -0.3867878 0.3123255 -0.1911168 1.9048518
0.7300913 0.11653202 1.2033297 0.30605564 -0.12710261 -0.27257627 -0.262006 0.06783859
0.24326757 -0.518215 1.1056181 -0.9457246 -0.36648223 0.7277966 -0.4902013 1.0089337
-0.31771767 -1.0511625 0.7690754 0.002788984 -2.3803298 1.2829221 -0.050305884 1.033262
-0.24548721 0.78316706 1.7219454 -0.7309826 0.30626124 -0.61953706 0.10030748 0.36161968
-0.6099237 0.16117015 0.23392819 0.37048355 0.24426872 -1.0362177 -0.107063726 0.041558713
-0.18421008 0.035112645 0.43026155 0.6085074 -1.0645853 0.20719835 -0.07993937 0.5455999
0.003570899 -1.536335 -0.124432035 -1.0493253 -0.84899515 -0.20690633 -1.1270366 -0.22456796
0.34010184 -1.274245 -0.2547357 0.20226415 -1.0052054 0.550311 0.37873113 -0.025806738
-0.22685997 0.117008366 -0.0018759936 -0.26839924 -0.8552142 -0.4457813 0.9264055 -0.016961241
0.03160722 -0.09880523 0.9678943 -0.1110414 -1.8205147 0.10796556 1.3880503 0.70045316
0.19630188 0.66121525 1.4230787 -0.12257201 -1.2803608 2.3075223 0.13638191 -1.1911548
-0.29669344 -0.32208672 1.2175868 -0.5846313 -0.7065174 -0.85669523 0.0694845 -0.524859
1.5848542 -0.57933795 0.8352229 -1.9841614 -0.13280317 1.1157546 -1.4035087 0.4266846
2.4333234 -1.4639524 1.9725084 1.1899065 2.1192174 -0.74218076 -0.9904553 -1.5927712
1.5645074 -0.34602004 0.1924568 -0.44185036 -0.55910426 0.5110023 1.4232616 0.33570373
00000000: 3038 32bf c867 ea3e 0398 c1be c639 6fbd
00000010: fa2d 673f 679a 973f 1ef9 6c3e 30fe 713d
00000020: 336e 2e3d 67e1 6bbd 6a24 803d 52b3 e53f
00000030: 642f 3cbf 76be 34bf ef8e 4b3f 5075 55bf
00000040: 1e94 c53f da55 913e 33a4 6abf dda4 aa3c
00000050: b5a5 61bf 0c44 bb3a a7d8 c7bf 7b58 063e
00000060: 1947 b1bf 1832 48be 3432 d3be ed15 2f3f
00000070: 5c82 08c0 a107 3fbf 21ce 15bc 0ea1 393e
00000080: 7923 443d 1be3 c4be c8a8 3fbe 18ff c53f
00000090: d95b aebf ea05 eebe ea7f e13c 5941 efbe
000000a0: 74c6 d7bf a5ec ebbf 884b 1bbf 00fa 44bf
000000b0: 2967 e23e 26ae b9be a453 b03f e971 823f
000000c0: e41a 9c3e 5dd9 3e3e c2fe 5e3e 0ec1 0ebd
000000d0: 27b6 b73e f291 cd3e 12f9 84bf 030b d33e
000000e0: 362c b73e 2a90 913d 77b8 1c3f 98b5 0fbe
000000f0: c9bc ddbf 9901 843f f4d4 b7be 8535 a23d
00000100: 5dd2 c1bc fe73 373f f6e4 8b3f 7196 d63e
00000110: a8bd ebbe 1f40 ccbc 15c6 c03f ee03 a3bf
00000120: bb29 80be e745 73bf 058c 2bbf fd28 12bd
00000130: 93f1 83bd 07ed babf 5137 ac3e 7d49 373e
00000140: 0de6 413d af87 c0be 9a6c f63e 9f80 b8bf
00000150: 0929 96bd 17c6 e73f ccff 8a3e a747 b8be
00000160: af36 40bf 1dd7 c43e 47aa c9bc 96a3 39c0
00000170: 5623 3cbf 2f17 8dbd 009e 623e 4b45 8e3d
00000180: bd6e ac3e 218e 413f 2689 513e ea26 64bf
00000190: 50b6 7dbc e11b 1cbd c5f8 593f 0371 8d3f
000001a0: b993 1bbf 7182 753d 814f bbbd e34d cebe
000001b0: 2c78 24bf 9253 e93e ef9a 10c0 0e7c db3e
000001c0: 2252 03bf 2cf5 563f 44e9 64bf 0bda 213f
000001d0: cc21 8ebf d97d 4abf 2997 563f d305 1abd
000001e0: bd65 463d 3ce4 bc3e dde2 2ac0 9d17 c13e
000001f0: 7280 173f 80cc 6c3e 3ae3 9bbc 2738 1c3c
00000200: 326f c33f 15c9 233f b06c 91bd 64bd 9d3e
00000210: 0d09 c6be 21e9 9f3e 1fb4 43be 2fd2 f33f
00000220: 43e7 3a3f 57a8 ee3d b506 9a3f 53b3 9c3e
00000230: 3027 02be 1e8f 8bbe a725 86be f5ee 8a3d
00000240: 221b 793e bda9 04bf e584 8d3f 021b 72bf
00000250: 8fa3 bbbe e150 3a3f aafb fabe bd24 813f
00000260: e4ab a2be 7e8c 86bf 20e2 443f 63c7 363b
00000270: 5357 18c0 cb36 a43f 8b0d 4ebd ee41 843f
00000280: 0061 7bbe a37d 483f b568 dc3f ad21 3bbf
00000290: 46ce 9c3e fb99 1ebf 026e cd3d 3726 b93e
000002a0: f623 1cbf ca09 253e df8a 6f3e 05b0 bd3e
000002b0: 9421 7a3e c8a2 84bf 3a44 dbbd 7839 2a3d
000002c0: 91a1 3cbe 47d2 0f3d 3e4b dc3e 24c7 1b3f
000002d0: 5544 88bf ce2b 543e 41b7 a3bd 6fac 0b3f
000002e0: be05 6a3b a0a6 c4bf 39d6 febd 4b50 86bf
000002f0: bf57 59bf 41df 53be bc42 90bf 25f5 65be
00000300: d421 ae3e 761a a3bf b86c 82be 551e 4f3e
00000310: 92aa 80bf 2fe1 0c3f 0ce9 c13e a768 d3bc
00000320: fb4d 68be 15a2 ef3d e6e3 f5ba a06b 89be
00000330: 51ef 5abf 723d e4be e928 6d3f 4df2 8abc
00000340: 9376 013d 655a cabd ecc7 773f ac69 e3bd
00000350: a006 e9bf 0c1d dd3d a2ab b13f e650 333f
00000360: 5c03 493e 6745 293f 7127 b63f 0907 fbbd
00000370: dde2 a3bf 72ae 1340 b3a7 0b3e c377 98bf
00000380: 34e8 97be 8de8 a4be e2d9 9b3f 66aa 15bf
00000390: 53de 34bf 6150 5bbf e44d 8e3d 295d 06bf
000003a0: 81dc ca3f 7e4f 14bf 2bd1 553f 00f9 fdbf
000003b0: 8efd 07be 0cd1 8e3f 2ca6 b3bf 6776 da3e
000003c0: 92bb 1b40 cb62 bbbf 287b fc3f db4e 983f
000003d0: 42a1 0740 8fff 3dbf 7b8e 7dbf eddf cbbf
000003e0: c741 c83f 8a29 b1be 6513 453e 363a e2be
000003f0: 7521 0fbf 0cd1 023f 702d b63f 5ce1 ab3e

fc3.bias f4 [4]
0.14965943 -0.006541224 0.095630415 -0.045556605
00000000: 5240 193e c457 d6bb e1d9 c33d 9099 3abd
