benchmarks/Pendulum-v1/Train_Pendulum-v1_TD3_20230220-190349/models/actor.pth (torch, 270103 bytes, 5 tensors)

fc1.weight f4 [256, 3]
-0.35733625 0.7569028 0.08262688 -0.401596 0.16789557 0.47335792 0.25774467 -0.3271422
-0.46086556 -0.34711897 0.48572406 0.48496625 0.38398096 0.36339143 -0.49685708 -0.40091553
0.00918737 -0.12610988 0.34172073 0.55135167 0.23231392 -0.6067249 -0.6564163 0.19943596
0.32188138 0.38209042 0.054656364 0.13927193 0.5682582 -0.40428066 0.2387316 0.16209948
-0.046968043 -0.06608526 0.18805255 -0.13644049 -0.4671099 0.40531152 -0.30443168 0.011906506
-0.39438313 0.51976496 0.30168155 0.48512998 -0.1536488 0.11449509 0.2277684 -0.032109834
-0.2619754 0.28833133 -0.14228302 -0.4355263 0.17071238 -0.5871943 0.0014655448 -0.0903267
0.55124557 0.3084466 -0.18462017 -0.39163357 -0.024567604 -0.18969089 -0.03562957 -0.5965844
-0.15041691 0.2924538 0.57125264 0.08111884 -0.27060595 -0.046672046 0.42462507 -0.08348164
0.13563447 0.32746494 -0.37892276 -0.36758205 0.37151253 -0.5760586 -0.51797295 0.3375156
-0.3414462 -0.13866353 0.58848107 -0.09212327 0.51690644 0.5862174 -0.35239702 0.4783996
0.30163243 -0.4527276 -0.5736312 0.2897135 0.19266734 -0.3395881 0.33511427 -0.071057275
0.067970864 0.124840535 0.42181197 0.5450916 0.28009367 0.11259411 -0.050822258 -0.30517307
0.16615549 -0.039875492 -0.2708362 0.1387649 -0.051458415 0.022139087 0.4629714 -0.41538855
0.46603584 -0.5943415 -0.4291613 0.73259616 0.496066 -0.25915873 0.6014567 -0.122313775
-0.4141398 -0.4388397 -0.10817446 -0.35504586 0.52535903 -0.4983022 -0.27586263 -0.26447242
0.503442 0.5359186 -0.51576537 -0.30611363 -0.19053252 -0.5204231 -0.12005337 -0.0089999745
0.34850207 -0.33621678 -0.42360744 -0.561595 -0.4104783 -0.41576123 0.5842257 0.44524702
-0.5517354 -0.09555031 -0.52786005 -0.09268445 0.74618447 0.025189832 -0.50706416 0.15470262
0.4785281 -0.37089485 -0.081957184 0.055474803 0.33682734 -0.07458241 -0.44002616 0.4458149
0.3634348 0.46281624 0.5712844 -0.3014494 -0.57142806 0.19865356 -0.20193985 0.38812256
-0.5017381 0.15113999 -0.15227726 -0.08570582 0.116399735 0.42499888 -0.14844055 0.08634206
0.32798305 -0.45028055 -0.6570709 0.23881514 0.25678247 -0.09842006 -0.18669388 0.58337754
0.27801225 -0.4902878 0.39362562 0.23202874 0.35353512 0.04863164 0.51137936 -0.4184287
0.20606987 -0.49861446 0.15799709 -0.47983766 -0.70268846 -0.2511302 -0.4474291 0.56930137
-0.49579048 0.46923092 -0.30920476 0.33149037 -0.44515178 -0.10349623 0.24985363 0.23979758
-0.60791063 0.059381686 0.54034966 0.5371458 0.31532833 -0.31429893 0.3648336 0.5651237
-0.5280043 0.54633605 0.45666605 0.061712023 -0.13848257 -0.07632824 -0.19891585 -0.5343377
-0.0667212 -0.10718156 -0.28948337 0.43129754 -0.41606906 0.56161946 0.042550266 0.0013763878
0.39801446 0.083133236 -0.5869104 -0.6446479 0.13663054 -0.50736696 0.21060544 0.55496025
0.18424246 -0.52738005 -0.48874187 -0.0034008487 0.15792157 0.32005078 0.60186833 0.3081658
-0.5282947 0.6292503 0.5684399 0.61743695 -0.02681086 -0.6137428 -0.4796893 0.447673
00000000: c7f4 b6be 62c4 413f 4838 a93d fe9d cdbe
00000010: d1ec 2b3e f85b f23e 1cf7 833e 2f7f a7be
00000020: 92f6 ebbe 94b9 b1be d3b0 f83e 7f4d f83e
00000030: 2799 c43e 710e ba3e 0d64 febe cd44 cdbe
00000040: 9f86 163c f322 01be 05f6 ae3e 6225 0d3f
00000050: b3e3 6d3e 5352 1bbf e60a 28bf f138 4c3e
00000060: a3cd a43e 5ba1 c33e 5adf 5f3d 4d9d 0e3e
00000070: 5f79 113f e0fd cebe 0e76 743e 68fd 253e
00000080: 9061 40bd b557 87bd d990 403e 0eb7 0bbe
00000090: 0729 efbe fe84 cf3e 78de 9bbe 8113 433c
000000a0: 96ec c9be 510f 053f 0176 9a3e f562 f83e
000000b0: 1c56 1dbe 677c ea3d 1f3c 693e 9a85 03bd
000000c0: a421 86be 2aa0 933e a4b2 11be 4efd debe
000000d0: 3acf 2e3e 5e52 16bf 8617 c03a 34fd b8bd
000000e0: 6e1e 0d3f b6ec 9d3e 120d 3dbe 3284 c8be
000000f0: 0042 c9bc 543e 42be 50f0 11bd c1b9 18bf
00000100: e406 1abe 81bc 953e 9d3d 123f a221 a63d
00000110: dd8c 8abe 302b 3fbd 7568 d93e 6cf8 aabd
00000120: c3e3 0a3e 7ca9 a73e 2a02 c2be b733 bcbe
00000130: e436 be3e 9478 13bf e099 04bf d8ce ac3e
00000140: 09d2 aebe d0fd 0dbe b2a6 163f 20ab bcbd
00000150: fb53 043f 5812 163f 626d b4be cbf0 f43e
00000160: 916f 9a3e e9cb e7be 7fd9 12bf 5455 943e
00000170: 964a 453e 7ede adbe 1994 ab3e 7a86 91bd
00000180: 4f34 8b3d 65ac ff3d bdf7 d73e 208b 0b3f
00000190: 7068 8f3e be97 e63d 002b 50bd a53f 9cbe
000001a0: aa24 2a3e 7c54 23bd 0bab 8abe 6318 0e3e
000001b0: 0fc6 52bd 085d b53c 960a ed3e cfad d4be
000001c0: 409c ee3e c426 18bf 08bb dbbe 6c8b 3b3f
000001d0: 5dfc fd3e 74b0 84be 11f9 193f a57f fabd
000001e0: 220a d4be 99af e0be 928a ddbd 92c8 b5be
000001f0: ee7d 063f 7721 ffbe de3d 8dbe ee68 87be
00000200: 93e1 003f f631 093f 3309 04bf edba 9cbe
00000210: f51a 43be 733a 05bf 8bde f5bd a174 13bc
00000220: dd6e b23e 9b24 acbe 13e3 d8be b1c4 0fbf
00000230: 362a d2be a8de d4be d18f 153f 6bf7 e33e
00000240: 883e 0dbf e2af c3bd d621 07bf 58d1 bdbd
00000250: f205 3f3f e85a ce3c f5ce 01bf 5d6a 1e3e
00000260: a301 f53e eee5 bdbe 2bd9 a7bd 8c39 633d
00000270: a274 ac3e aabe 98bd 1c4b e1be da41 e43e
00000280: 2014 ba3e 40f6 ec3e b23f 123f 9357 9abe
00000290: 1c49 12bf d76b 4b3e 52c9 4ebe 00b8 c63e
000002a0: e871 00bf 71c4 1a3e 92ee 1bbe 8886 afbd
000002b0: fc62 ee3d 7499 d93e cd00 18be 1bd4 b03d
000002c0: 65ed a73e 2c8b e6be cc35 28bf f58b 743e
000002d0: fe78 833e 7590 c9bd ae2c 3fbe 3b58 153f
000002e0: 9f57 8e3e 0107 fbbe 4c89 c93e f198 6d3e
000002f0: 8e02 b53e f831 473d c2e9 023f 493c d6be
00000300: fb03 533e 654a ffbe fdc9 213e 48ad f5be
00000310: 64e3 33bf 2394 80be 6d15 e5be bcbd 113f
00000320: 40d8 fdbe 093f f03e 1650 9ebe 1bb9 a93e
00000330: efea e3be d5f5 d3bd a1d9 7f3e 7f8d 753e
00000340: 08a0 1bbf 363a 733d 5b54 0a3f 6382 093f
00000350: b772 a13e caeb a0be 78cb ba3e f2ab 103f
00000360: 4a2b 07bf aedc 0b3f 22d0 e93e bfc5 7c3d
00000370: 60ce 0dbe fb51 9cbd 99b0 4bbe 5bca 08bf
00000380: 20a5 88bd 0182 dbbd 2a37 94be 08d3 dc3e
00000390: 0107 d5be 4bc6 0f3f 3049 2e3d e967 b43a
000003a0: 8dc8 cb3e c241 aa3d c33f 16bf a507 25bf
000003b0: e0e8 0b3e cde2 01bf f4a8 573e e011 0e3f
000003c0: 0eaa 3c3e 6102 07bf 603c fabe c6e0 5ebb
000003d0: 31b6 213e b2dd a33e 0b14 1a3f e8c7 9d3e
000003e0: 523e 07bf 8c16 213f 4785 113f 5910 1e3f
000003f0: 73a2 dbbc 401e 1dbf d699 f5be 6535 e53e

fc1.bias f4 [256]
0.14461514 0.12428795 -0.5819098 0.3324699 0.4948024 0.55643255 -0.15571101 -0.054244246
0.33689287 0.54379296 0.5380385 -0.04406162 0.22356008 0.44265452 0.3949469 0.5044468
0.48373315 -0.21406947 -0.57888496 0.1536933 -0.56623715 -0.3036266 -0.019076781 0.090952076
-0.4486421 0.4506393 0.26209268 -0.17642863 -0.20150237 -0.5157569 0.569007 0.38508594
-0.54282326 -0.4319275 0.5266235 0.12759398 -0.589765 0.032308485 -0.5859859 -0.28206742
0.49631825 -0.22558182 -0.39897823 -0.42908895 0.48534167 -0.5420987 -0.52879363 -0.04798242
0.32560053 0.1945904 -0.31947792 -0.051877033 -0.25255275 -0.18034959 0.037994243 0.2919239
-0.4804314 -0.10051878 -0.10340111 -0.40500575 0.0545029 -0.09401065 -0.17362082 0.03531983
0.24309394 0.10917563 -0.45974094 0.5536139 -0.28660735 -0.2204631 0.08040385 -0.043189857
-0.26579154 -0.016893877 0.3375986 -0.1618432 -0.14687662 -0.44679424 -0.14547266 -0.40404367
0.2973811 -0.444284 -0.10998603 -0.49115252 -0.4321739 -0.21128419 -0.077285655 -0.2548981
0.18526417 0.011955436 0.3048294 0.28237343 -0.4178036 -0.44551322 -0.035438985 -0.35477024
0.48151243 -0.55314004 0.12791958 -0.31175593 0.5598514 0.43618536 0.28032053 -0.010611135
0.4852703 -0.18297088 -0.5125815 0.19514154 0.43241364 -0.2022503 0.30347922 -0.2634734
-0.2599035 0.055456422 -0.27211204 0.30566797 0.24509875 -0.32902586 0.26653802 0.34538275
-0.5142273 0.35175544 0.20752883 -0.59570765 0.4627457 0.058431607 0.16609977 0.3833364
-0.0086045535 -0.1724027 0.50923836 0.44666883 -0.432385 -0.56340224 -0.43557832 0.47959122
0.26382333 0.012669972 -0.41317204 0.4356479 -0.034613848 -0.08564507 0.34472564 0.43088517
-0.013352097 0.36589602 0.35441202 0.23463006 -0.41029018 0.518383 -0.21754804 -0.4939265
0.25868002 0.14852716 -0.46539947 -0.28282884 0.21527833 -0.071817964 -0.085621595 -0.4350522
-0.34080708 0.4225458 0.24468178 0.17463332 -0.08446712 0.5649901 -0.47639817 0.25560734
-0.47905648 0.5256292 0.45891288 -0.16529548 0.22627056 0.6098814 -0.30472645 -0.29883963
-0.1397776 -0.48460034 -0.545869 -0.034786694 0.38209045 -0.033783834 0.59926385 0.43665862
0.48359844 0.58608466 -0.25992972 -0.1273704 0.29965922 0.23360343 0.15799944 -0.11589172
0.34124675 -0.3266111 -0.51704794 0.34162298 0.30935076 0.40731183 -0.21655472 -0.099399365
0.5507354 -0.29571366 0.23674707 -0.19333 0.565778 0.051593427 0.06112386 0.4651763
0.32709032 -0.04920902 0.29426935 0.23866878 0.30693546 0.25402167 -0.45937732 0.30764684
0.19111615 -0.4492821 0.31148887 0.033298183 -0.48072577 -0.19476473 -0.1400573 -0.50743586
0.05548145 0.52420294 0.039818037 0.1603384 -0.5406918 0.18035817 0.39957058 -0.10063799
0.52886224 -0.12413965 0.5629904 0.29767224 -0.2966964 0.2918502 -0.11876386 0.2781334
0.45159388 0.28469718 -0.25566682 -0.08531061 -0.08369912 0.18426841 -0.5927889 -0.15681969
-0.5526445 -0.43081522 -0.033329885 0.49062496 0.23658015 0.04433945 0.28363657 0.23989026
00000000: fe15 143e ae8a fe3d 0af8 14bf 7f39 aa3e
00000010: bd56 fd3e 5d72 0e3f b572 1fbe 372f 5ebd
00000020: 397d ac3e 0436 0b3f e4bc 093f f579 34bd
00000030: efec 643e 9da3 e23e 7b36 ca3e 6d23 013f
00000040: dfab f73e 0735 5bbe ce31 14bf c761 1d3e
00000050: ebf4 10bf f274 9bbe e946 9cbc 1545 ba3d
00000060: 6bb4 e5be 32ba e63e 0331 863e b5a9 34be
00000070: a356 4ebe a508 04bf 71aa 113f fc29 c53e
00000080: 77f6 0abf 9a25 ddbe ccd0 063f ffa7 023e
00000090: d7fa 16bf e755 043d 2c03 16bf 246b 90be
000000a0: 6d1d fe3e ecfe 66be e046 ccbe 8cb1 dbbe
000000b0: b47e f83e fbc6 0abf 055f 07bf 3789 44bd
000000c0: 1db5 a63e b542 473e 9c92 a3be 037d 54bd
000000d0: 984e 81be 90ad 38be da9f 1b3d 0d77 953e
000000e0: 1bfb f5be cadc cdbd f6c3 d3bd ea5c cfbe
000000f0: 6f3e 5f3d a888 c0bd a8c9 31be 87ab 103d
00000100: 9eed 783e 7997 df3d 2a63 ebbe a4b9 0d3f
00000110: 33be 92be 14c1 61be c6aa a43d d9e7 30bd
00000120: d415 88be 0765 8abc b9d9 ac3e 39ba 25be
00000130: d366 16be 37c2 e4be c9f6 14be d0de cebe
00000140: 5642 983e 3179 e3be 5b40 e1bd 5878 fbbe
00000150: e645 ddbe e25a 58be f147 9ebd 0182 82be
00000160: e4b5 3d3e bce0 433c 9912 9c3e 4093 903e
00000170: 5aea d5be 4f1a e4be 7828 11bd 72a4 b5be
00000180: cc88 f63e 969a 0dbf 5afd 023e 799e 9fbe
00000190: 6c52 0f3f b053 df3e 2c86 8f3e 53da 2dbc
000001a0: 5975 f83e b85c 3bbe 8b38 03bf 2fd3 473e
000001b0: 5265 dd3e b41a 4fbe a161 9b3e fce5 86be
000001c0: 1212 85be 4626 633d 4552 8bbe 8380 9c3e
000001d0: 2bfb 7a3e 1476 a8be ac77 883e 02d6 b03e
000001e0: 66a4 03bf 4a19 b43e 7082 543e 4c80 18bf
000001f0: 01ed ec3e fb55 6f3d 0f16 2a3e ab44 c43e
00000200: 1dfa 0cbc 558a 30be 725d 023f c7b1 e43e
00000210: 9161 ddbe 213b 10bf 1f04 dfbe fb8c f53e
00000220: da13 873e b795 4f3c 498b d3be 3e0d df3e
00000230: 40c7 0dbd af66 afbd e17f b03e fb9c dc3e
00000240: c1c2 5abc b956 bb3e 7e75 b53e dd42 703e
00000250: 8e11 d2be c0b4 043f eac4 5ebe efe3 fcbe
00000260: b571 843e 8117 183e d748 eebe f1ce 90be
00000270: ec71 5c3e 4c15 93bd 605a afbd 29bf debe
00000280: 447e aebe ec57 d83e dc8d 7a3e 14d3 323e
00000290: 19fd acbd 31a3 103f 76ea f3be f7de 823e
000002a0: e446 f5be a38f 063f a1f6 ea3e 3843 29be
000002b0: 78b3 673e 3021 1c3f 1b05 9cbe 8201 99be
000002c0: dc21 0fbe 891d f8be 12be 0bbf 7e7c 0ebd
000002d0: 5ca1 c33e eb60 0abd 5b69 193f b891 df3e
000002e0: 379a f73e a509 163f 8215 85be 636d 02be
000002f0: ef6c 993e bd35 6f3e 9bca 213e a358 edbd
00000300: e5b7 ae3e 9239 a7be 415d 04bf 35e9 ae3e
00000310: 3963 9e3e 2d8b d03e 85c0 5dbe e591 cbbd
00000320: fffc 0c3f c867 97be d36d 723e 4df8 45be
00000330: d4d6 103f a153 533d 035d 7a3d 972b ee3e
00000340: 6278 a73e 668f 49bd 79aa 963e 9765 743e
00000350: a526 9d3e 210f 823e 8133 ebbe e383 9d3e
00000360: f4b3 433e 4e08 e6be 787b 9f3e ad63 083d
00000370: b021 f6be 6870 47be 2e6b 0fbe 51e7 01bf
00000380: 8440 633d 2a32 063f 3d18 233d c02f 243e
00000390: c76a 0abf d0af 383e 8494 cc3e 4a1b cebd
000003a0: 8463 073f ee3c febd 2420 103f 7f68 983e
000003b0: 97e8 97be 646d 953e 773a f3bd 8067 8e3e
000003c0: 5037 e73e d4c3 913e c3e6 82be 54b7 aebd
000003d0: 726a abbd dcb0 3c3e 03c1 17bf 5795 20be
000003e0: 1c7a 0dbf d093 dcbe eb84 08bd 3233 fb3e
000003f0: 1142 723e 489d 353d d038 913e cba5 753e

fc2.weight f4 [256, 256]
-0.05704734 0.042016905 -0.0030341202 -0.00093687273 0.028763104 -0.018363787 -0.1273205 0.0339381
-0.05024384 -0.022293292 -0.056308214 -0.0123656755 -0.07655073 0.0672549 -0.06399015 -0.06335859
-0.06507218 0.0056725466 -0.1567676 0.060147706 -0.008264475 -0.07215622 0.020534333 -0.06768908
0.08297669 -0.0074593606 -0.062735476 0.044390082 0.086692706 0.010464932 0.04576918 -0.001032406
-0.16691124 -0.13639061 -0.025926264 0.013462217 -0.054945633 -0.009913944 -0.0439192 0.102923565
-0.04391927 0.03251132 -0.16652648 0.10870019 -0.04588088 0.06032457 0.022737421 0.039372105
-0.088330224 -0.074690245 -0.023032192 0.04658213 0.015376168 -0.10135503 0.055238646 -0.026467793
0.014296513 -0.042116728 0.012170408 0.06452937 -0.0014186164 -0.0268884 -0.12215451 -0.039287917
0.075211644 -0.045813028 0.023102958 0.034962643 -0.011461125 0.25635672 0.0019095931 0.049424686
-0.043044206 0.043995537 0.065209545 -0.13203466 -0.011608797 -0.15576799 0.026261844 -0.02770584
0.01264503 -0.05026312 0.040807564 -0.24628872 -0.022980835 -0.018696819 -0.061846815 0.035849553
-0.013951666 0.041141555 0.011961502 -0.114015 0.08243151 -0.1357005 -0.04536461 0.097204536
0.038283143 0.10768693 -0.014125326 0.018650772 0.06093746 -0.011567636 0.020010874 0.03360349
0.05030491 0.04703826 -0.050599996 0.018714052 -0.0870695 -0.13654757 -0.016923781 0.01571059
0.001955888 -0.011873653 0.030175854 -0.03406537 -0.06374156 0.070855625 -0.0049970406 0.006973469
0.016853614 0.04003642 -0.06495799 -0.009515254 -0.026790243 -0.013667903 0.029626057 0.07227663
0.02075628 0.008892673 -0.033002328 -0.018229725 0.061703388 -0.13727435 -0.17197192 -0.05306701
-0.038822237 -0.013105156 0.0589824 -0.1038495 -0.04144918 0.028057545 -0.0766333 -0.05704583
-0.07343412 0.058936715 0.062855914 -0.053610537 0.10117742 0.03283948 -0.15944658 -0.08960874
-0.04044864 -0.027476372 -0.13428348 0.06024183 -0.017576503 0.08579014 -0.005932113 0.036968127
0.026894487 0.04933524 -0.039794967 0.061323076 -0.01687514 0.02050677 0.019636633 0.037019696
0.09865753 -0.071746275 0.072434306 -0.06377349 0.005827869 -0.11402589 0.0048608202 0.0015688204
-0.0019355656 -0.09590433 -0.056962065 -0.01740469 -0.0135056535 -0.031902384 -0.046667006 -0.03425009
-0.005800558 0.012984542 -0.078686655 0.00091108336 -0.0060585574 -0.03532418 -0.026533013 0.02090105
-0.0031881793 -0.1717846 0.1217317 0.012833233 -0.044342723 -0.02642318 0.058257625 -0.024570683
0.052187532 0.010407333 0.015581276 0.017368438 0.022053381 -0.034555797 0.079045475 0.08179131
-0.11643851 0.07305621 -0.011332569 -0.010467543 0.07928104 0.06861914 0.0617945 -0.0025616977
0.08650144 -0.14026423 -0.011565675 0.006754805 0.021849103 -0.07057673 0.10571805 0.07440575
0.017207958 0.019438518 0.03972216 -0.03467144 -0.089017674 -0.018625418 0.005617865 -0.1097941
-0.030970147 -0.07935258 -0.03689881 0.03973614 -0.14496258 -0.01694678 0.082964525 -0.021006381
-0.010037625 -0.076821156 0.04664994 0.06836697 -0.0060728895 -0.03387337 -0.08839065 -0.14050403
0.043261893 -0.22538464 0.0033365134 -0.053805914 0.10683792 0.03520108 -0.05478323 -0.018278494
00000000: 79aa 69bd eb19 2c3d 17d8 46bb 7798 75ba
00000010: 9aa0 eb3c a76f 96bc 4e60 02be ad02 0b3d
00000020: 7ccc 4dbd 6ca0 b6bc 71a3 66bd 6799 4abc
00000030: a1c6 9cbd f0bc 893d 450d 83bd 26c2 81bd
00000040: 9044 85bd c5e0 b93b b087 20be 715d 763d
00000050: b867 07bc a4c6 93bd 9e37 a83c 93a0 8abd
00000060: afef a93d a76d f4bb 757b 80bd 60d2 353d
00000070: f28b b13d 1b75 2b3c 7778 3b3d cc51 87ba
00000080: c8ea 2abe fba9 0bbe 5163 d4bc a190 5c3c
00000090: ac0e 61bd 186e 22bc 9ee4 33bd 97c9 d23d
000000a0: b1e4 33bd 972a 053d eb85 2abe 359e de3d
000000b0: 97ed 3bbd e516 773d d443 ba3c a544 213d
000000c0: 7ae6 b4bd 33f7 98bd 02ae bcbc e7cc 3e3d
000000d0: 53ec 7b3c 3a93 cfbd eb41 623d fcd2 d8bc
000000e0: ec3b 6a3c 9782 2cbd 6466 473c f927 843d
000000f0: def0 b9ba 1045 dcbc 252c fabd 5eec 20bd
00000100: 9008 9a3d 71a6 3bbd 6a42 bd3c fd34 0f3d
00000110: 71c7 3bbc 3041 833e 504b fa3a 8a71 4a3d
00000120: 1f4f 30bd aa34 343d 958c 853d 1834 07be
00000130: d332 3ebc a581 1fbe 1423 d73c 5cf7 e2bc
00000140: 1a2d 4f3c b4e0 4dbd d525 273d 1c33 7cbe
00000150: 4e42 bcbc 122a 99bc 1653 7dbd fbd6 123d
00000160: 8795 64bc 0c84 283d 2dfa 433c b280 e9bd
00000170: dad1 a83d 12f5 0abe 3ed0 39bd 2c13 c73d
00000180: c9ce 1c3d f78a dc3d e96d 67bc 81c9 983c
00000190: 8f99 793d 2f86 3dbc d8ed a33c d0a3 093d
000001a0: 850c 4e3d 31ab 403d f141 4fbd 364e 993c
000001b0: 7e51 b2bd 20d3 0bbe bea3 8abc 7fb3 803c
000001c0: 5b2e 003b b689 42bc 5a33 f73c 2188 0bbd
000001d0: ef8a 82bd c11c 913d 37be a3bb b381 e43b
000001e0: 9710 8a3c 3bfd 233d b208 85bd dee5 1bbc
000001f0: 3677 dbbc 57ef 5fbc 58b2 f23c c505 943d
00000200: 1309 aa3c 93b2 113c 732d 07bd 8156 95bc
00000210: b1bc 7c3d a691 0cbe 6819 30be cb5c 59bd
00000220: 1104 1fbd 02b7 56bc 8797 713d 0caf d4bd
00000230: 9ec6 29bd f0d8 e53c ebf1 9cbd e3a8 69bd
00000240: a164 96bd a067 713d 9aba 803d b996 5bbd
00000250: 1b36 cf3d b182 063d f745 23be c984 b7bd
00000260: 79ad 25bd 2116 e1bc 9c81 09be 23c0 763d
00000270: 99fc 8fbc beb2 af3d 2c62 c2bb e46b 173d
00000280: d451 dc3c c013 4a3d 0c00 23bd e82d 7b3d
00000290: bc3d 8abc d0fd a73c 01dd a03c f7a1 173d
000002a0: f60c ca3d b6ef 92bd 7058 943d ad9b 82bd
000002b0: b5f7 be3b 6886 e9bd 8447 9f3b e1a0 cd3a
000002c0: ceb2 fdba 7d69 c4bd 0e51 69bd 4894 8ebc
000002d0: d146 5dbc 13ac 02bd e725 3fbd d349 0cbd
000002e0: 9b12 bebb 1ebd 543c 7826 a1bd c5d5 6e3a
000002f0: dd86 c6bb 16b0 10bd c35b d9bc ae38 ab3c
00000300: c6f0 50bb 4de8 2fbe 784e f93d 7b42 523c
00000310: b7a0 35bd 6d75 d8bc 8c9f 6e3d 7548 c9bc
00000320: 98c2 553d 8583 2a3c 9c48 7f3c 4148 8e3c
00000330: 4ba9 b43c 618a 0dbd 98e2 a13d 3482 a73d
00000340: 5077 eebd 7f9e 953d 3dac 39bc 0f80 2bbc
00000350: 195e a23d 3188 8c3d 3b1c 7d3d 28e2 27bb
00000360: ab27 b13d 6da1 0fbe f57d 3dbc 6957 dd3b
00000370: e4fc b23c 888a 90bd b482 d83d 0b62 983d
00000380: b4f7 8c3c 873d 9f3c b4b3 223d a403 0ebd
00000390: e64e b6bd 5594 98bc 1116 b83b bbdb e0bd
000003a0: 1bb5 fdbc 9b83 a2bd 3523 17bd 5dc2 223d
000003b0: 1271 14be f9d3 8abc 4ee9 a93d 9315 acbc
000003c0: da74 24bc 6954 9dbd 0214 3f3d fb03 8c3d
000003d0: 17ff c6bb cebe 0abd 2806 b5bd 4ae0 0fbe
000003e0: 6233 313d 3bcb 66be 68a9 5a3b 9763 5cbd
000003f0: d7cd da3d 022f 103d 6164 60bd c8bc 95bc

fc2.bias f4 [256]
0.041914545 0.011218672 -0.019019082 0.046245933 -0.042138718 0.03969325 0.0478959 0.008799922
0.06775326 0.020138554 0.062457867 -0.066627994 -0.044780664 0.025658589 -0.05538554 0.0048803077
-0.026762804 -0.04550462 0.07280555 0.026383152 -0.037999183 0.014334613 -0.057238802 -0.040843327
-0.05984327 0.021294177 -0.05094809 0.010787875 -0.010887044 0.04286579 0.03632566 0.11102351
0.063769616 0.029936163 -0.035509683 0.0054899445 0.015435036 0.1016942 0.024369424 0.00930559
0.04625891 0.043135934 0.0068467613 -0.09340971 -0.018358529 0.051984537 -0.012333365 0.03846728
0.031792384 -0.055076458 -0.0073768958 -0.05044576 -0.013301603 -0.039430887 -0.022757348 0.011038076
-0.015079773 0.07623539 -0.05274022 0.012969362 -0.010059135 -0.045199037 -0.02325532 0.011737366
0.004933157 -0.01079126 0.059774753 0.005549468 0.03915099 0.060479015 -0.0372705 0.06516179
-0.016626311 -0.06315598 0.051656105 -0.015007474 0.052684747 0.012121349 -0.03687203 -0.049083684
0.041818738 -0.048245996 -0.08082387 0.011003419 0.041205622 -0.023147939 -0.02108254 0.009145588
0.012118459 -0.052370578 -0.044804238 0.07733894 -0.006783909 -0.025138019 0.03504691 -0.0145117715
-0.00039291973 -0.013692647 -0.03820115 0.06577794 0.005407153 0.0049980464 -0.06132252 0.025825197
-0.06398075 -0.0068863365 0.105027944 0.040392093 0.04877468 0.03861966 -0.0033925269 -0.04734462
0.04433573 0.016898777 0.0034147415 0.0141164465 -0.034337405 0.0025286525 0.01565424 -0.038052622
0.061718848 -0.035387903 -0.0021715416 0.006144171 -0.0022823617 0.07453349 0.03890019 0.03417428
-0.021783445 -0.03502214 0.06902474 -0.045071617 -0.08013034 0.055041127 -0.047772482 -0.022551764
-0.051257383 -0.023528164 -0.06862567 0.0037036075 -0.026487695 0.02269013 0.055803414 0.019634988
0.08178868 0.04553377 -0.044900306 0.050825965 -0.038197346 -0.011235253 -0.07339079 -0.039284024
-0.0011130872 0.049486097 0.01838744 -0.042297818 0.019823022 0.06177704 -0.005930226 0.013879967
-0.030929102 -0.0033128087 0.033845033 -0.033817623 0.04764863 0.00053421676 -0.0023953672 -0.04716859
-0.023418233 -0.037225865 0.03766272 -0.02906626 -0.043522235 0.023592543 0.03693493 0.03467098
0.02120375 -0.047859445 0.045674514 -0.0075036455 -0.03597363 -0.045138944 0.035733573 0.025249248
0.035694662 -0.021271532 -0.04146379 -0.025628235 -0.011423085 -0.023570266 0.030150242 0.011249835
0.013422361 -0.076986715 0.008706059 0.05415755 0.021013709 -0.047654454 0.014107391 0.036535233
0.039015263 0.0680496 0.042621374 0.07168682 0.011504403 0.06830087 -0.011794454 0.05927905
0.051377323 -0.051293917 0.0030405927 -0.03612092 -0.007558471 -0.049875654 -0.026142199 0.0032689162
-0.054036375 0.05041573 -0.00499729 0.00040633813 0.02371844 0.034467 -0.040661603 0.06300977
0.08606811 -0.00818749 -0.06763948 -0.0323159 0.05811265 0.053034496 -0.07328381 0.019507134
-0.033643734 0.016553491 -0.058516324 -0.05164687 0.06632196 -0.011240234 -0.011351843 0.0452163
-0.016544415 0.012132878 -0.036304407 0.041540198 -0.03551522 -0.027752658 -0.04109963 0.020216292
-0.054938313 0.00017364952 -0.052152663 0.016292732 0.05985462 0.036874082 0.024972765 0.05171576
00000000: 96ae 2b3d 85ce 373c e8cd 9bbc 606c 3d3d
00000010: a699 2cbd 6495 223d 7e2e 443d 8c2d 103c
00000020: 39c2 8a3d 9cf9 a43c d2d3 7f3d 4274 88bd
00000030: ee6b 37bd f631 d23c f3db 62bd fdea 9f3b
00000040: ab3d dbbc 0d63 3abd 141b 953d 7b21 d83c
00000050: 08a5 1bbd badb 6a3c 3c73 6abd 554b 27bd
00000060: 371e 75bd 2071 ae3c f2ae 50bd a1bf 303c
00000070: 925f 32bc 0a94 2f3d 37ca 143d 4b60 e33d
00000080: a599 823d af3c f53c 9a72 11bd fee4 b33b
00000090: 3ce3 7c3c 0c45 d03d 63a2 c73c 7976 183c
000000a0: fc79 3d3d 4eaf 303d cc5a e03b 974d bfbd
000000b0: a064 96bc bded 543d e211 4abc de8f 1d3d
000000c0: bb38 023d da97 61bd e3b9 f1bb 37a0 4ebd
000000d0: f7ee 59bc 4882 21bd 9e6d babc 0cd9 343c
000000e0: 2711 77bc 4d21 9c3d 2106 58bd 727d 543c
000000f0: 12cf 24bc a022 39bd f181 bebc 154e 403c
00000100: 52a6 a13b d3cd 30bc 5fd6 743d 50d8 b53b
00000110: ca5c 203d d8b8 773d f4a8 18bd 8b73 853d
00000120: e733 88bc ec57 81bd 5a95 533d e9e1 75bc
00000130: f6cb 573d 9f98 463c 2007 17bd f90b 49bd
00000140: 204a 2b3d 989d 45bd fc86 a5bd af47 343c
00000150: 3ac7 283d bfa0 bdbc 4ab5 acbc 60d7 153c
00000160: 808c 463c 8882 56bd a684 37bd e163 9e3d
00000170: 8e4b debb 3fee cdbc 598d 0f3d c8c2 6dbc
00000180: cb00 ceb9 2057 60bc cf78 1cbd 96b6 863d
00000190: 7d2e b13b a7c6 a33b 532d 7bbd 5d8f d33c
000001a0: 5708 83bd c7a6 e1bb e418 d73d 2e72 253d
000001b0: f5c7 473d a62f 1e3d 2855 5ebb 6fec 41bd
000001c0: 6299 353d 4e6f 8a3c dbc9 5f3b ab48 673c
000001d0: 61a5 0cbd c0b7 253b 523d 803c 11dd 1bbd
000001e0: e7cc 7c3d e8f2 10bd 6c50 0ebb 0b55 c93b
000001f0: ad93 15bb 04a5 983d ce55 1f3d 54fa 0b3d
00000200: 3273 b2bc 6073 0fbd d85c 8d3d 049d 38bd
00000210: 601b a4bd ce72 613d 14ad 43bd 7abe b8bc
00000220: 43f3 51bd 23be c0bc 9e8b 8cbd 39b8 723b
00000230: b9fc d8bc a7e0 b93c 1f92 643d 8ed9 a03c
00000240: d380 a73d 9e81 3a3d 62e9 37bd e32e 503d
00000250: d274 1cbd 1114 38bc e94d 96bd 49e8 20bd
00000260: 02e5 91ba efb1 4a3d 42a1 963c 7a40 2dbd
00000270: e463 a23c ec09 7d3d 5752 c2bb cd68 633c
00000280: 075f fdbc b51b 59bb 17a1 0a3d 5984 0abd
00000290: 362b 433d ae0a 0c3a 98fb 1cbb da33 41bd
000002a0: 98d7 bfbc 267a 18bd 3944 1a3d 5e1c eebc
000002b0: 5f44 32bd 2645 c13c 1549 173d 2803 0e3d
000002c0: 7db3 ad3c 4408 44bd 3315 3b3d 24e1 f5bb
000002d0: 1659 13bd 9de3 38bd 5e5d 123d 83d7 ce3c
000002e0: 9134 123d a341 aebc efd5 29bd 4ef2 d1bc
000002f0: e427 3bbc 6e16 c1bc a4fd f63c 3a51 383c
00000300: 76e9 5b3c 36ab 9dbd dca3 0e3c 4fd4 5d3d
00000310: f124 ac3c 5131 43bd b022 673c f8a5 153d
00000320: 78ce 1f3d 975d 8b3d c093 2e3d 8ad0 923d
00000330: f77c 3c3c 54e1 8b3d 873d 41bc 97ce 723d
00000340: 0771 523d 9219 52bd ae44 473b 88f3 13bd
00000350: 0dad f7bb 6a4a 4cbd 2a28 d6bc 503b 563b
00000360: 3f55 5dbd b980 4e3d 4fc0 a3bb c809 d539
00000370: 2d4d c23c 452d 0d3d c88c 26bd 440b 813d
00000380: 7a44 b03d d224 06bc 9186 8abd ad5d 04bd
00000390: 8807 6e3d b33a 593d d215 96bd 6dcd 9f3c
000003a0: 03ce 09bd 309b 873c d0ae 6fbd ab8b 53bd
000003b0: cfd3 873d f528 38bc 15fd 39bc ba34 393d
000003c0: 2788 87bc fbc8 463c eeb3 14bd 0e26 2a3d
000003d0: 6878 11bd 8b59 e3bc 1658 28bd a39c a53c
000003e0: ff06 61bd b015 3639 089e 55bd 5678 853c
000003f0: 1e2a 753d 4709 173d af93 cc3c e8d3 533d

fc3.weight f4 [1, 256]
0.207271 -0.22369808 -0.078058444 -0.08786415 -0.117777765 0.08617201 -0.021603862 -0.1901295
-0.12788346 -0.10395916 0.15793224 -0.100880384 0.029528582 -0.1129989 -0.07203899 0.11881692
0.04765752 0.0331976 -0.21768142 -0.09840224 -0.1763111 0.106064364 -0.01676485 0.05525344
-0.00094096636 -0.10155321 0.12104973 0.09562676 0.060005784 0.22278315 -0.14919631 0.18277559
-0.11217019 0.11068748 0.09964872 0.044858433 0.16261175 0.27126545 0.10222674 0.15540078
-0.08676905 0.12704198 -0.12592849 0.08936241 -0.029866055 0.12709457 -0.04522683 -0.058622677
0.12050823 0.0326693 -0.12845036 -0.14003119 0.18274033 0.14476603 -0.003901762 -0.15235032
-0.030114688 0.12136144 -0.13896576 -0.11079059 -0.120612696 -0.101408295 0.095494814 0.03153913
0.117947206 0.0813236 0.09852567 -0.116422966 -0.034620263 0.21290517 0.08348676 0.07317476
-0.1982085 -0.0859057 -0.055835243 0.07332786 0.11231523 -0.12945832 -0.06875652 0.03881874
0.1176367 -0.1320928 0.067424655 0.12557082 -0.091116324 0.086155154 -0.12143236 -0.02824039
0.007952519 -0.059718143 0.03106881 0.15960288 -0.089196436 0.104227744 -0.15644993 -0.017259337
-0.11756469 0.08317515 0.07914198 0.14775388 -0.15022579 -0.2196881 -0.10215449 -0.08788767
-0.056155503 0.1199209 0.17290564 -0.07446772 0.082547516 -0.06864737 0.09541972 -0.08727353
-0.04748371 0.08646437 -0.08577322 -0.14201897 -0.069690906 -0.0122519955 0.19806124 -0.11365359
0.18683791 0.0043158247 0.3277388 -0.056645352 -0.18473387 -0.08401341 0.11643962 0.07036233
0.13219653 0.05438099 -0.13168597 0.043584317 0.06280313 -0.037845578 -0.06617549 0.07362514
-0.054012623 0.07918449 0.023901565 0.09789779 0.104370214 -0.13192067 -0.07772867 -0.14669207
0.15088408 0.04584246 0.035939958 -0.022805637 0.045832902 0.1280846 0.09006039 -0.08817945
0.11468103 0.1385548 0.121555895 0.036143683 0.09413859 -0.098154604 -0.09207276 -0.05492695
-0.06759686 -0.22153755 0.10528111 0.09512229 -0.110503785 0.100125276 -0.115875565 0.08170514
0.08176563 -0.037991524 0.08484499 0.097719215 0.10852714 -0.06927021 0.09692603 0.097768046
-0.07542618 0.0878172 -0.08185285 0.12051304 -0.11261018 0.088617906 0.1616595 -0.10278268
0.066337615 0.18382597 -0.11994954 0.08765476 -0.15503669 0.0568841 -0.13482971 -0.13518874
0.17280568 0.08674974 0.0855063 -0.122586876 -0.15736283 -0.194254 0.04478191 -0.06683334
0.008077644 0.10840937 0.14079522 -0.16565388 -0.06280173 -0.1203929 -0.09862553 -0.0750262
0.11541322 -0.019716179 0.016074592 0.0921231 0.1076206 -0.09797942 -0.10647281 0.1079997
0.08757377 -0.08404064 -0.06458894 -0.0834468 0.13764656 -0.07232407 0.1295233 0.08719506
-0.16640562 -0.16502444 0.04972417 -0.06081231 -0.11275379 -0.120889395 -0.07604808 0.12556268
-0.07191026 0.059137557 0.026792143 -0.04083069 -0.07688846 0.123807535 0.09367537 -0.12581383
-0.2009066 0.12109053 -0.13689335 -0.040304944 -0.0014468957 0.08059341 -0.15739599 -0.14388913
-0.09685139 -0.13227543 -0.1022585 -0.16544297 0.16970506 0.00021767884 -0.08963139 0.27125058
00000000: d93e 543e 1c11 65be 1bdd 9fbd 1ff2 b3bd
00000010: 7835 f1bd f37a b03d 95fa b0bc 4fb1 42be
00000020: e2f3 02be 8ae8 d4bd fdb8 213e 609a cebd
00000030: ede5 f13c f86b e7bd 2e89 93bd 4956 f33d
00000040: 8834 433d 35fa 073d e1e7 5ebe 1d87 c9bd
00000050: e68a 34be 4638 d93d 7056 89bc 6e51 623d
00000060: 2fab 76ba 21fb cfbd ece8 f73d f6d7 c33d
00000070: a0c8 753d 4421 643e ebc6 18be 8629 3b3e
00000080: 7cb9 e5bd 1eb0 e23d a114 cc3d 7abd 373d
00000090: b283 263e 4ee3 8a3e 415c d13d 6221 1f3e
000000a0: f9b3 b1bd 4b17 023e 66f3 00be a403 b73d
000000b0: a8a9 f4bc 1425 023e c53f 39bd 551e 70bd
000000c0: 05cd f63d 3ed0 053d 7e88 03be 5664 0fbe
000000d0: 4820 3b3e 8c3d 143e b4b4 7fbb b901 1cbe
000000e0: 14b3 f6bc 598c f83d 0a4d 0ebe 2de6 e2bd
000000f0: ca03 f7bd 27af cfbd c992 c33d 2d2f 013d
00000100: 4e8e f13d fd8c a63d d4c7 c93d 2a6f eebd
00000110: facd 0dbd d003 5a3e 1bfb aa3d a6dc 953d
00000120: 2bf7 4abe 54ef afbd 7fb3 64bd eb2c 963d
00000130: 8705 e63d b990 04be 38d0 8cbd 6600 1f3d
00000140: 83eb f03d 5643 07be f015 8a3d a395 003e
00000150: 329b babd 1d72 b03d 87b1 f8bd 6458 e7bc
00000160: 484b 023c 039b 74bd 0484 fe3c f06e 233e
00000170: 9fac b6bd 5b75 d53d 6934 20be 7463 8dbc
00000180: c2c5 f0bd bc57 aa3d 3115 a23d cb4c 173e
00000190: cad4 19be ebf5 60be 6036 d1bd 73fe b3bd
000001a0: 5003 66bd 1799 f53d 2d0e 313e 8882 98bd
000001b0: ac0e a93d fe96 8cbd 6a6b c33d 77bc b2bd
000001c0: 477e 42bd 3b14 b13d dfa9 afbd 6c6d 11be
000001d0: 1bba 8ebd 98bc 48bc 91d0 4a3e 37c3 e8bd
000001e0: 7052 3f3e c36b 8d3b 61cd a73e f504 68bd
000001f0: e02a 3dbe 390f acbd e577 ee3d 201a 903d
00000200: 875e 073e 9abe 5e3d b0d8 06be 7885 323d
00000210: ed9e 803d f703 1bbd 0487 87bd c7c8 963d
00000220: 573c 5dbd 7a2b a23d 37cd c33c a37e c83d
00000230: 0dc0 d53d 3616 07be 3530 9fbd 7236 16be
00000240: 5b81 1a3e 4ec5 3b3d c735 133d e3d2 babc
00000250: 48bb 3b3d 9c28 033e 9571 b83d 6d97 b4bd
00000260: e3dd ea3d 4fe1 0d3e 4cf2 f83d 660b 143d
00000270: bccb c03d 4805 c9bd a590 bcbd 15fb 60bd
00000280: 3970 8abd bdda 62be 9f9d d73d 7acf c23d
00000290: cf4f e2bd 7b0e cd3d 2b50 edbd 0655 a73d
000002a0: bd74 a73d 009d 1bbd 36c3 ad3d 0321 c83d
000002b0: 7a43 de3d 8add 8dbd 2881 c63d 9d3a c83d
000002c0: 0b79 9abd 81d9 b33d 78a2 a7bd 8acf f63d
000002d0: 2ba0 e6bd 4e7d b53d 118a 253e ba7f d2bd
000002e0: 04dc 873d e03c 3c3e 1ba8 f5bd 5784 b33d
000002f0: f0c1 1ebe 4dff 683d cd10 0abe eb6e 0abe
00000300: f9f3 303e d9a9 b13d ed1d af3d d40e fbbd
00000310: b923 21be 85ea 46be 3c6d 373d ebdf 88bd
00000320: 1858 043c bb05 de3d 9f2c 103e 2ca1 29be
00000330: 329e 80bd 8e90 f6bd 2ffc c9bd 56a7 99bd
00000340: c45d ec3d d383 a1bc ddae 833c 09ab bc3d
00000350: 3068 dc3d 6fa9 c8bd 6b0e dabd f22e dd3d
00000360: e059 b33d 801d acbd 3547 84bd 28e6 aabd
00000370: 38f3 0c3e a41e 94bd c2a1 043e 5393 b23d
00000380: 3c66 2abe 2bfc 28be 92ab 4b3d 5416 79bd
00000390: 76eb e6bd dc94 f7bd 19bf 9bbd 8193 003e
000003a0: b045 93bd 393a 723d 327b db3c 153e 27bd
000003b0: b277 9dbd ce8e fd3d dfd8 bf3d 57d5 00be
000003c0: 76ba 4dbe 50fe f73d c52d 0cbe cc16 25bd
000003d0: c3a5 bdba 280e a53d 6a2c 21be ac57 13be
000003e0: 065a c6bd 3673 07be e86c d1bd e269 29be
000003f0: 2ac7 2d3e b840 6439 aa90 b7bd 5be1 8a3e
