benchmarks/Blackjack-v1/Train_Blackjack-v1_DQN_20230426-235130/models/checkpoint.pt (torch, 271447 bytes, 6 tensors)

layers.0.0.weight f4 [256, 3]
0	0x3e3f37eb	0.18673675
1	0xbc8b6782	-0.01701713
2	0x3f1090a2	0.5647069
3	0x3cc3ee7f	0.023917435
4	0x3d84197a	0.06450172
5	0xbe7d5773	-0.2474039
6	0xbe3381fe	-0.17530057
7	0xbef17747	-0.47161314
8	0x3c439180	0.011936545
9	0xbd083850	-0.03325683
10	0xbf0d5671	-0.55210024
11	0x3eb5bfa4	0.35497773
12	0x3e90ef6d	0.28307667
13	0x3e956558	0.29178882
14	0xbe934602	-0.2876435
15	0xbeff8cea	-0.49912196
16	0x3ed29c89	0.41135052
17	0x3e81fa04	0.2538606
18	0xbd02b6a0	-0.031912446
19	0xbed508c4	-0.4160825
20	0xbecf7b10	-0.40523577
21	0xbe99bbfc	-0.30026233
22	0xbf073a61	-0.52823454
23	0x3e92a988	0.28644967
24	0x3e6864a6	0.22694644
25	0x3ecc4851	0.39898923
26	0xbed173a4	-0.4090854
27	0xbddbaac8	-0.10725933
28	0xbe8eb48d	-0.27872124
29	0xbe4f812a	-0.20264116
30	0xbec12ca8	-0.37729383
31	0xbcf43720	-0.029811442
32	0x3ec6976a	0.38787395
33	0x3d9b1f61	0.075743444
34	0x3efa7264	0.48915398
35	0x3eb0bdc6	0.34519786
36	0xbdd65884	-0.10466102
37	0x3eeee61d	0.46659938
38	0x3ed2e979	0.4119375
39	0x3ed59f7e	0.41723245
40	0x3ece966d	0.4034914
41	0x3f0a36f8	0.53990126
42	0xbe875aef	-0.26436564
43	0x3e4506ee	0.19240925
44	0x3e62608c	0.22107142
45	0x3ea22bb5	0.3167397
46	0x3f080198	0.5312743
47	0x3e936f70	0.28795958
48	0x3eb18b3e	0.34676546
49	0xbed1a2fa	-0.40944654
50	0x3f1784d3	0.5918705
51	0xbe915874	-0.28387797
52	0x3ebbd7ec	0.36688173
53	0x3f12b91c	0.57313704
54	0xbe339004	-0.17535406
55	0x3d87e550	0.06635535
56	0xbee7dede	-0.45287222
57	0xbd3c5cba	-0.04598687
58	0xb9a0b627	-0.00030653292
59	0xbde646ec	-0.11243996
60	0xbf0f5ed4	-0.5600407
61	0x3dbac6e0	0.09119964
62	0x3f001500	0.50032043
63	0xbe1305c0	-0.14357662
64	0xbedb3c6d	-0.4281954
65	0xbf03c938	-0.5147891
66	0xbf0aede3	-0.54269236
67	0xbe953c73	-0.29147682
68	0x3e12b47c	0.14326662
69	0xbecbfb4d	-0.39840165
70	0xbebaf440	-0.36514473
71	0x3cb11ec0	0.021621108
72	0x3ebeb2a4	0.37245667
73	0xbf0d1ce1	-0.5512219
74	0x3dea8a49	0.11452157
75	0xbe92e72e	-0.28692
76	0xbee2ab68	-0.44271398
77	0xbe66d260	-0.22541189
78	0xbc9ad8c0	-0.018902183
79	0xbe46587e	-0.19369695
80	0xbf0e4666	-0.5557617
81	0xbea872fe	-0.32900232
82	0xbe82652f	-0.25467822
83	0xbe9542b3	-0.2915245
84	0x3e6558ee	0.22397205
85	0xbe5f1c18	-0.2178806
86	0xbc2bf548	-0.010495491
87	0xbeaeb6ee	-0.3412394
88	0xbef5a6bb	-0.47978768
89	0x3ea7e478	0.32791495
90	0x3e805306	0.25063342
91	0xbea141a1	-0.31495383
92	0xbea028df	-0.31281182
93	0x3ea86e1b	0.32896504
94	0x3d25bc4f	0.04046279
95	0x3e52435c	0.20533508
96	0xbe8b0883	-0.2715493
97	0x3f147483	0.5799028
98	0x3e4908a6	0.19632205
99	0xbec0580a	-0.37567168
100	0x3e5c71bf	0.21527766
101	0xbca068e0	-0.019581258
102	0x3d286266	0.041109465
103	0xbee218ff	-0.44159696
104	0xbf1c6f94	-0.61107755
105	0xbf0817bf	-0.53161234
106	0x3d2b9bd0	0.04189664
107	0xbec22061	-0.37915328
108	0xbe0b13c1	-0.13581754
109	0x3b01599b	0.0019737247
110	0xbf095244	-0.5364115
111	0xbd4abbbb	-0.04949544
112	0x3ec1c181	0.37842944
113	0xbeec80df	-0.4619207
114	0xbeba5e58	-0.36400104
115	0x3ee9b345	0.45644584
116	0xbecd6da2	-0.40122706
117	0x3f02f47a	0.5115429
118	0xbeb6c0cc	-0.35693967
119	0x3b9ebc7f	0.004844248
120	0x3e951feb	0.29125914
121	0xbee52475	-0.44754377
122	0x3c837914	0.016048945
123	0xbe126bec	-0.14298981
124	0x3ef2e744	0.47442067
125	0x3edef3c5	0.43545356
126	0x3efd91ed	0.49525395
127	0x3ed0c88e	0.4077801
128	0xbd13984a	-0.036033906
129	0x3e520b73	0.2051218
130	0xbeb7fbea	-0.35934383
131	0x3da452f7	0.08023637
132	0x3e11d89e	0.14242789
133	0xbef58ff8	-0.47961402
134	0x3e10068f	0.14065002
135	0xbe16674e	-0.14687845
136	0xbe9d2d1c	-0.30698478
137	0x3e85cd0a	0.26132995
138	0xbec52d86	-0.38511294
139	0xbe869ca8	-0.26291394
140	0x3e95751a	0.29190904
141	0xbeff4f12	-0.49865013
142	0xbe656018	-0.22399938
143	0x3e24d4b4	0.16096765
144	0xbedebad5	-0.43501917
145	0x3e23fb94	0.16013938
146	0x3d9dacf0	0.07699001
147	0xbeb44a3c	-0.35212886
148	0xbec1036c	-0.37697923
149	0xbe40de78	-0.18834865
150	0x3e4a99cf	0.19785236
151	0xbf05197d	-0.5199202
152	0xbf0c009d	-0.54688436
153	0x3d9a7568	0.07541925
154	0xbd387851	-0.045036618
155	0x3f1900d1	0.5976687
156	0xbf11b973	-0.569236
157	0xbec0a506	-0.37625903
158	0xbe9b4408	-0.3032534
159	0x3eb35509	0.35025814
160	0xbed788da	-0.42096597
161	0xbf04853c	-0.517658
162	0xbeb2dbf4	-0.34933436
163	0x3eb57f9f	0.3544893
164	0x3ef9a6f6	0.48760194
165	0x3ea64e58	0.32481647
166	0x3f0fee38	0.5622287
167	0xbe578f45	-0.21050747
168	0x3e5beeab	0.21477763
169	0xbe918ae1	-0.2842627
170	0xbe987c03	-0.29782113
171	0x3eeaf2a7	0.45888254
172	0x3eefebcd	0.4685959
173	0xbe9c821e	-0.30568022
174	0x3ee86a0e	0.45393413
175	0x3ed1bb1f	0.40963075
176	0xbef5a483	-0.47977075
177	0xbede6ea6	-0.43443793
178	0x3ee51fba	0.44750768
179	0x3d988168	0.07446557
180	0xbf063ce6	-0.52436674
181	0xbee9de0f	-0.4567723
182	0x3db96968	0.09053308
183	0x3ebebf06	0.37255114
184	0x3c3fe909	0.011713275
185	0xbea62923	-0.3245326
186	0x3ea5489c	0.3228196
187	0xbe75e985	-0.24014862
188	0x3ef411b0	0.47669744
189	0xbcff9336	-0.031198125
190	0x3eb22bfe	0.34799188
191	0xbed2351e	-0.4105615
192	0x3f037e17	0.5136427
193	0x3e94e5e8	0.29081655
194	0x3ee2e713	0.4431692
195	0x3eeddc76	0.4645726
196	0xbe988a0d	-0.29792824
197	0xbd8a7bf3	-0.06761923
198	0x3ed88710	0.42290545
199	0xbeab7c61	-0.3349333
200	0xbe87a156	-0.26490277
201	0x3ca8646f	0.020555703
202	0x3dfc9ed1	0.12334979
203	0x3e83dc8e	0.25754207
204	0x3e5380d5	0.20654614
205	0x3ef75e00	0.48313904
206	0xbe7241ff	-0.23657988
207	0xbd1cffd0	-0.0383299
208	0xbf0dcd29	-0.55391175
209	0x3e87dfac	0.26537836
210	0x3dce9865	0.10087661
211	0x3ec80d2f	0.39072558
212	0x3b8ad85c	0.004237218
213	0x3ebe490a	0.371651
214	0xbf03944b	-0.5139815
215	0xbf03aea5	-0.5143836
216	0x3d37a6be	0.044836752
217	0xbdb0da60	-0.08635402
218	0xbe38b632	-0.18038252
219	0x3ee216e2	0.44158083
220	0x3ecd1974	0.40058482
221	0xbeafcd1a	-0.34336168
222	0x3e82d000	0.25549316
223	0xbd6a2f4b	-0.05717401
224	0xbf2424dc	-0.6411874
225	0x3e4f89da	0.2026743
226	0x3ec5d35c	0.38637817
227	0x3edf0adc	0.43562973
228	0xbe8ef194	-0.27918684
229	0xbe8453d6	-0.25845212
230	0xbf106942	-0.5641061
231	0x3ef1946b	0.47183546
232	0xbe39b153	-0.1813405
233	0xbf251cbc	-0.6449697
234	0xbeeb31cb	-0.45936427
235	0xbceff7c0	-0.029292941
236	0x3eb3503e	0.35022157
237	0x3b360cdc	0.002777866
238	0x3e023cf2	0.12718561
239	0x3b1fbcf9	0.002437411
240	0x3ebb5591	0.3658872
241	0xbcdeb63f	-0.027186511
242	0x3e6e5840	0.23275852
243	0x3f0577f3	0.52136153
244	0x3e2675ba	0.16255847
245	0x3f0277cc	0.50964046
246	0x3f02fa8b	0.5116355
247	0xbe5dc912	-0.21658733
248	0xbee46cf7	-0.44614384
249	0x3e69a4fd	0.22816844
250	0x3d156148	0.036469728
251	0xbe9e2c83	-0.30893335
252	0xbebb6be8	-0.36605763
253	0xbe3fff82	-0.18749812
254	0xbedadc98	-0.42746425
255	0x3e9fc9b1	0.31208566

layers.0.0.bias f4 [256]
0	0x3f0549ed	0.52065927
1	0x3ee4377a	0.44573575
2	0x3f033082	0.5124589
3	0xbc106200	-0.0088124275
4	0x3dea1345	0.114294566
5	0x3da02e77	0.078213625
6	0xbecbc95e	-0.39802068
7	0x3f086862	0.53284276
8	0xbf17633a	-0.5913578
9	0xbec549ff	-0.38533017
10	0x3efa26c4	0.488577
11	0xbd2f74ca	-0.042835988
12	0xbe849f7d	-0.2590293
13	0x3d91d095	0.07119862
14	0x3f24f04d	0.6442917
15	0xbedf76ed	-0.4364542
16	0xbee62c9b	-0.44955906
17	0xbef3174d	-0.47478715
18	0xbef131be	-0.47108263
19	0x3ed1fda5	0.41013828
20	0xbebdeb3a	-0.37093526
21	0x3d924510	0.07142079
22	0x3d19e7d0	0.03757459
23	0xbe7e6f64	-0.2484718
24	0x3f2c7af7	0.6737513
25	0x3e9cfc5a	0.3066128
26	0xbdb23a70	-0.08702552
27	0xbe57e88e	-0.21084806
28	0xbe897c9e	-0.26852888
29	0xbec72320	-0.38893986
30	0x3e9bbb0e	0.3041615
31	0x3f01dc5d	0.5072687
32	0x3e44cd0f	0.19218849
33	0xbe8a6129	-0.27027252
34	0x3e033716	0.12813982
35	0x3e923b22	0.2856074
36	0x3f0161e9	0.50540024
37	0x3f2b7e39	0.66989475
38	0x3e2370e7	0.15961038
39	0xbe727d03	-0.236805
40	0xbf26bbea	-0.65130484
41	0x3e3986d0	0.18117833
42	0xbf11599d	-0.56777364
43	0xbe977b22	-0.2958613
44	0x3ecf8447	0.40530607
45	0xbe463062	-0.19354394
46	0xbdc58bbc	-0.09645793
47	0xbe0e8950	-0.13919568
48	0x3d9c6410	0.07636273
49	0xbf0a24b9	-0.53962284
50	0xbe9b599e	-0.3034181
51	0xbf24260b	-0.6412055
52	0x3d885b30	0.06658018
53	0xbe54b8b2	-0.2077358
54	0x3e8a6f50	0.2703805
55	0x3ef78fa5	0.4835178
56	0x3e843f6d	0.2582964
57	0x3f0083db	0.50201195
58	0xbf03a707	-0.5142674
59	0xbe17237b	-0.14759628
60	0xbf1046f4	-0.56358266
61	0xbe60369d	-0.21895833
62	0x3df6e52d	0.120554306
63	0xbeea9fbe	-0.45825
64	0x3b215d1f	0.0024622155
65	0x3e97a2d0	0.29616404
66	0xbebb2c04	-0.3655702
67	0xbedcbd0c	-0.4311298
68	0xbe211f07	-0.15734492
69	0xbd36fad0	-0.044672787
70	0x3cbd1e69	0.02308579
71	0xbe872e91	-0.26402715
72	0x3ecd7168	0.40125585
73	0x3d95f0ec	0.07321343
74	0xbf08c730	-0.53428936
75	0x3f0b252f	0.5435361
76	0xbefbeb6c	-0.4920305
77	0xbca58604	-0.020205505
78	0xbebf9476	-0.37417954
79	0x3ef5aec4	0.47984898
80	0xb8ee7952	-0.00011371322
81	0xbe9f7aea	-0.31148463
82	0x3eb01506	0.3439104
83	0x3edb5df7	0.42845127
84	0x3ecc6568	0.39921117
85	0x3efebea1	0.49754813
86	0x3ca76a71	0.020436497
87	0x3ea823f5	0.32839933
88	0x3ccd64b4	0.025072433
89	0x3f1658da	0.58729327
90	0xbea4282e	-0.32061905
91	0xbebb6f66	-0.36608428
92	0x3f044290	0.51664066
93	0x3e381fd4	0.17980891
94	0xbebc7528	-0.36808133
95	0xbdccfdec	-0.10009369
96	0x3f07a286	0.52982366
97	0xbeeb9643	-0.46013078
98	0xbf1338c3	-0.57508487
99	0xbef04798	-0.46929622
100	0xbed8904b	-0.42297587
101	0xbea29880	-0.31756973
102	0x3e6d909c	0.23199695
103	0x3e4f4d43	0.20244317
104	0x3d96fc00	0.07372284
105	0x3f0c9f3d	0.5493048
106	0x3e3348fe	0.17508313
107	0x3f1f924a	0.62332594
108	0xbe891836	-0.26776284
109	0x3e49c7d4	0.19705135
110	0xbeec01e5	-0.46095195
111	0xbf14bc08	-0.5809941
112	0xbf1b7eb7	-0.60740227
113	0xbebbdbf5	-0.3669125
114	0xbdddff84	-0.10839751
115	0x3e6ef5bc	0.23335928
116	0xbef545c8	-0.479048
117	0x3db0e403	0.0863724
118	0x3ef38910	0.47565508
119	0x3f185180	0.5949936
120	0x3ee1fdd4	0.44138968
121	0x3eaf7476	0.3426854
122	0xbf215f32	-0.6303588
123	0xbdc66650	-0.09687483
124	0x3ee14e37	0.44004986
125	0x3edad65c	0.42741668
126	0xbe8572ec	-0.2606424
127	0x3df41c56	0.11919467
128	0xbf063949	-0.5243116
129	0xbcafc111	-0.021454366
130	0x3de0b6f4	0.109723955
131	0xbf13b1a6	-0.57692945
132	0x3f288315	0.65825015
133	0xbe71ee54	-0.23626071
134	0x3e3662df	0.17811154
135	0x3d76b530	0.060231388
136	0xbe6d5627	-0.23177396
137	0xbe9ef3e4	-0.3104545
138	0x3e27fb84	0.1640454
139	0xbeb252bf	-0.34828755
140	0x3e902b43	0.28158006
141	0x3f1fe52e	0.62459075
142	0x3e1418d8	0.14462602
143	0x3e6541cb	0.2238838
144	0xbd7e84aa	-0.062138237
145	0x3ee535e8	0.4476769
146	0xbec1ac29	-0.3782666
147	0x3f24b92b	0.64345044
148	0x3f0dbb8c	0.553643
149	0x3e344220	0.1760335
150	0x3e86daad	0.2633871
151	0xbed3eb96	-0.41390675
152	0x3f162cd9	0.5866218
153	0x3e905dac	0.28196466
154	0xbf268136	-0.6504091
155	0x3d9e8d80	0.07741833
156	0xbef8753e	-0.4852695
157	0x3ed4be3e	0.41551393
158	0xbf0c120a	-0.54715025
159	0xbef87cec	-0.48532808
160	0x3df4e908	0.1195851
161	0xbf26df4a	-0.6518446
162	0xbb95e160	-0.004573986
163	0x3e1c0ee4	0.15240055
164	0xbda4d1da	-0.080478385
165	0xbe411de2	-0.18859056
166	0x3e108c6c	0.14116067
167	0x3ef66cb8	0.4812982
168	0xbdc86ea0	-0.09786725
169	0x3f21cd3f	0.63203806
170	0xbe532f45	-0.206235
171	0xbe68a4d8	-0.22719133
172	0xbe3ce62a	-0.18447176
173	0xbeda01cc	-0.42579496
174	0x3ed870f8	0.42273688
175	0x3e923530	0.28556204
176	0xbe8909ea	-0.26765376
177	0xbe281814	-0.16415435
178	0xbdc64df1	-0.09682835
179	0x3dd6326f	0.10458838
180	0xbe897170	-0.26844358
181	0xbe14b9ff	-0.14524077
182	0x3f13b901	0.5770417
183	0x3f09c4d4	0.5381596
184	0x3d65ee00	0.056135178
185	0xbeac3f2e	-0.33641952
186	0x3ef24db4	0.47324908
187	0xbebe2bd8	-0.37142825
188	0x3eb40944	0.3516332
189	0xbe2161d0	-0.15759969
190	0xbe5e44e1	-0.21705963
191	0x3ef38010	0.4755864
192	0xbedde401	-0.43338016
193	0x3f1928ef	0.59828085
194	0x3e186a5c	0.14884323
195	0x3e1ddfb9	0.15417375
196	0xbe85ee78	-0.261585
197	0x3d1523b0	0.036410987
198	0xbcf5e277	-0.030015213
199	0xbf053109	-0.52027947
200	0x3d881130	0.06643903
201	0xbea84e76	-0.3287236
202	0x3ed08d13	0.4073263
203	0x3e85d353	0.2613779
204	0xbed7b18c	-0.42127645
205	0x3e21e3a4	0.15809494
206	0x3e568260	0.20948172
207	0x3ea7bbc0	0.3276043
208	0x3ef59b3f	0.47970006
209	0x3f233a03	0.63760394
210	0x3eb51e20	0.35374546
211	0x3f0bf6e3	0.54673594
212	0xbefc12bc	-0.49233043
213	0xbafa916e	-0.0019116828
214	0x3ec634a1	0.38712028
215	0xbec6ebc6	-0.38851756
216	0xbe86e310	-0.2634511
217	0xbf328425	-0.69732887
218	0xbec269cd	-0.37971345
219	0x3ecbde19	0.39817885
220	0xbea2d909	-0.3180621
221	0x3eb3933a	0.35073262
222	0xbbdcb480	-0.0067353845
223	0xbefae145	-0.48999992
224	0xbed3eb8d	-0.41390648
225	0x3e81b53d	0.25333586
226	0x3ee6e4ec	0.4509653
227	0x3dcc81a5	0.09985665
228	0xbf2a8f67	-0.66625065
229	0x3f06d89f	0.5267429
230	0xbecfde93	-0.40599498
231	0x3eedc32c	0.46437967
232	0x3d49f7c1	0.049308542
233	0x3ee9f54c	0.4569496
234	0x3ee44668	0.44584966
235	0x3eb2c7cd	0.3491806
236	0x3ebb4c6a	0.36581737
237	0xbdfbe16d	-0.12298856
238	0x3f0a4ac8	0.5402036
239	0x3f0c00e4	0.5468886
240	0xbdd2b824	-0.10289028
241	0xbf0a41c3	-0.54006594
242	0xbe668f5e	-0.22515628
243	0xbef0452b	-0.4692777
244	0x3ec35e7c	0.38158023
245	0x3eba9c17	0.36447212
246	0xbe8c5b2a	-0.27413303
247	0xbe946c47	-0.2898886
248	0x3cb9cdb1	0.02268109
249	0x3db2283b	0.086990796
250	0x3e995b10	0.29952288
251	0xbf0f5363	-0.55986613
252	0xbf08d8aa	-0.53455603
253	0x3e6b8105	0.22998436
254	0xbe5a2a81	-0.21305276
255	0xbea72b52	-0.32650238

layers.1.0.weight f4 [256, 256]
0	0x3d1bf7b5	0.03807803
1	0xbd3a9537	-0.04555246
2	0x3ce3fb28	0.027829722
3	0x3d32aa92	0.0436197
4	0xbc5dc46f	-0.013535603
5	0xbd073cd4	-0.033016995
6	0xbbcd98b0	-0.0062743053
7	0x3d1d2078	0.038361043
8	0x3ca59a82	0.020215277
9	0x3d33549e	0.04378187
10	0x3cb199f4	0.021679856
11	0x3d111014	0.035415724
12	0x3d080610	0.033208907
13	0xbb56c458	-0.0032770839
14	0xbeace692	-0.3376966
15	0x3c13d6c7	0.009023375
16	0x3cfda2a6	0.030961346
17	0xbe172a83	-0.1476231
18	0xbd33e1bc	-0.04391645
19	0xbf1fc7b2	-0.62414086
20	0xbcc22cf4	-0.023703076
21	0xbccb5830	-0.024822325
22	0x3d3e732c	0.046496555
23	0xbd45ab52	-0.048259087
24	0x3d7b40b7	0.061341014
25	0x3d0632b8	0.032763213
26	0xbbe12000	-0.00687027
27	0x3d5091f6	0.05092045
28	0xbbed6fd2	-0.007245996
29	0x3c963324	0.018334933
30	0x3d65ceb4	0.05610533
31	0x3d2d8fd3	0.04237349
32	0x3ae8c2f4	0.0017758296
33	0x3ba892c1	0.0051444476
34	0xbe293c72	-0.16526964
35	0xbca4bd94	-0.02010993
36	0xbbb53210	-0.0055296496
37	0x3ca5c50e	0.020235565
38	0xbb4d7b08	-0.003135385
39	0xbd73b065	-0.059494395
40	0xbd9ad3f2	-0.075599566
41	0x3c8dd053	0.01731125
42	0x3d489c78	0.048977345
43	0xbd47aa3f	-0.048746344
44	0x3d32e8cf	0.043679055
45	0x3c97f8b4	0.018551208
46	0x3c857e50	0.016295582
47	0x3ba67310	0.0050796345
48	0x3ce72efc	0.028220646
49	0x3ca280c0	0.019836783
50	0xbd6e8a9f	-0.058237668
51	0x3d0dc52d	0.03461187
52	0x3cc923ac	0.024553142
53	0x3cc4449f	0.023958502
54	0xbdfb2690	-0.122632146
55	0xbd27a8b5	-0.040932376
56	0xbbef4084	-0.007301392
57	0xbb4f22bc	-0.0031606397
58	0x3c05739f	0.008145242
59	0xbe10a9d4	-0.14127284
60	0x3d52afbe	0.051437132
61	0xbd20c3ba	-0.03924916
62	0x3a5be960	0.00083889626
63	0xbd939389	-0.072058745
64	0x3d26ced3	0.040724587
65	0x3d1b557a	0.037923314
66	0x3d39af05	0.045332927
67	0xbbd32453	-0.006443539
68	0xbb56349d	-0.0032685169
69	0xbd124398	-0.035708994
70	0x3c6daf15	0.014507075
71	0x3d0886af	0.03333157
72	0xbd1a943b	-0.03773902
73	0x3d4c2dbf	0.049848314
74	0xbd8eae1d	-0.06966803
75	0xbc6eb677	-0.01456987
76	0x3d5c4670	0.053778112
77	0xbc51bfc1	-0.012802065
78	0x3d261f6e	0.040557317
79	0x3a1a0c00	0.0005876422
80	0x3d4205a1	0.04736865
81	0xbd092427	-0.033481743
82	0xba947bc2	-0.0011328387
83	0x3ce25d76	0.027632456
84	0xbd31fd88	-0.043454677
85	0xbcdff0d8	-0.027336523
86	0x3bd3838a	0.0064548897
87	0xbd27f813	-0.041008066
88	0xbd3009e4	-0.042978182
89	0xbd1d1de3	-0.03835858
90	0xbce59012	-0.0280228
91	0x3be19a6b	0.006884863
92	0xbcd2a882	-0.025715116
93	0xbc90d370	-0.017678946
94	0xbc17b958	-0.009260498
95	0x3d2cc37c	0.042178616
96	0xbb9514a9	-0.004549582
97	0xbd54157e	-0.05177831
98	0x3ce0d522	0.02744538
99	0xbda66b60	-0.08125949
100	0x3d5500ce	0.05200272
101	0xbd587c48	-0.0528529
102	0x3c3f09c0	0.011660039
103	0x3cc23d09	0.023710744
104	0xbc376f10	-0.011195913
105	0xbd1bd7a2	-0.03804744
106	0xbd0d0927	-0.034432556
107	0x3d0e7a9e	0.034784906
108	0x3d5cb704	0.053885475
109	0x3c995bd0	0.018720537
110	0x3ccbdb4b	0.02488484
111	0xbd24ec31	-0.040264312
112	0xbd3710c1	-0.044693712
113	0xbcf485d5	-0.029848972
114	0x3d7dfd48	0.062009126
115	0x3d341a34	0.0439703
116	0xbd3c13b7	-0.04591724
117	0x3c3315be	0.010930477
118	0xbb3606c0	-0.002777502
119	0x3cc53b29	0.024076061
120	0x3d4dae36	0.05021497
121	0xbd49581a	-0.049156286
122	0x3c823d09	0.015898244
123	0x3c5512a2	0.013004931
124	0x3b8cbf7c	0.0042952877
125	0x3d7a14d8	0.061055034
126	0x3c3d4835	0.01155286
127	0x3d97bee4	0.07409456
128	0xbd0a5020	-0.03376782
129	0x3cb661b6	0.02226339
130	0xbb18a769	-0.0023293144
131	0xbda23687	-0.079205565
132	0x3da39080	0.079865456
133	0x3ce7140b	0.0282078
134	0x3d83dd6b	0.064387165
135	0xbbfc8fc0	-0.007707566
136	0xbc9dcfcb	-0.019264122
137	0x3c627608	0.013822086
138	0xbd1bba64	-0.038019553
139	0x3d2d83c4	0.04236199
140	0xbccbcbad	-0.024877394
141	0x3cbeea15	0.023304978
142	0xbcbea840	-0.023273587
143	0x3d599275	0.053118188
144	0xbd0dc044	-0.034607187
145	0x3c881c70	0.016615123
146	0xbd5e865c	-0.054327354
147	0x3d5e7bc8	0.054317266
148	0x3d1e828a	0.03869871
149	0xbd438494	-0.04773386
150	0xbd6ec111	-0.05828959
151	0x3bc044c0	0.0058675706
152	0x3cc544bd	0.024080629
153	0x3cda8fdd	0.026679927
154	0x3b8393eb	0.004015436
155	0x3d94eb1f	0.07271408
156	0xbdaf32e4	-0.085546285
157	0xbd3a3494	-0.0454603
158	0xb83043a2	-4.2024658e-05
159	0x3c21b098	0.009868763
160	0xbcedb814	-0.02901844
161	0xbd7af90a	-0.06127266
162	0xbd0ba854	-0.034096077
163	0x3cdd0188	0.02697827
164	0xbda3bca1	-0.079949625
165	0x3d6eec10	0.058330595
166	0x3c34d5e8	0.011037327
167	0xbd66a7b1	-0.056312267
168	0xbd2eb41f	-0.042652246
169	0xbcb49bb9	-0.02204691
170	0xbc207316	-0.009793064
171	0x3ac7f8b1	0.0015256611
172	0xbe286815	-0.16445954
173	0xbd2d9d7a	-0.04238651
174	0xbbc89f80	-0.0061225295
175	0xbd2ab6f1	-0.041678373
176	0xbd143272	-0.03618092
177	0x3d642200	0.055696487
178	0x3c995904	0.018719204
179	0x3bc69863	0.0060606464
180	0xbd3f7f32	-0.046752162
181	0xbc8f1e0b	-0.01747038
182	0x3cf53316	0.029931586
183	0xbc8567e0	-0.016284883
184	0x3c97d3d8	0.018533632
185	0xbd05a374	-0.032626584
186	0xbb1f37a0	-0.002429463
187	0x3bc6178e	0.0060452884
188	0x3d273384	0.040820614
189	0x3cda2c0c	0.026632331
190	0x3c4a154f	0.012334182
191	0x3d569f72	0.052398153
192	0xbcbc5a1c	-0.022992186
193	0x38d36c38	0.00010081421
194	0xbcbcfb84	-0.02306915
195	0x3a8ffc26	0.001098518
196	0xbd5fb880	-0.054619312
197	0x3d3bd180	0.04585409
198	0x3cbeef7d	0.023307556
199	0xbc4da578	-0.012551658
200	0x3d618a46	0.05506351
201	0xbcd1bda5	-0.025603125
202	0xbcee8a82	-0.02911878
203	0xbc205b5d	-0.009787408
204	0xbd6c7d7c	-0.05773686
205	0x39a163c6	0.0003078265
206	0xbba408e0	-0.005005941
207	0x3d7357ba	0.059409834
208	0x3bb8d119	0.0056401608
209	0x3da6d0df	0.08145308
210	0x3d83860d	0.064220525
211	0xbd347ce8	-0.044064432
212	0x3c45de7c	0.01207697
213	0xbd59c749	-0.05316857
214	0xbd34067c	-0.043951496
215	0x3d022374	0.031772092
216	0x3cf56c43	0.02995885
217	0xbd615df6	-0.05502125
218	0xbcaac51a	-0.020845938
219	0x3d5cdf98	0.053924173
220	0xbd2a91e6	-0.041643046
221	0xbbd9c22b	-0.006645461
222	0xbafdef00	-0.0019373596
223	0x3cb9ca1d	0.022679383
224	0x3d0187a2	0.03162349
225	0x3b9bdfb5	0.0047568926
226	0xbcfed6d0	-0.03110829
227	0x3cb8af38	0.022544488
228	0xbc8e74c4	-0.017389663
229	0x3c0327e1	0.008005113
230	0xbc5920c8	-0.013252445
231	0x3d70dcac	0.0588042
232	0x3c69f676	0.014279952
233	0xbbe3b250	-0.0069487467
234	0xbd4ee494	-0.050510958
235	0xbcc26835	-0.02373133
236	0xbd5363b0	-0.05160874
237	0x3c557b6b	0.013029913
238	0xbd09c030	-0.03363055
239	0xbd27334a	-0.040820397
240	0x3c875901	0.016521933
241	0x3a8d7eff	0.0010795294
242	0xbd6d473e	-0.05792927
243	0xbd9174b4	-0.071023375
244	0xbd157082	-0.03648425
245	0xbd0ddc69	-0.034634028
246	0x3d62672a	0.055274166
247	0x3d422f86	0.047408603
248	0x3d68ba9b	0.056818586
249	0xbc1234fe	-0.008923767
250	0xbd3cfbf5	-0.046138722
251	0xbdaad310	-0.08341038
252	0xbe2555e1	-0.16146041
253	0x3d7386f6	0.05945488
254	0xbc619b19	-0.013769888
255	0xbd18cb40	-0.03730321

layers.1.0.bias f4 [256]
0	0x3d0e5fcd	0.03475933
1	0x3c7ba680	0.015359521
2	0x3bd43bf2	0.0064768726
3	0x3d95dadd	0.073171355
4	0xbd88d88c	-0.06681928
5	0x3cc7fb34	0.024411775
6	0xbdcbeb73	-0.09957018
7	0xbe10deb4	-0.14147455
8	0x3dd91667	0.10599976
9	0x3d5ab10c	0.0533915
10	0xbd930a4b	-0.071796976
11	0x3d17cd64	0.03706111
12	0x3d1b00ba	0.03784249
13	0xbc8900bc	-0.016723983
14	0x3e038b48	0.128461
15	0xbd1a1cc0	-0.037625074
16	0x3cf6c2dc	0.030122213
17	0x3dea2bc6	0.1143413
18	0x3cdeec0e	0.027212169
19	0x3bb2b150	0.005453266
20	0xbd0ed7ca	-0.03487376
21	0x3bc94cfd	0.006143211
22	0x3cd336e2	0.025783006
23	0xbc3f46a8	-0.011674561
24	0x3d58dc4f	0.052944478
25	0xbc0c7c68	-0.008574583
26	0xbd457446	-0.04820659
27	0xbd942e34	-0.07235375
28	0xbdbe4a04	-0.09291461
29	0x3cbd5d5a	0.023115803
30	0xbcdf3718	-0.02724795
31	0x3d4baed2	0.04972727
32	0x3be84a54	0.0070889387
33	0x3c5d0dbc	0.013492044
34	0x3c3be408	0.011467941
35	0xbcd32798	-0.025775716
36	0x3d78a368	0.06070271
37	0xbd228fa6	-0.039687775
38	0x3d214148	0.039368898
39	0x3d6d4698	0.05792865
40	0x3d4743cc	0.04864864
41	0xbdf8e640	-0.12153292
42	0xbd235994	-0.03988035
43	0xbd74f73a	-0.059806086
44	0x3d2f4d74	0.042798474
45	0x3e04f2c1	0.12983228
46	0xbd793db8	-0.060849875
47	0x397783f5	0.00023604913
48	0x3c758a58	0.014986597
49	0x3d65d24c	0.056108758
50	0xbdee7a15	-0.11644379
51	0xbdf79410	-0.120887876
52	0x3d6fe4b4	0.058567718
53	0xbd872daa	-0.066005066
54	0xbb4fbb46	-0.0031697317
55	0xbddcfaba	-0.1079001
56	0x3ddd88c6	0.10817103
57	0xbc85b610	-0.016322166
58	0xbd2552ae	-0.040362053
59	0xbd4ae1d0	-0.049531758
60	0x3d8086ce	0.06275712
61	0x3d56c35d	0.052432407
62	0xbc5a2080	-0.013313413
63	0x3a38d02e	0.0007050064
64	0xbbd2eb90	-0.0064367726
65	0x3d390112	0.045167036
66	0x3c437bd0	0.011931375
67	0x3d175a03	0.036951076
68	0xbc5eeca8	-0.013606228
69	0xbcb978b8	-0.022640571
70	0x3dc8aac1	0.09798194
71	0x3d2d133e	0.04225468
72	0xbd7bd522	-0.061482556
73	0x3d47ca48	0.048776895
74	0xbd5a00f0	-0.05322355
75	0x3d5f8e02	0.05457879
76	0xbd593610	-0.053030074
77	0x3d5e3654	0.05425103
78	0x3da73a66	0.081654355
79	0x3ad8a1c0	0.0016527697
80	0xbcbcca30	-0.02304563
81	0xbd2acf9c	-0.041701898
82	0x3bec7965	0.00721662
83	0xbd291f9a	-0.041289903
84	0xbd3af18c	-0.045640513
85	0x3d2f2a6c	0.042765066
86	0x3d7cbd64	0.061704054
87	0x3c7cc568	0.015427925
88	0x3b92c920	0.0044795424
89	0xbd2d5856	-0.04232057
90	0x3d0ab87d	0.033867348
91	0xbb08c8e0	-0.0020871684
92	0x3d606a0c	0.054788634
93	0xbd496c18	-0.04917535
94	0x3c969e64	0.018386073
95	0xbcea32a0	-0.028588593
96	0x3d417034	0.047226146
97	0x3cbd3a60	0.023099124
98	0x3e0bce18	0.13652837
99	0x3dc6afc3	0.09701493
100	0xbce5f6d4	-0.028071798
101	0xbd35e012	-0.044403143
102	0xbdf65ed1	-0.120298035
103	0xbcd1085c	-0.025516681
104	0xbca0a9f3	-0.019612288
105	0x3c1d8f1b	0.0096166385
106	0xbd53e42e	-0.05173128
107	0x3a860398	0.001022446
108	0xbcf3a5cb	-0.029742142
109	0x3c6431b9	0.01392787
110	0xbdb51b0b	-0.08843049
111	0xbc7d3620	-0.015454799
112	0xbdf2e568	-0.11860162
113	0xbd56a3ae	-0.05240219
114	0xbc8dc976	-0.017307978
115	0x3cc2c5cc	0.023775958
116	0x3ba8e3e1	0.0051541184
117	0x3db367ce	0.087600335
118	0xbc45adb0	-0.012065336
119	0x3d29efd7	0.041488495
120	0xbcb4a7ab	-0.022052607
121	0xbd31eaf2	-0.043436952
122	0x3d716ca2	0.05894149
123	0xbdbc345a	-0.09189673
124	0xbd348f4c	-0.04408197
125	0x3dcb635c	0.09931061
126	0xbd664842	-0.056221254
127	0xbd2c11f2	-0.0420093
128	0x3cf59014	0.029975928
129	0xbd03b8b2	-0.03215856
130	0x3df5e800	0.12007141
131	0xbd4854ec	-0.048909113
132	0x3d1d4d9e	0.0384041
133	0xbcf8fcf8	-0.030394062
134	0xbb087359	-0.0020820706
135	0xb9a95200	-0.00032295287
136	0xbd4a8841	-0.049446348
137	0x3d2d2fa3	0.042281758
138	0x3d837039	0.06417889
139	0xbd7cc7a0	-0.061713815
140	0x3bcc19c0	0.0062286556
141	0xbd1f9fde	-0.03897082
142	0x3c99d654	0.018778957
143	0x3b2a6900	0.0026002526
144	0x3d8c6467	0.06855088
145	0xbd810fe3	-0.06301858
146	0x3d392889	0.045204673
147	0xbae2a740	-0.0017292276
148	0xbdc29170	-0.09500396
149	0x3d7b28ca	0.061318196
150	0x3de33345	0.11093763
151	0x3d9f90c2	0.07791282
152	0x3d19519c	0.037431344
153	0xbe0d749e	-0.13814017
154	0x3b0fe500	0.0021956563
155	0x3c5f6fd5	0.013637503
156	0x3d156c4f	0.036480244
157	0x3cb39fb5	0.02192674
158	0x3d5e0324	0.054202214
159	0xbcb1adff	-0.021689413
160	0xbd942864	-0.072342664
161	0xbe0b15ba	-0.13582507
162	0xbda50da9	-0.08059246
163	0xbd3f2448	-0.04666546
164	0x3cfafb38	0.030637369
165	0xbd785082	-0.060623653
166	0x3d08355f	0.033254024
167	0x3c6bd05c	0.014392938
168	0xbb6134e0	-0.0034363791
169	0x3d63e8f1	0.055642072
170	0x3a2ba546	0.000654776
171	0xbdcec046	-0.10095267
172	0xbda5dfe1	-0.08099342
173	0x3e0dd761	0.13851692
174	0x3dec9516	0.115518734
175	0xbc98a925	-0.018635342
176	0x3d778659	0.06043086
177	0x3d0271d4	0.031846836
178	0x3d20290a	0.039101638
179	0x3c799658	0.015233599
180	0x3dd0ec6a	0.102013424
181	0xbad944c0	-0.0016576275
182	0x3c4adc06	0.012381559
183	0xbd7b6270	-0.061373174
184	0x3d2ae76e	0.041724615
185	0xbcdb3878	-0.026760325
186	0x3d1602f6	0.036623918
187	0xbd72dc08	-0.05929187
188	0xbd216840	-0.03940606
189	0x3df421ee	0.11920534
190	0xbb498d1f	-0.003075428
191	0xbd26ff27	-0.040770676
192	0x3d845d09	0.064630575
193	0xbc957798	-0.018245503
194	0xbd22ab59	-0.03971419
195	0xbd0a0f8e	-0.03370624
196	0xbd98dc59	-0.07463903
197	0x3ca4f888	0.02013804
198	0xbd3082dc	-0.043093547
199	0xbd66e9a4	-0.05637516
200	0xbdc3add5	-0.0955464
201	0xbbc17a12	-0.0059044445
202	0xbd49ceea	-0.049269594
203	0xbd28ec3c	-0.041240916
204	0xbd4f2580	-0.050572872
205	0x3dad6352	0.084662095
206	0x3d409ffa	0.047027566
207	0xbd59f750	-0.05321437
208	0xbd05a743	-0.032630216
209	0x3ca4330c	0.020043872
210	0xbd31c990	-0.043405116
211	0x3d310696	0.04321917
212	0xbc0657d0	-0.008199647
213	0x3d3608df	0.044442054
214	0x3dacb267	0.08432465
215	0x3d31ad00	0.043377876
216	0xbd7d05ba	-0.06177304
217	0xbe00c77a	-0.12576094
218	0xbdae8d41	-0.08523036
219	0xbdf5f799	-0.12010116
220	0x3c8abb43	0.016934996
221	0xbc3caf92	-0.011516469
222	0x3d8977b3	0.06712284
223	0x3d36972e	0.04457777
224	0xbd31622a	-0.043306507
225	0x3e132941	0.14371206
226	0x3d0166e6	0.031592272
227	0xbdc52ef8	-0.09628099
228	0x3e2195cd	0.157798
229	0x3c824c24	0.015905447
230	0x3d95576b	0.07292064
231	0x3dc40f32	0.09573211
232	0xbdfea804	-0.1243439
233	0x3db0b237	0.08627742
234	0xbdc4a21a	-0.09601231
235	0xbcbad403	-0.022806173
236	0xbcfce78e	-0.030872133
237	0x3d90b909	0.07066543
238	0x3df20dfb	0.11819073
239	0x3c2761c1	0.010216177
240	0x3ce5dfcc	0.028060816
241	0xbd18de9c	-0.03732167
242	0x3dd0cb46	0.10195021
243	0x3d5ee95a	0.05442176
244	0xbd24b035	-0.040207107
245	0x3d55bb92	0.052180834
246	0x3c5caba8	0.01346866
247	0x3d4c6a0a	0.049905814
248	0xbd6e6650	-0.05820304
249	0x3d33c5e1	0.043889884
250	0x3dff9656	0.12479846
251	0x3d5388e3	0.051644217
252	0xbe04f78e	-0.1298506
253	0xbda25b3e	-0.07927559
254	0x3dd7b3cb	0.1053234
255	0x3cabfc34	0.020994283

layers.2.0.weight f4 [2, 256]
0	0x3b9367e1	0.0044984673
1	0xbd3741a4	-0.044740334
2	0xbd1135c3	-0.03545166
3	0xbca5cb47	-0.020238532
4	0x3d1fcecc	0.039015576
5	0xbc4fd8e0	-0.012685984
6	0x3d07ed29	0.033185158
7	0x3d8dd117	0.06924646
8	0xbd0e9a67	-0.03481522
9	0xbcfaf018	-0.030632064
10	0x3bdbd820	0.0067091137
11	0x3ce35e0d	0.027754808
12	0x3b864a20	0.004098192
13	0x3d2ed9fd	0.04268836
14	0xbc7ab6e4	-0.015302394
15	0xbd57ff00	-0.05273342
16	0x3cdcb078	0.026939616
17	0xbdce69ad	-0.1007875
18	0x3cba50fb	0.022743693
19	0xbd4d68f6	-0.050148927
20	0x3d59ba50	0.053156197
21	0xbcd4dc96	-0.02598409
22	0x3bcc37ea	0.0062322514
23	0xbced5c30	-0.028974622
24	0xbd1197e4	-0.035545245
25	0xbd0307fa	-0.03199003
26	0xbd3463e6	-0.044040583
27	0x3d67867e	0.056524746
28	0x3c66a75b	0.014077987
29	0x3cb7661f	0.022387562
30	0x3d421a64	0.04738845
31	0xbd16bf54	-0.03680356
32	0xbae1cee2	-0.0017227794
33	0x3d537688	0.051626712
34	0xbd04f92c	-0.03246419
35	0x3d77760a	0.060415305
36	0xbc86cf1c	-0.01645618
37	0x3ceab79c	0.028652005
38	0x3ce3461b	0.02774339
39	0xbc1ae55c	-0.009454098
40	0x3d0b46dc	0.034003124
41	0x3cabd91e	0.020977553
42	0xbb9b8568	-0.004746128
43	0xbd3fbb0d	-0.046809245
44	0xbc5cca57	-0.013475976
45	0xbc80750c	-0.015680812
46	0xbd29691c	-0.041360006
47	0xbd39a0b0	-0.04531926
48	0x3d066ec6	0.032820486
49	0x3c88141c	0.016611151
50	0x3bd4a712	0.006489643
51	0x3cc827f8	0.024433121
52	0xbc9e318c	-0.019310735
53	0x3d394b4c	0.045237824
54	0x3c90435a	0.01761024
55	0x3d23771c	0.039908513
56	0xbd18e5e2	-0.03732861
57	0x3c272b08	0.010203131
58	0xbd2e736e	-0.04259055
59	0x3cc5cb28	0.024144724
60	0x3dd3c7c6	0.10340838
61	0xbb482206	-0.0030537858
62	0x3d75bf88	0.05999711
63	0xbd042c34	-0.032268718
64	0x3bfc9c00	0.0077090263
65	0xbc4627b0	-0.012094423
66	0xbc8d1d18	-0.017225787
67	0xbcea0f58	-0.02857177
68	0xbd7986d4	-0.060919598
69	0x3cb9f40c	0.022699378
70	0xbcd49a6b	-0.025952538
71	0xbc14b2f0	-0.009075865
72	0xbc0e7423	-0.008694681
73	0xbce1cdc0	-0.02756393
74	0xbd12db88	-0.035853893
75	0xbc5f7da8	-0.013640799
76	0x393a2000	0.00017750263
77	0xbd231ca2	-0.03982223
78	0xbcfa1800	-0.030529022
79	0xbcb7be64	-0.022429653
80	0x3d670af7	0.05640694
81	0xbd2c80ff	-0.042115208
82	0xbae23011	-0.0017256757
83	0x3cb5f671	0.022212239
84	0xbd4914a0	-0.049091935
85	0xbb53f560	-0.00323423
86	0xbd54bd90	-0.051938593
87	0xbd3e0fbc	-0.046401724
88	0xbd7cb610	-0.061697066
89	0x3d10b2bf	0.035326716
90	0xbd0bea08	-0.034158736
91	0xbd2a1d64	-0.041531935
92	0xbc68d968	-0.01421199
93	0xbca526d0	-0.020160109
94	0x3cd8eed4	0.02648107
95	0x3d1b6c46	0.037945054
96	0x3c8a6180	0.016892195
97	0x3a9a6bb6	0.0011781368
98	0xbd103037	-0.03520223
99	0xbd3d428c	-0.046206042
100	0xbbe364d0	-0.006939508
101	0x3d12c71a	0.03583441
102	0x3cfb6d08	0.030691639
103	0x3cde3ba9	0.027128058
104	0xbd160a17	-0.036630716
105	0xbd47adb6	-0.048749648
106	0xbc88d564	-0.016703315
107	0x3d8586d8	0.0651986
108	0x3b50451b	0.0031779471
109	0x3d9969e1	0.07490898
110	0x3daee5b8	0.08539909
111	0x3cccdc28	0.025007322
112	0x3d89c2eb	0.06726631
113	0xbce1a89c	-0.02754622
114	0x3d64d5f0	0.05586809
115	0xbd6b3190	-0.057420313
116	0x3d3a9437	0.045551505
117	0xbd5bf915	-0.05370434
118	0xbcb7d6e8	-0.022441342
119	0x3d66d02f	0.056350883
120	0xbd9f85ac	-0.07789168
121	0x3d301b48	0.042994767
122	0xbc232b58	-0.009959064
123	0x3cea8aff	0.028630732
124	0x3d3b2d03	0.045697223
125	0x3ca86f84	0.020560987
126	0xbd23c6a2	-0.039984353
127	0x3b8293c0	0.0039848983
128	0x3ce57268	0.028008655
129	0x3d354666	0.04425659
130	0xbd9466eb	-0.072461925
131	0x3d6ded4a	0.058087625
132	0xbc9c85e8	-0.01910682
133	0x3ce29bac	0.02766212
134	0xbcb468c7	-0.022022618
135	0x3d616350	0.055026352
136	0xbccc5424	-0.024942465
137	0xbd555949	-0.052087102
138	0xbd4f4584	-0.050603405
139	0x3c304560	0.010758728
140	0xbc411128	-0.0117838755
141	0x3d430da2	0.047620423
142	0x3d7d44a2	0.06183303
143	0xbce72b9c	-0.028219037
144	0x3ccb13ee	0.024789777
145	0x3ce874b3	0.028375959
146	0x3ce93de0	0.028471887
147	0xbbc0f3e0	-0.005888447
148	0x3dbf98a3	0.09355285
149	0xbd47a848	-0.04874447
150	0xbd835625	-0.06412915
151	0x3c252a54	0.010080893
152	0x3ce5fbec	0.028074227
153	0x3d4323bd	0.047641505
154	0xbd6d3982	-0.05791617
155	0x3c0e5d59	0.008689248
156	0x3c3b7ead	0.011443776
157	0xbd4754e5	-0.048664946
158	0x3d543518	0.051808447
159	0xbcb007cc	-0.021488093
160	0x3d654027	0.055969384
161	0x3d71a1ce	0.0589922
162	0x3d821135	0.06350938
163	0x3d8fd55e	0.070231184
164	0x3bf3b731	0.0074376096
165	0xbc1370a8	-0.008999027
166	0xbd2f8b5c	-0.042857513
167	0xbcd54ef4	-0.026038624
168	0x3bef1f80	0.0072974563
169	0x3d7b0ae0	0.061289668
170	0x3bcdc0fc	0.006279109
171	0xbcffae66	-0.03121109
172	0xba3c5c4b	-0.00071853836
173	0xbd8b4a44	-0.068012744
174	0xbda92c43	-0.082603954
175	0xbc828880	-0.015934229
176	0xbc7770f3	-0.015102613
177	0x3ca6049c	0.02026587
178	0xbcbb7430	-0.022882551
179	0xbcd51584	-0.026011236
180	0xbc50a0a4	-0.012733612
181	0x3d5417b4	0.051780418
182	0x3c66c063	0.0140839545
183	0x3ccab803	0.024745947
184	0x3d7428f6	0.059609376
185	0x3d61acc6	0.05509641
186	0xbd1295bc	-0.03578733
187	0xbcc25972	-0.023724291
188	0xbd2bd92c	-0.041955158
189	0xbd50d034	-0.050979808
190	0x3c9491f8	0.01813601
191	0x3ba2814e	0.004959262
192	0x3d941911	0.072313435
193	0x3d2f60a4	0.042816773
194	0x3d29e4ca	0.041477956
195	0x3b02d4fa	0.001996337
196	0x3ab3816f	0.001369519
197	0x3d712d00	0.058880806
198	0xbd61ccc2	-0.055126913
199	0x3cedfddc	0.029051714
200	0x3d127689	0.035757575
201	0xbd4fe752	-0.050757714
202	0xbd099612	-0.033590384
203	0x3cb413d1	0.021982105
204	0x3d00ad22	0.031415112
205	0xbd2f6a40	-0.042825937
206	0x3baa0c90	0.005189486
207	0xbb3b4b82	-0.0028578942
208	0xbcf6e4d8	-0.030138418
209	0xbd77a080	-0.0604558
210	0x3ce2c401	0.027681353
211	0xbd1edde4	-0.03878583
212	0xbb8b3ef0	-0.004249446
213	0xbad41aaf	-0.0016182269
214	0xbc8de4dc	-0.017321043
215	0xbd094198	-0.03350982
216	0xbce87ff0	-0.028381318
217	0x3dc327b5	0.09529058
218	0x3d7ed22b	0.06221215
219	0x3ca53a3e	0.020169374
220	0x3d494a23	0.049142968
221	0x3cd781ed	0.02630707
222	0xbd06ec0a	-0.03293995
223	0x3d3b7942	0.045769937
224	0xbd1841da	-0.037172176
225	0x3e5ce8b6	0.21573147
226	0xbd111beb	-0.035427015
227	0xbbf16bf1	-0.007367604
228	0x3d4772d2	0.048693486
229	0x3b7d0ae0	0.0038611218
230	0xbd42b9af	-0.047540363
231	0x3dbe42b6	0.09290068
232	0x3c82d7ab	0.01597198
233	0xbd5e25a4	-0.054235116
234	0x3c964c57	0.018346949
235	0x3d4dddf3	0.050260495
236	0x3c6aa90a	0.014322529
237	0xbd0b6f33	-0.034041595
238	0xbd5b4a97	-0.05353793
239	0xbcb2cca0	-0.021826088
240	0x3d505b6a	0.05086843
241	0x3d03e1d0	0.032197773
242	0xbdbbb385	-0.091651
243	0xbd0e9e2e	-0.03481882
244	0x3d91803c	0.07104537
245	0x3d54a842	0.051918276
246	0xbcb02880	-0.021503687
247	0x3cd5c572	0.026095126
248	0x3c023e30	0.007949397
249	0x3c0bb74b	0.008527587
250	0xbd5a7343	-0.05333258
251	0x3c9ec76c	0.019382201
252	0x3d2c0a90	0.04200226
253	0x3c8ed75c	0.017436676
254	0xbd872574	-0.065989405
255	0xbd81c75f	-0.06336855

layers.2.0.bias f4 [2]
0	0xbd9ba08f	-0.075989835
1	0x3d41cefa	0.04731653
