benchmarks/CartPole-v1/Train_CartPole-v1_mp_PPO_20230401-223204/models/actor.pth (torch, 272151 bytes, 6 tensors)

fc1.weight f4 [256, 4]
00000000: f08d 7b3e 1fdd 52be 6d23 21bd 072b 8d3e
00000010: 3ae5 f2be 102d a03e 6d2c 5dbd 50b3 8d3e
00000020: 786d 703d 41b6 5fbd b688 5d3e 7ea1 933d
00000030: afe4 503e c90f 41be 82ca e3bc 05cc dfbc
00000040: 8980 923d e028 0cbb 60f1 df3e 3a84 1f3e
00000050: 2ecd 39be 72c0 9fbe f540 fbbd d5a1 6ebe
00000060: 37f2 1fbe dd90 f23c 211a 913e a912 843e
00000070: 6bc8 fabe 4d2e 9e3e efee 343e 2312 013f
00000080: 900e b33e 3945 edbe 7375 0abf 73f2 92be
00000090: a7d9 de3e 0a21 e5bd 6259 1b3e c447 8ebe
000000a0: aa36 f53e 4d11 4dbe b581 e23e d760 523d
000000b0: decb 7dbe b5d0 803e e2a7 92be e32d 143e
000000c0: 597b 23be 009c 8bbd 07be f5be e166 82be
000000d0: 1f8e 873e 6eba c8bd 1598 123f d217 dd3e
000000e0: af07 12bd d437 acbe 3311 9c3e e384 183e
000000f0: 4330 a3be 69de ae3e ae9d b83e cd23 f23e
00000100: dd55 91be c6fe abbd b175 92bc e655 853d
00000110: 1c97 b0be d99a adbe 7031 823e 8f7b 04be
00000120: fc21 6b3e af36 2c3c 5666 163e 8056 f83d
00000130: 24a3 213e 5307 713e 0ae4 cebe ad5d 963e
00000140: fac5 a4be a9c9 bdbe 45eb cabc 211d e6bd
00000150: 7895 8e3e b19d 8ebe d4ee c0be 4a83 cd3e
00000160: 34da 88bd 61a5 863e aa30 d53d 469b d1be
00000170: e720 da3d c8b6 cd3d 2cc5 cbbe 4ae6 91be
00000180: 6890 203e 4d48 993d c8b3 85be 6632 47be
00000190: c0d8 df3e ccfa b0bd c56c b23e 7913 823e
000001a0: af59 9dbe 33d4 cbbe 7247 013f ae60 c03c
000001b0: a9f6 aa3e fef6 d23d 3d94 2b3e ff35 b73e
000001c0: 5784 f03e de91 a4be 1fa4 0b3e 4eef d63e
000001d0: fb81 b13e 8072 963e 6644 d3be 2a31 cebe
000001e0: 7a4d 92be a3d8 793d 6f55 013f f76e 9dbe
000001f0: d20c 923e bbff 8cbe 76c6 01bf cacf 05be
00000200: 3818 953e ec95 e93e 163f bbbe cae3 943d
00000210: 29f9 d53e 1785 a13e 4cfc 9f3e b919 c43e
00000220: df1b a23e 294f 033e 5987 b2be 642e e0be
00000230: 7c24 59be 2567 36bd ff12 84be 6886 5d3e
00000240: 09da 0e3e 07ae d4bd a3f6 893e 5452 583e
00000250: fb22 993e 5c64 b13e 38fe edbd 92c5 073f
00000260: de68 59bd 2ac4 3cbc 8794 f4be 84b1 a7be
00000270: 101a 8bbe aa21 50be b710 a03e d438 46be
00000280: 4318 babe 8233 503e ed11 1a3e 0ef4 a13e
00000290: 4795 86be b9bc e13d 5587 4dbe 8644 06be
000002a0: c8c6 d0be 86e0 56be e1b5 b7bd e208 763e
000002b0: 0a8b 8a3d 571e f53d 4895 fd3e 321c f63e
000002c0: 8d4f a93e f65d 80ba 9826 b8be ce64 d43e
000002d0: 2748 dcbd 7470 debc c49c fabe 299f 0abe
000002e0: ff1f 9abe 02d2 e93e 8538 ffbe 460f e0be
000002f0: a7e0 87bc c442 88be ce78 5e3e 5c88 31be
00000300: 8e8f 55be 3552 533d 3a07 bc3e 1185 aebe
00000310: e791 533e 0d72 953e eed9 ee3e fa9d bebe
00000320: b85f f83d ba63 b8be f10f dd3e 5f45 4fbe
00000330: a28e 933e 676b ed3b 37fe 2dbd 59d2 abbc
00000340: 7800 3e3d e420 4c3e c0b2 613d bad8 213e
00000350: 0005 ebbe d85f bd3e 982f 033f 2166 ea3e
00000360: a340 b73e 6cd9 b9be 3f98 f7bd 6931 ef3e
00000370: d4d8 c7be 9104 db3e 3666 dabe 5d3f bbbe
00000380: 2ace 853e a00c abbe c8ea 04be 929c ac3e
00000390: 1ee4 cc3e ed31 ec3e 8d00 20be 4b67 e3be
000003a0: f410 f23e 4798 00be 6406 2cbe 4518 163e
000003b0: 98f5 a4be 605e a73e 74d1 833e c9f5 dcbe
000003c0: ce89 c6be 6fa5 14bd 428f 333e 5ad3 29bd
000003d0: e247 68be c45b 90bb 9f37 0abf ee44 c6be
000003e0: 2945 aebe 9c97 cb3e 0786 e43e 44ea 17be
000003f0: bbb3 673c 931a 5c3e 81fa 513d edd3 7fbe
0.24565864 -0.20592164 -0.039340425 0.2757189 -0.4744051 0.3128438 -0.053997446 0.27675867
0.058698148 -0.05461717 0.21634182 0.072085366 0.20399736 -0.18853678 -0.027806524 -0.027318964
0.071534224 -0.0021386668 0.43738842 0.15577784 -0.18144676 -0.31201512 -0.12268249 -0.23303922
-0.15619741 0.029610092 0.28340247 0.25795487 -0.48981032 0.308947 0.17669271 0.504183
0.34972048 -0.46341875 -0.54085463 -0.287006 0.4352543 -0.11187942 0.15170816 -0.27789128
0.47893268 -0.20026131 0.44239584 0.051361885 -0.247848 0.2515923 -0.2864371 0.1447063
-0.15965022 -0.06816864 -0.47996542 -0.25469115 0.26475617 -0.09801184 0.5726331 0.43182236
-0.03565186 -0.33636343 0.30481872 0.14894442 -0.31872758 0.3415406 0.360578 0.4729294
-0.2838582 -0.083982036 -0.017878385 0.065105245 -0.34490287 -0.33907202 0.25428343 -0.12937759
0.22962183 0.010511084 0.14687476 0.121258736 0.1578489 0.2353795 -0.40408355 0.29368344
-0.32182294 -0.37067917 -0.024770388 -0.11236025 0.2784841 -0.27854684 -0.3768221 0.40139228
-0.06682244 0.2629805 0.104096726 -0.40938777 0.10650807 0.100446284 -0.39798868 -0.2849601
0.15680087 0.074844934 -0.26113725 -0.19452819 0.43720055 -0.08641586 0.3484861 0.2540548
-0.30732486 -0.39810333 0.5049964 0.0234836 0.33391312 0.10301016 0.16755767 0.35783383
0.46975967 -0.32142538 0.13636826 0.4197945 0.3466948 0.29384232 -0.4126312 -0.40271884
-0.28574735 0.060997616 0.50520986 -0.30748722 0.28525406 -0.27538857 -0.5069345 -0.13067546
0.2912004 0.45622194 -0.36571568 0.0727001 0.41791657 0.31546852 0.31247175 0.38300875
0.3166189 0.12823166 -0.34868887 -0.43785393 -0.21205324 -0.04453196 -0.25795743 0.21633303
0.13950361 -0.103847556 0.2694598 0.21125156 0.299095 0.3464688 -0.11620754 0.53035843
-0.053078525 -0.0115213785 -0.47769567 -0.3275262 -0.27168322 -0.20325342 0.31262752 -0.19357616
-0.36346635 0.20332149 0.150459 0.3163151 -0.26285765 0.11022324 -0.20071156 -0.13112077
-0.40776658 -0.20984086 -0.089702375 0.24026826 0.06764801 0.119686775 0.49527955 0.48068386
0.33068505 -0.0009793628 -0.35966945 0.41483158 -0.107559495 -0.027153231 -0.48947728 -0.13537277
-0.30102536 0.45668036 -0.49847808 -0.43761653 -0.016586615 -0.26613438 0.21725771 -0.17337173
-0.20855543 0.05159207 0.36724263 -0.34085897 0.20661126 0.29188576 0.46650642 -0.37229902
0.12127632 -0.36013585 0.43176225 -0.20241307 0.28819758 0.0072454694 -0.042478766 -0.020974325
0.046387166 0.19934422 0.05510211 0.15805331 -0.45902252 0.36987185 0.512445 0.45781043
0.357915 -0.36298692 -0.120895855 0.46717384 -0.39032614 0.4277692 -0.42656106 -0.3657178
0.26133853 -0.3340807 -0.12980187 0.33713204 0.4001779 0.4613184 -0.1562521 -0.44414744
0.4727856 -0.12558089 -0.16799313 0.14657696 -0.32218623 0.3268919 0.25745738 -0.4315627
-0.38777012 -0.036290582 0.17535117 -0.041461326 -0.22683671 -0.0044054706 -0.5399112 -0.38724464
-0.3403714 0.39764106 0.44633505 -0.14835459 0.014141972 0.21494512 0.05126429 -0.24983187

fc1.bias f4 [256]
00000000: 09f4 b23d 98c3 613d 3f91 9a3d a017 8bbe
00000010: 4b55 f9be 4dab 5c3c 56a9 62be 6841 0dbe
00000020: f369 b83e 6d72 a73d c703 6c3e ca40 23be
00000030: 5de1 c1be ca2b 033e 0ace a8be 7984 c23d
00000040: a6ec c4be fdf7 b03e da92 b7be 3df3 d53e
00000050: 604c b13e b193 c03e 4a74 953e 43cd f43d
00000060: 8567 0bbc cfc3 143c 494d 62be 8bec eebe
00000070: 3ed2 e93e 92d2 103d 4b7b 583e b028 373d
00000080: 3c69 0c3e 2801 a4be 24f6 c2be 0c86 c03e
00000090: 1832 433e 97cc 773e 3da8 fabe f377 f23c
000000a0: 2d79 f4be 90d6 1fbd 9b39 8abc e268 babe
000000b0: 18d5 01bf 437b 413d 1d74 e63e 6aef d83e
000000c0: c8a3 abbe 683f ebbd e00d d9be 336d ccbe
000000d0: fe11 2cbe 14cd f93e 9f90 0dbe c54b c93c
000000e0: 97b4 e13e a0a0 b03d 0d29 bf3e ed85 ab3e
000000f0: 272c eb3e 6c06 c43d 208d d6be c9b2 dfbe
00000100: 1d5c 8cbe 6e81 d33e bca7 903e 927b 153e
00000110: fd60 bdbe 902b bfbe cccd cb3e c24e 85bd
00000120: 3ef2 f5be 4ce0 84bd a9ce b1bd cdcb ba3c
00000130: fce5 583e e51b 473e 8499 c9be d85f cb3c
00000140: c030 7ebe ab13 a93e cb07 7f3e 5c8e 833e
00000150: f235 e03e 4eec 7f3e e2d3 f9be 36ff ef3d
00000160: 4f10 b4be 9cbc 793d 6a04 103c 483a fb3e
00000170: cf48 a1be 3a9c f9be 4eaf f1bd be38 803d
00000180: 1341 b83e ceae ce3e 1e7d bb3e b559 213e
00000190: 5c36 13be 6696 9ebd 26ef 87be b4c2 ba3d
000001a0: 4311 b7be 7c93 373e e5f4 a63e bfae d33e
000001b0: 13c3 01bf 2eeb cf3e afb1 9ebe 164a e5bb
000001c0: 379f ed3e 93cb 883e 94d7 22be 09ba 9a3e
000001d0: 1ede f9be 4d8b c63e c980 f43e 203a a1bc
000001e0: 81c3 a23d df39 1bbe 5dc1 a0be 033e 6dbe
000001f0: 4ed3 13bd b58f dabe a9e7 d6be e7fb 5d3d
00000200: 0c56 a6be a12f 8dbe 2036 eebc 7417 8bbe
00000210: 3ef3 e93e 3781 2cbe bb89 89be 70d6 0cbe
00000220: c2c7 d1be b93f 813e 07f8 d63e 88ac a4be
00000230: 3fb5 44be b1ba f03e 387d b9be 83fe 0e3e
00000240: 9b36 d0be 62ba e6be 264b 46bc e8a7 9abe
00000250: 180c 8b3e bc8e 05be 9d89 b03c 8591 6cbe
00000260: 89dc 4c3e c4e9 e93e 6300 4dbd 2ebe a3be
00000270: 1380 f5be 8581 ed3e 8095 513e cfe6 593e
00000280: 0fa0 d43d 4771 7f3e dda8 253e 3461 7a3e
00000290: c82b 993e 650e 503d 4b72 d73e 472b a03e
000002a0: 8a2a 573c 0d12 83be 4af0 143d 7977 cc3e
000002b0: 055c a23e ca69 34be 2994 9ebd 4162 493e
000002c0: f50d 463e 8259 e93e 6129 773e 8ea4 263e
000002d0: 8028 e03d d447 f2be afbc 28be 63b3 773d
000002e0: 0c6f b0be ff8f e2be 15b4 aa3e 9bae 3e3e
000002f0: fa21 d8be dd8d 343c 9c50 933e f19a 913e
00000300: 6fea e53e ac94 5fbe c321 623e 3b1a cbbe
00000310: 7eee 95bc 489b a4be 6703 7bbd 96fc 8d3e
00000320: e673 803e b226 96be 944e 07be 44d7 f9bd
00000330: 1c18 49be 3db1 98be 1170 b93e 9ed9 b33e
00000340: a890 d73e f140 88be 482e b63e e4a8 12be
00000350: 979a 11be 1bc1 20be a134 c43b 4085 71be
00000360: 5aa3 a53d 5b37 a8be a39e 563e fdde dcbe
00000370: ad10 2bbe 8a40 b4be b80a ae3e 04d4 b03e
00000380: 5921 d5be 4680 9bbe b371 dc3e 93fd 1a3e
00000390: febc a63e 76da bfbe 8033 5e3e 8dc3 a73e
000003a0: 0503 f8bd ef87 fabb c388 b03e 89cf 183e
000003b0: 3a24 153e 5936 e2bb b915 6abe 4ce7 a2be
000003c0: d745 fe3e 0947 63bd b1f7 da3e 2ebb cd3e
000003d0: 14b7 82be 6e86 853d 5f99 06be 8d29 99bb
000003e0: e415 ac3e 5579 823e b200 98be 03f3 6dbe
000003f0: c7b4 b8be d9e3 dabe afc2 a33e df80 aabe
0.08737952 0.055118173 0.07547235 -0.27166462 -0.48697886 0.013468576 -0.22134909 -0.13794482
0.36018333 0.08176122 0.23048316 -0.15942684 -0.3786725 0.12809673 -0.32969695 0.094979234
-0.38461798 0.345642 -0.35854226 0.4178714 0.34628582 0.3761268 0.29190284 0.11953213
-0.008508568 0.0090798875 -0.22099794 -0.46664843 0.45668215 0.035357065 0.21140783 0.044716537
0.13712019 -0.32032132 -0.38078415 0.3760227 0.19062078 0.24199139 -0.4895648 0.029598212
-0.477487 -0.039022982 -0.016873172 -0.36408144 -0.5071578 0.047236692 0.45010462 0.42370158
-0.33523393 -0.11486703 -0.42393398 -0.39927062 -0.16803738 0.48789275 -0.138247 0.024572263
0.44083092 0.08624387 0.37336007 0.33500615 0.45932123 0.095715374 -0.41904545 -0.4369109
-0.27414027 0.41309685 0.2825297 0.1459792 -0.3698806 -0.37337923 0.39805448 -0.065091625
-0.4803638 -0.06488094 -0.086819954 0.022802258 0.21181482 0.19444235 -0.39374936 0.024825975
-0.24823284 0.33022818 0.24905317 0.2569455 0.43791157 0.24992487 -0.48794466 0.117185995
-0.35168692 0.060970888 0.008790115 0.49067903 -0.3150086 -0.48752004 -0.11801015 0.06260823
0.35987148 0.4036774 0.36618894 0.15756877 -0.14376205 -0.0774353 -0.26549643 0.09119168
-0.35755357 0.17927355 0.32608715 0.41344258 -0.50688285 0.40609115 -0.30994937 -0.006997357
0.46410534 0.26717815 -0.15902549 0.3022006 -0.48802274 0.38778153 0.47754505 -0.019681036
0.07947446 -0.15158795 -0.31397524 -0.23168187 -0.036090188 -0.42687765 -0.41973618 0.05419531
-0.32487524 -0.275754 -0.029078543 -0.2716633 0.45693392 -0.16846167 -0.26862893 -0.13753676
-0.40972716 0.2524393 0.41986105 -0.3216288 -0.19209765 0.47017434 -0.36228347 0.13964276
-0.4066666 -0.45064074 -0.012102878 -0.30206227 0.27157664 -0.1304273 0.021549994 -0.23102386
0.20006002 0.45686162 -0.050049197 -0.31981033 -0.47949275 0.46387878 0.20467186 0.21279453
0.10382091 0.24945556 0.16177697 0.24451143 0.29916215 0.050794978 0.42079386 0.31283018
0.013132701 -0.2559971 0.03636197 0.399349 0.3171083 -0.1761848 -0.07743103 0.19666387
0.19341262 0.45576102 0.24136879 0.1627371 0.10945225 -0.47320426 -0.16478227 0.06047381
-0.34459722 -0.44250485 0.33340517 0.18621294 -0.42213422 0.011020151 0.28772438 0.28438523
0.4490542 -0.21834058 0.22083192 -0.3966845 -0.018302198 -0.3214972 -0.06128254 0.2773177
0.25088423 -0.29326397 -0.13213569 -0.12199262 -0.19638103 -0.29822722 0.36218312 0.35126966
0.4210255 -0.26612046 0.35582185 -0.14322239 -0.14219128 -0.15698664 0.005987719 -0.23585987
0.080877975 -0.32854733 0.20958953 -0.43138877 -0.1670558 -0.3520549 0.33992553 0.34536755
-0.41627005 -0.30371302 0.43055496 0.15135793 0.32566065 -0.3747136 0.21699333 0.3276638
-0.12109951 -0.007645599 0.3447934 0.14922918 0.145646 -0.0069034514 -0.22859849 -0.3181709
0.4966266 -0.055487666 0.427671 0.4018187 -0.25530303 0.06519781 -0.13144444 -0.0046741427
0.3361045 0.25483194 -0.2968803 -0.23237233 -0.36075422 -0.4275196 0.3198447 -0.33301446

fc2.weight f4 [256, 256]
00000000: cd68 1dbb 5b0d fd3b 9145 103b ac81 30bb
00000010: cd66 fa3c c975 f9ba 690e 3c3d 5faa e03c
00000020: a45f 5ebc d927 383a ab07 043d f4b7 553c
00000030: fc55 283d fbd2 85bc 209f 093a a98f 623d
00000040: 8a2c 6cbd 0b7e 16bb 9144 593d 98cf 19bd
00000050: 599d a5bc 08b9 76bc 473b d63c 1aa7 023d
00000060: 1f29 383c 2d0e 803c 392c 02bd b9fd a73c
00000070: 2428 ffbc 0ddc 0d3d 09ff 8bbc 65dd 58bd
00000080: 36e0 023c d635 e53c 1203 21bc a469 12bb
00000090: aa5e 24bc f62a ef3c a37d 283b 4eb5 7fbd
000000a0: e525 23bd 849f 323c b303 56bc 72e7 783d
000000b0: f4f4 90bc 9992 4a3d 875d 3dbd 900f 8dbd
000000c0: e162 9abb e7c0 2abd be1f 78bc d735 263b
000000d0: 870f 5dbd 3ce7 2d3d f3ef 23bd 7c63 773d
000000e0: 2e4c 4c3c 3e99 10bc 4a83 89bd 0cda ae3c
000000f0: a5be 19bd 4c53 593d 34cb 37bd 8046 7dbc
00000100: 82da 19bd 1cb2 3dbd a23f 37bd d20a 80bc
00000110: ba2e a9b9 76ca de3b 9a54 d83c f3fc e6bc
00000120: bbb5 1dbd 1054 74bc 6f88 743d 7be7 50bc
00000130: 98ca 68bd 6e2c 6e3d ab93 1e3c 2b44 b23c
00000140: 067d 30ba fe32 043d 322e 08bd 3632 013d
00000150: 96a8 543d da7a c0bc c90c 1f3d 8b70 d23c
00000160: 50d6 7f3d 75bd a4bc 911c 2ebd 4700 04bd
00000170: 0dda 26bd 272b b03b e94f 9b3d 4ad2 553d
00000180: 2c7c 3f3d 17f7 a0ba fd33 c7bb 96e7 043d
00000190: 5a5f 443d 0a38 1fbc 1869 a0bc cfde 9b3c
000001a0: 4fb0 d439 3a07 26bd 0611 cebc c786 2d3d
000001b0: d9e0 5b3d e2e8 08bd fe7e 303a 1bfb 07bd
000001c0: efa6 dabc a0fe 393d 388a 79bd e3a8 af3c
000001d0: 3b65 6cbd e858 2cbd f762 8bbc 4cbb b63b
000001e0: b3d6 79bc 0d8d 01bd e43c 03bd 8244 19bd
000001f0: 3c78 36bd 98e4 2ebd 797b 5b3d dd81 13bd
00000200: 2e2f 47bd c327 203d f1b9 813c a7e9 293d
00000210: a32b 90bd dd22 84bd f86b 45bd e22b 03bd
00000220: ca95 413b 6111 ec3c 9518 d53c 32a3 62bd
00000230: 2bdd ae3c d209 2dbd a4f7 3e3c 3ffd 463c
00000240: d26d 003c a5e1 a33c 298e f7bb 669b 1d3d
00000250: 31e6 b73b 0f3a 593d 5da2 3f3b 63d8 13bd
00000260: 53a5 273d 658b 9a3a 6c8d 823d 42c2 a0bb
00000270: c474 7d3d 2421 18bd 0f62 a33c d41c 54bd
00000280: 3e1b 223d a6f5 b23b 4563 ef3c 70fc 6fbd
00000290: 2684 70bd ce7d 1f3d 6c15 19bd 46d3 8a3c
000002a0: ccb4 06bd 30bc d4bc a4f2 2fbb 666d dc3c
000002b0: 3688 cb3c 6fc8 01bc ffe0 9ebc d045 08bc
000002c0: e691 dc3c 8dfa 8abd 2eb7 f6bc 24b8 7dbd
000002d0: 3976 cf3b 0e8e 87bc 2252 113d 8bc7 373d
000002e0: 7999 62bd 26e3 e6bc e2ba 2cbc c89f 15bc
000002f0: 7a18 83bc 213a 28bd be94 ecbc 7ded c2bb
00000300: 8abb 393d 5ecd 62bb caca f63c a5a8 52bd
00000310: d325 19bb def4 63bd 4155 69bd 947d 28bc
00000320: de5a 02bd 3b07 4c3d d50c 333d 0990 84bd
00000330: 004b 583a b477 57bc dbf6 38bd 95b7 43bd
00000340: 14fa 1ebd a8c3 de3c a3c1 093b 1887 083d
00000350: eab0 923b bf00 013d 4da7 123b 87cf 78bc
00000360: 9262 653b d0b6 83bd 25df 08bc a7bc c0bc
00000370: e9d9 c3bc 0855 b9bc 80f2 a0bc a4d6 3bbd
00000380: 3442 0b3c 0b72 c0bb 080e ecbc 519e 783d
00000390: 2bbe 123d 74ec 553c b895 e1bc d76d d1b9
000003a0: 8dc7 33bd 092b 2e3d c259 4b3d f3a2 dcbb
000003b0: 04ee 1e3d 9591 8d3d c21d 44ba 6683 fabc
000003c0: 5ec4 00bc 63fd 7b3b e12f 8cbd d9e9 f9bb
000003d0: 3519 9fbc 7feb 263d 762c debb 4daa 123d
000003e0: 1ad7 443d 31b2 ddbc a789 123c dfa3 fcbb
000003f0: f9e5 e5bc 3888 1ebd 8917 5dbc 6a1b 7e3c
-0.0024018765 0.0077225394 0.002201412 -0.002693276 0.030566597 -0.0019032295 0.04591218 0.02742499
-0.013572607 0.0007024981 0.032233875 0.013044346 0.041097626 -0.016335955 0.0005249847 0.055312786
-0.057659663 -0.002296331 0.053043906 -0.037551492 -0.02021663 -0.015058763 0.026151313 0.03189764
0.011240273 0.01563176 -0.031780455 0.020506727 -0.03114707 0.034633685 -0.017089384 -0.052945513
0.007988026 0.027979773 -0.009827392 -0.0022340799 -0.010032335 0.02919529 0.002570965 -0.062428765
-0.03983106 0.010902289 -0.013062405 0.0607676 -0.017694928 0.049456213 -0.046231773 -0.06887734
-0.0047114943 -0.041687872 -0.015144287 0.002536168 -0.053969886 0.04245685 -0.040023755 0.06039761
0.0124693345 -0.008825598 -0.067144945 0.021344207 -0.03753533 0.053057954 -0.044871524 -0.015458703
-0.0375619 -0.046312436 -0.04473842 -0.01563016 -0.00032269006 0.0067990376 0.026407529 -0.028196787
-0.03850339 -0.01491262 0.059700426 -0.012750502 -0.056833833 0.05814784 0.0096787615 0.02176102
-0.0006732497 0.032275192 -0.03324718 0.031542026 0.05191859 -0.02349608 0.038830552 0.02568843
0.062460244 -0.020109871 -0.04250771 -0.032226827 -0.040735293 0.005376238 0.07583601 0.0522025
0.04674928 -0.001228067 -0.0060791955 0.03244742 0.047942497 -0.009717951 -0.019581363 0.019027142
0.0004056715 -0.040534236 -0.025154602 0.04236486 0.05368123 -0.03342522 0.00067327905 -0.033198457
-0.026690928 0.045408845 -0.06092283 0.021442836 -0.05771373 -0.042076975 -0.017014964 0.0055765267
-0.015248942 -0.031628657 -0.03204049 -0.03741885 -0.04454826 -0.042698473 0.05358455 -0.03601252
-0.04862898 0.03910042 0.015835734 0.041482594 -0.07039573 -0.06451962 -0.04819867 -0.03202427
0.0029538744 0.02881688 0.026012698 -0.055331416 0.021345695 -0.042245694 0.011655722 0.0121453395
0.007838683 0.020005057 -0.0075547886 0.038478278 0.0056121578 0.053033885 0.0029241063 -0.036095034
0.04092915 0.001179081 0.0637463 -0.00490597 0.061878935 -0.03714098 0.019944219 -0.051785305
0.03957676 0.0054614125 0.02922214 -0.058590353 -0.058719777 0.038938336 -0.037373945 0.016946446
-0.032887265 -0.025968641 -0.0026847506 0.026907634 0.024845224 -0.007921322 -0.019394396 -0.008317426
0.026925039 -0.0678607 -0.030116644 -0.06194319 0.006331232 -0.01654723 0.03547872 0.044868033
-0.055322144 -0.028184485 -0.010542603 -0.009132333 -0.016002882 -0.04107106 -0.02887952 -0.005948721
0.045344867 -0.0034607272 0.030125994 -0.051430363 -0.0023368492 -0.055653445 -0.05696607 -0.010283846
-0.03182494 0.049811583 0.04371341 -0.06472785 0.0008250922 -0.013151098 -0.045157295 -0.0477825
-0.03881271 0.027192906 0.0021019957 0.03333196 0.004476656 0.031494852 0.002237755 -0.015186197
0.003500138 -0.06431353 -0.008353983 -0.023527456 -0.023907619 -0.022623554 -0.019646883 -0.045858994
0.008499671 -0.00587297 -0.028815284 0.060697857 0.03582589 0.013056863 -0.027537212 -0.00039945423
-0.04389148 0.04252151 0.049646147 -0.0067332922 0.03880121 0.06912533 -0.0007481241 -0.030580234
-0.007859318 0.003845059 -0.0684507 -0.0076267538 -0.0194212 0.04075193 -0.0067802025 0.035806943
0.0480567 -0.027062507 0.008943952 -0.0077099646 -0.028063761 -0.038704127 -0.013494381 0.015509466

fc2.bias f4 [256]
00000000: bfb9 373d ba86 f1bc 51a1 de3a 04e2 833d
00000010: 6ecb 603d 79ed 48bc 4a45 1dbd 7dc7 80bd
00000020: bcdd b2bc a45c 873d 0784 9a3b 82cc 14bd
00000030: b98e a9bb bc48 f23b 3311 b33c fd42 243d
00000040: 3700 8b3d c461 31bc 0a89 383c b5c3 393d
00000050: 0dce 38bc 41a8 9d3c 91fd 4bbd f078 5a3a
00000060: 3e98 a0b8 1fb8 0d3d 1050 a33c 100c 6e3d
00000070: db2f 523d 9db4 7d3d 0918 213d 8ee4 bcbc
00000080: c1ce 513d b01e c83c fb4d 89bd 7e4c 193d
00000090: 941b 68bb 3041 b0bb 388e 3abc a67b 39bd
000000a0: 3bac ba3b 2e66 273c df89 f6bc 2469 473c
000000b0: a034 1d3d 3054 e6bc 2dff 9bb9 a280 f7bb
000000c0: e4de 2b3d d65c 083d 92eb 6bbd 46c8 61bd
000000d0: e2c0 913b de11 84bc 947a 39bd cfd4 15bd
000000e0: 1bb6 813c f901 493d f282 25bd 7b60 9ebc
000000f0: 6c6b dfbb 24d0 afbc 366a 5cbc 66fc 2e3c
00000100: 1e5c d2bc 72e2 aabc 3701 b13c c056 4b3c
00000110: 70d0 813c b38a 293d e99a b8bc 4923 34bd
00000120: 245a e2bc 4cb6 3ebd 5f86 36bd 36c9 2fbc
00000130: f6d2 2bbc 83af 3dbd a443 dd3c ad4a 4d3d
00000140: 1976 74bd 8c16 b23c bef1 82bc e736 0dbd
00000150: d095 cd3c 9adc 87bd b645 7bbd de24 113c
00000160: 5384 08bc 9d3d afbc ecec 813d 7c3c febc
00000170: ad50 d03c f969 c93c d7c5 513d 408a 283d
00000180: 2b83 8ebc acf1 a73c ab69 4a3d 5e5b 973c
00000190: b253 b83c c275 76bc 6e7c 27bd 44a6 1bbc
000001a0: 0537 4ebd f8ea 763d b1ad 7d3d 2c27 e2ba
000001b0: cd8d 13bc dbae debc a713 c5bc f0af f9ba
000001c0: 06a4 95bc 3aa3 7f3d 87e8 1dbd 7f6f 143d
000001d0: 3973 d9bc 042e 3dbd 2199 a33c 5a81 543c
000001e0: 000f 343d e70a 81bd 930e 673c 9961 59bd
000001f0: cb24 00bc 1f15 f4ba d29a 46bd 3449 9bbc
00000200: 7264 d4bc 58dc 823d a999 23bc ae2c e6bc
00000210: 895f 213d e8fe 733d c044 243d 49db 78ba
00000220: 32a5 14bd 1bc5 3dbd 2b05 50bd 2aea 64bb
00000230: 21b0 723d 29d1 b4b8 a9bc 86bc 7f90 5a3c
00000240: 97a5 c23c b2d8 1ebc 6c97 3b3d 4df2 ec3c
00000250: 66fa b4bb f1a6 ff3c e2f2 34bd 8b2d fd39
00000260: 26c3 163d dd8b b63c f36b 123c ee97 9bbc
00000270: 0137 ab3c 974a ecbb c243 70bd dbfe 3c3d
00000280: 671d 1abd de1a 363d 6412 383d 7a2c 6fbc
00000290: b7b5 3e3b a133 dcbc 28ca 263d 42be 1a3c
000002a0: 477a 563d 365f 28bd 10a1 583d d966 063d
000002b0: bf47 813d 5de9 de3c d93b 5e3c 9bd0 223d
000002c0: 6bbb 67bd 4af4 233c 04e2 a23c 6626 5ebd
000002d0: c8c4 35bd 5cbe 12bc 25c3 c4bc f999 5d3d
000002e0: 5238 a93c 9582 83bc d3bc 9dbb c08c 83bd
000002f0: 80f6 a7bc 3729 173d cb3c 36bb 177a 133c
00000300: 3b8a fa39 f786 4e3c 9490 833c 33d1 2d3c
00000310: dab6 e53a f205 7a3d 698b 6c3c df89 793d
00000320: 5eaa 7ebb 767b 493d f30a 323d b09b cfbc
00000330: c4c3 acbc c75c 22bd 624a a83c 948d 2a3d
00000340: e4a6 febc eb8b 37bd 51b4 14bd f0eb 98bc
00000350: 1b3c 2d3d c2f7 243d 0dd3 3cbc 134e 3cbc
00000360: 4863 ce3c ca3a 67bc abc5 7d3d 47fb c1bc
00000370: 24c3 0cbc 05b7 5dbd 29db 3bbd 5108 0ebc
00000380: c5a1 89bd 3222 8abd 1508 8d3b 75eb 1cbd
00000390: c07e ec3c 0118 61bd 03f1 6e3d f6d7 113c
000003a0: ab95 c13c d41b 5abb e94d 7f3c 31fd 5bba
000003b0: 87bf 69bd 8b73 8b3d 29c4 61bc be28 b63c
000003c0: 1ac3 04bd c431 d0b9 e431 3f3c 0f36 633d
000003d0: e902 66bd 9a60 5b3d 2d3c de3a 25c5 c9bc
000003e0: a757 063b 9f87 7b3d 2102 043b 9610 aebc
000003f0: 0cc0 96bc f99d 4fbd 9104 75bd d288 753d
0.044854876 -0.029483188 0.0016985332 0.064395934 0.054881506 -0.012263649 -0.038396157 -0.06288049
-0.021834247 0.06609467 0.004715446 -0.036327846 -0.0051744846 0.0073939245 0.021858787 0.040102948
0.0678715 -0.010826532 0.011263141 0.045352656 -0.011279595 0.019245269 -0.049802367 0.0008334061
-7.657752e-05 0.03459942 0.019935638 0.058116972 0.05131517 0.061939824 0.039329562 -0.023058202
0.051222567 0.024428695 -0.06704327 0.037426464 -0.0035416828 -0.0053788647 -0.011386447 -0.045283936
0.005696801 0.010217233 -0.030095039 0.012171064 0.038380265 -0.028116316 -0.00029754025 -0.007553176
0.041960612 0.03329166 -0.057597704 -0.055122636 0.0044480423 -0.016121801 -0.045282915 -0.036579903
0.015833905 0.049074147 -0.040408082 -0.019333115 -0.0068182256 -0.021461554 -0.013453057 0.010680294
-0.02567869 -0.02085993 0.021607025 0.0124108195 0.015846461 0.04139204 -0.022534804 -0.043978963
-0.027630873 -0.04656057 -0.04456174 -0.010729125 -0.010487309 -0.04630996 0.027009793 0.050120044
-0.05968294 0.021739267 -0.015984412 -0.034476187 0.02509585 -0.06633873 -0.06134578 0.0088588875
-0.00833233 -0.021391684 0.063440174 -0.0310347 0.025429094 0.024586665 0.051214065 0.04114747
-0.01739653 0.02050098 0.04941718 0.018476184 0.022500847 -0.015042724 -0.04089015 -0.00950009
-0.05034544 0.060282677 0.061933223 -0.0017254106 -0.009005976 -0.027182987 -0.024057223 -0.0019049626
-0.018266689 0.062411524 -0.038551833 0.036239143 -0.0265442 -0.046186462 0.019970478 0.012970293
0.043959618 -0.063009076 0.014102596 -0.053071592 -0.007821272 -0.0018622017 -0.048487492 -0.018955804
-0.025926802 0.063896835 -0.009985366 -0.028097477 0.03939775 0.05956927 0.040104628 -0.0009493125
-0.036290355 -0.046330553 -0.05078618 -0.0034929612 0.05925 -8.622028e-05 -0.016447382 0.013340115
0.0237606 -0.009695219 0.045798704 0.028924132 -0.005523014 0.031207534 -0.044176944 0.00048289853
0.0368072 0.022283489 0.00893687 -0.018993344 0.020900251 -0.0072110402 -0.05865837 0.046141487
-0.037625697 0.044459216 0.044939414 -0.014598006 0.002910001 -0.026880087 0.040720135 0.009444775
0.052362707 -0.041106425 0.052887976 0.032812927 0.063125126 0.027210886 0.0135640735 0.039749723
-0.05657522 0.0100069735 0.019883163 -0.05423584 -0.04437712 -0.008956518 -0.024018833 0.054101918
0.020656738 -0.016053477 -0.0048137694 -0.0642333 -0.020503283 0.03690454 -0.0027807232 0.009001276
0.00047786706 0.01260542 0.016060151 0.010608959 0.0017525807 0.061040826 0.014437535 0.0609225
-0.003885887 0.049190007 0.043467473 -0.025342792 -0.021089442 -0.03963926 0.020543281 0.041638926
-0.031085439 -0.04481117 -0.036304776 -0.018667191 0.04229365 0.040275343 -0.011524928 -0.011493224
0.025193825 -0.0141131375 0.06195609 -0.023679389 -0.008591447 -0.05412962 -0.045863304 -0.008668975
-0.06720308 -0.067448035 0.004303942 -0.038310487 0.028869033 -0.054954533 0.058335315 0.008901587
0.023630938 -0.0033280747 0.01558254 -0.00083919155 -0.05706742 0.068091474 -0.013779678 0.022236224
-0.032412626 -0.0003970993 0.01166961 0.055471476 -0.05615512 0.053558923 0.001695519 -0.024630139
0.0020499022 0.061408635 0.002014287 -0.021248143 -0.018402122 -0.050687764 -0.059818808 0.059944935

fc3.weight f4 [2, 256]
00000000: a809 7b3d 4d08 a0ba ab45 55bd c3fb 903d
00000010: c43c a4bc 897a bcbc b4ba 303d e9e2 18bc
00000020: 1d8f 55bb 68d5 a0bd 29ec 2dbd 28b2 213d
00000030: cc72 563d 035c a4bb 5366 15bb a4dc 533d
00000040: 1da8 a7bc 0e8a 63bd 22d9 d9bc 99ca 873d
00000050: 90b1 013d 8bd2 433d 94bb b2bc a375 e83c
00000060: 0548 213d 33bc 153d ca53 813d 0860 4cbb
00000070: 39a5 203c 178f 32bd 765d a2bc 0d33 253c
00000080: ab3e 993d 6ab9 573d 0cf1 a43b 623a b9bc
00000090: 78a7 cfbc 7773 c83c 514b 74bc ca22 2f3d
000000a0: 89ad 71bc 864e 543b de66 433d 41c9 e83c
000000b0: e81b 5d3d c546 283d 1701 29bd 7fd1 f2bb
000000c0: f087 d6ba 583f 023d f6fc 47bc 1d06 40bc
000000d0: e7fc 393d e293 ecbc 9a07 40bd 1e3e 473c
000000e0: 4eaa 1b3d cf70 3ebd 7f4b 41bd ea43 3f3d
000000f0: 44a7 52bd a43b 1bbd 630d b23c d1fb cc3c
00000100: 9404 2d3d c3c0 273d f759 023c 9de3 0fbd
00000110: 9af3 313d 3b56 183c 305e 5e3d b080 f53c
00000120: 0b2c 2ebd 1fed 06bd a266 273c 479a 7fbd
00000130: e69c 8f39 6fd4 af3c 53bc b13c 4c0c 8b3d
00000140: 8434 183d dd6a cf3c 9bbf 923d 90d7 15bd
00000150: 9930 99bd 5fd7 ddbb 9be1 d33c 1cae 5bbb
00000160: 8766 f9bc 2a06 edbc 803f 2bbd df93 27bb
00000170: 3fcc 503d f16a 983d 500d d53c ece5 46bc
00000180: f349 82bd 2f43 45bd 6478 793d b746 25bc
00000190: ecbb 45bd 1c28 18bd 6060 693d 678d 5c3d
000001a0: 6b26 1cbb eb8f 7fbc 02cd 29bc 069d 18bd
000001b0: dcef eabc 42a6 193d 35c5 463c f4ef d63c
000001c0: 6ea6 c0bc 673c b93c ab6f 443c 80be 39bd
000001d0: 901f db3c 87c8 33bd a744 bbbc 2987 603d
000001e0: bbcd e13c e9d3 013c f9ce 89bc 9ca2 3abd
000001f0: 880a 1c3d f8af 5a3d 2e1e b9bc d08e 77bd
00000200: 7189 2c3d 9df0 01bd 5f45 523b 6caa 1a3c
00000210: 9787 0bbd 670f 98bd d891 183d 7279 ea3c
00000220: 26c0 333d 5f4b 5abd 961b 5f3d 7382 1bbc
00000230: 765b d03c e148 46bd cd40 72bb 384e 15bd
00000240: c445 4e3d c4c9 ef3b 352f cb3c 6a12 16ba
00000250: 5ff8 25bd 33d9 3dbd a187 76bc 93ce 29bc
00000260: 139d 7fbd e4aa 0d3d 5b36 9d3d 162b 273d
00000270: 01a5 81bd 9be4 123d a187 3d3c 2dd5 6e3d
00000280: 842b b8bc 2c2a 533c 74e4 1ebc 73a5 c9bc
00000290: 44fd 703d eaf8 683c c00f 3c3d b5c5 833d
000002a0: 8f10 3ebd 4723 ab3c 34f1 dbbc 561d 7cbc
000002b0: 5e14 a3bc 4363 7dbd 1402 27bd bce5 183c
000002c0: 39a0 0c3d 7559 073d 3d2e 96bb d903 cb3c
000002d0: 33d6 813d f238 343d 2aa6 9fbd 0134 8aba
000002e0: 77f6 31bc f75c 49bd f259 b9bc 6629 1abc
000002f0: 57b6 17bd 15e9 70bd 5a3d f0bc 371f 413d
00000300: 296f 5c3d 274b 263c 544f 5c3d 5223 703d
00000310: 85bb f5bc 623e a43c 2687 963b 8657 793d
00000320: ec8f 85bc 711f 853d 8c91 133d 6f0a 3cbd
00000330: 2c06 e3bb c9a7 0d3d 4987 8cbd ca2d fc3b
00000340: 9a84 733d 89bb 0ebd 264e f1bc a84b cc3c
00000350: 344b 9abc d16e 603d 3bc0 d13c 9994 8dbc
00000360: c17b a5bc 8670 6abc 7230 513d 9ddb 143d
00000370: 370b 59bd 7ac1 c73c 23c2 68bc b786 4abd
00000380: bfb1 973c 2061 2c3c 04f7 683d 13e9 683d
00000390: 5e84 c93b 1a7d bfbb f506 e0bc d14d 6c3d
000003a0: 2fa6 43bd b5fd 8c3d 820b f6bb 5ccc 593d
000003b0: 345c 4dbd 0a7a e03c 6945 aabc bbd5 053d
000003c0: 9786 0dbd 9980 fcbb 77e5 06bd 7c90 e5bc
000003d0: 1caa 22bd 3590 23bd 25a1 8abc 8d41 58bd
000003e0: 991b 473d 5496 30bd 78a3 2e3d 264a 9b3a
000003f0: 4c77 d0bc 1a87 103c a047 763d 36fe 95bb
0.061288506 -0.0012209505 -0.052068394 0.0707927 -0.020048507 -0.023007648 0.043146804 -0.009331443
-0.0032586523 -0.07853204 -0.042461548 0.039476544 0.052355573 -0.0050158515 -0.0022796586 0.05172409
-0.020465905 -0.05555158 -0.026592795 0.06630439 0.031663477 0.04780821 -0.02181796 0.028376406
0.039375324 0.036556434 0.063148096 -0.0031185169 0.009805017 -0.043593492 -0.019819956 0.010082972
0.07482656 0.05266706 0.005033618 -0.022610847 -0.02534841 0.02446912 -0.014910535 0.042757787
-0.014750847 0.0032395436 0.047705524 0.028416278 0.05398169 0.041083116 -0.041260805 -0.007410228
-0.0016367417 0.03179869 -0.012206307 -0.0117202075 0.045407202 -0.02887911 -0.04688225 0.012160806
0.038004212 -0.0464943 -0.04719114 0.046695627 -0.05142905 -0.037898675 0.021734899 0.02502242
0.042240694 0.040955316 0.00795602 -0.03512918 0.043445207 0.009297903 0.054289043 0.02996859
-0.04252247 -0.03294098 0.010217341 -0.06240299 0.00027391984 0.0214636 0.021696245 0.06789455
0.037159458 0.025319511 0.07165452 -0.03658253 -0.074799724 -0.006770059 0.025864413 -0.0033520525
-0.030444397 -0.028933603 -0.041808605 -0.0025570316 0.050976034 0.074422725 0.026007324 -0.012139779
-0.06361761 -0.048159774 0.06090583 -0.0100876605 -0.04827492 -0.037147626 0.056976676 0.05384579
-0.002382661 -0.015598278 -0.010363819 -0.037259124 -0.028678827 0.03751207 0.012131979 0.026237465
-0.02351686 0.02261181 0.011989514 -0.04534769 0.026748449 -0.04389241 -0.022859884 0.0548164
0.02756392 0.0079240585 -0.016822325 -0.045565233 0.03809598 0.053390473 -0.022597399 -0.06043893
0.04212326 -0.031723607 0.0032084805 0.009440046 -0.034064855 -0.07424813 0.037248462 0.028622363
0.04388442 -0.053294536 0.054469667 -0.009491551 0.025434237 -0.048409346 -0.0036964894 -0.03645155
0.050359502 0.0073177535 0.024802784 -0.000572479 -0.04052007 -0.046349715 -0.015046985 -0.010364193
-0.062405657 0.034586802 0.07676383 0.040812574 -0.063303 0.035862546 0.011567981 0.05830877
-0.022481687 0.0128884725 -0.009698022 -0.024615025 0.058835283 0.014219502 0.045913458 0.06434194
-0.04640251 0.020890845 -0.026848413 -0.015387854 -0.019907173 -0.06186224 -0.040773466 0.009332117
0.034332488 0.033044297 -0.0045831488 0.024782108 0.063396834 0.04399962 -0.07795365 -0.0010544063
-0.010861984 -0.049160924 -0.022625897 -0.009409284 -0.037039127 -0.058816034 -0.02932613 0.04714891
0.053816948 0.010149754 0.05378659 0.058627434 -0.029996643 0.020049278 0.0045937477 0.060874484
-0.016303979 0.065001376 0.036027476 -0.045908388 -0.006928226 0.03458384 -0.06861741 0.007695888
0.05945263 -0.034846816 -0.02945621 0.02493842 -0.018834688 0.054793183 0.025604358 -0.017282771
-0.020200612 -0.014309054 0.05107159 0.036342252 -0.05298921 0.024384249 -0.014206442 -0.04944488
0.018517373 0.010521203 0.056876197 0.056862902 0.0061498126 -0.0058437707 -0.027347067 0.0576914
-0.047765907 0.06884328 -0.007508696 0.053173408 -0.05013676 0.027401943 -0.02078505 0.032674532
-0.034552183 -0.0077057597 -0.03293368 -0.028022997 -0.03971301 -0.03993245 -0.016922543 -0.05279689
0.048610304 -0.043112114 0.042636365 0.001184766 -0.02544751 0.008821273 0.0601269 -0.0045774234

fc3.bias f4 [2]
00000000: 6e88 cabb cacd b8bc
-0.0061808145 -0.022559065
