benchmarks/LunarLander-v2/Test_LunarLander-v2_C51_20230418-230454/models/checkpoint.pt (torch, 178542 bytes, 7 tensors)

supports f4 [51]
00000000: 0000 c8c2 0000 c0c2 0000 b8c2 0000 b0c2
00000010: 0000 a8c2 0000 a0c2 0000 98c2 0000 90c2
00000020: 0000 88c2 0000 80c2 0000 70c2 0000 60c2
00000030: 0000 50c2 0000 40c2 0000 30c2 0000 20c2
00000040: 0000 10c2 0000 00c2 0000 e0c1 0000 c0c1
00000050: 0000 a0c1 0000 80c1 0000 40c1 0000 00c1
00000060: 0000 80c0 0000 0000 0000 8040 0000 0041
00000070: 0000 4041 0000 8041 0000 a041 0000 c041
00000080: 0000 e041 0000 0042 0000 1042 0000 2042
00000090: 0000 3042 0000 4042 0000 5042 0000 6042
000000a0: 0000 7042 0000 8042 0000 8842 0000 9042
000000b0: 0000 9842 0000 a042 0000 a842 0000 b042
000000c0: 0000 b842 0000 c042 0000 c842
-100.0 -96.0 -92.0 -88.0 -84.0 -80.0 -76.0 -72.0
-68.0 -64.0 -60.0 -56.0 -52.0 -48.0 -44.0 -40.0
-36.0 -32.0 -28.0 -24.0 -20.0 -16.0 -12.0 -8.0
-4.0 0.0 4.0 8.0 12.0 16.0 20.0 24.0
28.0 32.0 36.0 40.0 44.0 48.0 52.0 56.0
60.0 64.0 68.0 72.0 76.0 80.0 84.0 88.0
92.0 96.0 100.0

fc1.weight f4 [128, 8]
00000000: 0974 97bd 4be9 1fbd 4afc c2bd ade6 033e
00000010: 45c7 15bf 5f76 dd3c 82d2 1e3d 8853 023f
00000020: 2658 c0bd 5478 d5bd f21e e73e 6f15 54be
00000030: bd58 6d3e 9c87 d03d 3c7f 773e 4adf d23c
00000040: 336e 1f3e e158 a23c 7614 b73e 3600 bebd
00000050: 53d6 2fbf 0736 52bf 4acf edbe 207d b1bd
00000060: 9c18 edbe 2ba3 8d3d 5272 813c 07c8 783c
00000070: c643 5dbf 4906 483e a4b3 553e 2f90 3e3f
00000080: 8df5 d53e 29e3 953b fdf9 253e a029 01bf
00000090: 803c f83e e815 34bd 39aa ca3e 8070 1bbf
000000a0: 2b30 4839 a6b4 093c 6492 6d3f a92d b03f
000000b0: 857b 74bc 404a 3f3c 905e fbbe d98a 4e3c
000000c0: 7bb8 57be 979c ec3d 5bfd 2fbe 20c1 63be
000000d0: ecba ac3e bf0b 353f 06ac 063f 5709 c93d
000000e0: 372e 74be f8c2 2e3e 907a f93d b95e d03c
000000f0: 2910 e5be 6c92 af3e b798 a03e c437 e33e
00000100: 7d1d a8be f651 8dbd 9fd5 0abf d7e2 2bbd
00000110: 66ec 29be 45c1 4bbf bde6 913e 899b 88be
00000120: 3617 9f3e b018 29be fbc8 f93e eaf0 9f3d
00000130: 40b4 8f3e 6c87 003f ba9c 54be eee7 a63e
00000140: eb0c d13c 9ea7 30be 4e82 ebbb 80d1 04be
00000150: 8ab1 cb3e 1a31 833b 59b5 01bf 0d32 ab3e
00000160: dc0a 0cbe afba 083f 064e c5bc d67b cdbd
00000170: ba01 193e a1d1 2cbd 5950 a6be 244f 0cbf
00000180: e037 76bc 1d04 903c 8932 84bd 5818 9abd
00000190: c23b 7d3f d2a5 ad3d 422a a53e 4655 143e
000001a0: 364e 8dbf 5e72 96be 8de0 29be 5997 85be
000001b0: d2a0 f7bd 5441 2cbe ccdb 003e f6cd 223e
000001c0: 292d 4b3f 2a69 32be d437 123f 45bc 033c
000001d0: 4972 013f da70 783e fee4 26be 1ceb fbbe
000001e0: 252e e8be cf4a 283e 10e2 c43e ef83 33be
000001f0: 5fef 873e a87a 9fbe d427 28bf f6c2 19bf
00000200: 65a6 fa3d 12ef 023f e76a b03e cc19 1b3e
00000210: ecda 523f 9b12 a73e b449 be3d 19fb 02be
00000220: d6ce 623e ae69 c03d 5406 98be 0464 a9bd
00000230: a2d2 b0be ecc6 5b3e 58bb 3cbf d029 513e
00000240: ccf6 593e 11fd fc3a 9b99 073f 48af 96be
00000250: fbdd ab3e c8ed fe3e 9ee5 d93d 4dda 3e3e
00000260: ddb8 15bd a7ba febd fc7c ebbe f503 9a3d
00000270: aba2 183e 7aeb 45be 60e4 733e d4d3 febd
00000280: 006b 76bf 53d5 0e3d cce2 e5be f113 a63e
00000290: a174 29be 2b05 1abe 405f 05bf 58cc 85bd
000002a0: 8048 edbe 2168 85be 6fc4 843e dc1b b33c
000002b0: 1a19 b23e 43d2 8f3e bd5a ef3e 07fc 013f
000002c0: 6210 573e b4cc 70bd 4102 06be 34a1 c43e
000002d0: 6eed 973e 25fc 333f da3c 3dbe eb27 5bbe
000002e0: 285b e7be b6f3 f53e 1d6b 21bf 6894 25be
000002f0: 2420 653e 04c5 fdbe 572b 79bd 16b0 84bd
00000300: ab3e b9be 4b7b 663e 2526 ad3e c492 9abe
00000310: 74b6 603c df7d ee3c 5135 ee3e b4c6 cabe
00000320: 0634 a3b7 fe5a 21bd 8bf0 913f 3514 2dbf
00000330: 85aa 283d 38ee 2a3d 01af 6dbb 7dce 2d3b
00000340: 85b9 dcbd 5dfd f43e d286 64bd 37c8 373c
00000350: a096 e0bd 5581 213e 79da 5d3e 2374 d53e
00000360: 3c33 89bd b9c8 843d 6375 bdbd ddcf 7cbd
00000370: d74b 96bf 7e37 5cbd 8f33 62bd d886 1bbf
00000380: bfb9 9fbc 36c8 bebe 111b fc3e 0bf1 d03d
00000390: 033d 043d ec01 f93e bfe2 c93d 90ef aabe
000003a0: a166 3f3f 3ed8 703e 858c d8be 64aa 8a3e
000003b0: e544 723e 8c0b 13bd 2e62 bf3b f970 acbd
000003c0: ca3e dcbe 2a9b 9ebd 9244 38be e1d5 abbc
000003d0: 3f78 7dbd 624f 2cbf 0cb6 42bf 9502 adbf
000003e0: aeeb 77bf cf88 2f3e f965 ff3e 02b0 973e
000003f0: c29b c7be 1547 07bd 6fc7 30be 9c86 833d
-0.07395179 -0.039040845 -0.095207766 0.12880965 -0.58507186 0.027033983 0.038774975 0.5090871
-0.09391813 -0.104233414 0.45140797 -0.20711301 0.23178382 0.101821154 0.2416963 0.025741238
0.15569381 0.019817771 0.35757798 -0.09277384 -0.6868641 -0.8211369 -0.46447212 -0.08666444
-0.46307838 0.069158874 0.015801582 0.015184409 -0.8643154 0.19533648 0.20869309 0.74438757
0.41788903 0.0045741987 0.16208644 -0.5045414 0.48483658 -0.043966204 0.39582995 -0.60718536
0.0001909143 0.008404886 0.928015 1.3763934 -0.0149220275 0.011675417 -0.49095583 0.012606346
-0.21066467 0.11553305 -0.17186491 -0.2224164 0.3373636 0.7072105 0.52606237 0.098162346
-0.23845755 0.17066562 0.1218158 0.025435792 -0.44738892 0.342914 0.31366512 0.44378483
-0.32834998 -0.069003984 -0.5423221 -0.04196438 -0.16594085 -0.7959178 0.28496352 -0.26681164
0.31072396 -0.16513324 0.48786148 0.078096226 0.28067207 0.5020664 -0.20762911 0.32598823
0.025518855 -0.17251441 -0.0071871644 -0.12970543 0.3978389 0.004003656 -0.5066734 0.33436623
-0.13676018 0.53409857 -0.024085056 -0.100333855 0.14942065 -0.042192105 -0.32483175 -0.5480826
-0.01502797 0.017580086 -0.06454951 -0.075241745 0.9891931 0.08478893 0.32258803 0.14485654
-1.1039493 -0.2938413 -0.16589566 -0.26092032 -0.12091221 -0.16821796 0.12583846 0.1589888
0.79365784 -0.1742293 0.57116437 0.008040492 0.5056501 0.242618 -0.16298291 -0.49202812
-0.45347705 0.16434787 0.38453722 -0.17530797 0.26549813 -0.31148267 -0.6568577 -0.6006311
0.122387685 0.5114604 0.3445656 0.1514656 0.823653 0.32631382 0.092914015 -0.12791099
0.22149214 0.09395157 -0.29692328 -0.082710296 -0.345357 0.21462601 -0.73723364 0.20426106
0.21285552 0.0019301494 0.5296876 -0.29430604 0.33567795 0.49790788 0.10639499 0.18637963
-0.036553252 -0.12437945 -0.45993793 0.07520286 0.14905803 -0.19328108 0.23817587 -0.12442747
-0.9625702 0.03487141 -0.44899595 0.3243709 -0.16548397 -0.15041034 -0.52098465 -0.06533116
-0.46344376 -0.26056007 0.25931117 0.02186387 0.34784776 0.28090104 0.46748915 0.5077519
0.21002343 -0.05878897 -0.13086797 0.38404238 0.29673332 0.7030662 -0.18480244 -0.21401946
-0.45186734 0.480375 -0.63054067 -0.16169894 0.22375542 -0.49564373 -0.060832348 -0.06478898
-0.36180624 0.2250797 0.33818164 -0.30190098 0.013715375 0.029112754 0.46525052 -0.39604723
-1.945534e-05 -0.039393418 1.1401533 -0.6760896 0.041178245 0.04173109 -0.003626764 0.0026520782
-0.107775725 0.4784955 -0.055792637 0.0112171685 -0.109662294 0.15771993 0.21665372 0.41690168
-0.06699225 0.06483597 -0.09250905 -0.06172167 -1.1741894 -0.05376386 -0.05522495 -0.6075263
-0.01949775 -0.37262124 0.492394 0.10202225 0.032284748 0.4863428 0.098577015 -0.33385897
0.74765974 0.2351999 -0.42294708 0.27083123 0.23659094 -0.035899684 0.0058405614 -0.08419985
-0.43016654 -0.07744439 -0.17994907 -0.020976009 -0.061882254 -0.6730863 -0.7605903 -1.3516413
-0.96843994 0.17142032 0.49882486 0.2962647 -0.3898602 -0.033026773 -0.17263578 0.06422159

fc1.bias f4 [128]
00000000: 18ae 893d 8424 033d a747 713e 00d7 adbd
00000010: 7987 23be 09d2 56b9 726f 5e3a 4847 213e
00000020: a98f 283e fa47 4f3e e060 893e b2e8 93bd
00000030: a778 bcbd 397c 8f3e 0bd8 813d 1e83 433d
00000040: 11f0 9fbe 1116 023e 31ca 80be 3704 713e
00000050: 39e1 033e 697c d23e 5860 a03e c63f 0f3d
00000060: b2eb 823d 6cc5 353b 5f8a 47bd c472 0bbe
00000070: 8e48 093f a1bc c8bd 91a6 9c3d bd67 a93d
00000080: 1da5 e9bb 5b09 f3ba e83e 48be 9588 a93e
00000090: 7cde 183e ebde 193d aa70 84be 3367 42bd
000000a0: e894 2cbe b8a5 4d3e aa5f 4e3c 4ab5 edbd
000000b0: af78 83be 1853 c03e d2e5 d63e 0dcc 893e
000000c0: 436a 6cbd dcca 6abc 3174 06bf 8fc3 83bb
000000d0: 1ea1 bdbd 735a 7d3e d4c7 93bd dce2 9ebc
000000e0: b10f 103f 8f3c 213e e04a a23e 3936 c13e
000000f0: 44a4 503e ccd3 c13d 4a07 a4be 569d 24bd
00000100: 3adc dfbe 8d6b b13e 45eb e63e 76c9 943e
00000110: 833f a0be bc5f a5bb 948c ab3e ac36 593d
00000120: df9e e6be c6fa f63e e452 563e 6299 b93d
00000130: 2093 aa3d d3a1 193e a51a cfbe e88e 1b3d
00000140: a5b4 d53d 679a 42bb 7ae0 723d 5cb9 7b3e
00000150: 9c8f d93e 5187 ef3d 32e0 7abe e198 833e
00000160: f1e2 66bd 854a 163e 4569 0abd ac23 053f
00000170: d51f ae3d da7d a2be b9fd 96bd 5196 dd3d
00000180: a0e7 a93e c9e5 903e b00f c43e 4931 913e
00000190: 71c9 863d e0c2 8fbd 4567 20be 25af b33d
000001a0: af21 a4bc e8ff 923e 34ea a63e 8230 c73e
000001b0: cb52 11bf f81f a53e 3051 8ebd 620c a03d
000001c0: c1f1 623e 9373 213e 9d5d c13d 4838 263e
000001d0: 742f 0abe b08c d43e 03f5 d23e 988c 8f3d
000001e0: 8efb a33d 1491 653b dc8b bfbd 7308 97bd
000001f0: d468 42ba 729e 89be db98 0dbf c5e6 1a3e
0.06722659 0.032017246 0.2356249 -0.084882736 -0.15969647 -0.00020486875 0.00084852346 0.15749848
0.16461052 0.202423 0.26831722 -0.072221175 -0.092027 0.28024462 0.06340035 0.047732465
-0.31237844 0.1270373 -0.2515426 0.23536764 0.12878884 0.41110542 0.31323504 0.03497293
0.063926116 0.002773608 -0.048715945 -0.13617998 0.53626335 -0.09801603 0.076489575 0.0827174
-0.0071302787 -0.0018542217 -0.19555247 0.33112016 0.14928621 0.037566107 -0.25867206 -0.0474617
-0.16853678 0.20082748 0.01259605 -0.11606844 -0.25678012 0.37563396 0.41972214 0.2691349
-0.057718527 -0.014330592 -0.52521044 -0.004021115 -0.09259246 0.24741535 -0.072158486 -0.019395284
0.56273943 0.15745758 0.3169775 0.3773668 0.20375162 0.09464225 -0.3203681 -0.04018911
-0.43722707 0.34652367 0.4510137 0.29059952 -0.31298456 -0.005046813 0.3350569 0.053030655
-0.45043084 0.482382 0.20930058 0.090624586 0.08328843 0.15003137 -0.40450016 0.037978083
0.10434846 -0.0029694082 0.05929611 0.24582428 0.42492378 0.116957314 -0.24499586 0.25702575
-0.056368772 0.14676864 -0.0337918 0.52007556 0.08502165 -0.31736642 -0.073726125 0.10819686
0.33184528 0.28300312 0.3829322 0.28357914 0.06581391 -0.07019591 -0.15664394 0.087736405
-0.020035593 0.28710866 0.32600558 0.38904196 -0.5676696 0.32250953 -0.06949079 0.07814862
0.22162534 0.15766744 0.094416834 0.16232407 -0.13494664 0.41513586 0.41202554 0.07009238
0.080069646 0.00350291 -0.09352848 -0.073746584 -0.00074161333 -0.26878697 -0.55311364 0.15127094

fc2.weight f4 [128, 128]
00000000: 90fe 733d 2960 24bf 5c4c 8dbd fa44 28be
00000010: 066b 0f3f 410b bfbf 88ca 083e 3b0b f8bd
00000020: 44da 793e a7d2 dc3e 6fea 773e c00e d0be
00000030: 850c 0abf 18f5 19be e764 e43e d72c 54be
00000040: 7bde b2be ba8d 0e3c 1728 bebd 0d01 1a3e
00000050: ceae 153e 00a3 c13e 5feb e73b d65c e0bd
00000060: 4286 16bc fb59 96be ee23 19bd 5a01 003f
00000070: a657 b23e b143 c03c 5c4c 303e 2cc2 89bd
00000080: 2114 32bd 1ffe 2dbf ff8e 813e 00be 6f3d
00000090: 370d 13be 879c de3d e35a 723f 53fc 79be
000000a0: 3bea 10be 6bb3 0a3e c0d0 23be d0db f23e
000000b0: 6ae8 543e b043 04bf 08d2 793e 6d4e 053d
000000c0: 780c a23e 6b2b d1be f3b1 5c3d 9cf8 9dbf
000000d0: ab31 aabd 8f13 84bd d500 8bbd 063e f43e
000000e0: c695 a73e 2be6 93be fa94 cd3d f301 53bd
000000f0: afe1 12bf e4b7 8abe c5dd 1d3c 2187 843e
00000100: af15 c4bd 97bb f93d b948 373e 102a a8be
00000110: 7cfa f63e b889 d1bf 3617 bbbb 25df 51be
00000120: 14d0 b4be 868a 24bb ad28 d13d f278 eabc
00000130: cda2 6e3d f5be 84be c1d4 0e3e 1f6f c3bc
00000140: c107 28be 1953 e63d 075d a3bc 305b c8bd
00000150: f336 ee3d 8351 3dbe 16f9 77bd fae8 e03a
00000160: 9d0c c6bf 2ff2 093d 38d2 26be eaa6 49bd
00000170: aeba c8be d3aa 0a3e 7f28 86bf 1679 37be
00000180: 2cba a13b 447f 813e 0761 c83e 32d6 fd3b
00000190: c7cd b7bd f11d 743d bf88 963e 1676 ab3e
000001a0: f316 82bf c5e2 4bbe 9b11 173e cbd8 4a3e
000001b0: 131e 93bd af9d 9fbc c363 b63e 4a96 98be
000001c0: 2b62 083d a005 6c3d c894 bc3d 9100 fe3e
000001d0: faad 9cbe 28ad 243e 87d3 c33d b4a7 853c
000001e0: f6fd 993e 366c 42bc c02d b1be c7b1 0e3f
000001f0: 5e6b 9abe 90a7 2c3e 2488 e63e e50e 83be
00000200: 91cc 733e b778 263e 56f0 55be 40df 8b3e
00000210: 81b0 46bd 5e9a 493e b71b 4cbd cad0 7c3e
00000220: b572 6dbe 97f0 14bd 34d9 433d 6bf1 763e
00000230: 4177 aa3e 9dc0 6d3e 99f7 f6bd 9c21 273e
00000240: bd38 1bbe ca6c 7b3b 4318 683d d08e 12bd
00000250: a242 54be 0918 a4bd 8e8c afbd 50da 773d
00000260: f56a a23d b5dd 4e3e 4a3e 023e c2c6 8fbe
00000270: 0a12 12be db3b 8c3e 10ac a73c e4d9 e43c
00000280: 24f1 913d ee77 033e e8d1 cd3e c529 cf3d
00000290: 8d52 003e 8d2f 943c 8943 e4be 9dc3 fcbd
000002a0: 3aa6 29be 4101 57bd 6aae 653e 6ec5 56bf
000002b0: c4eb f9be c86c d83e e955 29bd 7e55 323d
000002c0: d511 74bc 2920 073f 7fa5 1e3d ba61 033f
000002d0: e776 f03d 8052 0d3d 79b5 97bb dc32 fdbe
000002e0: ccbe 80bd b370 88bc 57fc b5bd 5a63 d13d
000002f0: 62e6 8e3e d767 373e 39ba fcbd a87e eebe
00000300: 770c 593d b273 00be 9b10 293e a505 91be
00000310: 9262 d9be 2851 c43e 7f71 153e fcd7 9fba
00000320: 248d 55be e9f1 f83d e261 cdbd d097 02bd
00000330: c485 33bc bb00 5d3e 0d11 3ebf 177b 5f3e
00000340: cc0f 793e 1384 f33d 85e1 27bd 8ea0 e33d
00000350: ea3f 8dbc 689f 2b3d 793a 293f 18db 9b3d
00000360: 8486 bb3e 9051 9cbc 4376 4ebd c06e 12bc
00000370: 3b0f 69bd d9a1 cabd 2ba4 e53d 89a2 d03d
00000380: 6fe4 b63d 9a18 46bd 9357 10be 1301 e13b
00000390: 447d 4cbe 0eff 6bbd 968e f7be 7bb2 2abd
000003a0: 46dd 0b3e d2e2 303e 92d6 9fbb a394 763d
000003b0: 6256 25be fd87 9f3d def3 7abe 9442 8dbe
000003c0: 2d90 403d a743 5c3e 6f8f d6be 5948 a2bc
000003d0: 6211 533e dad1 523d 6a34 583d cb66 f2bd
000003e0: 4129 5bbe 88e9 e83e bc10 b0be de3e a5be
000003f0: f14d a03e 448a e5be cf12 0fbf a8e6 df3d
0.05956894 -0.6420923 -0.0689933 -0.16432562 0.5602268 -1.492531 0.1335851 -0.12111517
0.24399668 0.43129465 0.24210523 -0.40636253 -0.53925353 -0.15034902 0.44608232 -0.2072023
-0.34935364 0.008700782 -0.0928499 0.15039463 0.14617464 0.37819672 0.007077619 -0.10955207
-0.009187283 -0.29365525 -0.03738778 0.5000206 0.34832495 0.023469778 0.17216629 -0.067264885
-0.043476228 -0.67965883 0.2530441 0.058530807 -0.1436051 0.10869699 0.9466993 -0.2441266
-0.14151852 0.13545005 -0.159976 0.4743333 0.20791784 -0.5166578 0.24396527 0.032545496
0.31650138 -0.40853438 0.053880643 -1.2341495 -0.08310255 -0.06449043 -0.06787268 0.4770357
0.32731456 -0.28886542 0.10038181 -0.05151553 -0.57375616 -0.27093422 0.0096353935 0.25884345
-0.09574448 0.12193983 0.17898835 -0.3284459 0.4823798 -1.6370153 -0.005709554 -0.20495279
-0.35315 -0.002510698 0.102128364 -0.028622124 0.058260728 -0.2592694 0.13948347 -0.023856698
-0.16409208 0.11246318 -0.01994182 -0.09783018 0.116315745 -0.18488126 -0.06054028 0.0017159276
-1.5472599 0.03367823 -0.1629113 -0.049231447 -0.39204925 0.13541727 -1.0481108 -0.17917284
0.0049355235 0.25292408 0.39136526 0.0077464813 -0.08974796 0.059598867 0.29401204 0.3348853
-1.0163254 -0.19910724 0.1475281 0.19809262 -0.071834706 -0.01948437 0.35622987 -0.2980216
0.033296745 0.057622552 0.09208065 0.49609807 -0.30601484 0.16081679 0.0956183 0.016315319
0.3007657 -0.01186662 -0.34605217 0.55740017 -0.3016004 0.16860795 0.45025742 -0.255973
0.23808505 0.16256987 -0.20892462 0.27318764 -0.04850817 0.19687793 -0.04983112 0.24689022
-0.23188289 -0.036362257 0.047814563 0.24115531 0.3329411 0.23218007 -0.12058944 0.16321415
-0.15158363 0.0038364404 0.056663763 -0.035780728 -0.20728543 -0.08012397 -0.085717306 0.060510933
0.07930557 0.20201762 0.12719074 -0.28081328 -0.14264694 0.27389416 0.020467788 0.02793593
0.07126072 0.12838718 0.40199208 0.10115389 0.1253149 0.01808908 -0.44582775 -0.12341998
-0.16567317 -0.05249143 0.22429815 -0.83895004 -0.48812687 0.42270494 -0.041341696 0.043538563
-0.01489683 0.5278345 0.038732048 0.51320994 0.11741429 0.034502506 -0.0046297875 -0.49452865
-0.062863916 -0.016655302 -0.08886021 0.10224028 0.27910143 0.17910706 -0.12340207 -0.46581006
0.052990403 -0.12544134 0.1651024 -0.2832462 -0.42458016 0.38343167 0.14594077 -0.0012195106
-0.20854622 0.12155516 -0.10028435 -0.03188306 -0.010957185 0.2158231 -0.7424477 0.21824299
0.24322432 0.118904255 -0.040986557 0.11114608 -0.01724239 0.04190007 0.6610485 0.07610148
0.36626065 -0.01908186 -0.050405752 -0.008937538 -0.05689929 -0.09894151 0.11212953 0.10187251
0.08930289 -0.048363306 -0.14095907 0.006866583 -0.1996966 -0.057616286 -0.48350972 -0.04167412
0.13658628 0.17274025 -0.0048778737 0.060200345 -0.16146234 0.077896096 -0.2450709 -0.27589858
0.047012497 0.21510182 -0.41906306 -0.019809889 0.206121 0.05146966 0.05278436 -0.118360125
-0.21402456 0.4549067 -0.34387767 -0.32274526 0.31309465 -0.4483205 -0.55888075 0.10932666

fc2.bias f4 [128]
00000000: 9268 513d 2000 babc 132c 363e d197 0e3e
00000010: 3fdf 1c3b 680d 013e 1673 c9bc 9a82 293e
00000020: 22c0 943c 6dd6 b83d 23e4 d93c 3488 eb3d
00000030: 7b25 203d 83b0 a9bd 6bc6 19bd 539a 203c
00000040: 26b5 51bd cc49 023d 8c8f 133d a5e7 413e
00000050: f2fe 3e3d 0df9 babc 94ea 893d 1e45 4eba
00000060: 6f5d 5c3d d768 153c e15b d53c b0bc 2e3d
00000070: d47b 26bd 7de5 223e de18 c33c 4d19 f03c
00000080: b64a 643b 3900 063e d421 b63d 53d7 043d
00000090: 8e11 793d 9137 b43d 16fc b5bd b03c 9bbc
000000a0: 0f19 10bb d05c a93d 1497 39bd b274 863c
000000b0: fe76 b93d b5bf 87bd 5ccb 9e3d 4029 5a3c
000000c0: 95b2 1f3e 3177 733c dce7 093d 7ffa fb3d
000000d0: 25c6 983d da1d 0a3e 17d5 c43d 8ed4 3b3c
000000e0: cd02 0c3e c7e2 c8bd 9c4e b53d 5585 783c
000000f0: f64c 493d 569f c53d 816a d3bd d67d 9f3d
00000100: 1f75 cebc 4c22 353c 9aa4 0f3c a6fd c73c
00000110: 2d2a 583c d492 4d3e 12be 143d 2270 fc3d
00000120: 4ce9 0c3e 8b32 b33d 74bb c23d 0858 b9bd
00000130: 35e0 0e3d 3bc8 293c a39c e33d 433d c9bd
00000140: f9e3 d23c a0a4 ddbd 02ff 4b3d 7f12 a2bd
00000150: 1aaf 10bd 0e12 acbd f662 f0bc 1d9e 123d
00000160: 3623 ad3d 2691 09bd a350 9b3d a732 453d
00000170: 39ae 1b3e 0b4a 083e c05e 253e ea4d 0d3e
00000180: b967 a2bd d0cc 263e 76a1 bd3d 74c8 813b
00000190: d016 d63d 00f3 d33d ac7f b7bc c7de 653e
000001a0: 5901 193e cb12 1a3e 1058 acbc 5fb0 833c
000001b0: a643 203e 1c7c 313d 116f 863d d4c2 b0bc
000001c0: a361 523d 5179 253e c75c 813d 38e2 263d
000001d0: 3ad2 863d 25dc 63bc 0d4c 80bd bdc3 483e
000001e0: 56fe 103e b72a 5d3d 6d25 34bd 54da a23d
000001f0: f7c2 abbd c40c b33c f9a0 b13d dae6 363c
0.051125117 -0.022705138 0.1779025 0.13925101 0.0023936776 0.1260277 -0.02459101 0.16553727
0.018158022 0.090252735 0.026598042 0.11500588 0.039098244 -0.0828562 -0.03754274 0.009802419
-0.051198147 0.03180866 0.03602557 0.18936022 0.046629854 -0.022823835 0.06734195 -0.00078685756
0.053800043 0.009119234 0.026044788 0.042660415 -0.040645435 0.15907855 0.023815569 0.02930894
0.003483457 0.13086022 0.08893171 0.03243191 0.060807757 0.08799661 -0.08885972 -0.018949836
-0.0021987592 0.08269656 -0.045310095 0.016413067 0.09055899 -0.06628362 0.077536315 0.013315499
0.15595467 0.01485996 0.033668384 0.12303638 0.07459668 0.1348795 0.09610956 0.011464251
0.13672943 -0.09808879 0.08852884 0.015168508 0.04914566 0.096495315 -0.103230484 0.07787673
-0.025202332 0.01105554 0.008767271 0.024412941 0.013193649 0.20075542 0.036314078 0.12326075
0.1376087 0.08749875 0.0950841 -0.09049994 0.03488179 0.01036268 0.111138605 -0.09826138
0.025743471 -0.10822415 0.04980374 -0.07913684 -0.03532324 -0.08401881 -0.029344063 0.03579532
0.084539816 -0.03358569 0.075837396 0.04814401 0.1520318 0.13309495 0.16149426 0.13799253
-0.0792994 0.16289067 0.09259312 0.0039606635 0.1045357 0.10349083 -0.022399746 0.22448264
0.1494192 0.15046231 -0.021038085 0.016075311 0.15650806 0.04333125 0.06564153 -0.021577276
0.051362645 0.1615956 0.06316524 0.040743083 0.06583066 -0.013907467 -0.062645055 0.19605918
0.14159521 0.053995814 -0.043981005 0.07951799 -0.08386796 0.021856673 0.08673281 0.011163438

fc3.weight f4 [204, 128]
00000000: f29f a63e 72d5 53bf 440a 813d 77a7 a0bd
00000010: e47a 17bf 3d3c 883e f364 b73e 9e3c aebd
00000020: a9f6 6cbf 7ef0 a13e 07d9 263d 96cc 19bf
00000030: 2dfe 6d3c 54a8 73bd db1a a53d 32ab f93e
00000040: 42a6 9d3d ac92 eabd 5c48 debe 1b65 99bf
00000050: e0d5 d0bc f407 223d a173 9fbe d5e1 4bbf
00000060: fbf7 2fbd 72ca 0cbf af53 023d f5de 5d3d
00000070: c9aa 41bf 05e0 bfbf 7e3a 1ebd 57a5 0fbf
00000080: ad36 c03d acec 53be 451c fdbe f811 0fbe
00000090: d33d a4bc 6e2e 42bf db99 b63e 8877 c23d
000000a0: 8c46 10bf 0c92 54bf e0f5 90be 1fcb 18bf
000000b0: ba07 a5be 8f3c 0b3d f0c8 7c3e a2bb 05bf
000000c0: 5349 d03b 8030 2ebd 554b 003d a8ab 70bf
000000d0: b7cf c53c 937a 2bbf 2f79 b83d f9bf bb3e
000000e0: 43ee ffbf 511c 373a 6004 9ebf f968 85bf
000000f0: db68 a8be 7d36 bfbe 1914 8f3d 9113 003f
00000100: 6e4e 31be 8380 8ebe 12e4 00bd 5a8d 063e
00000110: 8736 e2bd 6461 a2be 5193 20bf 66bc 14bf
00000120: 9410 2c3e 0c7f 57be a07e a83e c262 5bbc
00000130: a8fe 9cbf f9e6 843e 71df 0fbe 302e 48bd
00000140: 5b73 04be 05ce cf3e 2e33 3cbf 1c42 80bd
00000150: 54b5 06bf c77b 70bd 4155 9dbe ff3f 41bf
00000160: 97cb 2dbf 887f 84bd a051 95be 569d 07bf
00000170: 99ed 46be a8fa 0ebf 35e2 2f3e 8317 193d
00000180: 39e6 ab3d 8336 423e 9824 b23d 414c 653e
00000190: 0daf 0fbf 13c9 12bf 03ed 8cbc 408a 24be
000001a0: b693 893e de67 91be 4c75 253d 2528 273d
000001b0: f2c1 44be e811 e23e 0442 47bf 538b f9be
000001c0: e879 c33c 4786 14bf 1407 b53b 4422 063d
000001d0: 195c 6a3d c961 88bf 0576 ae3d b868 ab3c
000001e0: 4823 edbe fbd6 81bf c95b 803e dc2f 82bf
000001f0: 0c96 0fbe f957 e43e 651d 3ebf 2dc7 06bf
00000200: e768 db3e b2fc 3abf 70da cabd 5dc7 90bd
00000210: fb3c 65be 9e6a 683e b59e 113e d1da 5fbe
00000220: 93af 3ebf 15cf 8a3e 4ffa afbd 74cb 07bf
00000230: 9503 743d c6cb 6dbd e476 c7bc df3e 8e3e
00000240: 8113 5c3d af82 143d 6375 8dbe 08f8 8abf
00000250: 587c 3b3d 7b2e b3bb b2ce 7fbe cffb 28bf
00000260: 72e2 7a3b 3cf4 17bf 7dad 7e3c a192 9e3d
00000270: 1fa4 09bf 03c1 97bf dc49 933d 775b 8bbe
00000280: 083f 9e3e 7908 d7bd 9aa0 8dbe 3738 82be
00000290: f1d2 2c3d 8bc2 4abf bb2c ac3e 91ec 4a3e
000002a0: 396e 43bf a9b0 2bbf 5fc6 bebe ec55 abbe
000002b0: 5fd6 2fbd 4910 d83e 6a0c 483e d5a7 06bf
000002c0: 0d72 263d 1aa5 40bc 5583 1cbd 7187 73bf
000002d0: 9926 dfbc 2347 3ebf c16f 273e e185 8b3e
000002e0: 0e97 c5bf 1c4b ccbc f5b5 9ebf f329 76bf
000002f0: ee5d 26be b6d6 da3c f81f d9bc 1afa 013f
00000300: 3e9e 68bd 4b13 c3be 9434 a9bd 4ed8 2e3e
00000310: 0cac 753d 21e1 0ebe 70b3 b7be af64 5abf
00000320: 5cf8 11bd 7d55 a3be deb4 aa3e ce77 2a3b
00000330: e823 85bf 6fbe c93c eda5 a0be 118f f13c
00000340: 3d4f 9bbd c029 cc3e ff79 33bf f684 05bd
00000350: da28 62bf 8053 fa3c 0dcd 2bbe 3f09 58bf
00000360: 8e1b 1bbf d2e5 26bd 93b3 21be 7c25 39bf
00000370: f695 47be 2fd2 5dbf c83b 703e 9c95 9b3d
00000380: bfae a83d 0810 8d3d aabb 273e 9c55 85bc
00000390: d3b0 1cbf 2063 23bf ec3b 653c dab0 2cbe
000003a0: 71f0 783e 0259 b5be 34aa 5bbd 9880 24be
000003b0: 2f79 6ebd 5d64 923d 0bda 11bf d438 c1be
000003c0: 7732 af3d 4686 cbbe 77f1 46be feff 4b3b
000003d0: a29c 663c f836 1ebf efb0 cabc 4b40 24be
000003e0: 263f 86be 7e31 5cbf b1a0 393e fb02 1abf
000003f0: 6a75 4a3d fff9 bd3e 54e0 20bf e197 97be
0.32543904 -0.82747567 0.06300786 -0.078444414 -0.5917189 0.26608458 0.35819206 -0.085076556
-0.92563874 0.31628793 0.040734317 -0.600778 0.014525932 -0.059486702 0.08061763 0.48763424
0.07697727 -0.11453757 -0.4341458 -1.198398 -0.025492609 0.039558366 -0.31142905 -0.7964147
-0.042961102 -0.5499641 0.03181809 0.054167707 -0.7565122 -1.499024 -0.03863 -0.56111664
0.093854286 -0.20695752 -0.4943563 -0.13971698 -0.020049011 -0.75852096 0.35664257 0.09495455
-0.56357646 -0.8303535 -0.28312588 -0.5968494 -0.32232457 0.0339933 0.24686027 -0.5223943
0.006356397 -0.042526722 0.031321842 -0.94011927 0.024146898 -0.6698391 0.09007489 0.366699
-1.9994587 0.00069851155 -1.2345085 -1.042266 -0.32892498 -0.3734626 0.06986255 0.50029856
-0.17315075 -0.27832422 -0.031467505 0.13139859 -0.110455565 -0.31714928 -0.62724787 -0.58099973
0.16803199 -0.21044558 0.32909107 -0.013390245 -1.2265215 0.25957468 -0.1405008 -0.048872173
-0.1293463 0.40586868 -0.73515594 -0.06262609 -0.52620435 -0.058711793 -0.30729106 -0.75488275
-0.6788878 -0.06469637 -0.29163837 -0.5297445 -0.19426574 -0.5585122 0.17176135 0.03737594
0.08393521 0.18966107 0.08698386 0.2239237 -0.5612648 -0.57338065 -0.01720286 -0.16068363
0.26870507 -0.28399557 0.040395066 0.04080977 -0.1921461 0.44154286 -0.77835107 -0.48739108
0.02386184 -0.5801739 0.0055245254 0.032747522 0.057216737 -1.0654842 0.08518604 0.020923957
-0.4631598 -1.0143732 0.25070027 -1.0170856 -0.14022082 0.44598368 -0.742636 -0.5264767
0.42853472 -0.7304183 -0.09904945 -0.070692755 -0.22386543 0.22696921 0.14220698 -0.21860816
-0.74486655 0.27111116 -0.085926645 -0.5304482 0.05957373 -0.05805566 -0.024348684 0.27782342
0.053729538 0.036257442 -0.2762862 -1.0856943 0.04577288 -0.0054681874 -0.24981192 -0.6600923
0.0038281945 -0.5935705 0.0155442925 0.07742811 -0.53766054 -1.1855778 0.07191822 -0.2721822
0.30907464 -0.10499663 -0.27661592 -0.25433514 0.042193357 -0.792031 0.33627877 0.19816805
-0.7634006 -0.67066437 -0.3726072 -0.3346399 -0.04292905 0.42199925 0.19535986 -0.5259984
0.04063611 -0.011758113 -0.038211185 -0.9512854 -0.027240084 -0.74327296 0.16351224 0.2725058
-1.5436723 -0.024938159 -1.2399279 -0.9615776 -0.16246769 0.02671371 -0.026504502 0.5077225
-0.056791537 -0.38100657 -0.082619816 0.17074701 0.05997853 -0.13953067 -0.35879087 -0.8530988
-0.035637245 -0.3190116 0.33341116 0.002601135 -1.0401583 0.024626939 -0.3137659 0.029487165
-0.07583473 0.39875603 -0.70108026 -0.032597505 -0.88343585 0.030557394 -0.1677744 -0.8438911
-0.6058892 -0.040746517 -0.15791158 -0.7232282 -0.194908 -0.8664884 0.23460305 0.07596895
0.08236455 0.06887823 0.16380182 -0.016276173 -0.6120731 -0.6382313 0.013991337 -0.16864339
0.24310471 -0.3541947 -0.053629115 -0.1606468 -0.05822104 0.07148049 -0.5697333 -0.3773867
0.08554547 -0.3975088 -0.19428049 0.0031127925 0.01407543 -0.61802626 -0.024742572 -0.16040151
-0.26220053 -0.8601302 0.18127705 -0.601608 0.04942838 0.37104794 -0.628423 -0.29608062

fc3.bias f4 [204]
00000000: 5250 2dbe 6951 0a3d c265 95bd d4b4 b6bd
00000010: 7b1e 403d 70d6 a0bd cefe 073d 7c84 f7bd
00000020: d1b5 f1bd bb89 b6bd b2f3 dabd 599f 8bbd
00000030: 117d babc 7a23 dfbd 2170 18bd 7668 21be
00000040: b89f 50bd 6dfe a3bd 76f0 42be f17c f3bd
00000050: 072b 24bd 264c 82bd ce92 23be 0245 a9bc
00000060: 0d40 8cbd 34dc 8fbd 93d3 9f3c 59b0 1bbc
00000070: 702f dbbb a291 1ebd 0679 6dbb 05a3 3bbd
00000080: 1449 4d3a 1617 3e3d 7bf9 703d 4ca5 453d
00000090: 3bf1 973d a195 c63d d91e 6d3d a24e 983d
000000a0: fc26 a43d 5869 cf3d 176c 683d d953 1a3e
000000b0: c683 093e 7f4f a33d 31de 063e 0962 063e
000000c0: 47ae ce3d b1ab 27bc d0d5 56be 6a10 0a3d
000000d0: 7d8a 993d d39d c33b 9ebe 01bc 95e9 d03d
000000e0: 6b39 ca3d c003 0f3e aa2a 3a3d b926 683d
000000f0: 5ad7 f03d f6b2 023e c728 8f3d e35a 713d
00000100: 841e 3fbc b424 9d3d 44df 803d caf7 2539
00000110: b953 913d 5409 63bc 1f33 323a 31b6 123d
00000120: 3107 f3bc ac64 c7bd 2258 19bc 4665 17bd
00000130: 02b2 93bd 2fb0 dfbd 1601 aabd 3c7a fabd
00000140: 250c 8ebd 350a 5dbd cb38 1bbd e22b 22bd
00000150: f9d4 c23c a91e 763c 449f 77bc 4206 00ba
00000160: 88d4 103d dbe5 ac3d 9c15 333d db28 393d
00000170: da3a 6d3d 340b 2b3d 8d70 6c3d 6019 113e
00000180: 0d1e 7a3c e282 e73d d5de d33c 1055 dd3d
00000190: 18fa 593c c527 10be 5a48 a93d d1f1 153d
000001a0: 0c48 ed3b 3e9c 453d 85b0 723d ab58 163c
000001b0: e60f a03b f79b f53c 4876 a83d 98b4 01bc
000001c0: fce4 10bc 2c9e db3b 17b4 3fbc 88fb 993c
000001d0: 41cd f5bc 4653 fabc bf46 94bc 3006 22bd
000001e0: f80a 74bc 60d4 13bd 2b97 c33c 9fd0 d9bd
000001f0: 9a9c 0ebe 42aa 2cbe 10fc 18be 4468 0abd
00000200: 8b5d c3bd 65d0 e5bd 2bd5 a3bd 4fdd 27bd
00000210: 37c0 80bd 835c 1dbd 3a3e 27bd a829 8a3c
00000220: 7616 d43c 3df4 923d 71ff a03d 1799 113d
00000230: 206b ce3d f9d6 123c 0ac4 9e3d b838 173d
00000240: 7b67 a73d 16e7 2c3d 303c ba3d b577 c13d
00000250: 6be9 d83d db01 473d 73b5 603d a6cd 4dbd
00000260: 735a 0abe 7568 5fbe fee1 783b 5b32 bdbb
00000270: 5b3d 963d e1a7 01bc 8f31 9e3d c4f0 9c3d
00000280: 4a3a c3bc ff24 ebbc b899 1e3d f4f3 3f3c
00000290: dc61 cbbb c1a0 1ebd 8914 db3d 9c66 b93d
000002a0: 63f4 073d c682 c1bc 8c3c b83a 4533 233d
000002b0: 3d62 c13c cbd3 f9bb 5639 9d3d 4fe3 483a
000002c0: 9ffc 98bb 7d5c 883a 4568 c13d 6502 c33c
000002d0: 9036 45bb d44e 1b3b 7e34 f33c 2837 c9bd
000002e0: 566e 06be a5c6 c1bd e419 d3bd 5609 54bd
000002f0: 4046 353d 08cc 42bd 000f bfbc 2760 05bc
00000300: 41c7 0fbc 50c6 9e3c 2170 85bb cff9 ea3c
00000310: d0a4 ed3d d4e0 413d 5f56 233d bdaa e23d
00000320: a5e8 853d 8836 f03d b93c 9d3c cf88 88bc
-0.16925171 0.033769045 -0.072947994 -0.08921209 0.04690407 -0.07853401 0.033201985 -0.12085816
-0.11802257 -0.08912989 -0.106910124 -0.068175025 -0.022764714 -0.108954385 -0.03721631 -0.15762505
-0.05093357 -0.08007512 -0.19037041 -0.11889065 -0.040080097 -0.063621804 -0.1597397 -0.020662788
-0.06848154 -0.07024422 0.019510066 -0.009502494 -0.0066890046 -0.038713105 -0.0036235466 -0.045809764
0.0007831019 0.046408735 0.058831673 0.048253343 0.07419058 0.09696508 0.057890747 0.07436873
0.08015248 0.101275146 0.056743708 0.15071048 0.13429174 0.07974147 0.13170697 0.13123335
0.100918345 -0.0102338055 -0.2098 0.03370706 0.07497118 0.005969742 -0.007918982 0.10200802
0.09874233 0.13966274 0.045450844 0.056677554 0.11759825 0.1276358 0.069901995 0.058924567
-0.01166499 0.07673016 0.062925845 0.00015827935 0.07096047 -0.0138572045 0.0006797779 0.035818283
-0.029666515 -0.097359985 -0.009359391 -0.036961816 -0.07211687 -0.10922276 -0.083009884 -0.122303456
-0.0693591 -0.053964812 -0.03789596 -0.03959263 0.023783194 0.015021958 -0.0151136555 -0.0004883745
0.035358936 0.08442279 0.04372178 0.04520498 0.057917453 0.04175873 0.057724524 0.14169836
0.015265954 0.11304261 0.02586309 0.1080724 0.013304256 -0.14077671 0.08265753 0.036607567
0.0072412547 0.048244707 0.059250373 0.0091764135 0.0048847077 0.029981596 0.08225685 -0.007916592
-0.008843657 0.006702205 -0.011700652 0.018796697 -0.0300051 -0.030557286 -0.01810014 -0.039556682
-0.014895193 -0.03609121 0.023875793 -0.106354944 -0.13926926 -0.16861823 -0.14939904 -0.03379084
-0.09539326 -0.11221389 -0.07999643 -0.04098254 -0.06286662 -0.038418304 -0.04083083 0.016865566
0.025889616 0.07175491 0.078612216 0.03554639 0.10079026 0.008962386 0.07752235 0.036919326
0.08174034 0.04221257 0.09093511 0.094466604 0.10591396 0.048585754 0.054860543 -0.05024495
-0.13511066 -0.21817191 0.0037976499 -0.005773825 0.073359214 -0.007913561 0.07724296 0.0766311
-0.023831505 -0.028704165 0.038720816 0.011715878 -0.006206734 -0.038727526 0.10697276 0.09052774
0.03319205 -0.023621928 0.001405613 0.039843816 0.023606414 -0.0076241246 0.076769516 0.0007663266
-0.0046687867 0.001040354 0.09443716 0.023804853 -0.0030092336 0.0023698108 0.029688116 -0.09824973
-0.13128027 -0.094617166 -0.103076726 -0.051766716 0.04425645 -0.04755786 -0.023322582 -0.0081406
-0.008775533 0.019381672 -0.0040722047 0.028683571 0.11603701 0.047333553 0.03987729 0.11067722
0.06538514 0.11729151 0.019193994 -0.016666798
