benchmarks/HalfCheetah-v2/Test_halfcheetah-expert-v2_BCQ_20230429-213530/models/actor_target_checkpoint.pt (torch, 529303 bytes, 6 tensors)

layers.0.0.weight f4 [400, 23]
0	0x3ec476db	0.3837193
1	0xbd9322b4	-0.071843535
2	0x3f0fde8e	0.56198967
3	0x3f01fb67	0.50774235
4	0x3e1e4711	0.15456797
5	0xbf30f0ba	-0.6911732
6	0xbe922284	-0.28541958
7	0xbea24e15	-0.31700197
8	0x3da9ba9c	0.08287546
9	0x3bfb504a	0.0076694833
10	0x3d333ec6	0.043761037
11	0x3dcf4c96	0.101220295
12	0x3daa664e	0.08320294
13	0xbe0a0f24	-0.13482338
14	0x3db36bcf	0.08760797
15	0x3d70c55e	0.058781974
16	0x3e2e1ff9	0.17004384
17	0xbed6fe68	-0.41990972
18	0x3da4223d	0.08014343
19	0xbef4aa8f	-0.47786376
20	0x3da8c6d8	0.082410514
21	0x3e7a88c9	0.24466242
22	0x3f17828d	0.5918358
23	0xbecc8db8	-0.39951873
24	0xbd084aab	-0.033274334
25	0x3e1a5d8a	0.15074745
26	0xbc764fbe	-0.01503366
27	0xbebfc4f4	-0.3745495
28	0xbe9e8a75	-0.3096501
29	0xbedb4868	-0.4282868
30	0xbe537b71	-0.20652558
31	0xbeabedfc	-0.33580005
32	0x3dc6e3b5	0.097114004
33	0x3ce0ae18	0.027426764
34	0xbea599a7	-0.3234379
35	0xbe436899	-0.1908287
36	0x3d6a732d	0.057238746
37	0xbe6982e2	-0.22803834
38	0xbe414f47	-0.18877898
39	0xbe9c5c09	-0.30538967
40	0xbe6479ff	-0.22312163
41	0xbedd043d	-0.43167296
42	0xbe6f9121	-0.23395206
43	0x3d948943	0.07252743
44	0xbd7b9c63	-0.06142844
45	0x3d52279a	0.0513073
46	0xbe93d75e	-0.2887525
47	0xbe854375	-0.26028028
48	0xbe383b6a	-0.17991415
49	0x3d8d87d5	0.069106735
50	0xbee9534e	-0.4557137
51	0x3ce8849f	0.028383551
52	0xbef7cb3d	-0.48397246
53	0xbdfced7c	-0.12349984
54	0xbe8dc7e9	-0.27691582
55	0x3e4f5f08	0.20251095
56	0xbe84de1b	-0.25950703
57	0x3d0f950a	0.035054244
58	0xbdf71972	-0.120654
59	0x3cfa3934	0.030544855
60	0x3d6110e8	0.054947764
61	0xbe13e14b	-0.14441411
62	0xbd5d49ed	-0.05402558
63	0x3cf7898d	0.030216957
64	0x3d0d4976	0.034493886
65	0xbe966297	-0.29372093
66	0xbdfe90b9	-0.124299474
67	0xbe2921aa	-0.16516748
68	0xbe7c6040	-0.24646091
69	0x3ebbf5dc	0.36711013
70	0x3e711b14	0.23545486
71	0x3e243d55	0.16039021
72	0x3e6f1318	0.23347127
73	0x3f33a44e	0.70172584
74	0x3e3c1b9a	0.18369904
75	0xbdaf28d1	-0.08552707
76	0x3dd3b3e7	0.10337048
77	0x3e41c865	0.189241
78	0xbe111148	-0.14166749
79	0xbde83484	-0.113381416
80	0x3ce1b59c	0.027552418
81	0xbde54ec0	-0.11196661
82	0x3d71133b	0.05885623
83	0x3c857c7c	0.01629471
84	0xbda9278b	-0.08259495
85	0x3d442a70	0.047892034
86	0xbd7dc740	-0.061957598
87	0x3e0eab4e	0.13932535
88	0x3ed2a6ef	0.41142985
89	0x3e41bbf5	0.18919356
90	0xbd59d795	-0.05318411
91	0x3e31a568	0.17348254
92	0x3e89f7d2	0.26946884
93	0x3cbc6340	0.022996545
94	0x3efd2a14	0.49446166
95	0x3eda5f98	0.42651057
96	0x3ef78a09	0.483475
97	0xbf35a181	-0.7094956
98	0xbe7cdff8	-0.24694812
99	0xbcdcbeb3	-0.026946401
100	0xbce4602c	-0.02787789
101	0x3e0e36e6	0.1388813
102	0x3e8e7894	0.2782637
103	0xbd9e11ea	-0.077182606
104	0x3e564fee	0.20928928
105	0x3d949259	0.07254476
106	0xbd162f42	-0.036666162
107	0x3dc77c8d	0.09740553
108	0x3db55d6a	0.08855708
109	0xbebeba9b	-0.37251744
110	0xbe569061	-0.20953514
111	0xbd9d893c	-0.07692191
112	0x3ee9c039	0.45654467
113	0x3ec38ee5	0.38194957
114	0x3ee4e4cd	0.4470581
115	0xbe06c4c9	-0.13161005
116	0xbe55657c	-0.20839494
117	0xbda6e93c	-0.08149955
118	0x3d84cf25	0.06484822
119	0x3dadae50	0.08480513
120	0xbe431170	-0.1904962
121	0x3be77630	0.0070636496
122	0xbef30abf	-0.47469136
123	0xbd36df22	-0.04464639
124	0xbe02cb90	-0.12772965
125	0xbd94fd53	-0.0727488
126	0xbd823d24	-0.06359318
127	0xba562b9d	-0.0008169951
128	0xbde0a41c	-0.109688014
129	0xbe04a6fa	-0.12954322
130	0xbe4b6862	-0.19864038
131	0x3bb9b5c5	0.0056674206
132	0x3ea342c2	0.3188687
133	0xbc9757f3	-0.018474555
134	0x3ea66533	0.32499084
135	0xbeea6bf8	-0.457855
136	0xbf170a92	-0.59000504
137	0x3da870e0	0.08224654
138	0x3e8774fd	0.26456442
139	0x3e822a38	0.25422835
140	0xbe00c85d	-0.12576433
141	0xbf080c07	-0.5314335
142	0xbe2d25c8	-0.16908944
143	0x3f319e21	0.6938191
144	0x3ebde0a3	0.37085447
145	0x3c86a975	0.016438225
146	0x3ec2d141	0.38050273
147	0xbed26b7a	-0.41097623
148	0xbe738c22	-0.23783925
149	0x3c317d88	0.010833152
150	0x3dc8383d	0.097763516
151	0x3e07a9fc	0.13248438
152	0xbcffa88a	-0.031208295
153	0x3dc91fbf	0.09820508
154	0x3d9bb738	0.076033056
155	0x3f0d9969	0.5531221
156	0x3dd5694b	0.10420474
157	0x3f076d22	0.529009
158	0xbec23a83	-0.37935266
159	0xbed26a68	-0.41096807
160	0xbecfbe98	-0.405751
161	0xbeb2970f	-0.34880874
162	0x3e2dd007	0.16973887
163	0xbeaf1c73	-0.34201393
164	0xbf0b2fee	-0.5437001
165	0xbeb9321c	-0.36171043
166	0x3e649f62	0.22326425
167	0xbc054d2d	-0.008136076
168	0xbe9172b9	-0.2840784
169	0xbe622bb1	-0.2208698
170	0xbd211b66	-0.03933277
171	0xbc131f5d	-0.008979646
172	0x3d2dbce0	0.042416453
173	0xbc999f2e	-0.01875266
174	0xbda3a67c	-0.07990739
175	0xbcba489c	-0.022739701
176	0xbe724ab3	-0.23661308
177	0xbdd031f6	-0.10165779
178	0x3ebd6449	0.36990574
179	0x3e58f169	0.2118584
180	0x3c85c0c3	0.016327268
181	0xbee49c88	-0.44650674
182	0xbeb9401a	-0.36181718
183	0xbebee179	-0.37281397
184	0xbe00b15a	-0.12567654
185	0xbd8ba4e8	-0.06818563
186	0xbe4fcfc2	-0.20294097
187	0x3eb47d43	0.35251817
188	0x3b1c7e15	0.0023878862
189	0x3eba2524	0.3635646
190	0x3d665a94	0.056238726
191	0x3e90f179	0.2830923
192	0xbd34f27b	-0.04417656
193	0xbe472cf6	-0.19450745
194	0x3c954694	0.01822213
195	0x3c05cad0	0.00816603
196	0x3dd50803	0.10401919
197	0xbe780ae8	-0.2422291
198	0xbdab13f6	-0.083534166
199	0xbdf07abb	-0.11742159
200	0x3db06061	0.08612133
201	0x3e8d911b	0.2764977
202	0xbdcdc902	-0.10048105
203	0x3f0357b7	0.5130572
204	0xbe01c174	-0.12671453
205	0xbe2bd95f	-0.16782139
206	0x3d615777	0.055015054
207	0xbda1c7d8	-0.07899445
208	0xbea03b88	-0.3129542
209	0x3e8f3253	0.27968082
210	0x3e7e633c	0.24842542
211	0xbe03832d	-0.12843008
212	0xbe0dc113	-0.13843183
213	0xbe9879ec	-0.2978052
214	0xbe0ebd8d	-0.13939495
215	0xbea47c9f	-0.32126328
216	0x3e88e889	0.2673991
217	0x3e0a4296	0.13501963
218	0xbe4a5cb5	-0.19761927
219	0xbe036ff2	-0.12835672
220	0xbd63bbdb	-0.055599075
221	0x3e2afa9e	0.16697165
222	0xbe190c1a	-0.14946023
223	0x3cc11394	0.023568906
224	0xbe1abe5d	-0.1511168
225	0xbc9cee82	-0.019156698
226	0xbe8f1414	-0.27945006
227	0x3e71bb41	0.23606588
228	0x3d8f4510	0.069955945
229	0x3d49b479	0.049244378
230	0xbe386617	-0.18007694
231	0xbdf36fef	-0.11886584
232	0x3f0bef88	0.5466237
233	0x3e66c3e4	0.22535664
234	0xbcc08b50	-0.02350393
235	0xbe694e49	-0.2278377
236	0xbf0d266a	-0.5513674
237	0x3d5e1502	0.054219253
238	0xbe1fd9c6	-0.15610418
239	0x3ea68506	0.32523364
240	0x3ea40aed	0.32039586
241	0xbdea6f74	-0.11447039
242	0x3da98f3a	0.082792714
243	0x3e1ce90d	0.15323277
244	0xbcff35dc	-0.031153612
245	0x3deba71d	0.11506484
246	0x3cd48fcf	0.02594748
247	0xbf2d17e4	-0.6761458
248	0xbded3879	-0.11583037
249	0xbf235273	-0.6379768
250	0x3ee6a147	0.4504492
251	0x3f3100d5	0.69141895
252	0x3f42c8bb	0.7608754
253	0xbd6a07bc	-0.057136282
254	0x3e2a161c	0.16609997
255	0xbe757677	-0.23970972

layers.0.0.bias f4 [400]
0	0x3e08c017	0.13354526
1	0x3dfc9231	0.12332571
2	0xbc269c7e	-0.010169147
3	0xbf02a5fe	-0.51034534
4	0x3e7f90c3	0.24957566
5	0xbd575e55	-0.052580196
6	0xbd8b0e50	-0.06789839
7	0x3df65f60	0.1202991
8	0xbee02197	-0.43775627
9	0x3d7a9682	0.06117869
10	0x3f2227c2	0.63341916
11	0xbe69004e	-0.22754022
12	0x3ccb0d94	0.024786748
13	0xbe8b54c4	-0.2721311
14	0x3e4f8062	0.20263818
15	0xbcc01b2f	-0.023450462
16	0xbe332b1a	-0.1749691
17	0x3e9ef176	0.31043595
18	0x3e6d0343	0.23145775
19	0xbd53d002	-0.051712044
20	0xbd8fb8e1	-0.07017685
21	0x3da71ad4	0.08159414
22	0xbe3b1f1e	-0.18273589
23	0xbf09fcc9	-0.53901345
24	0xbdb4a1c1	-0.088199146
25	0x3e810e0a	0.25206023
26	0x3e25366c	0.16134042
27	0x3da2896d	0.07936368
28	0xbdaf847b	-0.085701905
29	0xbdf36982	-0.118853584
30	0xbe93424c	-0.28761518
31	0xbe4cc878	-0.19998348
32	0xbeb17869	-0.34662178
33	0xbd0347a6	-0.03205075
34	0x3f01bf3a	0.50682414
35	0xbee4f5fa	-0.44718915
36	0x3e5c7f20	0.2153287
37	0xbe75b286	-0.23993883
38	0x3e15ac6f	0.1461656
39	0xbb26e02e	-0.0025463211
40	0xbe949682	-0.29021078
41	0xbda0a5d4	-0.07844129
42	0x3cdd3a78	0.02700542
43	0xbed66e42	-0.41880995
44	0x3e36094e	0.17776987
45	0x3e31c764	0.17361218
46	0xbca5efae	-0.02025589
47	0x3e14dc12	0.14537075
48	0xbe240e03	-0.1602097
49	0x3ed7d5db	0.42155346
50	0x3de9da90	0.114186406
51	0xbe9580e3	-0.29199895
52	0x3e4f6f02	0.2025719
53	0xbe1a7b7d	-0.1508617
54	0x3dfb2c8b	0.12264355
55	0xbdb6fb83	-0.08934691
56	0x3ebf4c1f	0.37362763
57	0x3f18644c	0.5952804
58	0x3f4a3e47	0.7900128
59	0x3e11ad42	0.14226249
60	0x3e8de177	0.2771108
61	0x3be2ac58	0.0069175176
62	0x3e866e9b	0.2625626
63	0xbee4b451	-0.4466882
64	0xbe58d84d	-0.21176262
65	0xbe8505aa	-0.25980884
66	0xbe84e3cb	-0.25955042
67	0xbcc138a9	-0.023586588
68	0x3eeffb36	0.46871346
69	0xbe4222bf	-0.18958567
70	0x3e8b2f18	0.27184367
71	0x3e3c0e90	0.1836493
72	0x3f24e9ee	0.6441945
73	0xbe04f002	-0.1298218
74	0xbd3f77d0	-0.04674512
75	0xbe82b834	-0.2553116
76	0x3d458c5a	0.048229553
77	0xbe853ba4	-0.26022065
78	0xbe84232a	-0.25808078
79	0xbebff438	-0.37491012
80	0xbe17ff70	-0.14843535
81	0xbdb5504b	-0.08853205
82	0xbedf30f0	-0.43592024
83	0xbea716e1	-0.32634643
84	0xbd40f632	-0.04710979
85	0xbe878003	-0.26464853
86	0xbdafa0db	-0.085756026
87	0xbbbe3435	-0.0058045634
88	0xbe7c7a79	-0.24656095
89	0xbeb4739a	-0.35244447
90	0x3f054e83	0.52072924
91	0x3de2a7df	0.11067175
92	0xbecfa7a9	-0.40557602
93	0xbe9d265b	-0.30693325
94	0x3e1c4167	0.15259324
95	0x3d9c815a	0.07641859
96	0xbe822105	-0.25415817
97	0xbe909993	-0.28242168
98	0x3da756ef	0.08170878
99	0xbe2b2a30	-0.16715312
100	0x3ec987ff	0.3936157
101	0x3b3a3ed0	0.0028418787
102	0xbe541577	-0.20711313
103	0xbd03606b	-0.032074373
104	0xbea33206	-0.31874102
105	0xbee0f8ff	-0.4393997
106	0x3d7f8f76	0.062392674
107	0x3dfb1d4d	0.12261448
108	0xbec72b76	-0.38900346
109	0x3e3cb620	0.1842885
110	0xbed1c09a	-0.40967256
111	0x39d879e2	0.0004128954
112	0xbb5fbc73	-0.0034139424
113	0x3f0696f5	0.5257409
114	0xbde19db7	-0.1101641
115	0x3de5d4ea	0.11222251
116	0xbee1ce8e	-0.441029
117	0xbd13ff5d	-0.036132205
118	0x3df6940f	0.12039959
119	0xbd070515	-0.03296383
120	0x3d98c829	0.074600525
121	0xbe248ad3	-0.16068582
122	0x3ef09122	0.46985728
123	0xbe099089	-0.13434042
124	0xbc971c38	-0.018446073
125	0x3e40ee03	0.18840794
126	0xbc1071cb	-0.008816193
127	0xbd7fd986	-0.062463306
128	0xbeb44327	-0.35207483
129	0x3d5658fa	0.05233095
130	0x3e24d34d	0.1609623
131	0xbed9f330	-0.4256835
132	0x3e9938d1	0.2992616
133	0x3ec8a88d	0.39191094
134	0x3f0c0fcf	0.5471162
135	0xbd1e50dc	-0.038651332
136	0xbcc347e9	-0.023838
137	0x3e1709f3	0.14749889
138	0x3dbd6b96	0.09249036
139	0xbe46f705	-0.19430168
140	0xbd918464	-0.0710533
141	0xbe046ead	-0.12932844
142	0x3d5fbf06	0.054625534
143	0xbde3c8c3	-0.11122277
144	0xbdcd4491	-0.10022844
145	0xbec00ba9	-0.37508896
146	0x3e2eba32	0.17063215
147	0x3d2b891c	0.041878805
148	0x3d4b7aaa	0.04967753
149	0x3e01a5c9	0.12660898
150	0xbe59286f	-0.2120683
151	0x3e8e321b	0.27772602
152	0x3e72c8d8	0.23709428
153	0x3dc99160	0.09842181
154	0xbea9597d	-0.33076087
155	0xbe1837ed	-0.14865084
156	0x3ee42c56	0.44565076
157	0xbf0783fd	-0.52935773
158	0x3e887548	0.26651978
159	0x3e2f925f	0.1714568
160	0xbee205e4	-0.4414512
161	0xbe945660	-0.2897215
162	0x3de180a4	0.110108644
163	0x3d710654	0.058843926
164	0xbc06fff8	-0.008239739
165	0xbc8ddad6	-0.017316263
166	0x3d9903cb	0.074714266
167	0x3e9a2ea3	0.30113706
168	0xbd2ae1be	-0.04171919
169	0x3c0c89cf	0.008577778
170	0xbef88ed6	-0.48546475
171	0xbe10071c	-0.14065212
172	0xbd249608	-0.040182143
173	0x3eb0586a	0.34442455
174	0x3dcc6bc1	0.0998149
175	0xbe7805f5	-0.24221022
176	0xbeaca07c	-0.3371619
177	0xbebb0f06	-0.365349
178	0xbc7b7f4e	-0.015350176
179	0xbee1b7c7	-0.44085523
180	0x3d1368b2	0.035988517
181	0x3d30db23	0.043177735
182	0x3e8b5319	0.27211836
183	0x3e403f92	0.1877425
184	0x3c8c7d21	0.01714951
185	0x3e246dff	0.16057585
186	0x3df9019d	0.12158511
187	0xbd8cc45a	-0.068733886
188	0xbdabd200	-0.08389664
189	0x3c523ab6	0.012831381
190	0xbe591281	-0.21198465
191	0x3dee94b7	0.11649459
192	0xbd3dd157	-0.04634222
193	0xbd6b30bb	-0.05741952
194	0x3f0a0c59	0.5392509
195	0x3eefe950	0.4685769
196	0x3ea238ca	0.31683952
197	0xbba92cfe	-0.005162834
198	0x3dcff28f	0.10153686
199	0x3ea437f3	0.32073936
200	0x3ea63dab	0.32468924
201	0xbd61694a	-0.055032052
202	0xbdc1e4b0	-0.09467447
203	0xbe6c3f95	-0.2307113
204	0x3e6d1aee	0.23154804
205	0xbe148ca9	-0.14506783
206	0xbe3a7085	-0.18206985
207	0xbe03cf6e	-0.12872097
208	0x3d262e96	0.04057177
209	0x3ed9a74a	0.42510444
210	0x3dd92aaa	0.10603841
211	0xbe66483f	-0.22488497
212	0xbe20b853	-0.15695314
213	0x3e966d42	0.29380232
214	0xbef2ec53	-0.47445926
215	0xbedc134a	-0.42983466
216	0xbe6e7adf	-0.23289059
217	0x3e43a6d4	0.19106609
218	0x3e6bb029	0.23016419
219	0xbee4c4f9	-0.44681528
220	0xbdfd8e69	-0.12380678
221	0xbd58d8db	-0.052941184
222	0x3eaaf7a2	0.33392054
223	0x3e69ed52	0.22844437
224	0xbc24f999	-0.010069274
225	0x3d3a52ba	0.04548905
226	0x3ebe07bc	0.37115276
227	0xbdc2a740	-0.09504557
228	0xbc9379f2	-0.018002484
229	0x3dcae713	0.09907355
230	0x3f3c63b1	0.73589617
231	0xbec5b091	-0.38611272
232	0x3e6089b4	0.2192753
233	0x3e0a3c88	0.13499653
234	0x3eafbc8c	0.34323537
235	0xbe53904a	-0.2066051
236	0xbce96897	-0.028492255
237	0xbdc2b145	-0.09506468
238	0x3e3e2212	0.18567684
239	0xbcba8f2d	-0.02277335
240	0xbe651f06	-0.22375116
241	0x3d70ddea	0.058805384
242	0x3dcfd7ca	0.1014858
243	0x3d74b729	0.059744988
244	0x3da00cb1	0.07814921
245	0xbdb59d47	-0.08867889
246	0xbec49c93	-0.38400707
247	0xbe8bfd31	-0.27341607
248	0xbd8922b9	-0.06696076
249	0x3e1ed9d6	0.15512785
250	0x3d8a877e	0.06764124
251	0xbe0ae5c1	-0.13564207
252	0x3ed2f827	0.4120495
253	0xbd03f724	-0.032218114
254	0x3e91bae4	0.284629
255	0xbe83d3b6	-0.2574746

layers.1.0.weight f4 [300, 400]
0	0xbca537bf	-0.020168183
1	0xbd7ba014	-0.06143196
2	0xbcc416e0	-0.023936689
3	0x3c4571c0	0.012051046
4	0x3cc9d148	0.024635926
5	0x3c0c957c	0.008580562
6	0x3a68be7a	0.0008878481
7	0x3cf7b363	0.030236905
8	0xbd7b87dc	-0.061408862
9	0x3ca5b4be	0.020227786
10	0x3cdf8589	0.027285354
11	0xb8c27999	-9.27329e-05
12	0x3bfb9dbb	0.007678715
13	0xbd76756c	-0.060170576
14	0xbcb634f8	-0.022242054
15	0xbd70a9d4	-0.05875571
16	0xbd2f22cf	-0.042757805
17	0x3ca21ec6	0.019790065
18	0xba148266	-0.0005665183
19	0xbc9d58e6	-0.01920743
20	0x3be0ae6a	0.0068567293
21	0xbcaed256	-0.02134053
22	0xbd3ffc18	-0.046871275
23	0x3c5bbf21	0.013412268
24	0x3c9e4985	0.019322166
25	0x3aa63737	0.001268125
26	0xbc3092c8	-0.010777183
27	0xbc92b706	-0.017909538
28	0xbd3dbd18	-0.046322912
29	0x3d0eb9ec	0.034845278
30	0xba525d92	-0.00080248073
31	0xbd6bdf43	-0.057585966
32	0xbaf1fb54	-0.0018461742
33	0x3c914c85	0.017736683
34	0xbb9f1d3e	-0.004855781
35	0xbd8ab1e5	-0.06772212
36	0xbd275b67	-0.040858652
37	0x3be503ca	0.006988977
38	0xbc0a6f7d	-0.008449432
39	0x3cd8c889	0.02646281
40	0xbcd27372	-0.025689814
41	0x3c8b089c	0.016971879
42	0x398d9d8c	0.00027010997
43	0xbd109d86	-0.035306476
44	0x3cb577e7	0.0221519
45	0x3c8c4824	0.017124243
46	0xbcf5c734	-0.030002214
47	0x3cc79f90	0.024368078
48	0xbbf9717c	-0.0076124053
49	0xbd204acf	-0.039133843
50	0x3c852ef4	0.01625774
51	0x3c276d5e	0.010218946
52	0x3be8c8a2	0.0071039954
53	0x3cd102b1	0.025513979
54	0x3d2262be	0.03964495
55	0x3c249c46	0.010047024
56	0xbc0e1835	-0.008672764
57	0x3b887474	0.004164273
58	0x39b4f56f	0.00034515138
59	0xbd5a5952	-0.05330784
60	0x3b6bc25a	0.0035973997
61	0x3bcecb80	0.00631088
62	0x3cdbd821	0.026836457
63	0xbc4e06a2	-0.012574824
64	0xbb53fec2	-0.0032347892
65	0xbc4915c9	-0.01227326
66	0xbc81895d	-0.01581257
67	0x3d020fbc	0.031753287
68	0xbd011685	-0.031515617
69	0x3b88b614	0.004172096
70	0xb9d47d52	-0.00040529162
71	0x3cf73d6b	0.030180654
72	0xbd321648	-0.04347828
73	0xbc0791e5	-0.00827453
74	0xbd760b2c	-0.060069248
75	0xbd980ca6	-0.074242875
76	0xbd0cc45d	-0.034366954
77	0xbac15951	-0.001475135
78	0xbd6d2da3	-0.05790485
79	0xb874ea1c	-5.8392165e-05
80	0x3bb33e5f	0.0054700817
81	0xbd35e480	-0.044407368
82	0x3d062a84	0.03275539
83	0xbce6bba3	-0.028165644
84	0x3c64e872	0.013971435
85	0x3cadb20f	0.021203069
86	0xbc470801	-0.012147904
87	0xbd6da20b	-0.058015864
88	0xbd34fd40	-0.04418683
89	0xbd5cd2ea	-0.05391208
90	0xbc502ca2	-0.012705954
91	0x3ca38df6	0.019965153
92	0x3c8aa17c	0.016922705
93	0xbd746d1c	-0.059674367
94	0xbcac7a57	-0.02105443
95	0xbd767ecc	-0.060179517
96	0x3cae309e	0.021263417
97	0xba9bc5c6	-0.0011884503
98	0x3cb34dff	0.021887777
99	0x3c125ad5	0.008932789
100	0xbb024d75	-0.0019882594
101	0xbd75a0ec	-0.05996792
102	0xbb8fec2d	-0.004392168
103	0xbd6dc213	-0.05804641
104	0xbc456f69	-0.012050488
105	0xbc62d212	-0.01384403
106	0xb8a4313f	-7.829302e-05
107	0xbc76bfa3	-0.015060338
108	0x3b84c964	0.004052328
109	0x3aed6e7a	0.001811459
110	0x3c85ee5c	0.01634901
111	0xbd819a8d	-0.06328306
112	0xbc913066	-0.017723273
113	0xbd492d39	-0.049115393
114	0xbce8fe8b	-0.028441688
115	0xbd2e5a07	-0.042566326
116	0xbd238d2f	-0.039929565
117	0xbc6c378b	-0.014417539
118	0xbc388b68	-0.011263706
119	0xbba75077	-0.0051060277
120	0xbcb4e698	-0.022082612
121	0xbbfb76ac	-0.007674059
122	0x3b201676	0.002442745
123	0xbb9a2176	-0.004703696
124	0xbd47f711	-0.048819605
125	0x3c59e8d1	0.013300137
126	0xbc0519dc	-0.008123841
127	0xbd6dba43	-0.05803896
128	0xbcbab488	-0.022791162
129	0xbd0e5395	-0.03474768
130	0xbd01e015	-0.031707842
131	0x3cdde909	0.027088659
132	0xbd028f15	-0.031874735
133	0xbcd3c811	-0.025852235
134	0xbcdb398a	-0.026760835
135	0x3b984f0d	0.0046480955
136	0x3b13ef85	0.0022573185
137	0xbc850eed	-0.016242469
138	0xbd62a58b	-0.055333655
139	0x3d0856c4	0.03328587
140	0x3c189175	0.009312023
141	0xbce2ed6b	-0.0277011
142	0x3ca32b86	0.019918215
143	0x3ae7e09a	0.0017690838
144	0x3d148585	0.036260147
145	0xbd2156c7	-0.039389398
146	0x3cd55429	0.026041107
147	0xbb9a6185	-0.0047113323
148	0x3d0d3284	0.034472004
149	0x3d06a9dc	0.032876834
150	0xbbb297f8	-0.005450245
151	0xbc79988c	-0.015234124
152	0xbcfc499c	-0.030796818
153	0xbd81efb5	-0.063445486
154	0xbc205a6f	-0.009787186
155	0x3d03eabc	0.032206282
156	0xbd52a7ca	-0.051429547
157	0x3b9bda15	0.004756222
158	0x3c9e4ca5	0.019323656
159	0xbc2f533f	-0.010701
160	0x3cb3e58f	0.021960048
161	0x3c9ba74d	0.019000674
162	0x3d18b94d	0.03728609
163	0xbcc08341	-0.023500087
164	0x3c8e8e2c	0.017401777
165	0x3c0e4afc	0.00868487
166	0xbd6d8e83	-0.057997238
167	0xbcfd3c94	-0.030912675
168	0x3c1b84ed	0.009492141
169	0x3bcdae58	0.006276887
170	0x3c94f6cd	0.01818409
171	0xb97f64eb	-0.0002435629
172	0xbd20fb5f	-0.039302226
173	0xbd09aa9d	-0.033609975
174	0xbcf77674	-0.03020785
175	0xbd222a7f	-0.03959131
176	0xbd028bf5	-0.031871755
177	0xbd01afa5	-0.03166165
178	0xbd299e4f	-0.04141074
179	0xbd3ceaf0	-0.04612249
180	0x3c29d9ae	0.01036684
181	0xbc12122e	-0.008915467
182	0xbcd3bd22	-0.025847021
183	0x3a8f5a15	0.0010936881
184	0xba92bd46	-0.0011195324
185	0x3cdd7ec9	0.027037995
186	0x3cea1ed2	0.02857915
187	0xbd093bad	-0.033504177
188	0xbd276e27	-0.040876534
189	0x3c2bb0c6	0.010479158
190	0x3c26ab9f	0.010172754
191	0x3c8f5564	0.017496772
192	0x3b1585c5	0.0022815329
193	0xba29a2ff	-0.00064711267
194	0xbd866b5d	-0.06563447
195	0xbca946cf	-0.020663647
196	0x3c96bf0e	0.018401649
197	0xbd560262	-0.052248366
198	0xbd02d885	-0.03194477
199	0x3cc09858	0.023510143
200	0x3c6b167b	0.0143486215
201	0xbd25b717	-0.04045781
202	0x3cdafc99	0.026731776
203	0xbd0b1e7d	-0.033964623
204	0xbd476cc9	-0.04868773
205	0x3ce9ec0a	0.028554935
206	0x3ce87b4b	0.028379103
207	0x3d173055	0.036911327
208	0xbc822a4d	-0.015889311
209	0x3c90dc05	0.017683038
210	0xbc7e311c	-0.015514638
211	0xbaeeb5d3	-0.0018212147
212	0xbd04f395	-0.03245886
213	0x3d1fc46d	0.039005686
214	0xbd399a80	-0.04531336
215	0xbd1ab1fe	-0.037767403
216	0xbc367120	-0.01113537
217	0x3c758273	0.014984715
218	0xbd11c40e	-0.035587363
219	0xbd6ddbdb	-0.058071
220	0xba5e83ba	-0.0008488257
221	0x3c2ae02e	0.010429425
222	0xbcd46902	-0.025928978
223	0xbd2d51f7	-0.042314496
224	0xbc3cf838	-0.011533789
225	0x3ca8f016	0.020622294
226	0xbc5de522	-0.013543399
227	0x3d00b5a4	0.031423226
228	0xbd19c226	-0.03753867
229	0x3d1832ed	0.03715794
230	0x3ce90592	0.028445039
231	0xbd035e1d	-0.032072175
232	0xbcd9abe2	-0.026571218
233	0xbd60a5d3	-0.054845642
234	0x3cf6a76b	0.030109128
235	0xbd08abed	-0.033367086
236	0xbb30b2d0	-0.002696205
237	0x3c8bd2f4	0.017068364
238	0x39e0e6aa	0.00042896467
239	0xbd39fc28	-0.04540649
240	0xbd6866fb	-0.056738835
241	0xbd3ec398	-0.04657325
242	0x3d24f16e	0.040269308
243	0x3c92d005	0.017921457
244	0xbd5319d9	-0.051538322
245	0xbcf1e63c	-0.02952873
246	0x3d00286e	0.031288557
247	0x3d095894	0.03353174
248	0xbcede473	-0.029039597
249	0xbcef1b62	-0.029187862
250	0x3ce9f182	0.028557543
251	0x3d0b6274	0.03402944
252	0xbd95ab46	-0.073080584
253	0xbd17424e	-0.036928467
254	0x3a9d5115	0.0012002314
255	0x3bc0fde8	0.005889643

layers.1.0.bias f4 [300]
0	0xbd5a08da	-0.053231098
1	0xbe0c10b3	-0.13678245
2	0xbc4f8a21	-0.01266721
3	0xbd160456	-0.03662523
4	0x3c83c919	0.016087102
5	0x3d66f58a	0.056386508
6	0xbd04abb5	-0.032390315
7	0xbc43ecb1	-0.011958287
8	0x3e75201d	0.23938031
9	0xbd932aa6	-0.07185869
10	0x3c1c6574	0.009545673
11	0xbe6883ac	-0.22706479
12	0x3e1698e5	0.14706762
13	0x3e8dc647	0.27690336
14	0x3cca8e58	0.024726078
15	0xbe1fb48d	-0.15596218
16	0xbce91dcb	-0.02845659
17	0xbbeba7cb	-0.0071916333
18	0xbd05715d	-0.032578815
19	0x3ca47216	0.020073932
20	0xbd00d96b	-0.031457346
21	0xbd67a53b	-0.05655406
22	0x3e9cb044	0.3060323
23	0xbc9d70da	-0.01921885
24	0xbd665a34	-0.05623837
25	0xbc1bfd3e	-0.009520827
26	0xbe4b8978	-0.19876659
27	0xbd8d6356	-0.069037125
28	0xbd8a3e7c	-0.06750199
29	0xba6972aa	-0.0008905331
30	0xbd6279cb	-0.055291932
31	0x3be11485	0.006868901
32	0x3bf034a3	0.0073304935
33	0xbd94b748	-0.072615206
34	0xbda10267	-0.07861786
35	0x3dd4a360	0.10382724
36	0xb92c8049	-0.00016450988
37	0xbd364178	-0.04449603
38	0x3d0e2611	0.03470427
39	0x3bade9cd	0.0053074122
40	0xbdbce0c8	-0.09222561
41	0x3cbacb2f	0.022801964
42	0xbc24545e	-0.01002988
43	0xbd678e93	-0.056532454
44	0x3d905845	0.07048086
45	0xbc535792	-0.012899296
46	0x3bf1a69a	0.007374597
47	0xbe172766	-0.14761123
48	0xbd112256	-0.035433136
49	0xbc7bc309	-0.015366324
50	0x3ea54a6a	0.32283336
51	0xbd351bb8	-0.044215888
52	0x3cd600d1	0.026123436
53	0x3eb138a3	0.34613523
54	0x3b8cb860	0.00429444
55	0x3d8adcae	0.067803726
56	0xbd6dbb0b	-0.058039706
57	0xbd53a35a	-0.051669456
58	0xbd2bb0c7	-0.041916635
59	0xbd589d92	-0.052884646
60	0xbb58af8a	-0.0033063614
61	0xbcfa4dcc	-0.030554675
62	0x3d6baaf6	0.057536088
63	0x3e83f9d9	0.25776556
64	0x3cd27836	0.025692087
65	0xbcb4bac6	-0.022061717
66	0xbcdb46d2	-0.026767168
67	0xbd2f49df	-0.04279506
68	0x3b0778e4	0.0020671422
69	0x3db0cd51	0.08632911
70	0xbcbaa734	-0.022784807
71	0xbd930a06	-0.07179646
72	0x3c9ecd8d	0.019385124
73	0xbd7143bc	-0.058902487
74	0x3e6e2bc7	0.23258887
75	0xbc8d169a	-0.017222691
76	0xbd164aa6	-0.036692284
77	0x3d2b030a	0.041750945
78	0xbc1bc827	-0.009508169
79	0x3d0bae3c	0.03410171
80	0x3a1cc21d	0.0005979853
81	0x3d361a4f	0.044458684
82	0x3c03e15c	0.008049335
83	0xbc8d2068	-0.017227367
84	0x3e3a5f0f	0.18200324
85	0xbdfd91c1	-0.12381316
86	0xbd651395	-0.055926878
87	0x3c8abdbf	0.016936181
88	0xbc370bd0	-0.01117225
89	0x3c33f6bf	0.010984122
90	0xbd06defd	-0.032927502
91	0x3c1d3045	0.009594028
92	0x3d0bd54c	0.034138963
93	0xbd4e3199	-0.05034027
94	0x3e54cece	0.20782015
95	0xbd95ad72	-0.07308473
96	0xbc4251c1	-0.011860312
97	0xbdf693b8	-0.12039894
98	0xbce91b73	-0.028455472
99	0xbd0cd015	-0.03437813
100	0xbdd54d1b	-0.10415097
101	0xbd3ab870	-0.04558605
102	0xbd6c4b13	-0.057688784
103	0x3e37359b	0.17891543
104	0xbd3b9b00	-0.045802116
105	0x3cabfa36	0.020993333
106	0xbcf53134	-0.029930688
107	0x3cb9286f	0.022602288
108	0xbcb65758	-0.022258446
109	0x3d6a857e	0.057256214
110	0x3b9e92f5	0.004839296
111	0x3c95be06	0.018279087
112	0x3e423b6c	0.1896798
113	0xbce2b07b	-0.027672043
114	0x3c5ca599	0.013467216
115	0xbd92d264	-0.07169035
116	0xbd170b9e	-0.036876313
117	0xbcd7adba	-0.026327956
118	0xbdaefedf	-0.085447066
119	0xbd833fa5	-0.064086236
120	0xbd520e1c	-0.051282987
121	0x3c87fe7c	0.01660084
122	0xbc4e7979	-0.0126022035
123	0x3e52991c	0.20566219
124	0x3d420254	0.0473655
125	0x3b93e2bc	0.004513113
126	0xbd11c27e	-0.035585873
127	0xbd58085a	-0.05274234
128	0x3e8c134a	0.27358466
129	0x3e3c0a3e	0.18363282
130	0x3c26780e	0.010160459
131	0xbdb42668	-0.08796388
132	0xbdc15d46	-0.094416186
133	0xbdaf71dd	-0.085666396
134	0xbe609957	-0.21933495
135	0x3d17b711	0.03703982
136	0x3e5c1184	0.21491057
137	0xbc34b201	-0.011028768
138	0xbd42e569	-0.047582064
139	0xbcdd9a22	-0.027051035
140	0x3e340747	0.17580901
141	0x3e4bf596	0.19917902
142	0x3d466ac5	0.048441667
143	0xbd0edd15	-0.03487881
144	0x3d3f70ee	0.046738558
145	0x3e3cf555	0.18452962
146	0x3ccda110	0.025101215
147	0xb966f253	-0.00022024782
148	0x3ca6a23e	0.020341035
149	0xbc090b3d	-0.008364496
150	0xbd1c9596	-0.038228594
151	0xbe7d2270	-0.24720168
152	0xbd2493d4	-0.040180042
153	0xbd3171ff	-0.043321606
154	0x3ca37d8e	0.01995733
155	0xbbc7fb84	-0.006102981
156	0x3e43d068	0.1912247
157	0x3c8c2ccc	0.017111205
158	0xbc8fcc01	-0.017553331
159	0xbd38c920	-0.045113683
160	0x3c6e3f54	0.014541466
161	0xbc2e8fee	-0.010654433
162	0xbcc86e99	-0.0244668
163	0x3d0c28cc	0.034218594
164	0xbcac1337	-0.021005256
165	0x3ddd0055	0.10791079
166	0x3cd672e1	0.026177825
167	0xbd1888de	-0.0372399
168	0xbc6c521b	-0.014423872
169	0x3ca2dfbe	0.01988208
170	0x3d96508d	0.073395826
171	0x3c28a44e	0.01029308
172	0xbd623da3	-0.055234563
173	0x3c103665	0.008802031
174	0xbde28a90	-0.11061585
175	0xbd5d387a	-0.05400894
176	0xbab1b888	-0.0013559023
177	0x3e8ce7a6	0.27520484
178	0xbce5a7db	-0.028034141
179	0xbe5fd934	-0.218602
180	0x3dea7cd6	0.11449592
181	0xbd20b877	-0.03923842
182	0xbdacd15a	-0.08438368
183	0xbba455f7	-0.0050151306
184	0xbd181dd6	-0.03713783
185	0xbd8d861d	-0.06910346
186	0xbcb9aed0	-0.022666365
187	0xbd9b3ab6	-0.075795576
188	0xbe4aa273	-0.19788532
189	0xbcca45c6	-0.024691474
190	0xbc2a0317	-0.010376713
191	0xbd0207ed	-0.03174584
192	0x3dc997a8	0.09843379
193	0xbd7d3b26	-0.061823986
194	0xb9f0725c	-0.00045861572
195	0xbe2262c8	-0.15857995
196	0x3e57e584	0.21083647
197	0x3ecf9ecd	0.40550843
198	0x3e66b599	0.22530212
199	0xbc28d4bf	-0.010304629
200	0x3e5f71c5	0.21820743
201	0xbce0c9c3	-0.027439957
202	0x3ce90329	0.02844389
203	0xbc7ab99c	-0.015303042
204	0x3e4de6ee	0.20107624
205	0xbcfd38ac	-0.030910812
206	0xbb75df6c	-0.0037517203
207	0x39d956b4	0.00041454064
208	0x3e5ddea7	0.21666966
209	0x3d97797d	0.07396219
210	0x3cd78519	0.026308583
211	0xbd83923f	-0.064243786
212	0x3b8e1c1c	0.004336847
213	0xbc99170e	-0.018687751
214	0xbcb9c640	-0.02267754
215	0x3e555f5e	0.20837161
216	0x3e1cb0c2	0.15301803
217	0xbd674843	-0.0564654
218	0xbd0354bd	-0.032063235
219	0xb92676b5	-0.00015875215
220	0xbd07bc0b	-0.033138316
221	0xbb8fcdb5	-0.004388536
222	0x3db66008	0.08905035
223	0x3def1b1c	0.116750926
224	0xbd436ca7	-0.04771104
225	0xbc88ff85	-0.016723404
226	0xbd78bd04	-0.060727134
227	0x3ecf3dd8	0.4047687
228	0xbe32947e	-0.17439458
229	0xbc66e05b	-0.014091576
230	0xbaa9453f	-0.0012914314
231	0xbcd4816a	-0.025940616
232	0xbc8006d7	-0.015628261
233	0xbd1aa17a	-0.037751652
234	0x3e8ca33e	0.27468294
235	0x3e024784	0.12722594
236	0x3d0592f3	0.032610845
237	0xbd695ffc	-0.056976303
238	0xbc280747	-0.010255641
239	0x3cd7caa1	0.026341738
240	0xbca9a6e7	-0.020709468
241	0x3eac1fde	0.33618063
242	0x3846cca0	4.739745e-05
243	0xbd1922e3	-0.037386786
244	0xbcaeb6ff	-0.021327494
245	0x3d465c20	0.0484277
246	0xbc87092d	-0.016483868
247	0x3d712bf2	0.0588798
248	0xbe020f77	-0.12701212
249	0xbccd0409	-0.025026338
250	0xbcbf11b8	-0.023323879
251	0xbceca67b	-0.028887978
252	0x3c18a9ae	0.009317799
253	0x3c37a67f	0.011209129
254	0xbbb54390	-0.0055317357
255	0x3cea218f	0.028580455

layers.2.0.weight f4 [6, 300]
0	0xbb243cf7	-0.0025060752
1	0xbe0e4599	-0.13893737
2	0xbd4af578	-0.049550503
3	0xbd238306	-0.039919876
4	0xbd0ab695	-0.03386553
5	0xbcde63f8	-0.027147278
6	0x3cb53bc0	0.022123218
7	0xbc40e358	-0.011772953
8	0xbd3a3fa1	-0.045470838
9	0xbcc46370	-0.023973197
10	0x3d556f81	0.05210829
11	0xbe3aa19c	-0.18225712
12	0xbe32541b	-0.17414896
13	0xbd8557e1	-0.06510902
14	0x3c8db9ad	0.017300451
15	0x3e8cd8d0	0.27509165
16	0x3ca99e4f	0.02070537
17	0x3cbe074f	0.023196844
18	0x3c3591af	0.011082097
19	0x3cb78357	0.022401495
20	0xbc80dcb4	-0.01573024
21	0x3d0888c4	0.033333555
22	0xbd486bb8	-0.048930854
23	0xbdc31778	-0.09525961
24	0x3e95749a	0.29190522
25	0xbcabcb56	-0.020970982
26	0x3df6810c	0.120363325
27	0xbd5ad7e1	-0.053428534
28	0xbd579fa9	-0.0526425
29	0xbd27946e	-0.040913038
30	0x3d018895	0.031624395
31	0x3b04e56f	0.0020278355
32	0xbc28210e	-0.010261787
33	0x3e558c4c	0.208543
34	0x3d31a1df	0.043367263
35	0xbdf23968	-0.118273556
36	0xbbab9956	-0.005236785
37	0xbcc0d2f0	-0.023538083
38	0xbd7d4426	-0.06183257
39	0xbd26b9ae	-0.04070442
40	0x3d3e3c6f	0.046444353
41	0x3d14b84e	0.03630858
42	0xbbe4a542	-0.006977708
43	0x3ce9b3cb	0.028528115
44	0xbdc714ea	-0.09720786
45	0x3d3927a7	0.04520383
46	0x3ddc22a2	0.10748793
47	0x3e95a6f7	0.29228947
48	0x3c68d523	0.014210972
49	0x3c864ce5	0.016394088
50	0xbe022973	-0.12711124
51	0xbd0ed3b4	-0.034869865
52	0x3d249797	0.04018363
53	0xbdc4d68c	-0.09611234
54	0x3bbdc6ba	0.0057915123
55	0xbd8436d8	-0.06455773
56	0xbc5f7c2a	-0.013640443
57	0xbce500aa	-0.027954418
58	0xbcfd7ca3	-0.03094322
59	0xbcc470b8	-0.02397953
60	0x3c27b85f	0.010236829
61	0xbd1ffcad	-0.03905933
62	0xbddb8da3	-0.107203744
63	0xbddcc7eb	-0.10780319
64	0x3d1fc9e6	0.039010905
65	0x3e43ecb6	0.19133267
66	0x3d37afdf	0.044845458
67	0x3d22883f	0.039680716
68	0xbc818d44	-0.015814431
69	0x3ca1515f	0.019692121
70	0xbcb8fbe8	-0.022581056
71	0x3c7e640e	0.015526785
72	0x3cb626e7	0.022235347
73	0x3b41bc89	0.0029561839
74	0xbda57c0d	-0.080803014
75	0x3cd4fb19	0.025998639
76	0xbd3e3c6f	-0.046444353
77	0x3d65bb6a	0.056086935
78	0x3e43aa61	0.19107963
79	0x3d6af28a	0.05736021
80	0xbcb922f7	-0.02259968
81	0x3da407fb	0.08009335
82	0xbc50e439	-0.012749725
83	0xbd2beb5e	-0.04197251
84	0x3e2b04cc	0.16701049
85	0xbc2a39cf	-0.010389759
86	0x3cf29b7c	0.029615156
87	0xbb19df0d	-0.0023478896
88	0xbcb699bf	-0.022290109
89	0xbcef3aa2	-0.029202763
90	0x3d02ba0c	0.03191571
91	0xbcb29410	-0.021799117
92	0x3c378100	0.01120019
93	0x3d3e1a10	0.046411574
94	0x3b8fb8c4	0.0043860395
95	0x3dc1deec	0.09466347
96	0x3d378bf0	0.04481119
97	0x3e8246b1	0.25444558
98	0xbc5769c2	-0.013147773
99	0xbb1939a0	-0.0023380294
100	0x3ebba3e5	0.3664848
101	0xbcb66c70	-0.022268504
102	0xbb30a96f	-0.002695646
103	0xbe4fca24	-0.20291954
104	0x3d79299c	0.060830697
105	0x3cf4573c	0.029826753
106	0x3cc03778	0.02346395
107	0xbba96546	-0.0051695434
108	0x3d3f05ff	0.046636578
109	0x3dca3a88	0.09874445
110	0x3c30ea48	0.0107980445
111	0x3d0394cd	0.03212433
112	0x3c7894e6	0.015172219
113	0x3dce3009	0.10067756
114	0x3d02a4f5	0.031895597
115	0x3b8cd744	0.0042981226
116	0x3d8297ad	0.06376586
117	0x3d5214ea	0.051289476
118	0x3d8f48e4	0.06996325
119	0x3c349490	0.011021748
120	0xbd9037f6	-0.07041924
121	0x3d1bf56d	0.038075853
122	0xbbc08020	-0.0058746487
123	0xbdc3b081	-0.0955515
124	0xbc4e49e5	-0.01259086
125	0x3e5397ae	0.2066333
126	0xbc98a9ad	-0.018635595
127	0x3d0ea8bc	0.034828886
128	0xbe70c4aa	-0.23512521
129	0xbb541bb6	-0.003236515
130	0xbd859935	-0.065233625
131	0x3bdf4984	0.0068141837
132	0x3cda4749	0.02664532
133	0x3df17fc1	0.11791945
134	0xbdda47eb	-0.106582485
135	0x3cd6bcb1	0.026213022
136	0xbd9c212e	-0.07623516
137	0xbc6b1c91	-0.0143500725
138	0x3cd8b822	0.026454989
139	0x3be8ce1b	0.007104648
140	0xbc38c3c8	-0.011277147
141	0xbbcd2085	-0.00625998
142	0xbe2cde19	-0.16881599
143	0x3a75ecb4	0.000938128
144	0x3b23c4fc	0.0024989238
145	0xbdc2eb30	-0.09517515
146	0xbd2d6c87	-0.042339828
147	0x3c9d71e5	0.019219348
148	0xbca083d6	-0.019594114
149	0xbd28dafe	-0.041224472
150	0x3c0ef7a4	0.008726034
151	0xbe0b150c	-0.13582247
152	0xbd3b8c28	-0.04578796
153	0x3d052594	0.03250654
154	0xbcb04638	-0.021517858
155	0x3db99834	0.090622336
156	0xbe18d2a4	-0.14924103
157	0x3ad6177a	0.0016333901
158	0x3d029235	0.031877715
159	0x3c2bf0d7	0.010494432
160	0x3df9fd1b	0.12206479
161	0x3cfd646c	0.030931674
162	0xbc24390e	-0.0100233685
163	0xbc2cf731	-0.010556982
164	0xbc9dc57d	-0.019259209
165	0xbc97c826	-0.018528055
166	0xbbdcf7a1	-0.006743387
167	0x3d3be2e0	0.04587066
168	0xb90a102c	-0.0001316673
169	0xbbd4a209	-0.0064890427
170	0xbe260f6f	-0.16216825
171	0xbb2dc277	-0.0026513615
172	0xbc6d8dbb	-0.014499123
173	0x3d0e43f5	0.034732778
174	0xbdc0afea	-0.09408553
175	0x3da06d2e	0.078333244
176	0xbc999d6d	-0.018751824
177	0xbe43328b	-0.1906225
178	0xba07b765	-0.0005177169
179	0xbdd82da5	-0.10555581
180	0xbcb154e3	-0.021646922
181	0x3d80dd19	0.06292171
182	0xbe1714b1	-0.14753987
183	0xbc97343e	-0.018457528
184	0x3d4b33f9	0.04961011
185	0xbca181bf	-0.019715188
186	0xbcd29c11	-0.025709184
187	0x3c3f1028	0.011661567
188	0xbd3aa5b5	-0.045568187
189	0x3bdca40a	0.006733422
190	0xbc4e7e28	-0.01260332
191	0x3d6cb2fb	0.057787877
192	0x3db2288a	0.086991385
193	0x3dce8d28	0.10085517
194	0x3cd6da02	0.026227001
195	0xbdc3451e	-0.095346674
196	0xbbdb6366	-0.006695199
197	0xbdac7a6e	-0.08421789
198	0x3c3165c6	0.010827487
199	0x3d400d49	0.04688767
200	0xbd23c054	-0.03997834
201	0x3aecdf82	0.0018071982
202	0xbd61ac0c	-0.055095717
203	0xbd2355b6	-0.039876662
204	0xbced6015	-0.02897648
205	0xbc85cb34	-0.016332246
206	0xbd5a65d1	-0.053319756
207	0xbd197ef5	-0.03747459
208	0x3c98b944	0.018643029
209	0x3a8e8817	0.0010874298
210	0xbbe1252a	-0.0068708854
211	0x3eb5be30	0.35496664
212	0xbcdbec71	-0.026846142
213	0x3cb1266f	0.021624772
214	0x3b9d261d	0.004795803
215	0x3d1e7e1a	0.03869448
216	0xbd895268	-0.06705171
217	0xbd385c87	-0.045010116
218	0x3cc299a0	0.023754895
219	0x3bc217e1	0.0059232567
220	0x3e4c110e	0.19928381
221	0x3b6e1992	0.003633116
222	0x3b85fd0c	0.0040890034
223	0x3c386aff	0.011255979
224	0xbca8890b	-0.02057316
225	0x3d0957cd	0.033531
226	0x3c07f38c	0.008297812
227	0xbd90d635	-0.07072107
228	0x3ca0e168	0.019638732
229	0x3d510e6a	0.051039137
230	0xbd1ca46d	-0.038242746
231	0xbcd992e1	-0.026559295
232	0xbc3dc357	-0.011582217
233	0x3e8c2c5a	0.27377588
234	0xbd91c21e	-0.07117103
235	0x3d3317b4	0.043723777
236	0xbd9a98eb	-0.07548698
237	0xbb3906d7	-0.0028232837
238	0x3d53058a	0.051518954
239	0xbc7da92b	-0.015482227
240	0xbc0bdb8c	-0.008536231
241	0xbd9081d4	-0.07056013
242	0x3d084ef5	0.033278424
243	0x3cd7fca2	0.026365582
244	0x3d31699f	0.04331362
245	0x3c72d22c	0.014820617
246	0xbca68f7e	-0.020332094
247	0x3c22d4a5	0.009938394
248	0xbd466710	-0.04843813
249	0xbcd56621	-0.026049675
250	0x3cb0f78f	0.02160242
251	0xbd3dcf0f	-0.046340045
252	0x3ccdbdf9	0.025115
253	0x3d743cac	0.059628174
254	0x3b87768c	0.004134005
255	0xbc8b0eb0	-0.016974777

layers.2.0.bias f4 [6]
0	0xbdb1da15	-0.08684174
1	0x3d8afdc3	0.067866825
2	0xbe93fa75	-0.2890202
3	0xb9f3d852	-0.00046509743
4	0x3d090e74	0.03346105
5	0xbd2f7a87	-0.04284146
