benchmarks/Pendulum-v1/Test_gym_TD3_BC_20230416-113155/models/actor.pth (torch, 270167 bytes, 5 tensors)

fc1.weight f4 [256, 3]
000000 fb 7b 96 3e e8 8e d5 be 5b 78 05 be 68 46 88 3e
       0.29391465 -0.4171059 -0.13034193 0.26616216
000010 d9 fd d2 be 5a 94 d5 3e 9a 40 f3 bd ea 62 96 3e
       -0.41209295 0.41714746 -0.11877556 0.2937234
000020 23 60 a4 3d 47 5f 7e bd b6 5e d8 3e 98 be 06 3e
       0.08026149 -0.062102582 0.4225976 0.13158643
000030 e3 ec 57 3e d2 64 66 be a5 6a 2c bd 4e c5 75 bd
       0.21086459 -0.22499397 -0.04209389 -0.060002618
000040 2b 52 df bc d4 74 8e bd ee a3 fd 3e 45 10 dc 3c
       -0.02726086 -0.06955877 0.4953913 0.026863227
000050 aa 92 92 be 72 88 b2 be e4 30 c6 bd f1 02 7f be
       -0.2862752 -0.34869725 -0.09677294 -0.24903466
000060 a3 67 f2 bd b5 a6 0f 3e 46 e7 e1 3e 57 7d 92 3e
       -0.118361734 0.14028437 0.4412176 0.28611252
000070 4b 17 f0 be 99 0a 00 3f 63 5a 69 3e 8c 87 0b 3f
       -0.4689277 0.5001617 0.22788386 0.54503703
000080 39 4c ee 3e ec aa 06 bf f4 87 0c bf 38 94 8e be
       0.46542528 -0.52604556 -0.5489495 -0.27847457
000090 e3 fb fa 3e 6a 86 80 3d 34 61 7f 3e 9f e4 79 be
       0.490203 0.062756374 0.24939424 -0.24403618
0000a0 09 84 10 3f 79 62 95 be 39 98 da 3e 8e 62 2e be
       0.5645147 -0.2917669 0.42694262 -0.17029783
0000b0 19 f5 b7 be de 23 95 3e 91 bb 2c be 08 61 76 3e
       -0.35929182 0.29128927 -0.16868426 0.24060452
0000c0 16 b7 2a be 18 a2 81 bd 43 18 0e bf 32 f0 8c be
       -0.16671404 -0.06329745 -0.5550577 -0.27527004
0000d0 88 67 a0 3e 7b b5 0f be 6d f9 12 3f cf 44 2e 3f
       0.31328988 -0.14034073 0.57411844 0.68073744
0000e0 40 f8 65 3d 6b 4f c5 be e1 02 b4 3e 35 7c 37 3e
       0.056144953 -0.38537154 0.35158446 0.17918475
0000f0 a0 b5 c1 be 31 63 23 3f 18 55 e6 3e f1 a2 fc 3e
       -0.3783388 0.6382323 0.44986796 0.49343064
000100 a3 cf e3 be 89 b8 e9 bd 93 3e 37 bc 48 b3 ac 3d
       -0.44494352 -0.114121504 -0.011184352 0.08432633
000110 ba 56 e0 be 49 c4 d1 be 3f cf a0 3e 19 a2 0a be
       -0.43816167 -0.40970066 0.31408116 -0.13538398
000120 03 2b 8f 3e 19 f8 36 3e 28 44 86 3e ba 9b f3 3d
       0.27962503 0.17868079 0.26223874 0.11894937
000130 e3 db cd 3e c5 e5 ba 3e 65 80 02 bf 56 b8 6f 3d
       0.40206823 0.36503425 -0.50977165 0.058525406
000140 d8 b4 05 bf 0e 09 df be c3 d0 0f 3d e1 7d c9 bd
       -0.5222907 -0.43561596 0.0351112 -0.098384626
000150 82 a8 a9 3e cf a0 07 bf 1f 82 1a bf 4e b1 ce 3e
       0.33136374 -0.5297975 -0.603548 0.40369648
000160 90 8f d9 3d 2b ee bb 3e eb 50 38 3e 5c 73 e5 be
       0.106230855 0.36705145 0.17999618 -0.44814575
000170 f3 6b 2e 3e 7e 01 0e 3e 7c ec c5 be 6e 41 8c be
       0.17033367 0.13867757 -0.38656986 -0.2739367
000180 22 5a 47 3e 4c f4 6a 3e 8c 6c 38 be 61 a0 3c be
       0.19467977 0.22944754 -0.18010157 -0.18420555
000190 ab 54 ff 3e 91 12 2c be bd 21 a3 3e 95 43 a0 3d
       0.49869284 -0.16803958 0.31861678 0.0782539
0001a0 9a 63 dc be d3 a8 fe be 72 d7 52 3f ea d4 05 3e
       -0.4304474 -0.49738178 0.82359993 0.13069502
0001b0 6f d5 c9 3e 26 33 94 3e 87 23 87 3e 85 8e d6 3e
       0.3942065 0.28945273 0.26394293 0.4190561
0001c0 f6 a5 c4 3e ef 57 f0 be aa e3 84 3d 87 89 2a 3f
       0.38407868 -0.46942088 0.06488736 0.666161
0001d0 a6 98 04 3f 72 b2 b4 3e ae cd 14 bf b8 18 fe be
       0.51795423 0.35292393 -0.5812634 -0.49628234
0001e0 c3 c5 b2 be 6d 8b 94 3d 09 4f 13 3f b5 b9 ba be
       -0.34916505 0.07253156 0.57542473 -0.36469808
0001f0 79 85 9d 3e e9 9c a3 be 28 f7 0a bf 4b 4f fb bd
       0.30765894 -0.3195565 -0.5428338 -0.12270983
000200 6b 51 aa 3e dd ba 06 3f a8 95 89 be 6b 8f 40 3e
       0.33265242 0.5262888 -0.2687199 0.1880471
000210 5c 11 f9 3e 99 62 a4 3e 9e ae 9b 3e d7 0a cf 3e
       0.48646057 0.32106474 0.3040666 0.40437958
000220 55 5b 04 3f db a6 13 3e b7 23 ca be 44 3c f8 be
       0.5170186 0.14419119 -0.39480373 -0.4848348
000230 98 73 87 be 35 9b 96 bd c0 f4 03 bf 25 e8 12 3e
       -0.2645538 -0.07353822 -0.51545334 0.14346369
000240 39 bc 33 3e 23 dc 02 3d 95 91 99 3e 17 bb 32 3e
       0.1755227 0.03194822 0.29993883 0.17454182
000250 70 e9 ff 3e 98 b4 cc 3e d3 5d 4a be ce 57 4c 3f
       0.49982786 0.39981532 -0.19762354 0.7982148
000260 d1 21 35 3c 14 80 9d 3c 10 0f 50 bf 26 96 f8 be
       0.011055426 0.019226111 -0.81272984 -0.48552054
000270 ad ae af be e4 24 28 bd df 03 fe 3e ef f2 4c be
       -0.34312955 -0.041050807 0.49612328 -0.20014547
000280 48 7a 0c bf 66 39 72 3e 35 fa 4e 3e f8 c8 bf 3e
       -0.54874086 0.23654708 0.20212634 0.37458014
000290 8a 8f b9 be fc 0e eb 3d 85 4f a6 be 69 ef d9 bd
       -0.36242324 0.114774674 -0.32482544 -0.10641367
0002a0 5d 92 eb be 76 b9 86 be c6 0f 35 be f5 a7 88 3e
       -0.46010104 -0.2631337 -0.17681798 0.2669064
0002b0 dc ff ab 3e 94 0f 7c 3e 4b d1 11 3f 22 ef 43 3f
       0.33593643 0.24615318 0.5695998 0.7653676
0002c0 de 9f f4 3e 65 70 83 3d c8 b0 ac be 94 f3 17 3f
       0.4777822 0.06417922 -0.33728623 0.59356046
0002d0 d3 d6 13 be 6d 2f 3f bd 76 a9 fe be 2d 88 da bc
       -0.14437418 -0.046676088 -0.49738663 -0.026676262
0002e0 4c 10 ce be 3f 77 1a 3f 28 8e ff be ee 6a e6 be
       -0.4024681 0.60338205 -0.49913144 -0.45003456
0002f0 fa 99 a0 bc 65 49 a2 be 3b 39 20 bc dd 47 a7 be
       -0.019604672 -0.3169662 -0.00977927 -0.32672015
000300 6f 60 3d be fd d1 5f 3d f6 92 06 3f 35 ef cf be
       -0.18493818 0.05464362 0.52567995 -0.40612188
000310 33 d1 8a 3e 67 e8 bd 3e e7 8f 0e 3f d7 f1 87 be
       0.2711273 0.3709137 0.5568833 -0.26551697
000320 f5 55 5e 3e b9 93 da be 15 5f fc 3e 32 55 65 be
       0.21712478 -0.42690828 0.49291292 -0.2239578
000330 9c 14 af 3e cb fd 1b be 4c 9e fe bd ae e9 96 bc
       0.3419541 -0.15233533 -0.124325365 -0.018421974
000340 f5 00 c9 3d a4 58 8b 3e e9 31 fd 3d 70 0d fa 3e
       0.09814636 0.27216065 0.12363035 0.48838377
000350 f0 03 13 bf 7a b3 d6 3e 2a e1 36 3f 6f eb 10 3f
       -0.57427883 0.41933805 0.71437323 0.56609243
000360 35 7b d7 3e 70 ac e9 be e1 e2 34 be bc 93 00 3f
       0.42086187 -0.45639372 -0.17664672 0.50225425
000370 03 f4 09 bf ff 7c f3 3e a8 7d e8 be bb 39 d0 be
       -0.5388796 0.47556302 -0.45408368 -0.40669045
000380 94 83 90 3e 44 63 d4 be 24 72 07 be 8c 0c d7 3e
       0.28225386 -0.41481984 -0.13227135 0.4200176
000390 06 d1 dd 3e 11 06 dc 3e 96 da 3d be c9 c2 e5 be
       0.43323535 0.42973378 -0.18540415 -0.44875172
0003a0 f2 86 11 3f 8e e2 fb bd 42 3e 73 be e7 1e 10 3e
       0.56846535 -0.12299071 -0.23754218 0.14074288
0003b0 00 b9 ce be 3a 91 bb 3e 19 5a 2e 3e bb 9a 0f bf
       -0.4037552 0.36634237 0.17026557 -0.56095475
0003c0 e8 cc f2 be 7d 26 4f bd 65 52 78 3e d9 9d f7 bc
       -0.47421956 -0.050573815 0.24250181 -0.030226635
0003d0 96 11 e2 be d4 65 34 bd 6e ec 0a bf c1 eb d0 be
       -0.44154042 -0.044042423 -0.54267013 -0.40804866
0003e0 ad c7 c4 be c7 ee ec 3e f5 d8 17 3f 17 cd 51 be
       -0.3843359 0.46275923 0.59315425 -0.20488392
0003f0 69 20 d4 3c 23 d5 83 3e 75 ac 8d 3d 2d 06 94 be
       0.02589436 0.25748548 0.06917659 -0.28910962

fc1.bias f4 [256]
000000 bd 77 c5 bd c5 8f 67 3e 55 d7 e2 be b3 3f b5 3d
       -0.09641979 0.22613437 -0.4430491 0.0885004
000010 28 c1 06 bf 85 41 b3 3e f7 28 0d 3f cc 03 53 be
       -0.52638483 0.35010925 0.5514063 -0.20606917
000020 bb 87 1b 3e 8a 7f a6 be 37 38 9b be c6 b5 95 be
       0.15188496 -0.3251918 -0.30316326 -0.29240245
000030 07 5f 95 be fd bc 08 3e 00 19 94 bd 8a a5 0f 3d
       -0.29174063 0.13353343 -0.07231331 0.03506998
000040 af 87 e2 be 61 b7 b9 be 92 2b 00 bf 8b 76 d4 be
       -0.44244143 -0.3627272 -0.50066483 -0.4149669
000050 79 07 f5 3e 1c 8f 48 3e 53 f5 0c bf 8a 59 c5 bd
       0.47857264 0.19585842 -0.55061835 -0.09636219
000060 12 3e 34 3d d0 e2 99 3e 2a 67 0f 3f 15 c3 0e 3e
       0.044004507 0.30055857 0.5601679 0.13941605
000070 53 34 cc 3e 29 29 63 be e6 3a c8 bc 20 72 b2 be
       0.3988367 -0.2218367 -0.024442147 -0.34852695
000080 b4 03 06 3e ee 00 06 3f 75 0f b6 3e 11 7d 11 3f
       0.1308735 0.5234517 0.35558668 0.5683146
000090 2c f1 85 be 87 36 ad bd 05 54 e5 3d e1 ac ea 3e
       -0.26160562 -0.08457666 0.11197666 0.4583502
0000a0 88 dd 07 bf 8f 2c 91 be 82 85 ab 3d 0e cf af be
       -0.53072405 -0.28354308 0.08375074 -0.34337658
0000b0 0e d4 50 3e 11 51 39 bd bc 32 19 be b3 44 9b 3e
       0.20393392 -0.045243327 -0.1496076 0.3032585
0000c0 bd b0 d1 3e 33 af 0c 3f a3 d5 84 3e fc 7e bd 3c
       0.40955153 0.5495483 0.25944242 0.02313184
0000d0 d2 c3 ee 3e 87 5d e5 3e e3 64 8b be 7f 4e 81 3e
       0.46633774 0.44797918 -0.27225408 0.252552
0000e0 4c 8d 8a 3d 65 d5 6a be 74 7f 13 be cf 7d b9 bd
       0.067652315 -0.22932966 -0.14404088 -0.09057199
0000f0 fb da ce be 8d ea b5 bd 04 f2 46 3e 29 76 d6 3e
       -0.40401444 -0.08882628 0.19428259 0.41887024
000100 a7 5c 05 3e a1 21 0f bf 59 8d 98 3e e4 e3 32 be
       0.13023625 -0.5591069 0.2979534 -0.17469746
000110 5d 7a 02 3f 5b d1 0e bf f3 b5 d3 bd d6 a8 e4 3e
       0.5096796 -0.557882 -0.103374384 0.44660062
000120 54 b1 79 3e 1b fa 96 be 0e f7 ff be 1b 32 cb bb
       0.24384052 -0.2948769 -0.49993175 -0.0062010414
000130 34 a5 4b 3e b6 68 f5 be a4 5c f7 be 1b 68 a8 bc
       0.19887239 -0.4793145 -0.48312867 -0.020557454
000140 96 7f f2 bd 06 0b b7 3e cb 35 0f bf 61 2f d6 bd
       -0.11840741 0.35750598 -0.55941457 -0.104582556
000150 50 12 e5 be b1 37 ac bd 5c 08 89 be 7a 3e 32 3e
       -0.44740534 -0.0840906 -0.2676419 0.17406645
000160 da 49 f7 be 27 8a e8 be 8f c0 a7 be 6c 30 f2 be
       -0.48298532 -0.45417902 -0.32764098 -0.47302568
000170 f6 b3 d8 3e 85 23 79 bd 91 7a a8 be cc dd c6 3e
       0.423248 -0.06082489 -0.3290601 0.38841093
000180 8c 21 06 be 5f 30 bb 3e 91 44 37 be fa 50 f7 be
       -0.13098735 0.36560342 -0.1789725 -0.48303968
000190 94 2a cc 3d 7e 58 b4 3e 80 1c 10 bf 69 9e 5d 3d
       0.09969059 0.35223764 -0.5629349 0.05410615
0001a0 0c ab eb 3d 45 b6 87 3d a4 8a 19 bd 12 c6 37 be
       0.11507234 0.06626562 -0.037485734 -0.17946652
0001b0 ca 7c e5 be db 9d b0 3d 85 26 9d be d5 3d f4 be
       -0.4482177 0.086238585 -0.3069345 -0.47703424
0001c0 02 cf 3d be 6b 5b ca be 7d 34 35 3e ec bc d1 3e
       -0.18535998 -0.3952287 0.17695804 0.40964448
0001d0 b3 c7 f2 3e af 38 b7 be 56 84 9a 3e 4e c4 ce 3e
       0.47417983 -0.35785434 0.3017909 0.40384144
0001e0 59 27 ff 3b 90 b2 75 3e bb 43 a7 3e cf fc de 3e
       0.007786673 0.23993897 0.32668862 0.43552253
0001f0 cc e9 8e 3e 4c 30 76 3e b3 fe 66 be 60 cf a4 be
       0.27912748 0.24041861 -0.22558098 -0.32189465
000200 ae 2b 8c be 09 c3 ef 3e 93 be c8 bd 08 2a a9 3c
       -0.27377075 0.46828488 -0.09801974 0.020649925
000210 60 14 ee be 53 e9 2e bd 85 c7 26 be 0e bc be be
       -0.4649992 -0.042702984 -0.16287048 -0.3725285
000220 64 1b de 3e 31 3c d2 be 1c 5a b9 bd 2a 2f 44 bd
       0.43380272 -0.41061547 -0.0905039 -0.04789654
000230 30 ce 05 bf 7a 41 ac 3e 61 1d 3c be 25 72 7f 3e
       -0.5226774 0.33643705 -0.18370582 0.24945886
000240 5b a4 a3 3e c6 58 02 3f 2f 9c 0d 3e 31 47 d2 3e
       0.3196133 0.5091671 0.1382911 0.4106994
000250 ed f3 06 3f 03 8b d3 3d 46 f9 e7 bd 34 1b d9 bd
       0.5271595 0.10329249 -0.11326842 -0.10600892
000260 66 53 b8 3d b8 75 5d 3e f4 6e 0b bf 3b 23 d5 3e
       0.09000282 0.21626937 -0.54466176 0.4162844
000270 6b 26 b6 3d 83 ae 09 bf e0 40 22 3e 3c 45 b9 3e
       0.088940464 -0.5378191 0.1584506 0.36185634
000280 46 a9 4d 3e 20 a8 ed 3e 9e 8e 43 3c 6b 3c f5 be
       0.20084104 0.46417332 0.011935858 -0.47897658
000290 8e 66 a0 bb ab b4 d3 3e 41 2e 8e be fa 2a 7c 3e
       -0.004895038 0.41348776 -0.27769664 0.2462577
0002a0 fb 8d 0e 3e e1 d8 bf bd 50 73 86 3b c4 b0 72 3e
       0.13921349 -0.09367538 0.004103102 0.23700243
0002b0 a3 48 ca be 15 00 b7 3e 85 2e c4 3e 5b e0 a5 3e
       -0.39508542 0.3574225 0.38316742 0.32397732
0002c0 bb 18 10 3f 9a c1 fa bc ac bc d0 be bd b8 96 3c
       0.56287736 -0.030609895 -0.40768945 0.018398637
0002d0 d1 c0 2c be a2 68 3f 3e 86 6e f7 3e fc f7 a1 be
       -0.16870429 0.18692258 0.4832651 -0.3163451
0002e0 77 42 a0 3c 4c 3f 0b 3f b4 fa eb be 80 0a cc bd
       0.019562943 0.5439346 -0.4608971 -0.0996294
0002f0 b1 3d 0d 3f 93 41 c7 3e f4 87 24 3e f4 fc 7e be
       0.5517226 0.38917217 0.16067487 -0.24901181
000300 09 88 5a bd 92 89 04 bf 8e 26 0b bf 03 7b 0a bf
       -0.05335239 -0.51772416 -0.54355705 -0.5409395
000310 69 48 07 3f 76 28 e2 3e 78 e1 65 3e e3 c2 0d bd
       0.52844864 0.44171494 0.22449291 -0.034609687
000320 87 f4 fc 3e 33 74 1c be 7d c5 c9 3e fc 68 d7 bc
       0.4940531 -0.15278701 0.39408484 -0.026295178
000330 02 0e 8b be 26 77 27 be a7 04 06 be ca 49 07 bf
       -0.27159125 -0.16354045 -0.13087712 -0.5284697
000340 fc 88 29 3e 45 f5 36 be ef c0 82 3e c5 67 ba 3e
       0.16556162 -0.17867 0.25537822 0.36407295
000350 55 9a 6b bd e8 b2 9e 3e be 78 cd 3d 90 5c bc 3e
       -0.05752023 0.3099587 0.10032795 0.3678937
000360 1c a3 be be 64 fa 60 bd fb 01 45 be d9 b0 00 3f
       -0.37233818 -0.05492629 -0.19239037 0.5026985
000370 68 aa 04 bf 96 26 a6 be c4 01 75 3d 43 c3 02 3f
       -0.5182252 -0.32451314 0.059816137 0.51079196
000380 1a 02 c8 3e 7e 4e 0a bf 5c e7 ca be c1 e6 09 3f
       0.39064103 -0.5402602 -0.39629638 0.5386773
000390 96 bc a2 3d ab 2f fd be 08 3d 3b be d5 88 81 3e
       0.07946126 -0.4945043 -0.18285 0.25299707
0003a0 a3 57 04 be 11 a4 d2 be 9c 82 b6 be 00 22 99 be
       -0.12924056 -0.41140798 -0.35646522 -0.29908752
0003b0 99 1a 11 bd 32 5e 5c 3e 7d cd 99 3e bc f9 8e be
       -0.035425756 0.21520308 0.30039588 -0.27924907
0003c0 3d 47 de bd 2e 3b e4 be 93 aa d9 3e d4 51 13 3f
       -0.108534314 -0.445764 0.4251295 0.57546735
0003d0 7c 3f 0e 3f c7 a3 64 3e 7e 71 f8 bd 4d ce 6b bc
       0.5556562 0.22328101 -0.12131022 -0.014392448
0003e0 1d 62 4d 3e 72 01 e9 be f9 07 d7 3c 59 48 f0 be
       0.20056958 -0.45508915 0.026248919 -0.46930197
0003f0 a1 17 0a bf 1b 3f b5 bc 82 94 3f be c3 40 bb be
       -0.53942305 -0.022124818 -0.18708995 -0.36572847

fc2.weight f4 [256, 256]
000000 e3 f2 0a 3c c1 f3 32 3a 50 43 1c 3c 07 af 17 bd
       0.00848076 0.00068264833 0.009537533 -0.037032153
000010 c2 bf 7a bd 99 71 08 ba 6c 5b e0 bc 20 9d ac bc
       -0.06121803 -0.00052049157 -0.027387343 -0.021071017
000020 ae 76 3c 3d 4c b8 09 3c 90 d6 e9 3c f8 16 8f bc
       0.04601162 0.008405756 0.028544694 -0.017467007
000030 29 c4 52 bd a0 2e 4c 3c 66 4f 31 bd 06 8c c0 3b
       -0.051456604 0.012462288 -0.04328861 0.005876067
000040 c4 c9 47 bd 06 ff 40 3d b7 69 36 bd 9c 3f 5e 3d
       -0.048776403 0.04711821 -0.04453441 0.05425988
000050 c5 29 2d 3d c6 cf 39 3d 6a 9c 19 3d c8 03 6d 3c
       0.042276163 0.045364164 0.037502684 0.014466234
000060 5e 56 a1 bb 39 9b 3c bb f1 13 e0 bc 76 50 6b bd
       -0.004923626 -0.0028779043 -0.027353259 -0.05744978
000070 9d 97 61 3d 80 05 b5 3a 0b ab e1 3c c0 55 16 3b
       0.05507623 0.0013810843 0.02754738 0.0022939295
000080 37 91 83 3c 7d 89 25 bd 3d c7 4e bd 2f 3a 3b 3d
       0.016060455 -0.040414322 -0.050482977 0.045709785
000090 4a d0 b2 3c 9d 17 ed 3c 60 e3 82 bd b8 39 19 3b
       0.021827836 0.028941924 -0.063910246 0.002338035
0000a0 f2 c8 6e bd f0 5d ea bb 40 88 58 bb 80 b4 3b bd
       -0.058297105 -0.0071523115 -0.0033040196 -0.045826435
0000b0 f9 9a 82 bd c1 bf c1 ba 7a 38 66 3d c3 1b 5f 3d
       -0.06377215 -0.0014781879 0.056206204 0.054469835
0000c0 25 8c 23 bd 98 be 54 bc d2 47 5e bd 28 30 3d bd
       -0.039928574 -0.012984894 -0.054267712 -0.046188504
0000d0 93 4f 9b bc bc ef 70 3d 57 ae 98 bc 23 f0 e2 3a
       -0.018958842 0.05882238 -0.01863782 0.0017313998
0000e0 f4 d5 70 3d 4f f9 18 3c 7c cb 46 3d 18 1c 2a 3d
       0.05879779 0.009336784 0.0485339 0.0415307
0000f0 d2 0d 70 3d 18 9b 2f 3c ce 05 4f bd 9d 2b 64 bd
       0.05860693 0.01071813 -0.050542645 -0.055705655
000100 fe 44 04 bd d8 4b 53 3d 58 84 0b 3d ac d9 95 3c
       -0.03229236 0.051586002 0.03406176 0.01829227
000110 65 ad 4a bd 92 8b 3c bd eb c0 46 3d ab 25 09 bc
       -0.04948177 -0.046031542 0.048523825 -0.008370797
000120 9a 4d 83 bd 92 8b 1c bc 20 d6 75 bc 00 23 77 3a
       -0.06411286 -0.0095547605 -0.015004665 0.00094275177
000130 b6 bd c6 3c c8 02 c5 3c c0 e2 43 bd 83 61 2a bb
       0.024260383 0.024049178 -0.047823668 -0.0025998063
000140 b0 bb fd bc 75 7b 25 3d 98 88 fd 3c b6 b3 04 3d
       -0.030973285 0.04040094 0.030948922 0.03239795
000150 a0 bd 68 3d e4 7e fb 3c 98 d1 7f bd 34 ca 63 3c
       0.056821465 0.030700155 -0.062455744 0.013903189
000160 da a9 2f bd f0 be 08 3c 00 20 2f 3a 7a 29 81 3d
       -0.042886592 0.008346304 0.00066804886 0.06306739
000170 ac e7 2e bd a2 d1 7a bd b5 e8 98 bc 6d 6a 07 3c
       -0.04270141 -0.061235078 -0.01866565 0.00826512
000180 02 88 3b 3d b2 90 4f 3d 4c 28 45 3d e8 9f a1 3c
       0.045784004 0.0506751 0.048134133 0.01972957
000190 21 1e a1 bc e7 9c 77 bc dc ff 0b bd 97 52 29 3c
       -0.019667687 -0.015113092 -0.034179553 0.010334632
0001a0 66 08 32 bd 60 07 b0 3c 04 8e 1d 3d b4 3b 59 3d
       -0.04346504 0.021487892 0.038465515 0.053035453
0001b0 5a 54 7c bd d7 5d 4a 3d 3c d1 20 bd 10 38 a7 bb
       -0.06160388 0.0494059 -0.03926204 -0.0051031187
0001c0 1e b2 69 3d 4a ba 0a 3d 68 68 a2 bc 9b 5e 0f 3d
       0.05705463 0.033869065 -0.019825175 0.035002332
0001d0 b8 fe 78 bd c4 22 48 3d 8c ce 70 3d 9c fe 9a bb
       -0.060789794 0.04886128 0.05879073 -0.004730059
0001e0 70 87 28 3c 26 b3 87 bc c0 0f 22 bd 69 ce f6 bc
       0.010286197 -0.016564917 -0.0395658 -0.03012772
0001f0 07 3c c5 bb ed 0b 59 bd 62 c3 56 bd 20 c3 e0 3b
       -0.0060191187 -0.05298989 -0.052432425 0.006859198
000200 9c 92 26 bd a9 fb 12 bd 22 02 19 bb aa e9 06 bd
       -0.04066716 -0.035884533 -0.0023347219 -0.032937683
000210 52 f7 6c 3d a7 06 c8 bc fe 57 0e bd 7c 66 88 bc
       0.05785305 -0.024417235 -0.034751885 -0.01665043
000220 37 96 58 bd 66 e1 03 3d 82 ea 53 3d 4e 5b 1b bd
       -0.05287763 0.03219738 0.051737316 -0.03792887
000230 3c 55 be bc 7c 37 67 3d 5c 30 39 bd a6 27 76 3c
       -0.023234002 0.0564494 -0.045212135 0.015024101
000240 2a 49 58 bd 13 cc 6b bd 7b 7f ed ba b8 c8 19 bd
       -0.05280415 -0.057567667 -0.0018119657 -0.037544936
000250 46 de 02 3d 34 e4 ad bc 13 a0 9e ba ee a6 05 bd
       0.031950258 -0.02122698 -0.0012102149 -0.0326299
000260 10 66 d2 3c 69 b4 62 3d 08 f0 19 bc 84 b6 25 bd
       0.025683433 0.055347834 -0.009395607 -0.040457264
000270 17 ad 80 bd be 50 75 3d 61 30 c8 3c 26 e0 c3 3c
       -0.06283014 0.059891455 0.024437131 0.023910593
000280 ec a0 0f 3c 08 58 f1 3c 00 d1 b5 3c 48 ff f9 3c
       0.008766394 0.029460922 0.022194386 0.030517235
000290 d0 76 18 3d f5 34 e4 3b a8 80 5c 3d 9c 2f 1f 3d
       0.037222683 0.006964321 0.053833634 0.038863763
0002a0 28 0f 79 bb f0 ae e4 bc 60 c3 87 3b 4a 93 3f 3d
       -0.0038003419 -0.027915448 0.0041431636 0.046771325
0002b0 a6 2b 22 3d 35 ed de bc 6f b5 74 bc e0 48 cb 3c
       0.039592408 -0.027212719 -0.014935835 0.024815023
0002c0 83 98 b1 3c 12 0d 6c 3d dc 9e f8 3c 6a 5b 94 3c
       0.021679169 0.057629652 0.030349188 0.018109996
0002d0 8f d4 4d 3c c6 f7 77 bd 50 30 cd bc 3a 1a 95 3b
       0.012562885 -0.06053903 -0.025047451 0.0045502456
0002e0 90 cf 39 bd fd 13 68 bd 94 be 2c 3d 5c 22 ae 3c
       -0.045363963 -0.056659687 0.042173937 0.021256618
0002f0 9a 56 56 bd dd 22 ec 3a 9a ff 0e 3d a4 79 13 3d
       -0.052328683 0.0018015761 0.03491173 0.036004677
000300 e9 66 62 3d 44 72 ca bc a8 fa e3 3c a4 a9 4f bd
       0.055273924 -0.02471269 0.027829483 -0.05069889
000310 e9 4e 1d bc df 89 2a bd 90 9c 62 bc 92 bc 11 3d
       -0.009601333 -0.04163539 -0.013831273 0.035580225
000320 7d e2 ef 3c b2 94 0e bd bd 86 8e bc 58 e8 6b bc
       0.029282803 -0.034809776 -0.017398233 -0.014398657
000330 4c c7 c2 bc b9 ec 13 bd fc 40 34 3d 68 f4 30 3d
       -0.023776673 -0.03611443 0.044007286 0.043201834
000340 f1 ee 4d 3d 03 22 14 bd 06 c2 33 3d 03 a9 aa bc
       0.0502767 -0.03616525 0.043886207 -0.020832544
000350 23 be 8c bc 0c d9 89 bc 8d 50 a1 bb da 7a ef bc
       -0.017180508 -0.016827129 -0.0049229325 -0.029233385
000360 40 0a 0c 3c 3e b3 2c bd 58 94 d2 3c ab 65 5e bd
       0.008547366 -0.042163126 0.025705501 -0.054296177
000370 a8 9c b9 bc fe cd 32 bd de f0 24 3d 0c f4 27 3d
       -0.022657707 -0.04365348 0.04026877 0.041004226
000380 72 9c 4b bd 20 b1 0b bd 9d bc 5d 3d 40 c0 85 3c
       -0.049709745 -0.034104466 0.054134954 0.016327024
000390 a4 c6 28 3d a0 43 44 bd dd 59 d7 3c af 02 1b 3d
       0.041205063 -0.047916055 0.026287967 0.037844356
0003a0 12 ac 85 bc fc 52 cb ba 72 ab 3a 3d ac 9c 8b 3c
       -0.016317401 -0.0015512402 0.04557366 0.01704248
0003b0 10 87 83 3c 8d 08 ea ba d8 c0 d5 bc 4b 67 27 bd
       0.016055614 -0.0017855332 -0.026092932 -0.040869992
0003c0 65 b9 77 3d f0 c9 a1 bb 12 7b 5b 3d 18 c4 49 3d
       0.06047954 -0.004937403 0.053584166 0.049259275
0003d0 e3 82 0d bd eb 9f 19 3b a6 03 93 bc c0 be 94 ba
       -0.03454865 0.0023441266 -0.017946076 -0.0011348352
0003e0 34 b8 28 3d cf 9b 05 3d cb 20 19 bd d4 57 fd bc
       0.041191295 0.032619294 -0.03738479 -0.030925669
0003f0 fa dc 35 bd 94 5a 59 bd 29 8c 1c 3d e6 2f 1e bd
       -0.044400193 -0.053064898 0.038219605 -0.0386199

fc2.bias f4 [256]
000000 66 40 42 3c 00 33 99 bb 93 7f 67 bd 94 88 2d 3d
       0.011856174 -0.004675269 -0.05651815 0.04236658
000010 b0 f1 d3 ba 8d 05 9e bc 00 bb d0 ba e0 ee 01 3d
       -0.0016170051 -0.019289756 -0.0015924871 0.03172195
000020 8f 7d ff bc e8 d9 08 bc 1d 61 36 3d 00 a1 92 3a
       -0.0311878 -0.008352734 0.04452621 0.0011186898
000030 9b 58 34 bc 0a 09 e9 bc 2f e3 34 bd a7 b7 26 3d
       -0.011007453 -0.028446693 -0.04416197 0.04070249
000040 18 aa 5d 3d 6f 1b eb bc 29 9f b6 bb 40 c0 e7 ba
       0.054117292 -0.028699605 -0.0055731726 -0.0017681196
000050 6f 9e 8b 3c f0 33 f0 bc 60 44 2c 3c c3 9e 19 3d
       0.01704332 -0.02932164 0.010514349 0.037504923
000060 64 6d 57 bd 50 c7 ec 3c da b2 23 bd 60 ff 16 3c
       -0.052594557 0.028903633 -0.039965488 0.00921616
000070 77 7f c6 bb 38 f2 e9 3c b8 d6 14 bc 60 5d 35 bc
       -0.0060576755 0.028557882 -0.009084396 -0.011069626
000080 bc ed 2e 3c af a1 e0 3c b9 57 8d bc 0c 66 10 3d
       0.0106767975 0.027420847 -0.017253743 0.03525357
000090 f6 5c 41 bd de 6e 27 3d 26 a3 5d 3d f8 72 28 3d
       -0.047207795 0.040877216 0.05411067 0.041125268
0000a0 90 90 5e bc d8 28 1d bd 98 ea 72 3d c0 eb b1 3b
       -0.013584271 -0.03836903 0.059305757 0.005429715
0000b0 6f 67 2a 3d 48 fa 6d bd c6 87 ca 3b 22 a3 c3 3b
       0.04160255 -0.058100015 0.0061807362 0.0059703747
0000c0 9e 0c 43 bd 34 a6 04 3d a0 a6 42 3d f1 9d 52 bc
       -0.047619455 0.032385066 0.047522187 -0.012855039
0000d0 f0 5f e5 3c 28 4f 2a bd 8f cd 39 3d a8 62 c6 3c
       0.027999848 -0.041579396 0.04536205 0.024216965
0000e0 a4 b7 74 bd 60 cf 3a bd fc 84 f7 bc 08 1c 41 3c
       -0.059745446 -0.045607924 -0.03021478 0.011786468
0000f0 b7 a0 4f bd 30 9a 2a 3d a4 c9 3e bd 2e a4 42 bd
       -0.05069038 0.04165095 -0.04657902 -0.047519855
000100 6d b9 05 3c 57 dd 4c 3d 25 99 23 3d 80 83 04 3b
       0.008161885 0.050015774 0.039940972 0.0020219982
000110 81 74 09 3d f8 6e 6c bd ec c1 63 3d 0e 93 5f 3c
       0.033558372 -0.057723016 0.05560486 0.0136459
000120 dd 25 1a bd 62 81 73 3d 0c 58 13 bd 0c 58 64 bd
       -0.037633765 0.05944956 -0.03597264 -0.05574803
000130 a8 66 60 3d 43 7d 9a bc 9c bc 82 bc 82 c9 44 bd
       0.0547854 -0.018858558 -0.015959077 -0.048043735
000140 e5 8d 4a 3c a0 7c 11 3d a5 5e a8 bc d2 74 32 3c
       0.012362932 0.035519242 -0.020552943 0.01089211
000150 b0 5f c1 3c ab ec 37 3d 42 61 47 bd 21 15 d5 bb
       0.023605198 0.04490344 -0.048676737 -0.006502763
000160 8a 4b 57 3d 6e 22 26 3d c4 b4 05 3c 02 28 16 3d
       0.052562274 0.04056018 0.008160774 0.03665925
000170 34 ab 46 3c 0b 6f c2 3c b3 b1 77 bd 15 9f 13 bc
       0.012125779 0.02373459 -0.0604722 -0.009010096
000180 af ad 80 3c 6b 2d 02 bd 85 99 19 bd 7f c5 0d 3d
       0.015707819 -0.031781595 -0.037499923 0.034612175
000190 8c e1 7b bd 06 ba 4f bc 60 7b 1c bb 12 9f 33 3d
       -0.061494395 -0.012678629 -0.0023877248 0.043852873
0001a0 70 fb 7f 3c 00 e5 56 bd 96 18 55 3d 40 07 be bc
       0.015623912 -0.052464485 0.0520254 -0.023196816
0001b0 f4 bc 6c bd 57 aa 50 bd d5 9a 26 bd 1a 3e 2f bd
       -0.057797387 -0.0509437 -0.040675003 -0.042783834
0001c0 8f e8 43 3d ee 60 1f bd c0 38 c4 3c 0d 72 64 3d
       0.047829207 -0.0389108 0.023952842 0.05577283
0001d0 b9 27 51 3d 3f ed 7b bd df b1 06 3d 20 6d 78 bb
       0.051063273 -0.061505552 0.032884475 -0.003790684
0001e0 a6 11 cd bc 4c 0c e9 3c 6b 09 0b 3d d8 c1 89 3c
       -0.02503283 0.028448246 0.03394453 0.016816065
0001f0 33 52 80 3d 45 24 a6 bb e6 09 23 bd 63 ab 4c bc
       0.06265678 -0.0050702416 -0.03980436 -0.012492034
000200 28 b2 1f bc 84 5e d5 bc 24 bf 43 3d d8 82 7e bd
       -0.009747066 -0.026046045 0.047789708 -0.0621365
000210 3f 83 58 3c 08 1d 0d bc a9 a6 52 3d f4 99 7c 3d
       0.013214885 -0.008612879 0.05142847 0.06167026
000220 d6 50 d8 3c ec c1 3b 3d bf 0b 43 bd cc 1a 12 3d
       0.026405733 0.045839235 -0.047618624 0.035670087
000230 6a c9 e1 bb 5e c1 8c bb 31 86 27 3d 65 35 e1 bc
       -0.0068904655 -0.004295512 0.04089946 -0.02749128
000240 96 8a 39 bd 4e 53 39 bd 73 8f 81 bd cc 58 d1 3c
       -0.04529818 -0.04524546 -0.06326189 0.025555037
000250 3a 3e 07 bc b2 ea d5 bc 6f 9e 3d bc 08 97 58 bc
       -0.008254582 -0.026112888 -0.011573418 -0.013219602
000260 32 aa 2d 3d f6 b8 ab bc 52 e9 02 3d 08 70 a6 3c
       0.04239864 -0.02096222 0.031960793 0.020317093
000270 15 41 19 bd 05 54 3f bd 10 60 e3 bc 28 80 11 bd
       -0.037415583 -0.046710987 -0.027755767 -0.03552261
000280 58 c4 f4 3c 0a 35 29 3d 4b 94 53 3d 58 a0 dd bc
       0.02987878 0.041310348 0.051655095 -0.027053997
000290 54 13 66 3d ac 05 bf bc 35 87 7d 3c 9e cf 71 3d
       0.056170776 -0.023318134 0.01547413 0.05903589
0002a0 85 26 b0 3c 37 d9 69 bc 48 a8 55 bd ac 7a 40 bd
       0.021502743 -0.014272979 -0.05216244 -0.04699199
0002b0 c1 9a 42 bc 6e 77 71 3d cd 7b e0 3c 23 b1 30 3d
       -0.0118777165 0.058951788 0.027402783 0.04313768
0002c0 29 aa 65 bc b4 24 1e 3d 39 fd b3 3c 90 c5 9f 3c
       -0.01401762 0.03860922 0.021971332 0.019503385
0002d0 67 c5 b8 3c 52 c6 de 3b fc 83 f4 bc b6 de 92 3c
       0.022555066 0.006798544 -0.029848091 0.017928462
0002e0 94 0d a2 bc e3 9f 0d 3d 15 e9 12 3d f5 18 34 bd
       -0.019781865 0.034576308 0.035866816 -0.043969113
0002f0 7a 25 6d bd df 86 28 bd 26 bb 2d 3d 26 19 01 bd
       -0.05789707 -0.041144248 0.042414807 -0.031518124
000300 e7 88 34 3d 62 85 1e bd ea 76 63 bd 78 4e 09 3d
       0.044075873 -0.038701423 -0.055533327 0.0335221
000310 5a 7f 5f bd 6f a0 1a 3d a0 59 98 bc c4 48 63 3d
       -0.05456481 0.037750658 -0.018597424 0.055489317
000320 9a e6 19 3d e6 e7 8f 3c 65 af 10 3d a0 dc 60 bd
       0.037573434 0.017566632 0.03532352 -0.054897904
000330 3c aa 6f 3d 0a 81 44 bd 20 86 5a bd f1 67 20 bc
       0.058511958 -0.047974624 -0.053350568 -0.009790407
000340 00 80 f5 3c 60 9c 38 bd 26 19 a7 bc c2 a0 3e bd
       0.029968262 -0.045071006 -0.020397734 -0.04654003
000350 6c a5 4a 3d b6 f0 8a bc e0 b8 95 3c ac ad 26 bc
       0.049474165 -0.016960483 0.018276632 -0.010173243
000360 7e e5 3f bc 28 39 03 3d f4 d3 93 bc 45 95 ad ba
       -0.01171243 0.03203693 -0.018045403 -0.0013243338
000370 7c 2f 7b 3d 66 5a 4e 3d 05 48 3f bd 32 49 39 bd
       0.06132458 0.05037918 -0.046699543 -0.04523582
000380 f8 c9 45 3c 6e 3c d3 3c 95 94 11 bc ae d8 09 bd
       0.012072079 0.025785651 -0.008885522 -0.033653907
000390 d6 e8 7f 3d 24 be 50 3c 36 0f 44 3d 68 4b 21 3d
       0.06247791 0.012740646 0.04786607 0.039378554
0003a0 fe c8 50 bc 06 00 62 bd 3f 52 a6 3c 9e 64 1f 3d
       -0.012743233 -0.055175804 0.02030289 0.038914315
0003b0 22 c6 58 3c 73 0c 42 3c 40 b8 ee ba a6 a4 97 bc
       0.013230832 0.011843788 -0.001821287 -0.018511128
0003c0 50 b7 79 bc b8 c6 f2 3c ac 2b 64 3d a6 e9 24 bd
       -0.015241459 0.029635772 0.05570571 -0.040261887
0003d0 10 61 45 3d b8 01 12 bc 50 a5 54 3d f8 82 54 3d
       0.04818827 -0.008911543 0.051915467 0.051882714
0003e0 73 8f 23 bb f6 e4 bd 3c 3e c9 4e bd 56 18 3e bd
       -0.0024957329 0.023180466 -0.05048489 -0.046409927
0003f0 93 47 d7 bc 1a e6 7d 3d 05 b2 ef 3c f0 b0 b8 3c
       -0.026279246 0.06198702 0.029259691 0.022545308

fc3.weight f4 [1, 256]
000000 85 db 4a 3d 96 2f 0f bd ad c5 b1 39 38 66 73 3d
       0.049525756 -0.03495749 0.0003390735 0.059423655
000010 c1 e3 2a 3d 7d 79 8d bb 50 91 25 bd 6e bc 6f bd
       0.04172111 -0.004317461 -0.040421784 -0.05852931
000020 80 2e b7 bc 50 d0 5f 3d 48 71 91 3b 7a b2 13 bd
       -0.02236104 0.05464202 0.004438553 -0.03605888
000030 46 f6 d2 3c 2c 60 92 3b 88 ff 0c 3d ca 58 2a 3d
       0.025752198 0.004467031 0.03442338 0.041588582
000040 34 96 73 3d 59 fc f1 bc cb 81 a1 3c 1c 2b 1c 3d
       0.059469417 -0.029539274 0.01971521 0.03812705
000050 5e 45 bb bc ac 65 82 3c 58 22 52 bd 66 e7 f7 bc
       -0.022860225 0.015917622 -0.051302284 -0.030261707
000060 00 b2 c6 bc b8 3d e6 3c 20 6a b3 3c 66 dd 51 3d
       -0.024254799 0.028105602 0.02190119 0.051236533
000070 ad c6 57 3d cd 81 4e 3d 88 86 16 3d f4 75 08 bd
       0.052679706 0.050416756 0.036749393 -0.033315614
000080 72 66 9e 3d d6 26 42 3d 86 d9 8c bd aa e6 14 3d
       0.07734384 0.047400318 -0.06877427 0.03635279
000090 00 aa bd bb 3d fe 72 bc d7 c0 27 bd 90 51 2c bd
       -0.005788088 -0.014831123 -0.04095539 -0.04206997
0000a0 60 81 29 3c 4a 78 2b 3d 54 0e 16 bd b8 59 d9 3c
       0.010345787 0.041862763 -0.036634758 0.026532039
0000b0 1d 6d 82 3d 60 0b cd bc 18 49 4a ba eb 15 b6 bc
       0.06368468 -0.025029838 -0.00077165803 -0.022227248
0000c0 0f 00 10 3d 38 83 44 3d e1 d0 83 bd d1 35 93 bd
       0.035156306 0.047976702 -0.06436325 -0.07187999
0000d0 a5 2a cc ba b4 40 9e bc ff a0 24 bd c8 2f fc bc
       -0.0015576674 -0.019317962 -0.0401926 -0.030784503
0000e0 6c 97 af 3c 1e 7b 40 3d 7d 01 50 bd 1c e8 a0 bc
       0.021434508 0.046992414 -0.05078267 -0.019641928
0000f0 3b 63 21 bd 40 3e f9 bc 20 42 4b bc 1b c2 4a 3c
       -0.039401274 -0.03042519 -0.012405902 0.01237538
000100 9d ca a8 bc 79 23 9a bc 48 f1 9d 3c c0 87 37 3b
       -0.020604426 -0.018815743 0.01928009 0.0028004497
000110 5f 3f aa 3c ac 3b 33 3d 50 e8 f1 bc c5 df 3d bd
       0.02078217 0.04375808 -0.02952972 -0.04635598
000120 01 0c 22 bd 4a 88 3a bd d6 ed 26 bd 88 8d 50 bc
       -0.03956223 -0.04554013 -0.04075416 -0.012729056
000130 92 c1 dc 3a 84 e6 63 bd ac 38 b2 3c ca a9 4e 3d
       0.0016842356 -0.05563976 0.021755539 0.050454892
000140 e8 34 8b bd ec 07 03 3c 44 a0 1a bd ff 8d 51 bd
       -0.067972004 0.007997494 -0.037750497 -0.05116081
000150 80 5a ae 3c 53 d6 7f bd c4 e5 64 bd 78 9a 4f 3d
       0.021283388 -0.062460255 -0.055883184 0.050684422
000160 3f a1 89 bc d1 55 bb bc cb c2 6a 3d 66 b5 a1 bc
       -0.016800521 -0.022868069 0.057314675 -0.019739818
000170 7d f3 e9 3c 56 ae 81 3c 4c 09 88 3d 2d 99 49 3d
       0.028558487 0.0158302 0.06642398 0.049218345
000180 7e 46 9c bd af 1c 07 3d 41 3b 3b 3d 6b 73 71 3c
       -0.07630633 0.03298634 0.045710806 0.01473699
000190 f4 d7 87 3c a5 c6 be bc 45 fc af bd cf 68 04 bc
       0.016582467 -0.02328808 -0.085930385 -0.008081629
0001a0 42 3c 52 bd 2c 4a 70 3d e6 42 81 3d b6 90 0e bb
       -0.051326998 0.058664486 0.06311588 -0.0021753735
0001b0 9f 20 d5 bc d4 84 e4 bd b2 11 cc bc 60 54 15 bc
       -0.026016532 -0.111581475 -0.024910782 -0.009114355
0001c0 c3 0a 25 bd 8e e8 76 3d 84 8d 0f bd 20 3c 3e 3d
       -0.040293466 0.060280375 -0.03504707 0.04644406
0001d0 fc fc 7f bc 66 0c 32 bd 95 82 9a 3c e8 b7 14 3c
       -0.015624281 -0.043468855 0.018861094 0.00907705
0001e0 86 5b b2 3d 48 de 68 bd 35 04 7f 3b 80 82 6c bd
       0.08708863 -0.05685261 0.003891242 -0.057741642
0001f0 9a a7 3c bc 3c d0 6a bc be 65 78 bd bf 9e 24 bd
       -0.011514569 -0.0143318735 -0.060643904 -0.040190455
000200 38 7c e9 bc ca e4 76 3d 10 60 a5 bc e0 91 a9 bc
       -0.028501615 0.060276784 -0.020187408 -0.020699441
000210 dc 2b 1a 3d 08 40 32 3d b8 bf 21 3d f9 39 16 bd
       0.037639484 0.043518096 0.039489478 -0.03667638
000220 9a 30 49 bd d7 2c 64 bd 44 6c 64 bd 70 55 ee bb
       -0.049118616 -0.055706825 -0.055767313 -0.0072733685
000230 4b 9c 9d 3d 35 6e 17 bd 7c 90 d3 bc b3 01 34 3c
       0.07695826 -0.036970336 -0.025825731 0.010986733
000240 48 ba f3 3c 80 b9 67 bc ce 63 26 3d b3 78 d5 3c
       0.029751912 -0.014143348 0.040622525 0.02605853
000250 26 b7 e5 bc 19 2e df 3c 25 b2 47 bd e0 e3 e3 bb
       -0.028041434 0.02724366 -0.048753876 -0.006954655
000260 68 cf b5 3c 2b 18 9d 3c e0 ef 96 bc 2c 80 9d bc
       0.022193626 0.019176563 -0.018424928 -0.019226156
000270 c9 37 c3 3b a4 6c 9d bb 5a fd 7b bd 8a 4f 50 3d
       0.005957578 -0.0048042107 -0.06152091 0.050857104
000280 0c fb 05 bd 2c b3 36 3d e2 a3 52 3d 9d 58 24 bd
       -0.03271012 0.044604465 0.051425822 -0.04012357
000290 18 09 68 3b d8 38 c7 bc 66 21 8b 3d a8 38 07 bb
       0.003540581 -0.024319097 0.067934796 -0.0020633135
0002a0 81 54 3a 3d 55 5e 79 bd 66 68 54 3d 20 e5 e8 3c
       0.045490745 -0.060880978 0.051857375 0.028429568
0002b0 7f 0a 6e 3d 1c 12 83 3c fc 39 19 3c a9 ea 21 3d
       0.05811548 0.015999846 0.009352203 0.03953043
0002c0 27 1a 82 bd 85 91 2b 3c ce d3 93 3c 62 d8 47 bd
       -0.063526444 0.010471706 0.018045332 -0.048790343
0002d0 1b af 52 bd 9f 87 95 bc 20 ba f6 bc d7 c2 4e 3d
       -0.051436525 -0.018253146 -0.030118048 0.050478783
0002e0 e4 df 97 3c eb 2d 8e bc 06 5e 93 ba 41 c6 91 bd
       0.018539377 -0.01735588 -0.0011243231 -0.07117892
0002f0 88 44 84 bc b9 60 f4 3c 55 db b8 ba a0 1b 89 3b
       -0.01614596 0.029831277 -0.0014103452 0.0041842014
000300 93 76 54 ba 10 b9 2c 3c 68 eb 21 3c 08 43 25 3c
       -0.0008104827 0.010542169 0.009882785 0.010086782
000310 e8 9d 18 3b 05 a7 7f 3d d0 d8 75 3c 43 93 3f 3d
       0.0023287479 0.06241514 0.015005305 0.0467713
000320 96 d9 20 bc f3 0c 50 3d cf b8 00 3d 4f a7 cf bd
       -0.0098175015 0.0507936 0.031426247 -0.101393335
000330 a5 ff dd bc 70 a6 1d bd e8 4f 6c 3c b2 73 56 3d
       -0.02709944 -0.038488805 0.014423348 0.05235643
000340 b1 e9 06 bd e8 c6 49 bd 31 28 00 bd a0 d5 ed bc
       -0.03293771 -0.049261957 -0.03128833 -0.029032528
000350 3a 26 44 3d b9 85 40 3d 64 11 bf bc df 06 0f bc
       0.04788802 0.047002528 -0.023323722 -0.008729666
000360 7a 0e bc 3c 52 b6 cf bc f2 b1 86 3d ad 42 25 bd
       0.022956122 -0.025355492 0.06576909 -0.04034679
000370 80 04 91 bc 64 6f 40 bd 37 a6 aa bd 00 98 93 bb
       -0.017702341 -0.04698123 -0.08332484 -0.004504204
000380 ae f7 78 bd e5 9b 0c be 99 a4 70 3d 1e d1 42 bd
       -0.06078308 -0.13731344 0.058750723 -0.04756271
000390 c2 b0 12 3d c3 d1 7f bd 41 01 c5 3d 00 01 bf 3a
       0.0358131 -0.062455904 0.0961938 0.0014572442
0003a0 e9 bc 23 3d d0 01 9c bb 56 20 2a 3d af f1 25 bb
       0.03997508 -0.0047609583 0.041534744 -0.0025321057
0003b0 d8 16 6b bd cf ab 74 3d d0 b8 af bb 40 04 d4 3c
       -0.057394832 0.059734162 -0.0053626075 0.025880933
0003c0 bc d0 e4 bc b8 ad 22 3c d8 ef 8d 3c ca ce 73 3d
       -0.027931564 0.009929113 0.01732628 0.05952338
0003d0 e6 37 6d bd c6 08 70 3d 5b 10 9d bb d6 fb 9e bc
       -0.057914637 0.058602117 -0.0047932095 -0.019407194
0003e0 61 eb 9f 3c ca f7 84 3d 60 cc fd 3b f0 c6 86 bd
       0.019521417 0.064925745 0.0077453107 -0.06580913
0003f0 c2 bc 17 bd d3 ea 8e bd 35 62 ad bd bc c3 7a 3d
       -0.037045248 -0.06978383 -0.08465997 0.061221823
