benchmarks/Acrobot-v1/Train_Acrobot-v1_A2C_20230424-002139/models/critic_checkpoint.pt (torch, 273639 bytes, 5 tensors)

fc1.weight f4 [256, 6]
-0.28030905 -0.18125854 -0.27409616 0.15636867 0.0054723686 -0.34828052 -0.2041882 0.03486306
-0.047110017 0.2003924 0.3941328 -0.13987015 -0.07938398 0.21955648 -0.22920313 -0.3435882
-0.2677734 -0.2152174 -0.09659521 0.2840253 -0.2890179 0.08468508 -0.31048328 0.22154005
0.36007383 0.36165717 -0.2687564 -0.26226684 0.26093608 0.35956898 0.3096484 -0.2237096
-0.20479023 -0.17993821 -0.0709657 -0.077230394 -0.24630512 0.19500153 -0.3705424 0.027942412
0.28602898 -0.23387074 -0.17532016 -0.37669548 -0.002820562 -0.41060677 -0.21141267 0.100908644
0.09790505 -0.16798443 0.30714884 -0.19043219 -0.32390702 0.13087334 0.1842605 -0.13067037
-0.059815183 -0.16938677 0.09904982 0.069039 -0.0026997305 -0.20633315 0.39882764 -0.17159797
-0.1283955 -0.3507077 -0.07076515 0.06049275 0.28914243 -0.14088035 0.35284042 -0.23655793
-0.107069604 0.3063974 0.12346759 -0.15723726 0.28975207 -0.023382008 0.13367195 -0.20368326
0.19164449 -0.09954963 0.2534536 0.034428164 -0.022744015 0.06555031 0.2882094 -0.33722985
0.22902916 0.32124048 -0.042168513 0.39001596 -0.2724905 -0.3857844 -0.073696434 -0.3074674
0.36181244 0.33468 -0.05742209 -0.35499576 -0.37257624 0.105357304 -0.2384543 0.2768192
0.05012446 -0.29951036 -0.3247587 0.24704324 0.097798206 -0.068789735 0.2096504 0.053488478
0.13862598 0.3760403 0.17729281 0.33919942 -0.32284775 0.0999423 -0.29380387 0.050254505
0.32337245 -0.3184207 -0.24281259 0.20094052 0.03826434 -0.24275762 -0.05312766 -0.25586146
0.01811739 0.18158965 0.36749837 0.38699868 0.30313814 -0.37751114 0.36396247 -0.29995808
0.039213687 -0.4039874 -0.051475637 0.037366003 0.2494698 0.13390131 0.06540615 0.35900366
0.25360978 -0.08429682 0.08680169 -0.011421763 0.23500906 -0.29638803 -0.0031029175 -0.28423575
-0.35483602 -0.26616114 -0.16999629 -0.08708358 -0.117567144 0.09145693 -0.30613157 0.0031864438
-0.18067832 0.33741903 -0.08947511 -0.3988192 -0.12033014 0.02573004 -0.39211676 0.1832817
-0.11833148 0.23811515 0.3600868 -0.40174496 0.08512245 0.014292838 -0.08088543 0.08592445
0.30159172 -0.100807376 0.008798662 -0.18740395 -0.009808776 0.3369625 -0.00116784 0.120321155
0.22276527 -0.38083145 0.32769227 -0.15302256 -0.1784738 0.1613398 -0.14789122 -0.11785625
-0.21662731 -0.35592166 0.095456734 -0.16223167 0.20765948 0.018897422 -0.0033611534 0.40103164
-0.12933286 -0.2792561 0.3525654 -0.34502313 -0.23011613 0.15164135 -0.32591543 -0.35078064
0.12613459 -0.3973527 0.24711466 0.27501938 -0.124955006 -0.3675053 -0.17793298 0.0063336664
0.41198948 0.2753871 0.38985625 -0.15833724 -0.38765493 0.05029337 0.26962414 0.27729115
0.051620267 -0.140434 -0.3327362 -0.24173743 0.110234156 -0.014662101 -0.33219698 0.37091625
0.109480746 -0.00023425563 0.35140446 0.3424715 -0.12574287 0.05832848 -0.31514782 -0.06420341
0.118371025 0.1404237 0.07592371 -0.27975753 -0.21019253 -0.021239614 -0.13346174 0.03061063
-0.19709785 -0.22476058 -0.14499635 -0.37108636 -0.22364925 0.33631817 0.33266732 0.3369858
00000000: ab84 8fbe d79b 39be 5556 8cbe 1c1f 203e
00000010: 8e51 b33b d351 b2be b616 51be 91cc 0e3d
00000020: 6ff6 40bd aa33 4d3e c6cb c93e 1f3a 0fbe
00000030: 1194 a2bd 6ad3 603e 3ab4 6abe cbea afbe
00000040: 9819 89be f361 5cbe b6d3 c5bd c46b 913e
00000050: 27fa 93be 5f6f ad3d aaf7 9ebe 65db 623e
00000060: 995b b83e 212b b93e 709a 89be d747 86be
00000070: 6a99 853e 6d19 b83e 3c8a 9e3e 2114 65be
00000080: 88b4 51be b941 38be 7756 91bd f82a 9ebd
00000090: 6937 7cbe 7bae 473e bcb7 bdbe 7ce7 e43c
000000a0: 6472 923e d07b 6fbe 2187 33be 3bde c0be
000000b0: 2ed9 38bb 0d3b d2be 907c 58be 31a9 ce3d
000000c0: 7182 c83d 1c04 2cbe 9d42 9d3e a800 43be
000000d0: 24d7 a5be a903 063e c9ae 3c3e 74ce 05be
000000e0: c400 75bd ba73 2dbe a2da ca3d 5264 8d3d
000000f0: f6ed 30bb ff48 53be 2333 cc3e 61b7 2fbe
00000100: 1c7a 03be f68f b3be 52ed 90bd 3fc7 773d
00000110: 7a0a 943e f042 10be 80a7 b43e 3e3c 72be
00000120: 4f47 dbbd 1fe0 9c3e 93dc fc3d ce02 21be
00000130: 625a 943e a08b bfbc 4de1 083e 5892 50be
00000140: 743e 443e ade0 cbbd acc4 813e 8c04 0d3d
00000150: a851 babc 3e3f 863d 2f90 933e 64a9 acbe
00000160: 9f86 6a3e a279 a43e e4b8 2cbd 2cb0 c73e
00000170: e083 8bbe 8885 c5be 28ee 96bd 5e6c 9dbe
00000180: 7b3f b93e 2d5b ab3e 6d33 6bbd 01c2 b5be
00000190: 50c2 bebe 92c5 d73d 5d2d 74be 3fbb 8d3e
000001a0: 4e4f 4d3d 6c59 99be c646 a6be e7f8 7c3e
000001b0: 6d4a c83d a2e1 8cbd 98ae 563e bc16 5b3d
000001c0: f8f3 0d3e 5b88 c03e 3f8c 353e 8cab ad3e
000001d0: 4d4c a5be 8cae cc3d 766d 96be abd7 4d3d
000001e0: 1391 a53e 0a08 a3be dda3 78be 5ac3 4d3e
000001f0: 12bb 1c3d 7495 78be 649c 59bd 4600 83be
00000200: ec6a 943c a3f2 393e bf28 bc3e b124 c63e
00000210: ec34 9b3e 2449 c1be 4a59 ba3e 1b94 99be
00000220: 889e 203d 70d7 cebe 1ed8 52bd 180d 193d
00000230: 0375 7f3e 6d1d 093e a9f3 853d 54cf b73e
00000240: 24d9 813e d0a3 acbd 16c5 b13d 5922 3bbc
00000250: 37a6 703e 2cc0 97be 515a 4bbb 5987 91be
00000260: 11ad b5be 4646 88be 8213 2ebe e058 b2bd
00000270: 0bc7 f0bd c54d bb3d 47bd 9cbe a8d3 503b
00000280: bd03 39be 30c2 ac3e ba3e b7bd 0832 ccbe
00000290: a66f f6bd cec7 d23c 87c3 c8be 33ae 3b3e
000002a0: c657 f2bd 75d4 733e 4c5d b83e 84b1 cdbe
000002b0: ae54 ae3d 822c 6a3c 43a7 a5bd 28f9 af3d
000002c0: 3b6a 9a3e 1974 cebd 4328 103c d2e6 3fbe
000002d0: fdb4 20bc 5986 ac3e 3512 99ba f06a f63d
000002e0: 941c 643e 57fc c2be 48c7 a73e f2b1 1cbe
000002f0: d6c1 36be 4336 253e cc70 17be 9e5e f1bd
00000300: 8dd3 5dbe 5d3b b6be d27e c33d 0f20 26be
00000310: b0a4 543e c4ce 9a3c cc46 5cbb 0554 cd3e
00000320: d56f 04be a8fa 8ebe 7483 b43e dfa6 b0be
00000330: 90a3 6bbe df47 1b3e 63de a6be 8599 b3be
00000340: 6d29 013e d071 cbbe a00b 7d3e 57cf 8c3e
00000350: 69e8 ffbd a829 bcbe 1034 36be a58a cf3b
00000360: 49f0 d23e 8aff 8c3e 3d9b c73e 2823 22be
00000370: b57a c6be 6c00 4e3d 2d0c 8a3e 1bf9 8d3e
00000380: c66f 533d eecd 0fbe 665c aabe 048a 77be
00000390: 72c2 e13d 4f39 70bc b915 aabe bce8 bd3e
000003a0: 7137 e03d 84a2 75b9 49eb b33e 6d58 af3e
000003b0: bdc2 00be d8e9 6e3d 0e5b a1be 147d 83bd
000003c0: 826c f23d 3bcb 0f3e e47d 9b3d 613c 8fbe
000003d0: b63c 57be b3fe adbc 32aa 08be 25c3 fa3c
000003e0: 05d4 49be a327 66be ec79 14be 08ff bdbe
000003f0: 4f04 65be e531 ac3e 5f53 aa3e 6789 ac3e

fc1.bias f4 [256]
0.21839936 -0.3579726 0.29332533 0.015334995 0.29311606 0.23611973 0.33469173 0.2895913
-0.25249016 -0.15058976 -0.15228881 0.060073897 0.29950932 0.14100076 -0.14889705 -0.07781208
0.36713764 0.066831544 -0.25326884 -0.39799607 -0.23093048 -0.07911082 0.1828765 -0.021331117
-0.31399578 -0.12005335 0.19141462 -0.22034182 0.15782875 -0.34947425 -0.26689422 0.16989852
-0.31873432 -0.0367392 0.3185711 0.2740833 0.28966472 -0.008142807 -0.060851328 0.08530461
0.36244556 -0.34323037 0.40795577 -0.34194446 0.1592223 0.25565347 -0.28612044 0.32978207
-0.35010195 0.1410753 0.08491128 0.3634784 0.0873797 -0.24255411 0.2820896 -0.13838129
-0.08898048 -0.066626124 0.2799234 0.018100223 -0.29175487 -0.30935904 -0.39986557 -0.043625627
-0.2974703 -0.19081058 0.35001355 -0.060405795 -0.32187277 -0.12560861 0.3354558 -0.3043717
-0.17753832 0.06554018 -0.12380687 0.050392058 -0.15727729 -0.08683206 -0.30085838 0.2638735
-0.22385259 -0.39857596 -0.17887741 0.12744674 0.26836935 0.21155198 -0.22676599 0.04565991
-0.0063260254 -0.2545182 0.12962535 0.18740591 0.2771488 0.15961613 0.019182 -0.15892583
-0.0040728822 0.11751165 0.09792938 -0.2998014 0.11107895 0.26012003 0.33329093 -0.03925972
0.18970063 -0.40745106 0.19995993 0.124193504 -0.39352086 -0.25360516 0.030764366 0.3342605
0.17208247 -0.3760312 -0.3706435 0.08849218 -0.17447409 -0.14871928 0.3610084 0.1519788
-0.4034837 0.02366398 -0.057229504 0.16909494 -0.38381344 -0.17218894 0.30295214 0.33494797
-0.050008465 0.16359872 0.23325482 -0.27033034 -0.3329731 -0.34534177 -0.16989268 0.15119791
0.40661252 -0.2992584 0.25543988 0.057424296 -0.23974241 0.11434512 0.0020773518 -0.16961294
0.027708357 0.2966031 -0.11527271 0.36741298 0.17185965 0.25436923 0.35067275 -0.23019208
-0.29328477 -0.11695211 -0.29702044 0.3844618 -0.27439964 -0.0069649927 0.1231486 -0.34388328
-0.35879347 -0.10996526 0.07954903 0.1999428 0.0059797596 -0.34779346 -0.29908553 0.22052874
0.2687025 -0.22462805 0.13874166 -0.27508196 -0.014693793 0.28886604 0.0965903 0.16287583
-0.15053643 0.11905838 -0.18040699 -0.10277772 -0.061872095 -0.166393 -0.09267435 -0.13168067
-0.30675003 0.2694548 -0.36808586 0.33554465 -0.05740367 -0.08599307 -0.3704089 -0.36639422
0.091967754 -0.1641465 -0.30381212 0.111773126 -0.08861613 -0.29195923 -0.3550999 0.11700152
-0.23431887 0.15215288 -0.2573522 0.15532824 0.11420725 -0.20462033 0.25902098 -0.18925424
0.07310343 0.119143136 -0.069416024 0.31272542 -0.060124055 0.30175892 0.34675342 -0.2155668
-0.12790975 0.1702298 -0.29717278 0.3327797 0.21077383 0.049358048 -0.2887842 -0.26880282
-0.30921197 -0.19638745 0.35845426 -0.067741185 0.17296296 0.06658142 0.049843576 -0.25443304
0.29649276 -0.1686491 -0.16754043 -0.0022888815 -0.18152924 0.26799682 0.028403616 -0.38027704
-0.088501126 -0.15302923 0.30753833 -0.28689533 0.36958274 -0.109730534 -0.11847978 -0.04883187
0.2558654 -0.31451696 0.26562774 -0.021722982 -0.14290577 -0.3231358 -0.11511438 0.2632633
00000000: 15a4 5f3e 2f48 b7be bd2e 963e a23f 7b3c
00000010: 4f13 963e 5fc9 713e b75c ab3e 5045 943e
00000020: 6446 81be 3434 1abe 99f1 1bbe 0c10 763d
00000030: 4959 993e 8162 103e 7878 18be f15b 9fbd
00000040: 77f9 bb3e fade 883d 74ac 81be 24c6 cbbe
00000050: 0a79 6cbe db04 a2bd fa43 3b3e 98be aebc
00000060: 0ec4 a0be 88de f5bd 3202 443e 49a1 61be
00000070: dc9d 213e 4aee b2be 5ca6 88be e1f9 2d3e
00000080: 2531 a3be d87b 16bd c01b a33e a554 8c3e
00000090: ef4e 943e 6869 05bc 3e3f 79bd 2fb4 ae3d
000000a0: 7792 b93e e4bb afbe 94df d03e 5813 afbe
000000b0: 2c0b 233e 03e5 823e 617e 92be 32d9 a83e
000000c0: 9040 b3be 0b76 103e f7e5 ad3d d719 ba3e
000000d0: 21f4 b23d 1b60 78be 0c6e 903e d3b3 0dbe
000000e0: 663b b6bd 4773 88bd 1f52 8f3e eb46 943c
000000f0: e560 95be 4f64 9ebe 2ebb ccbe c9b0 32bd
00000100: 074e 98be d963 43be fa34 b33e 116c 77bd
00000110: 82cc a4be 8b9f 00be ddc0 ab3e 9cd6 9bbe
00000120: 9bcc 35be ee39 863d 758e fdbd e767 4e3d
00000130: 4c0d 21be 02d5 b1bd 1c0a 9abe 6d1a 873e
00000140: 9d39 65be 2612 ccbe a42b 37be 6681 023e
00000150: b567 893e 15a1 583e 5835 68be e305 3b3d
00000160: 8c4a cfbb 3650 82be 82bc 043e 56e7 3f3e
00000170: 73e6 8d3e 6972 233e 9223 9d3c 74bd 22be
00000180: d075 85bb f3a9 f03d 338f c83d 927f 99be
00000190: 5c7d e33d 742e 853e 1ca5 aa3e cdce 20bd
000001a0: e240 423e 6d9d d0be 4cc2 4c3e 2a59 fe3d
000001b0: 917b c9be 89d8 81be 8d05 fc3c 3124 ab3e
000001c0: 6336 303e 2987 c0be fcc4 bdbe 633b b53d
000001d0: 56a9 32be de49 18be 18d6 b83e 55a0 1b3e
000001e0: 6a95 cebe f7da c13c 7c69 6abd 3927 2d3e
000001f0: 3283 c4be 4c52 30be 8b1c 9b3e 4d7e ab3e
00000200: add5 4cbd 6c86 273e 5ada 6e3e bd68 8abe
00000210: 737b aabe a3d0 b0be 59f8 2dbe a0d3 1a3e
00000220: 842f d03e 6638 99be 04c9 823e bd35 6b3d
00000230: 097f 75be c62d ea3d 2e24 083b 04af 2dbe
00000240: a3fc e23c 5ddc 973e 1914 ecbd 8e1d bc3e
00000250: fafb 2f3e af3c 823e 618b b33e 79b7 6bbe
00000260: 6c29 96be 9684 efbd 1013 98be 2dd8 c43e
00000270: 1c7e 8cbe 983a e4bb 5535 fc3d 7811 b0be
00000280: c7b3 b7be 7735 e1bd 9aea a23d cebd 4c3e
00000290: dcf1 c33b fc11 b2be bd21 99be 49d2 613e
000002a0: 6093 893e e504 66be 4b12 0e3e 8bd7 8cbe
000002b0: 3cbe 70bc 40e6 933e 23d1 c53d ecc8 263e
000002c0: 3926 1abe e1d4 f33d 9cbc 38be 207d d2bd
000002d0: 986d 7dbd ed62 2abe 0dcc bdbd 4cd7 06be
000002e0: 570e 9dbe fbf5 893e c075 bcbe 82cc ab3e
000002f0: 1c20 6bbd 221d b0bd 3ca6 bdbe 0698 bbbe
00000300: 9759 bc3d 0516 28be 438d 9bbe 4fe9 e43d
00000310: 607c b5bd ae7b 95be a7cf b5be 7e9e ef3d
00000320: 49f1 6fbe f7cd 1b3e abc3 83be 5e0e 1f3e
00000330: 7ee5 e93d fe87 51be 669e 843e ddcb 41be
00000340: 40b7 953d 5101 f43d fd29 8ebd 8c1d a03e
00000350: a444 76bd 2580 9a3e aa89 b13e 8bbd 5cbe
00000360: c6fa 02be b850 2e3e 0827 98be 1a62 aa3e
00000370: 18d5 573e aa2b 4a3d 86db 93be 86a0 89be
00000380: 0851 9ebe cb19 49be 5187 b73e e4bb 8abd
00000390: 341d 313e d75b 883d c728 4c3d 0c45 82be
000003a0: e6cd 973e 5ab2 2cbe b88f 2bbe 0f01 16bb
000003b0: cde2 39be e136 893e b3ae e83c acb3 c2be
000003c0: 1440 b5bd b2b3 1cbe aa75 9d3e f2e3 92be
000003d0: f339 bd3e 67ba e0bd 87a5 f2bd ed03 48bd
000003e0: ca00 833e 5e08 a1be 5c00 883e 65f4 b1bc
000003f0: e455 12be 0e72 a5be 17c1 ebbd 72ca 863e

fc2.weight f4 [256, 256]
-0.05220702 0.016775345 -0.03488026 0.008657178 0.032624774 0.03094882 0.028462285 0.042736143
0.0056204107 -0.030073032 0.02051292 0.038149934 -0.007700111 0.033810608 0.027479688 0.030119767
0.044597697 -0.039997984 0.029477995 0.04007158 -0.04943629 -0.057533696 0.04429758 0.013286602
-0.035211217 0.0316042 -0.05296687 0.030511081 -0.023086496 -0.00071585434 0.021006789 -0.04904483
-0.039272822 -0.05226273 0.03747473 -0.020223657 0.061333988 -0.045824565 -0.020092612 -0.02464062
-0.046208456 -0.055967502 -0.03391071 0.027265837 0.052937858 0.025344163 0.060713224 -0.04368889
-0.01926561 -0.024909083 0.008603434 -0.0068094055 0.04737655 0.03948719 -0.022132669 0.05847581
0.014930543 0.016050033 -0.03254067 0.037223 -0.039402254 0.0144925555 -0.033556294 -0.058124445
0.057389118 -0.01123575 0.04547932 -0.057009928 -0.0059896824 -0.046557974 -0.03081139 -0.057458237
0.046610173 -0.053260792 -0.013291024 -0.057323154 0.020985847 -0.035542425 0.038176782 -0.041396588
-0.01858977 0.067192554 -0.040729392 0.037515886 0.060977437 -0.029074756 -0.032360457 0.0050830794
0.053272184 0.033369333 -0.033784013 0.010559258 -0.041616254 -0.046431012 0.027699806 -0.014397477
-0.022736799 -0.04314073 -0.046307586 0.005113534 -0.03569093 0.034380253 -0.006164915 -0.046478536
-0.0016761435 0.0029961355 -0.058617357 -0.04207807 -0.039402716 0.012376694 -0.00521111 0.027746717
-0.0035815763 0.022409203 0.036693122 -0.040854014 0.053128142 0.0037469943 -0.010525405 -0.011621562
0.050589494 -0.0049794535 -0.03597848 -0.011288346 -0.053481646 0.061319266 -0.02772714 -0.053468063
0.050625082 0.061274394 -0.030385857 0.03126136 0.0012339838 -0.04989217 -0.026478328 -0.048595995
0.0010502096 0.0527205 0.016281698 -0.04368949 -0.03897464 0.014100109 0.017358467 0.041887138
0.052040853 -0.018589484 -0.054846574 0.05320538 0.033038836 0.06199572 -0.059235625 0.062398814
0.0068016937 -0.06381839 0.007219886 -0.031639136 -0.0017211342 0.035776746 0.020466466 0.008036305
0.04334315 -0.04904163 -0.021438431 0.050457753 0.026764404 0.07640423 0.038514625 0.019956477
0.005818847 -0.022680426 0.012598676 0.03536834 -0.03114706 0.05152533 -0.007186995 -0.06322697
0.057132877 0.008278803 0.028143233 0.021841228 -0.036083527 -0.011253831 -0.0021350614 0.032193746
-0.049557447 -0.008819095 -0.021062212 -0.011929438 0.056678776 0.020595716 0.05041113 -0.024015846
0.03279016 -0.035314452 0.021733288 0.024653282 0.046845555 0.022289403 0.00010309445 0.054830026
0.057113253 0.047914665 -0.0012764211 0.043035626 -0.0035165648 -0.015415216 -0.032953244 0.023187274
-0.0021415171 0.02493924 0.0124129485 0.039852086 0.038174126 -0.006684188 0.022845617 0.046883054
-0.023755802 0.06338386 0.029992871 0.024921635 -0.04699424 0.048030976 -0.037364423 0.016605195
-0.03458487 -0.061358705 -0.051756367 0.012486301 0.0006595061 -0.014082156 -0.0052238605 0.046421815
0.05930741 -0.040659003 -0.061484847 -0.055699326 0.022838507 0.061737914 0.023742843 -0.005874974
0.008250581 -0.044733606 0.04540027 0.002805968 0.014267843 0.025761057 0.01660047 0.014411773
0.04799267 0.050172295 0.04785237 -0.009743385 0.056988873 0.057822447 -0.019654505 0.057413667
00000000: 07d7 55bd 736c 893c 9ade 0ebd d6d6 0d3c
00000010: 8ea1 053d 6188 fd3c bd29 e93c 180c 2f3d
00000020: 6c2b b83b b85b f6bc b60a a83c 1b43 1c3d
00000030: 3651 fcbb fe7c 0a3d 151d e13c bbbd f63c
00000040: 13ac 363d edd4 23bd d67b f13c 1922 243d
00000050: b57d 4abd 74a8 6bbd 6171 353d 0cb0 593c
00000060: a339 10bd 6873 013d caf3 58bd 60f2 f93c
00000070: e41f bdbc 2ca8 3bba 6e16 ac3c 3be3 48bd
00000080: 8adc 20bd 7211 56bd 1a7f 193d 15ac a5bc
00000090: 5939 7b3d 8ab2 3bbd 4399 a4bc 20db c9bc
000000a0: 1445 3dbd 2e3e 65bd f5e5 0abd 9b5c df3c
000000b0: 5ed5 583d 909e cf3c 6eae 783d 1ff3 32bd
000000c0: ead2 9dbc 220e ccbc 6bf5 0c3c 6f21 dfbb
000000d0: ea0d 423d 52bd 213d 924f b5bc 5584 6f3d
000000e0: 3c9f 743c 5c7b 833c 5e49 05bd 2577 183d
000000f0: 4264 21bd 2f72 6d3c 5372 09bd e613 6ebd
00000100: da10 6b3d 2716 38bc 8648 3a3d 3e83 69bd
00000110: 1945 c4bb 93b3 3ebd 2b68 fcbc 5459 6bbd
00000120: 4fea 3e3d fd27 5abd 98c2 59bc afcb 6abd
00000130: 83ea ab3c ef94 11bd 425f 1c3d 788f 29bd
00000140: 9349 98bc 409c 893d ddd3 26bd 42aa 193d
00000150: 7ac3 793d 2f2e eebc 668c 04bd f68f a63b
00000160: ef33 5a3d 48ae 083d 1b61 0abd bd00 2d3c
00000170: ce75 2abd 722e 3ebd b4ea e23c 65e3 6bbc
00000180: 8642 babc 56b4 30bd 06ad 3dbd 6f8f a73b
00000190: a730 12bd 4fd2 0c3d 0e03 cabb 4760 3ebd
000001a0: 0bb2 dbba d05a 443b c118 70bd 0e5a 2cbd
000001b0: be64 21bd 9ec7 4a3c f6c1 aabb 154d e33c
000001c0: e1b8 6abb 8193 b73c 874b 163d 8a56 27bd
000001d0: e59c 593d 2290 753b c072 2cbc 5d68 3ebc
000001e0: ee36 4f3d af2a a3bb 2c5e 13bd c1f2 38bc
000001f0: 920f 5bbd e929 7b3d 0724 e3bc 5401 5bbd
00000200: 3f5c 4f3d dcfa 7a3d c3eb f8bc e90b 003d
00000210: a0bd a13a bb5b 4cbd 14e9 d8bc 980c 47bd
00000220: 30a7 893a 73f1 573d 3261 853c c0f3 32bd
00000230: dfa3 1fbd 2504 673c 5833 8e3c d991 2b3d
00000240: ca28 553d f948 98bc cda6 60bd e2ed 593d
00000250: bb53 073d 39ef 7d3d 0ea1 72bd e695 7f3d
00000260: bee0 de3b 37b3 82bd cb94 ec3b 0a98 01bd
00000270: ae97 e1ba a38a 123d 4aa9 a73c b5aa 033c
00000280: 9688 313d e0df 48bd a69f afbc caac 4e3d
00000290: 0641 db3c d279 9c3d 83c1 1d3d c47b a33c
000002a0: 07ac be3b 4dcc b9bc ad6a 4e3c 64de 103d
000002b0: 1f28 ffbc 390c 533d e280 ebbb 247d 81bd
000002c0: 2a04 6a3d d1a3 073c a38c e63c 60ec b23c
000002d0: 52cc 13bd fd61 38bc 63ec 0bbb 97dd 033d
000002e0: c0fc 4abd f77d 10bc a98a acbc b173 43bc
000002f0: 0128 683d 59b8 a83c e77b 4e3d e1bc c4bc
00000300: fa4e 063d e3a5 10bd 020a b23c aef5 c93c
00000310: 20e1 3f3d 4498 b63c 6934 d838 7395 603d
00000320: 96ef 693d 2b42 443d 964d a7ba 2046 303d
00000330: 2b76 66bb 1a90 7cbc fbf9 06bd 3df3 bd3c
00000340: b258 0cbb 614d cc3c ae5f 4b3c f13b 233d
00000350: 795c 1c3d 0807 dbbb bb26 bb3c 7208 403d
00000360: 879b c2bc 66cf 813d 9cb3 f53c 7528 cc3c
00000370: 087d 40bd 21bc 443d 700b 19bd 9e07 883c
00000380: dda8 0dbd 4453 7bbd 7cfe 53bd 5893 4c3c
00000390: b5e2 2c3a d8b8 66bc eb2c abbb cd24 3e3d
000003a0: 54ec 723d 0e8a 26bd 89d7 7bbd fa24 64bd
000003b0: d217 bb3c e5e0 7c3d 5a80 c23c db82 c0bb
000003c0: 722d 073c 963a 37bd a2f5 393d 55e4 373b
000003d0: acc3 693c da08 d33c b5fd 873c 5b1f 6c3c
000003e0: f693 443d 7781 4d3d d900 443d b8a2 1fbc
000003f0: 2a6d 693d 3bd7 6c3d 7c02 a1bc 982a 6b3d

fc2.bias f4 [256]
-0.016351013 0.017184926 0.01589985 0.059487358 0.027397666 -0.059710145 -0.000519245 0.02162986
-0.03992812 -0.0011955671 -0.015072017 0.053292427 -0.031950776 0.065565914 0.00054802524 0.06213791
-0.052329436 0.012466683 0.024191234 -0.039092157 0.0039253873 -0.06496978 -0.015133204 0.05586843
-0.060761277 0.012255139 0.05481383 -0.030493118 0.01807265 0.04052358 -0.031959783 0.0005136626
0.05711485 -0.044182636 -0.052816473 -0.030017521 0.039076924 -0.0068082274 0.016147936 -0.034466278
0.04085428 -0.023212707 0.028078664 0.00812565 -0.06637775 0.033951495 0.019995285 0.037306644
-0.012934804 0.056690197 -0.043107115 -0.027591307 0.035231642 -0.02456827 -0.045946892 -0.056548618
0.054476287 0.03855787 0.024230912 -0.001754877 -0.015867807 0.01384548 0.030345384 0.0075320276
0.011941902 -0.032568872 -0.03422336 0.042525094 0.034116942 -0.021770839 0.028740788 -0.024053354
-0.044751853 0.04661715 0.040274926 -0.022752928 -0.05075352 -0.013628135 -0.053868964 0.027980242
-0.04992319 -0.0013607236 0.023177788 0.05411688 0.023988659 0.055365134 0.042133663 -0.056747165
-0.05415976 0.01454173 -0.017463652 -0.030701106 0.054470297 0.02964568 0.055660926 -0.009730979
-0.052818526 -0.025172608 -0.012901548 0.052522935 -0.056356985 0.018389573 0.049603548 -0.036369663
0.030861598 -0.06681097 -0.0029819522 -0.049996354 0.0027256995 -0.053957295 0.012306676 -0.05607586
-0.02811205 -0.04449692 0.05318934 0.041361094 -0.014298295 0.022412615 0.023399431 -0.02174254
-0.04744518 -0.056232598 -0.022447001 0.05870754 -0.017625354 -0.0031586282 0.046819996 -0.048204597
0.039733343 0.05459321 -0.009752473 -0.02038204 0.020194545 -0.02048254 0.052716035 -0.0063389274
0.03477432 0.048191935 -0.03801772 0.027949082 -0.012718598 0.016273828 -0.0063583595 0.04109847
0.05237692 -0.034717266 -0.0069767 0.044400264 -0.0043422705 -0.038948566 0.0048153996 0.058844868
-0.0058025056 -0.037261568 -0.0022927215 0.06506173 0.056271862 -0.029932909 0.025501382 -0.064698435
-0.008912554 0.03478652 0.042362973 -0.014758122 0.008586705 0.012972831 -0.053194 -0.041287817
0.021133222 0.00687791 0.059164427 0.045858487 -0.0046465807 -0.06412258 0.026666028 -0.014035416
0.02527591 -0.06579139 0.052657712 -0.032421034 -0.058918446 -0.052356977 -0.047048442 0.03304987
0.04928229 0.01107846 0.0137175135 -0.01535301 -0.02971444 -0.04124179 0.034757912 0.055310585
-0.041217994 0.02304144 0.015744368 -0.017934818 0.04787725 0.047337484 -0.058349814 0.0301973
0.061275247 -0.06667203 0.004019687 -0.02358886 -0.0034797245 -0.05877218 -0.0380678 0.034743544
-0.035066646 -0.022314118 -0.04967092 -0.027661351 -0.020698069 0.03964521 -0.013290778 0.008303485
-0.026193803 0.0518834 -0.014385833 0.03318345 -0.041357365 -0.0077495757 -0.027364792 -0.04381212
-0.0273101 -0.009260856 -0.053157218 0.022350227 -0.02377203 -0.0114133665 0.013083421 -0.005383458
-0.03211471 -0.025916787 0.01166647 -0.05507021 -0.0452667 -0.013176076 -0.055771068 -0.01503607
-0.046185937 -0.0040167645 -0.04257608 0.0020168559 -0.056273427 0.02621121 -0.012371221 -0.014080037
0.020559056 -0.0038407475 -0.034220118 0.045522716 0.003535078 -0.04008083 0.0007580901 -0.04460012
00000000: 8ff2 85bc 67c7 8c3c 6740 823c 04a9 733d
00000010: 1271 e03c a092 74bd f11d 08ba 1b31 b13c
00000020: ab8b 23bd 93b4 9cba 9ff0 76bc 2949 5a3d
00000030: d1de 02bd 6c47 863d 5aa9 0f3a 5284 7e3d
00000040: 6457 56bd 0f41 4c3c b22c c63c 191f 20bd
00000050: 89a0 803b e00e 85bd 42f1 77bc 4bd6 643d
00000060: d1e0 78bd c7c9 483c 7784 603d b4cc f9bc
00000070: 180d 943c 0efc 253d 43e8 02bd 50a7 063a
00000080: 43f1 693d daf8 34bd 1656 58bd 4ee7 f5bc
00000090: 200f 203d 8d17 dfbb ad48 843c 832c 0dbd
000000a0: d156 273d 9328 bebc 3a05 e63c 7221 053c
000000b0: 0ff1 87bd b910 0b3d 27cd a33c dace 183d
000000c0: 80ec 53bc fb33 683d 1691 30bd 2a07 e2bc
000000d0: 0e4f 103d 6643 c9bc cf32 3cbd 869f 67bd
000000e0: 8722 5f3d dbee 1d3d e87f c63c e703 e6ba
000000f0: 34fd 81bc 27d8 623c e296 f83c 3acf f63b
00000100: f8a7 433c f066 05bd cb2d 0cbd cb2e 2e3d
00000110: 35be 0b3d c258 b2bc cd71 eb3c 8a0b c5bc
00000120: b84d 37bd a0f1 3e3d 52f7 243d 5964 babc
00000130: ece2 4fbd 8b48 5fbc b4a5 5cbd d236 e53c
00000140: 427c 4cbd 4f5a b2ba 58df bd3c a9a9 5d3d
00000150: dd83 c43c 8dc6 623d 5994 2c3d b76f 68bd
00000160: a0d6 5dbd 7040 6e3c ef0f 8fbc e380 fbbc
00000170: 3f1c 5f3d 7fdb f23c b6fc 633d af6e 1fbc
00000180: 3d58 58bd c936 cebc 0461 53bc 4a22 573d
00000190: 95d6 66bd bba5 963c 172d 4b3d 5bf8 14bd
000001a0: 76d1 fc3c 31d4 88bd db6c 43bb fac8 4cbd
000001b0: a6a1 323b 5302 5dbd f1a1 493c cdaf 65bd
000001c0: 3e4b e6bc 6742 36bd 11dd 593d 406a 293d
000001d0: 6543 6abc a99a b73c 2ab0 bf3c 691d b2bc
000001e0: e155 42bd 2754 66bd c6e2 b7bc 5177 703d
000001f0: 0c63 90bc fd00 4fbb 53c6 3f3d 2f72 45bd
00000200: 6ebf 223d 219d 5f3d d6c8 1fbc 3cf8 a6bc
00000210: 086f a53c 00cb a7bc c5ec 573d c7b6 cfbb
00000220: 846f 0e3d e864 453d 78b8 1bbd 79f5 e43c
00000230: ab61 50bc b150 853c c959 d0bb df56 283d
00000240: 2e89 563d b133 0ebd cd9c e4bb 0ddd 353d
00000250: 9b49 8ebb 8888 1fbd 80ca 9d3b 5107 713d
00000260: f222 bebb 969f 18bd 7c41 16bb 163f 853d
00000270: 537d 663d dc35 f5bc 46e8 d03c 9d80 84bd
00000280: f605 12bc 4f7c 0e3d cc84 2d3d 0dcc 71bc
00000290: 40af 0c3c ff8b 543c f4e1 59bd 6a1d 29bd
000002a0: 941f ad3c 1760 e13b 6656 723d 1cd6 3b3d
000002b0: 5842 98bb b352 83bd b772 da3c cdf4 65bc
000002c0: 6d0f cf3c a3bd 86bd 9daf 573d ebcb 04bd
000002d0: 7854 71bd 4574 56bd deb5 40bd 4d5f 073d
000002e0: 3adc 493d 6e82 353c 6cbf 603c 318b 7bbc
000002f0: b36b f3bc 27ed 28bd 505e 0e3d 5a8d 623d
00000300: 33d4 28bd 67c1 bc3c 55fa 803c 0aec 92bc
00000310: ef1a 443d f3e4 413d 3700 6fbd 5460 f73c
00000320: c1fb 7a3d 588b 88bd 94b7 833b 6d3d c1bc
00000330: 170c 64bb 19bb 70bd fbec 1bbd 3f4f 0e3d
00000340: 0ba2 0fbd 19cc b6bc bc73 4bbd 0f9a e2bc
00000350: ff8e a9bc 0463 223d 90c1 59bc 570b 083c
00000360: 6394 d6bc b083 543d 8fb2 6bbc 5feb 073d
00000370: 5766 29bd 27f0 fdbb 212c e0bc 5674 33bd
00000380: 6eb9 dfbc d8ba 17bc 62bb 59bd d317 b73c
00000390: 8fbd c2bc 21ff 3abc d85b 563c b867 b0bb
000003a0: b78a 03bd 714f d4bc b924 3f3c 4d91 61bd
000003b0: 9369 39bd 78e0 57bc 3470 64bd d959 76bc
000003c0: 772d 3dbd 109f 83bb 4164 2ebd 3a2d 043b
000003d0: f77e 66bd e4b8 d63c a9b0 4abc f5af 66bc
000003e0: 776b a83c 0db5 7bbb 652a 0cbd 0776 3a3d
000003f0: c4ac 673b cc2b 24bd 91ba 463a 9eae 36bd

fc3.weight f4 [1, 256]
0.037811358 -0.020778164 0.052610245 -0.05246093 -0.0427911 -0.021201327 -0.052727938 -0.032331865
0.01069407 -0.012525207 0.017111773 -0.054819528 -0.047832347 -0.0041066227 -0.0016681368 -0.026172088
0.04721649 -0.003398762 0.013566612 -0.029989468 0.009050492 0.027747389 0.054144844 -0.050372075
0.03298454 -0.027021248 -0.008022741 -0.025292993 -0.047231276 -0.018586695 -0.039965887 0.012496332
0.054130327 -0.04907155 0.029691165 -0.018343512 -0.04968055 0.030342232 -0.024108144 0.03485579
0.032251712 -0.037436623 -0.053985357 -0.045346748 -0.05374048 0.06337084 0.053600404 0.02489921
-0.024119645 -0.022384793 0.05975697 0.040689774 -0.05917826 -0.05389748 -0.022998942 -0.022189768
0.021029105 0.040731758 -0.036605146 -0.035725262 0.03412666 -0.011493415 0.023551997 0.0408866
0.016846532 0.018531566 -0.0008317775 -0.04397499 -0.020281754 0.04456227 -0.051004916 -0.049162008
0.050654493 0.052391432 0.05982288 -0.046388287 -0.032049127 0.055935178 0.042556792 0.033360984
-0.029429087 -0.042198505 0.013831553 -0.041728787 -0.024915427 -0.031030992 -0.0044796322 -0.023777343
-0.060809646 0.022471514 0.04710141 0.040836252 0.027904369 -0.053829156 0.05851099 0.048525672
-0.05721112 0.058246665 0.053243946 0.038748994 -0.026835635 0.0268161 -0.05447646 0.018546205
-0.021601038 -0.036333658 -0.02333283 -0.034566194 0.043861855 -0.025861176 0.029972162 0.0071023023
0.046882775 -0.04847954 0.017001724 0.0016170773 -0.00019368886 0.054187175 -0.046949007 -0.05043011
0.06049879 -0.002077478 -0.03968542 -0.004319863 -0.008224882 0.035702698 -0.016566908 0.031678144
0.017989334 -0.03314987 -0.043483157 0.030021468 -0.01960531 -7.6756834e-05 0.043226376 -0.039429598
0.010544827 0.042523842 -0.047656037 0.01598937 0.028562177 0.031228509 -0.06332226 0.041524917
0.010106039 0.041939445 -0.0006572365 -0.024291769 0.007176958 -0.05066144 0.054425087 0.06350852
-0.042846058 -0.046273697 -0.030619128 -0.021344991 0.028597165 -0.00031012378 0.016053345 -0.04318796
-0.038180068 -0.00023350873 -0.023179607 0.035131983 0.032623038 0.0073385052 0.00031078534 0.01355382
-0.0075601367 0.027601065 -0.05039682 0.02232692 -0.05603304 -0.043971855 0.023015311 0.0013260492
-0.04273195 -0.024190689 -0.004487789 0.05029493 0.041950982 0.055414096 -0.018058738 -0.02610336
0.015956914 0.018291226 0.035546016 0.04317397 0.036799032 -0.035286363 0.011212385 -0.03406847
0.02654958 0.04874 0.024578871 0.027383849 0.06248581 -0.02404206 0.051791113 0.02577848
-0.029338349 0.051468115 0.035629336 0.01683984 -0.0059704497 -0.031538785 -0.042967953 0.01961549
-0.009689269 -0.005952327 0.046942864 0.052588128 0.0041587674 -0.0064443443 -0.051697537 0.0011124578
-0.052851778 -0.022882512 0.059811927 -0.022273507 -0.02776343 -0.039431263 0.043888602 0.05728807
0.011431798 -0.033353932 -0.061053466 -0.037203163 0.043959655 0.010760202 -0.027944373 -0.023857528
-0.0027395936 -0.052958604 -0.03556819 0.049541652 -0.009411923 0.05687389 -0.01306022 -0.050276726
0.05167859 -0.048608106 -0.03978173 0.030937005 0.05489856 0.059434623 -0.01835254 0.050995238
-0.0036803242 0.048613694 0.0005200904 -0.043299373 0.010192016 0.04147483 0.044645693 0.039883334
00000000: 15e0 1a3d f836 aabc d77d 573d 46e1 56bd
00000010: b845 2fbd 68ae adbc 40f9 57bd 6b6e 04bd
00000020: 2e36 2f3c 8736 4dbc fd2d 8c3c 718a 60bd
00000030: daeb 43bd d990 86bb 62a5 daba d966 d6bc
00000040: 1466 413d c4bd 5ebb 7f46 5e3c 79ac f5bc
00000050: 8448 143c 7e4e e33c fcc6 5d3d f352 4ebd
00000060: cc1a 073d aa5b ddbc d171 03bc 4033 cfbc
00000070: 9575 41bd 2043 98bc 45b3 23bd 6abd 4c3c
00000080: c3b7 5d3d 40ff 48bd e33a f33c 2245 96bc
00000090: d57d 4bbd 4690 f83c 717e c5bc f2c4 0e3d
000000a0: 5f1a 043d 2557 19bd c01f 5dbd 83bd 39bd
000000b0: fa1e 5cbd 92c8 813d 198c 5b3d 6ef9 cb3c
000000c0: 9096 c5bc 5060 b7bc b9c3 743d 52aa 263d
000000d0: e764 72bd 9bc3 5cbd 4768 bcbc 51c7 b5bc
000000e0: 3b45 ac3c 58d6 263d 47ef 15bd a754 12bd
000000f0: 66c8 0b3d e04e 3cbc 1ef0 c03c b578 273d
00000100: bd01 8a3c 83cf 973c a50b 5aba 1e1f 34bd
00000110: ec25 a6bc ed86 363d 88ea 50bd 1a5e 49bd
00000120: 167b 4f3d 6698 563d d608 753d a501 3ebd
00000130: f245 03bd 491c 653d 0850 2e3d 87a5 083d
00000140: 4515 f1bc 57d8 2cbd bd9d 623c ceeb 2abd
00000150: 701b ccbc b534 febc e1c9 92bb b4c8 c2bc
00000160: 8913 79bd 2e16 b83c 68ed 403d ea43 273d
00000170: b497 e43c f67b 5cbd 38a9 6f3d dbc2 463d
00000180: 3556 6abd 0e94 6e3d 5316 5a3d 44b7 1e3d
00000190: 68d6 dbbc 70ad db3c b522 5fbd 36ee 973c
000001a0: a9f4 b0bc 9ad2 14bd 7e24 bfbc 4895 0dbd
000001b0: 7da8 333d d1da d3bc 2e88 f53c 6eba e83b
000001c0: 2708 403d 7b92 46bd 3347 8b3c 1cf4 d33a
000001d0: f518 4bb9 5ff3 5d3d 9a4d 40bd ce8f 4ebd
000001e0: 94cd 773d 4c26 08bb 2e8d 22bd a38d 8dbb
000001f0: a8c1 06bc fe3c 123d 53b7 87bc f1c0 013d
00000200: 5e5e 933c 28c8 07bd 651b 32bd 95ef f53c
00000210: 519b a0bc 83f8 a0b8 240e 313d ee80 21bd
00000220: 36c4 2c3c 7b2d 2e3d fa32 43bd 24fc 823c
00000230: 3afb e93c eed2 ff3c 1aaf 81bd 0816 2a3d
00000240: cd93 253c b2c8 2b3d 654a 2cba 88ff c6bc
00000250: b02c eb3b 5f82 4fbd d7ec 5e3d c110 823d
00000260: 597f 2fbd 7d89 3dbd f7d4 fabc b1db aebc
00000270: 9a44 ea3c 1c98 a2b9 4e82 833c dce5 30bd
00000280: b462 1cbd 06da 74b9 29e3 bdbc 8ee6 0f3d
00000290: bc9f 053d d877 f03b e7f0 a239 d710 5e3c
000002a0: 06bb f7bb a11b e23c e56c 4ebd f2e6 b63c
000002b0: e782 65bd d51b 34bd 9b8a bc3c d4ce ad3a
000002c0: b207 2fbd 8d2b c6bc 4d0e 93bb 0e02 4e3d
000002d0: cbd4 2b3d e4f9 623d ebef 93bc b7d6 d5bc
000002e0: 13b8 823c 7bd7 953c b398 113d 30d7 303d
000002f0: 95ba 163d 6f88 10bd 27b4 373c 618b 0bbd
00000300: 817e d93c 98a3 473d a159 c93c 1854 e03c
00000310: 1ff1 7f3d dbf3 c4bc eb22 543d 642d d33c
00000320: fa56 f0bc 3bd0 523d 11f0 113d b4f3 893c
00000330: c3a3 c3bb d02e 01bd 2aff 2fbd aab0 a03c
00000340: bdbf 1ebc bd0b c3bb 2947 403d a666 573d
00000350: 4546 883b 142b d3bb ccc0 53bd e4cf 913a
00000360: 1b7b 58bd 1b74 bbbc 5afd 743d ee76 b6bc
00000370: 2270 e3bc ad82 21bd 89c4 333d e5a6 6a3d
00000380: 704c 3b3c 229e 08bd 3313 7abd 5862 18bd
00000390: 0a0f 343d 8f4b 303c 99eb e4bc dd70 c3bc
000003a0: c18a 33bb 1feb 58bd f3af 11bd 30ec 4a3d
000003b0: 7734 1abc 99f4 683d 88fa 55bc f8ee 4dbd
000003c0: eeac 533d 4b19 47bd 2bf2 22bd 9a6f fd3c
000003d0: 50dd 603d b871 733d 1158 96bc 62e0 503d
000003e0: 9831 71bb 271f 473d ad56 083a af5a 31bd
000003f0: 6afc 263c 83e1 293d 67de 363d b55c 233d
