notebooks/TD3_BC/HalfCheetah-v2_TD3_BC_model/critic_1.pth (torch, 290647 bytes, 5 tensors)

fc1.weight f4 [256, 23]
1.4703367 -1.9993465 -0.17593014 7.105731e-05 -0.58368355 0.065604374 0.33742115 0.45480028
-0.098381035 0.011945828 0.2619649 0.14321098 0.19698088 0.24275912 0.5408965 0.46690357
0.92561847 0.58817214 0.09486088 -0.549143 0.08739316 -0.4031534 -0.55419683 0.46199012
0.22668578 1.6625406 1.0982405 -0.73071647 0.3758355 -0.33464015 0.8681576 -0.13266349
0.29485756 -0.33445865 -0.5652449 0.36220184 -0.8219873 1.2765639 0.44574445 -0.31372026
-0.6611524 0.24750054 -1.238629 0.22042447 -0.38169122 -0.8769563 -2.6164649 0.5317987
-0.115414396 0.1618332 -0.6148894 0.5044589 -0.39569 0.07060598 -0.3845611 -0.14302662
-0.10339187 0.7684886 0.060542885 -0.18912862 -0.16810636 -0.23746128 0.17753376 0.2069163
-0.060426008 -0.2487119 1.0671978 -0.27759117 0.053512685 -0.1266841 -0.9175404 0.2801551
0.48633042 0.08073929 -0.34341112 -0.6001329 0.40332225 -0.01999356 -0.061972234 -0.30331594
0.08184163 -0.38244006 0.212897 -0.12554981 0.07472161 -0.07797986 -0.89022106 0.08384248
0.23485053 -0.2730588 -0.26370358 0.99334675 -0.49488088 -0.27535814 -0.5172288 -0.6111471
-0.40734777 -0.26330486 0.2528639 0.002974124 -0.6314391 -0.063309595 0.012231175 0.016224679
-0.2843805 0.54823536 -0.49833333 0.0033783638 -0.4110047 0.20864064 -0.48717356 0.43511245
0.4193077 0.3434961 0.3360906 -0.8613552 0.521167 -0.8207107 -0.1071147 -0.20298904
0.23027024 -0.092490435 -0.273791 -0.1351099 -0.07401266 0.09134156 -0.16120464 -0.0135624735
0.44653195 -0.70362806 -0.6886863 0.57658684 0.3481362 -0.68817574 -0.31194946 -0.24981123
-0.99956536 0.10118051 -0.49486914 -0.78553534 0.20539801 -1.7169613 -0.6896701 0.29200593
0.42186242 0.8207361 -0.9227829 -0.26057 -0.4476037 -0.8207779 -0.43197572 -0.29552683
-0.2679363 0.34411702 0.45231736 -0.20646727 -1.3601594 -0.07945368 -1.2030889 0.4274852
0.23067933 -0.024579512 -0.23223302 0.096349455 0.08361188 -0.283203 -0.50033426 -0.54712945
-0.38608667 0.054614086 -0.03992082 -0.007207614 0.427194 -0.25171715 -0.3226009 -0.21705608
-0.2091496 0.08693101 0.4267168 0.3983071 0.5523066 -0.37794352 0.522559 0.28421313
-0.37883767 0.42692968 -0.21483701 -1.2957964 -0.07454209 1.3783695 0.016006596 0.281208
-0.14954849 -0.82666874 0.4838331 0.3214398 0.4726649 -0.33439225 -0.9402552 0.3830246
0.53882 -0.1648183 -0.8909701 -0.6518296 0.6915957 -0.19278309 0.070429735 -0.016021911
-0.96831995 0.2547655 0.6226681 1.5882412 0.51185024 0.69959664 0.14789179 0.6825082
-0.19913813 -0.8296667 0.3052719 -0.2589076 -0.58241034 -1.0631801 -0.77314776 -0.52908653
0.13370588 -0.07158781 0.5539974 0.11529913 -0.13672945 0.3093804 0.48974445 -0.30988747
-1.015088 0.7126891 -0.46107468 0.14102867 -0.3633387 0.38669053 0.6013284 -0.45801738
0.37213048 0.992791 -0.26120847 0.77520347 -0.8221508 1.0812749 0.35781255 -0.9201202
-0.21310706 -0.26209205 0.23440076 0.20886514 0.29789716 -0.59984076 0.08957705 0.03427944
00000000: fe33 bc3f 96ea ffbf 0827 34be 9a04 9538
00000010: 496c 15bf 965b 863d 77c2 ac3e 95db e83e
00000020: ff7b c9bd 6fb8 433c 4320 863e e6a5 123e
00000030: 5bb5 493e d995 783e 3178 0a3f fc0d ef3e
00000040: 55f5 6c3f 7392 163f 6c46 c23d a394 0cbf
00000050: 2ffb b23d 1f6a cebe d8df 0dbf f889 ec3e
00000060: 5120 683e 21ce d43f 2593 8c3f 3c10 3bbf
00000070: 836d c03e f455 abbe 943f 5e3f f0d8 07be
00000080: 92f7 963e 2a3e abbe e4b3 10bf 8572 b93e
00000090: c26d 52bf 7266 a33f 9e38 e43e f19f a0be
000000a0: 4941 29bf c870 7d3e 658b 9ebf f4b6 613e
000000b0: 086d c3be 3580 60bf 2974 27c0 f623 083f
000000c0: 625e ecbd 9ab7 253e 6469 1dbf 3824 013f
000000d0: e197 cabe de99 903d 31e5 c4be 9275 12be
000000e0: 1ebf d3bd abbb 443f d1fb 773d efaa 41be
000000f0: 1324 2cbe 0d29 73be 69cb 353e dee1 533e
00000100: 4381 77bd 55ae 7ebe f099 883f 6e20 8ebe
00000110: 1e30 5b3d 7ab9 01be ede3 6abf 7d70 8f3e
00000120: 4d00 f93e a45a a53d 95d3 afbe 4fa2 19bf
00000130: 4180 ce3e 89c9 a3bc 99d6 7dbd 3a4c 9bbe
00000140: 969c a73d 2fcf c3be ac01 5a3e 2190 00be
00000150: a507 993d e8b3 9fbd 87e5 63bf 9bb5 ab3d
00000160: a87c 703e 5dce 8bbe 2804 87be f94b 7e3f
00000170: 0761 fdbe befb 8cbe 1b69 04bf 2374 1cbf
00000180: e38f d0be e5cf 86be 6177 813e 85e9 423b
00000190: fea5 21bf 76a8 81bd 4465 483c 9ee9 843c
000001a0: 529a 91be 2759 0c3f 8c25 ffbe 8a67 5d3b
000001b0: 356f d2be e4a5 553e d06e f9be 0fc7 de3e
000001c0: 80af d63e b9de af3e 1114 ac3e c681 5cbf
000001d0: 336b 053f 191a 52bf f45e dbbd 5cdc 4fbe
000001e0: f6cb 6b3e a06b bdbd 552e 8cbe 405a 0abe
000001f0: f393 97bd 4911 bb3d d412 25be 2335 5ebc
00000200: d69f e43e f820 34bf bf4d 30bf 329b 133f
00000210: e83e b23e 492c 30bf d7b7 9fbe 84ce 7fbe
00000220: 84e3 7fbf ba37 cf3d 7d5f fdbe d818 49bf
00000230: db53 523e 63c5 dbbf 388e 30bf cd81 953e
00000240: 5afe d73e c31b 523f 803b 6cbf 6e69 85be
00000250: 502c e5be 801e 52bf ec2b ddbe 4b4f 97be
00000260: f22e 89be 1b30 b03e 2496 e73e 286c 53be
00000270: b419 aebf 9cb8 a2bd d1fe 99bf 57df da3e
00000280: 3437 6c3e f95a c9bc 7ece 6dbe dd52 c53d
00000290: b53c ab3d fcff 90be e815 00bf ad10 0cbf
000002a0: 27ad c5be 05b3 5f3d 0484 23bd d92d ecbb
000002b0: 2cb9 da3e 12e1 80be f22b a5be f343 5ebe
000002c0: 502b 56be e308 b23d a07a da3e e9ee cb3e
000002d0: f763 0d3f d081 c1be 6dc6 053f 6284 913e
000002e0: 03f7 c1be 8796 da3e 3cfe 5bbe a8dc a5bf
000002f0: 86a9 98bd 696e b03f 4420 833c 7ffa 8f3e
00000300: 3d23 19be 90a0 53bf f9b8 f73e c293 a43e
00000310: 2201 f23e 7635 abbe 91b4 70bf cd1b c43e
00000320: 1cf0 093f 21c6 28be 9e16 64bf 4ede 26bf
00000330: 6a0c 313f ee68 45be 773d 903d 6240 83bc
00000340: d1e3 77bf a070 823e 2d67 1f3f 7d4b cb3f
00000350: 9e08 033f c418 333f f270 173e dbb8 2e3f
00000360: deea 4bbe 0965 54bf 994c 9c3e 898f 84be
00000370: d818 15bf 4916 88bf 03ed 45bf 3772 07bf
00000380: 32ea 083e a19c 92bd c6d2 0d3f f321 ec3d
00000390: ce02 0cbe 1c67 9e3e c9bf fa3e 92a9 9ebe
000003a0: 67ee 81bf cb72 363f fb11 ecbe d269 103e
000003b0: 8807 babe 4dfc c53e a8f0 193f 4181 eabe
000003c0: e387 be3e 8d27 7e3f 1ebd 85be bc73 463f
000003d0: 7a78 52bf 3767 8a3f 3533 b73e ff8c 6bbf
000003e0: bd38 5abe ee30 86be c106 703e bee0 553e
000003f0: fa85 983e 2a8f 19bf 2c74 b73d 9968 0c3d

fc1.bias f4 [256]
-1.2560751 -0.8729155 -1.61326 1.2597159 1.0529861 -0.8610453 -0.2752752 1.4577842
-1.2047898 0.60905474 0.023280492 2.050313 1.130101 -1.0381995 -1.8387961 1.5169532
-0.62192494 0.7722328 1.2513196 1.9086853 2.1477222 0.07845148 -0.60114074 0.74203897
1.061895 -2.3312283 0.40305555 1.1404493 0.22663681 -1.3581638 0.10794142 -2.0883708
1.2340101 -0.14219886 0.37911987 1.2126371 1.0050455 0.6510661 1.4572769 2.1814535
-2.303809 -1.4767394 -1.170883 -0.63001144 -1.1288104 1.3363346 2.339453 -1.378381
-1.7281747 0.50904566 -0.32353666 0.7381843 -0.7149478 -1.0167611 0.0013097746 -0.30860928
0.32102102 -1.1812571 2.0420415 -1.6905874 -0.7731242 -1.9112568 1.9012799 1.2213131
1.0697851 1.4469477 0.70074344 -1.8514333 -0.4331452 -1.0852239 -0.49398905 0.07893598
-0.5791777 -0.07902534 1.4622079 -0.12624891 -1.5276086 -1.1580962 1.742133 0.7178421
0.49743813 -1.2331982 0.5900309 -0.1670952 -0.5063401 0.53001785 -0.18756078 0.80894166
-0.94583 1.2357322 1.290615 -1.0527112 1.2419208 0.046303608 -0.41254932 -0.5558174
-1.315316 0.39182603 1.9870706 -0.25578627 1.9645648 -1.3050722 -1.5955791 -0.62777096
-1.1768996 0.6805975 -0.9084213 -0.2422595 2.845917 -2.1271677 1.3244512 -0.8080582
0.38490033 2.2256637 1.2837096 1.8314265 -0.37691474 -1.8560982 -1.2377522 1.4519145
-0.025278905 -1.5740211 1.5681497 2.19376 -1.0082412 -1.9542303 0.5319508 -1.7916285
-0.8960251 -1.5779632 1.0139583 1.8379852 1.9725336 1.8766963 -1.8209444 0.524767
-0.81376743 -1.0972027 0.366138 2.438272 -0.6854104 1.3917357 0.6992497 -1.5791247
1.477262 -2.0534437 -1.1025878 0.041814063 0.26296654 1.3281395 -1.3714361 0.6284802
0.83293384 2.463922 -0.57575816 0.7856138 1.6466547 1.0740573 0.3701121 1.3061976
0.19725591 1.5861859 -0.48868424 -0.40526345 -0.25612107 0.20712435 1.1505446 0.70621777
1.983878 0.28528237 0.16734482 -0.884092 -0.032432675 0.79531777 0.74657595 0.77587855
1.5762948 0.7732667 -1.0617788 -0.7794387 0.068160675 1.9086919 -0.90023965 -0.5848417
-0.6438865 -1.5690385 -0.7625015 2.4451628 2.4532223 -0.68390936 -0.3050789 1.2624463
1.5394663 -0.55899686 -1.4528477 0.57957613 1.9464883 1.8082229 -1.6716591 0.6180926
-1.1834464 0.06273284 0.6699507 -0.88503885 -1.2297345 2.3759742 1.9648515 1.8940713
1.8153915 -0.36844182 -2.4478335 -0.15718243 -0.16670874 -1.4921972 -1.6506146 1.1845229
1.5756345 -0.39358145 1.2971925 -1.4780176 0.16651587 0.29578054 -1.4095033 0.7426708
-0.83225346 1.1010916 -0.7068047 1.3285764 -1.1345497 -1.8963768 -0.7597339 0.34122118
2.6563442 1.5693259 1.7244207 2.639006 1.3973168 -1.2006407 1.3895161 -0.93359697
0.26489136 1.0497545 0.689617 1.2495041 1.1453593 -1.3388298 0.53190863 -0.9309013
-0.38219896 -1.0980585 -0.8754091 -1.061188 0.7083479 -1.2659986 -2.063376 1.1032203
00000000: 12c7 a0bf 6477 5fbf 4e7f cebf 5f3e a13f
00000010: 40c8 863f 776d 5cbf dff0 8cbe ac98 ba3f
00000020: 8d36 9abf 03eb 1b3f bbb6 be3c 5438 0340
00000030: 26a7 903f b9e3 84bf ac5d ebbf 862b c23f
00000040: 7936 1fbf 0cb1 453f 3e2b a03f cd4f f43f
00000050: 4874 0940 2bab a03d 5ce4 19bf 44f6 3d3f
00000060: 2dec 873f d832 15c0 4c5d ce3e 3efa 913f
00000070: 7b13 683e 50d8 adbf 6410 dd3d dea7 05c0
00000080: 0bf4 9d3f 949c 11be 001c c23e b137 9b3f
00000090: 55a5 803f 45ac 263f 0d88 ba3f ef9c 0b40
000000a0: 9b71 13c0 cc05 bdbf 7fdf 95bf 6e48 21bf
000000b0: dc7c 90bf 030d ab3f 99b9 1540 ca6e b0bf
000000c0: d434 ddbf d150 023f 99a6 a5be a5f9 3c3f
000000d0: d206 37bf 3a25 82bf beac ab3a 0902 9ebe
000000e0: de5c a43e 6f33 97bf cfb0 0240 2b65 d8bf
000000f0: 78eb 45bf 10a4 f4bf 245d f33f fd53 9c3f
00000100: b8ee 883f 9535 b93f ec63 333f c4fb ecbf
00000110: 35c5 ddbe 9ee8 8abf 22ec fcbe 30a9 a13d
00000120: fd44 14bf 0ad8 a1bd a129 bb3f 6547 01be
00000130: ae88 c3bf 7f3c 94bf 37fe de3f 80c4 373f
00000140: 36b0 fe3e 70d9 9dbf 440c 173f 011b 2bbe
00000150: 819f 01bf 40af 073f ef0f 40be cd16 4f3f
00000160: ea21 72bf 792c 9e3f df32 a53f 3ebf 86bf
00000170: 43f7 9e3f daa8 3d3d aa39 d3be 0d4a 0ebf
00000180: 465c a8bf 6c9d c83e 5458 fe3f 6bf6 82be
00000190: dc76 fb3f 9b0c a7bf f03b ccbf 99b5 20bf
000001a0: a5a4 96bf a33b 2e3f 4c8e 68bf e012 78be
000001b0: 8123 3640 8423 08c0 9e87 a93f e7dc 4ebf
000001c0: a811 c53e 4671 0e40 9950 a43f 2f6c ea3f
000001d0: f8fa c0be a094 edbf aa6e 9ebf 56d8 b93f
000001e0: b515 cfbc 8679 c9bf 21b9 c83f 9066 0c40
000001f0: 0c0e 81bf 3824 fabf ed2d 083f 1554 e5bf
00000200: e761 65bf b3fa c9bf 63c9 813f 1943 eb3f
00000210: fb7b fc3f 9637 f03f b514 e9bf 2157 063f
00000220: 1053 50bf 2371 8cbf 7176 bb3e a60c 1c40
00000230: 0e77 2fbf 6524 b23f 0702 333f c220 cabf
00000240: ec16 bd3f 9f6b 03c0 9921 8dbf 3945 2b3d
00000250: 8da3 863e 7a00 aa3f 388b afbf 14e4 203f
00000260: 273b 553f e6b0 1d40 e364 13bf fc1d 493f
00000270: 95c5 d23f b67a 893f 557f bd3e 7c31 a73f
00000280: 74fd 493e 2408 cb3f d234 fabe b17e cfbe
00000290: 4d22 83be 6818 543e 0c45 933f b0ca 343f
000002a0: b7ef fd3f 8810 923e 715c 2b3e da53 62bf
000002b0: 20d8 04bd f299 4b3f 9a1f 3f3f fa9f 463f
000002c0: 07c4 c93f cef4 453f 5ee8 87bf 4b89 47bf
000002d0: d397 8b3d 0450 f43f 1b76 66bf 30b8 15bf
000002e0: bfd5 24bf 41d6 c8bf 4c33 43bf 8c7d 1c40
000002f0: 9801 1d40 af14 2fbf 4d33 9cbe d797 a13f
00000300: 3b0d c53f 6b1a 0fbf eaf6 b9bf 1a5f 143f
00000310: 8726 f93f d973 e73f edf8 d5bf 513b 1e3f
00000320: 2c7b 97bf 137a 803d e481 2b3f e891 62bf
00000330: f167 9dbf f60f 1840 4180 fb3f ee70 f23f
00000340: c05e e83f 68a4 bcbe 4ea9 1cc0 6ef4 20be
00000350: b2b5 2abe 5100 bfbf 5747 d3bf 729e 973f
00000360: 64ae c93f 8283 c9be 670a a63f ae2f bdbf
00000370: 2383 2a3e 8c70 973e 9b6a b4bf ac1f 3e3f
00000380: 900e 55bf 92f0 8c3f 27f1 34bf cb0e aa3f
00000390: ed38 91bf 7abc f2bf ec7d 42bf 8bb4 ae3e
000003a0: 8b01 2a40 acdf c83f d1b9 dc3f 79e5 2840
000003b0: 47db b23f 98ae 99bf aadb b13f 3600 6fbf
000003c0: d79f 873e 5b5e 863f bd8a 303f c0ef 9f3f
000003d0: 229b 923f c65e abbf 2a2b 083f 8c4f 6ebf
000003e0: 95af c3be 2e8d 8cbf d01a 60bf 02d5 87bf
000003f0: 4a56 353f 3e0c a2bf 5a0e 04c0 5336 8d3f

fc2.weight f4 [256, 256]
-0.22533128 -0.30828685 0.04920616 -0.01966271 -0.21450126 0.087430425 -0.22275342 -0.09948529
-0.14674908 -0.20453376 -0.286855 0.063619174 0.01706903 -0.26085523 -0.35591453 -0.104468994
-0.2503076 -0.18169071 -0.06598845 0.060626242 0.09409257 -0.14697778 -0.17970426 -0.017857244
-0.14075819 -0.14604545 -0.10819986 -0.17235342 -0.1304969 -0.237343 0.13788201 -0.326518
-0.034807153 -0.13850828 -0.2437363 -0.15088326 -0.1751493 -0.27868542 0.05078562 0.20469162
-0.103780024 -0.21179323 -0.3611947 -0.24772505 -0.18651868 0.05483755 0.28794664 -0.2201175
-0.07872817 -0.064054765 -0.20136961 -0.13846168 -0.16979992 0.032383468 -0.14155181 -0.11055968
-0.22247697 -0.3829462 0.08158294 -0.25369635 -0.10349789 -0.0958969 -0.043709278 -0.04472063
-0.15625258 -0.045469113 0.12669775 -0.07387711 -0.16438684 -0.11092968 -0.14699346 -0.038962606
-0.04917412 -0.19945689 0.011894925 -0.14542882 -0.2970583 -0.17955816 0.102975905 0.045316968
-0.0878312 -0.1672207 -0.14138988 -0.12674369 -0.14590645 -0.13501541 -0.34554312 -0.10573557
-0.1406441 -0.08925405 -0.12058835 -0.23019673 -0.20313932 -0.19699667 -0.25304958 -0.24705169
-0.2819314 -0.15611874 0.07413633 -0.1954383 0.084799595 -0.20172852 -0.10910791 -0.15465383
-0.15050949 -0.11297127 -0.24383633 -0.18478596 0.35698703 -0.2415889 -0.0929646 -0.23981312
-0.098492 0.20040472 -0.025143761 -0.011538228 -0.003284006 -0.011331223 -0.19767483 -0.028614646
-0.28145552 -0.19195202 -0.05574199 0.047697406 -0.29262885 -0.1237022 -0.080775194 -0.244815
-0.16396256 -0.32403404 -0.11912731 -0.03318617 0.13368948 0.102915354 -0.11582574 0.06837533
-0.15912445 -0.37945658 -0.21167518 0.2177585 -0.2818141 -0.20620811 -0.20742561 -0.27746856
-0.09770036 -0.13184656 -0.26926142 -0.20345068 -0.18637125 -0.13472523 -0.15647145 -0.18878855
-0.24007072 0.3030232 -0.19141921 -0.1031293 -0.040589534 -0.06595754 -0.06612264 -0.00486699
-0.2376334 -0.008622731 -0.22198671 -0.22649708 -0.13742113 -0.078886405 -0.08985307 -0.2351811
0.05356492 -0.22020686 -0.20772465 -0.17171493 -0.115941964 -0.11149377 -0.14988402 -0.18278347
-0.052179597 -0.0845334 -0.43646213 -0.277035 0.15221933 0.022556301 -0.20062506 -0.16391672
-0.10911489 -0.11530367 -0.18529554 0.09952484 0.19685508 -0.2320127 -0.1573928 -0.04511635
-0.061332323 -0.25186992 -0.18763 -0.15269747 -0.019963197 -0.14005432 -0.23548603 -0.103049934
-0.24314906 -0.12926517 -0.15247075 -0.37374425 -0.29156688 0.056736056 0.14969184 0.08294831
-0.024456229 -0.085480005 -0.28395095 -0.19139992 -0.11048722 -0.1670984 -0.026651027 -0.13801149
0.044388738 -0.19991824 -0.062075835 -0.31234854 -0.098953374 -0.051300243 -0.038045824 -0.16197006
-0.23448771 -0.06325668 -0.25558433 -0.17316894 -0.055763755 -0.12926818 -0.37987083 -0.07274866
0.29050168 0.097550936 -0.02349744 0.24838367 -0.024048131 -0.22471751 -0.07853612 -0.3557209
-0.22619615 0.031612616 -0.069772385 -0.049959607 -0.076427594 -0.17239256 -0.1311267 -0.14214666
-0.1481726 -0.18994184 0.079488255 0.11364188 -0.14493497 -0.0349041 -0.026780626 -0.17190525
00000000: 3ebd 66be c6d7 9dbe 668c 493d b113 a1bc
00000010: 38a6 5bbe b90e b33d 7919 64be f2be cbbd
00000020: 6445 16be 4c71 51be a9de 92be c54a 823d
00000030: 5ad4 8b3c d18e 85be 6e3a b6be d7f3 d5bd
00000040: 5128 80be 210d 3abe f424 87bd 3953 783d
00000050: 9bb3 c03d 5881 16be 6504 38be 5b49 92bc
00000060: ea22 10be f08c 15be e397 ddbd 6a7d 30be
00000070: fba0 05be 0b0a 73be f130 0d3e 5e2d a7be
00000080: f291 0ebd 1dd5 0dbe 0296 79be 2481 1abe
00000090: 575a 33be dbaf 8ebe 9504 503d ae9a 513e
000000a0: 9f8a d4bd 53e0 58be 83ee b8be a3ab 7dbe
000000b0: c1fe 3ebe 579d 603d be6d 933e 7b66 61be
000000c0: 3c3c a1bd 252f 83bd d633 4ebe e6c8 0dbe
000000d0: 08e0 2dbe 87a4 043d f5f2 10be 1d6d e2bd
000000e0: 01d1 63be 8611 c4be f514 a73d 7de4 81be
000000f0: b4f6 d3bd 9865 c4bd 8008 33bd fb2c 37bd
00000100: ad00 20be d23d 3abd 0ebd 013e e24c 97bd
00000110: 0655 28be 1a2f e3bd 7485 16be 4197 1fbd
00000120: cd6a 49bd 6d3e 4cbe eee2 423c 4beb 14be
00000130: 0718 98be 18de 37be 08e5 d23d 499e 393d
00000140: d8e0 b3bd e73b 2bbe 82c8 10be 19c9 01be
00000150: 8068 15be 7b41 0abe 07eb b0be e48b d8bd
00000160: 0205 10be d4ca b6bd 06f7 f6bd b1b8 6bbe
00000170: c103 50be 7fb9 49be b78f 81be 1efb 7cbe
00000180: 5059 90be 97dd 1fbe cad4 973d fa20 48be
00000190: 69ab ad3d ec91 4ebe f873 dfbd 935d 1ebe
000001a0: 291f 1abe 7b5d e7bd 3bb0 79be 8838 3dbe
000001b0: 01c7 b63e 1563 77be 3964 bebd 9291 75be
000001c0: 2cb6 c9bd e536 4d3e 4afa cdbc d60a 3dbc
000001d0: 7a38 57bb 98a6 39bc 456b 4abe 4369 eabc
000001e0: f01a 90be 128f 44be b751 64bd 5b5e 433d
000001f0: 73d3 95be 9457 fdbd 776d a5bd c9b0 7abe
00000200: cde5 27be cae7 a5be 05f9 f3bd 39ee 07bd
00000210: e5e5 083e 49c5 d23d 0c36 edbd 5d08 8c3d
00000220: 85f1 22be 2248 c2be 61c1 58be 16fc 5e3e
00000230: f049 90be 3828 53be 6167 54be 5c10 8ebe
00000240: 2017 c8bd c902 07be a2dc 89be 6055 50be
00000250: 1bd8 3ebe 69f5 09be 0d3a 20be c951 41be
00000260: 19d5 75be db25 9b3e 6603 44be 7435 d3bd
00000270: 3641 26bd bf14 87bd 4f6b 87bd 457b 9fbb
00000280: 2c56 73be 5b46 0dbc 7c50 63be daee 67be
00000290: 20b8 0cbe 328f a1bd e304 b8bd 50d3 70be
000002a0: e466 5b3d e87d 61be c5b5 54be 0ad6 2fbe
000002b0: fb72 edbd d856 e4bd 327b 19be 972b 3bbe
000002c0: 46ba 55bd d91f adbd f777 dfbe 88d7 8dbe
000002d0: 62df 1b3e fec7 b83c a870 4dbe c9d9 27be
000002e0: a177 dfbd 5524 ecbd 1dbe 3dbe aed3 cb3d
000002f0: 6194 493e bd94 6dbe 942b 21be eccb 38bd
00000300: 9a37 7bbd 18f5 80be 1422 40be ba5c 1cbe
00000310: dc89 a3bc 666a 0fbe 4023 71be d80b d3bd
00000320: 11fc 78be 175e 04be 4b21 1cbe 685b bfbe
00000330: 4148 95be 1164 683d d148 193e cee0 a93d
00000340: 6e58 c8bc 2410 afbd 0562 91be 57fe 43be
00000350: 2047 e2bd d81b 2bbe 4153 dabc e252 0dbe
00000360: f7d0 353d 5eb7 4cbe 3b43 7ebd 26ec 9fbe
00000370: 11a8 cabd 3420 52bd f0d5 1bbd 7bdb 25be
00000380: 8c1d 70be b88c 81bd f3db 82be 3353 31be
00000390: 8968 64bd e15e 04be 6e7e c2be 40fd 94bd
000003a0: a3bc 943e c9c8 c73d b47d c0bc 4a58 7e3e
000003b0: 9600 c5bc 591c 66be 8cd7 a0bd 0d21 b6be
000003c0: f79f 67be 3b7c 013d d3e4 8ebd 72a2 4cbd
000003d0: 1286 9cbd ad87 30be 1446 06be e58e 11be
000003e0: 8fba 17be 1d80 42be bdca a23d 13bd e83d
000003f0: d569 14be 9af7 0ebd 0b63 dbbc ee07 30be

fc2.bias f4 [256]
1.5432283 0.3138078 1.3411404 1.4466307 -1.6815065 1.127041 2.184075 1.2218823
3.2770405 -1.7845613 -2.046608 1.1398847 -1.1146083 -0.83328635 1.498081 -0.6652055
1.9406239 1.7136033 0.024698908 1.589469 0.3240565 2.1973302 1.2687436 1.4485105
-0.056772187 -1.3558542 -0.07149541 -0.55391586 -1.0898855 -0.035152316 1.4650495 1.2016066
-0.2436539 0.74674624 -0.056369465 1.9503446 -0.019267209 1.0181428 0.6874673 1.564516
1.2287725 1.540815 1.6090893 -0.3148156 -0.15070017 -1.2167917 1.8569121 -0.9700675
0.008680839 -0.48697922 1.4048979 -0.0357064 3.3163664 2.7433434 -0.050305247 1.1815116
1.3823229 1.2788044 1.8311203 1.2516892 1.9473274 1.5872746 0.04017796 1.8972769
-0.87285733 0.03746853 1.365388 2.0170588 1.0881357 1.7068408 0.01617341 1.4309555
1.235541 -2.1344256 0.70257425 1.1253034 -0.034699567 -0.10483492 1.6517569 1.0943693
1.955771 -1.092176 1.0748975 0.03753379 0.94135594 -0.046783213 -2.0902314 2.342387
3.3184652 2.088711 1.6890279 -0.07988791 1.065733 1.778503 1.2589786 0.049792226
0.03960433 -1.3613824 -0.13284506 0.0032097595 -0.029983345 1.1829027 -2.3752098 -1.5082469
1.1127437 0.5531163 1.0943251 3.1582494 -0.026186977 -0.09050361 -0.039042495 3.257297
1.7243365 1.0713214 1.6480083 1.7451334 1.1396319 1.2124009 1.5161376 -1.280575
2.129603 -0.017274087 1.4035984 1.2140522 -1.71265 0.8038522 1.1485271 3.2129166
-0.068565845 -1.2721238 1.1467092 2.1091986 1.1148785 1.0670776 1.9143041 1.7390354
1.0983098 3.3102078 1.5964365 1.6316887 -1.7799537 1.164957 -2.4636908 1.3662411
0.98037255 1.277568 0.0259152 0.011937337 1.5562356 -0.037971728 0.03653136 -0.01581198
-0.9454602 -0.84675926 -1.6079321 1.1678795 -1.0469114 -0.93692744 2.2829344 1.6530209
1.3158845 3.2975695 0.97144794 1.0889194 1.7524785 -0.07859121 -0.8111897 -0.037562463
1.8571882 1.1553736 -0.0143685285 -1.6766713 0.29588833 -1.7320746 0.045603577 1.3914626
-0.6886946 0.004215135 3.281561 0.03345296 2.2069926 1.2781526 -0.029346643 1.5751737
1.6106465 2.42946 1.2343979 0.24002568 1.5237877 1.4558134 1.3800621 2.126693
-0.033913504 1.9880455 1.288868 1.3734623 1.9345648 3.2352722 0.7382452 -1.5484301
-0.056276925 1.0663247 0.11306033 -1.9720402 0.83739847 1.0009544 -1.2171603 -0.027259616
0.002727696 1.6767166 -0.0625778 1.5286043 1.35275 1.8761764 1.4036957 1.8631701
1.0418216 -1.3796579 1.0708938 -0.026260052 -0.721237 1.6427184 -1.2595974 0.008086454
1.2928368 -0.009706027 -1.9903784 1.0125699 1.217745 1.2042524 1.8829683 1.1511111
1.5829695 3.4077036 1.4942017 0.006667374 0.036826905 0.086052075 1.1324568 1.4632252
0.09037855 1.1906682 1.5855113 2.11669 -0.009949677 1.0907922 1.1555283 3.2576756
1.850404 3.4200387 -0.44592622 1.2394202 -1.3120594 0.97489065 0.004070105 3.189967
00000000: 8188 c53f 6aab a03e 7daa ab3f 322b b93f
00000010: 9b3b d7bf e142 903f e3c7 0b40 a466 9c3f
00000020: 08bb 5140 816c e4bf a0fb 02c0 bee7 913f
00000030: 7cab 8ebf 4152 55bf 1ec1 bf3f e84a 2abf
00000040: 5d66 f83f 5a57 db3f 5d55 ca3c b873 cb3f
00000050: bcea a53e 0fa1 0c40 3166 a23f cb68 b93f
00000060: f489 68bd a18c adbf 2f6c 92bd 6ecd 0dbf
00000070: 5e81 8bbf e0fb 0fbd be86 bb3f 3fce 993f
00000080: 6880 79be c32a 3f3f abe3 66bd e4a4 f93f
00000090: 44d6 9dbc 8152 823f dbfd 2f3f 0f42 c83f
000000a0: 6b48 9d3f 6d39 c53f a3f6 cd3f 832f a1be
000000b0: 2551 1abe d5bf 9bbf 4caf ed3f 5856 78bf
000000c0: 143a 0e3c 5755 f9be b2d3 b33f e040 12bd
000000d0: 593f 5440 f092 2f40 e00c 4ebd c63b 973f
000000e0: f5ef b03f ddaf a33f 2662 ea3f 5a37 a03f
000000f0: 0642 f93f d02b cb3f a591 243d f8d9 f23f
00000100: 9473 5fbf 9a78 193d 09c5 ae3f 7e17 0140
00000110: 0848 8b3f c279 da3f 197e 843c 8d29 b73f
00000120: 3526 9e3f 6e9a 08c0 e8db 333f f109 903f
00000130: 2221 0ebd b1b3 d6bd c56c d33f 4b14 8c3f
00000140: b456 fa3f 6ccc 8bbf 3e96 893f 08bd 193d
00000150: b4fc 703f c19f 3fbd 5ac6 05c0 abe9 1540
00000160: bc61 5440 71ad 0540 1132 d83f 469c a3bd
00000170: f069 883f fca5 e33f 3626 a13f eff2 4b3d
00000180: 2638 223d c741 aebf 8908 08be d45a 523b
00000190: a29f f5bc 5b69 973f 7003 18c0 3c0e c1bf
000001a0: 636e 8e3f 0899 0d3f d812 8c3f c220 4a40
000001b0: 1286 d6bc f559 b9bd 06eb 1fbd 8e77 5040
000001c0: 0fb7 dc3f 0f21 893f f0f1 d23f 8860 df3f
000001d0: 75df 913f f42f 9b3f cc10 c23f e2e9 a3bf
000001e0: 6a4b 0840 6382 8dbc 1da9 b33f 1066 9b3f
000001f0: 1d38 dbbf 42c9 4d3f f002 933f 6da0 4d40
00000200: 406c 8cbd f4d4 a2bf 5ec7 923f 1cfd 0640
00000210: 57b4 8e3f 0096 883f eb07 f53f b698 de3f
00000220: 6a95 8c3f 72da 5340 0858 cc3f 2ddb d03f
00000230: 86d5 e3bf 501d 953f 1cad 1dc0 fde0 ae3f
00000240: b2f9 7a3f 5987 a33f 1d4c d43c d294 433c
00000250: ba32 c73f 3e88 1bbd e8a1 153d 2088 81bc
00000260: ae09 72bf 37c5 58bf b8d0 cdbf 137d 953f
00000270: 3101 86bf 7ada 6fbf 991b 1240 3096 d33f
00000280: e76e a83f 610b 5340 d0b0 783f b661 8b3f
00000290: 3751 e03f 6ef4 a0bd 21aa 4fbf 19db 19bd
000002a0: 58b8 ed3f 48e3 933f fa69 6bbc 2a9d d6bf
000002b0: ad7e 973e 9fb4 ddbf d1ca 3a3d 721b b23f
000002c0: 4a4e 30bf 1d1f 8a3b 1805 5240 f905 093d
000002d0: 5e3f 0d40 819a a33f 5f68 f0bc 4b9f c93f
000002e0: aa29 ce3f 467c 1b40 c000 9e3f 4bc9 753e
000002f0: 7a0b c33f 1858 ba3f e0a5 b03f bd1b 0840
00000300: e3e8 0abd 4678 fe3f a0f9 a43f 9dcd af3f
00000310: d29f f73f b30e 4f40 a3fd 3c3f f532 c6bf
00000320: a282 66bd 547d 883f 2d8c e73d d06b fcbf
00000330: bf5f 563f 461f 803f e9cb 9bbf 8f4f dfbc
00000340: 25c3 323b a69e d63f ca28 80bd 4ea9 c33f
00000350: e926 ad3f 8c26 f03f 4dac b33f 5c7c ee3f
00000360: 695a 853f a198 b0bf 0c13 893f 521f d7bc
00000370: fda2 38bf 9944 d23f 7d3a a1bf 0c7d 043c
00000380: ad7b a53f 0706 1fbc b8c4 febf e49b 813f
00000390: 11df 9b3f f124 9a3f 1b05 f13f 9c57 933f
000003a0: bf9e ca3f d117 5a40 0042 bf3f fd79 da3b
000003b0: cfd7 163d 123c b03d 58f4 903f f74a bb3f
000003c0: 6418 b93d d167 983f 09f2 ca3f d977 0740
000003d0: f803 23bc 149f 8b3f 5ae8 933f c27d 5040
000003e0: 0ada ec3f eae1 5a40 7150 e4be 52a5 9e3f
000003f0: 90f1 a7bf 6f92 793f 845e 853b 6b28 4c40

fc3.weight f4 [1, 256]
-0.015549003 0.5540323 -0.020431256 -0.0032498473 -0.24780355 0.4954447 -3.159983 0.0056877225
0.39753816 -0.37874916 -0.13595416 0.010413221 -0.64330196 -0.8269565 -0.0077386918 -0.3021296
-0.003981682 -0.07104241 -0.027174523 0.0033636948 -4.9670215 -0.96663326 0.0039942944 -0.011926515
0.003688398 -0.22019963 -0.017422037 -0.31282958 -2.345121 -0.03589399 0.38425627 -0.0006895413
-0.812941 -4.751503 -0.0047885827 0.008114253 -0.02385426 -0.005010208 -0.8317336 -0.010745408
0.0061064106 0.0010297989 0.0006086257 -0.4182462 -3.9925592 -0.3773762 0.010618021 -0.32311353
0.011865496 -0.54613984 -0.007361338 -0.030335238 0.3860476 0.0022098713 -0.028597292 0.010922018
-0.003475241 0.0061682863 -3.0675557 -0.001497135 -0.93760234 -0.54633313 -0.010184068 0.00011383128
-0.4786269 -0.014038599 -0.021018837 0.36913684 -0.0073527824 -0.010589689 -0.044334188 -0.011359897
-0.0062506977 -0.47081408 0.55522054 0.0002568734 0.033016633 0.0031372437 -0.007201383 0.01452292
-0.48749554 -0.33096206 0.0028341007 -0.013070467 0.015077913 -0.016568406 -0.20614539 -0.8847405
0.4247174 0.011790833 0.0062607587 -0.015624437 -0.014446527 0.5864553 0.013049191 -0.026802951
-0.03950431 -0.28434756 -4.611104 -0.0016086139 -0.03781464 0.008275292 -0.34154534 -0.40795898
-0.014314098 1.04623 0.014081694 0.25084227 -3.04002 0.010781986 0.007605872 0.24390528
0.014183308 0.014356044 -0.044151634 0.0035014173 0.013859507 -0.004516179 -0.008003878 -0.45731172
-0.0034178065 -0.025577128 -1.4424645 0.009084477 -0.2924294 1.1568764 0.017931322 0.22741295
-0.021234002 -0.26338142 -0.015554802 -0.013636009 0.0018702139 -3.3619885 0.009364711 -0.001725503
-0.0068785665 0.27509543 0.0049334434 -0.026446141 -0.16969167 -0.009072349 -0.22402719 0.0012726209
-0.015185219 -0.0012843615 -0.0047231293 -0.016909475 0.0009049324 -0.0018101218 -0.010270801 -0.004275462
-0.39348158 -0.26185942 -0.25957453 0.012326553 -0.6466527 -0.48921734 -0.0024933706 -0.08296576
0.004774458 0.30569562 -0.0032031212 -0.0075179785 -1.6010433 -0.010069415 -0.33442917 0.0044960827
0.0013059838 -0.0025888481 -0.0022553832 -0.33974928 -0.77795523 -0.24800646 -0.010867266 -2.0455925
-0.3584964 -0.030897645 0.22879985 -5.34889 -0.0019556258 0.00026636847 -0.017156648 -0.017029475
-1.7332008 0.0025756971 0.009374889 -3.7982755 0.005943908 -0.0043119662 -0.013112371 0.30863738
-0.02504398 0.0037530856 0.011044295 0.005314685 0.010877222 0.2842391 0.6182387 -0.2361939
-0.02919121 0.008708602 -3.1991346 -0.37302905 -1.6758624 -2.3629436 -0.29001167 -0.042923115
0.009123372 -0.012446671 0.014109637 0.0061259377 -0.00026905752 0.013808637 -0.0050754175 -0.007562954
0.014429723 -0.20654434 0.008539409 -0.019590225 -0.5535731 -0.007197387 -0.4839452 0.002268741
-0.5757239 -0.022542633 -0.32271588 -0.003598731 0.0009456778 -0.013974113 0.23700851 -0.00018471548
-0.004459165 0.5367314 0.64341396 0.0044328794 -0.00050910603 -1.7357087 0.007919265 -0.0071348576
-0.75842726 -0.0064601884 -0.0008834646 0.4413637 -0.040770914 -0.0008791459 0.0075122183 0.32755503
-1.440079 0.46288255 -0.9164584 -0.009165234 -0.34106785 0.012362709 -0.044525012 0.19549385
00000000: 3fc1 7ebc 10d5 0d3f 735f a7bc 64fb 54bb
00000010: 37c0 7dbe edaa fd3e 293d 4ac0 1360 ba3b
00000020: 1f8a cb3e 69eb c1be 9137 0bbe 379c 2a3c
00000030: 70af 24bf 6cb3 53bf da94 fdbb bbb0 9abe
00000040: c578 82bb af7e 91bd 1b9d debc 6f71 5c3b
00000050: d7f1 9ec0 4775 77bf 92e2 823b 6e67 43bc
00000060: 0db9 713b 037c 61be a9b8 8ebc 332b a0be
00000070: 7616 16c0 9405 13bd 3dbd c43e 55c2 34ba
00000080: e71c 50bf 500c 98c0 8be9 9cbb a5f1 043c
00000090: 026a c3bc ac2c a4bb 7eec 54bf 820d 30bc
000000a0: 4918 c83b 51fa 863a 2e8c 1f3a 5e24 d6be
000000b0: 1786 7fc0 7437 c1be 35f7 2d3c 236f a5be
000000c0: 7f67 423c d2cf 0bbf 6137 f1bb 9b81 f8bc
000000d0: 08a8 c53e 7dd3 103b de44 eabc 44f2 323c
000000e0: dec0 63bb 561f ca3b d552 44c0 843b c4ba
000000f0: b506 70bf 7ddc 0bbf 14db 26bc b4b8 ee38
00000100: 960e f5be 2702 66bc b22f acbc 81ff bc3e
00000110: 9cef f0bb 6080 2dbc c497 35bd dd1e 3abc
00000120: a7d2 ccbb 8b0e f1be ef22 0e3f f7ac 8639
00000130: 733c 073d 379a 4d3b 94f9 ebbb 8bf1 6d3c
00000140: 0499 f9be dc73 a9be 52bc 393b 8325 56bc
00000150: 5a09 773c 77ba 87bc c717 53be 5a7e 62bf
00000160: 8f74 d93e 572e 413c 0d27 cd3b a3fd 7fbc
00000170: 20b1 6cbc ef21 163f 46cc 553c dd91 dbbc
00000180: 45cf 21bd 0196 91be 2a8e 93c0 20d8 d2ba
00000190: 86e3 1abd 1795 073c 08df aebe 00e0 d0be
000001a0: ae85 6abc ddea 853f e8b6 663c 666e 803e
000001b0: b08f 42c0 eda6 303c ae3a f93b 4ec2 793e
000001c0: 1b61 683c 9d35 6b3c 58d8 34bd 0978 653b
000001d0: fc12 633c 75fc 93bb b322 03bc c324 eabe
000001e0: 47fd 5fbb 2087 d1bc ada2 b8bf 0fd7 143c
000001f0: 4eb9 95be 8714 943f b5e4 923c f1de 683e
00000200: eef2 adbc eed9 86be 91d9 7ebc 9169 5fbc
00000210: f721 f53a d22a 57c0 726e 193c 462a e2ba
00000220: 9965 e1bb 4fd9 8c3e b9a8 a13b 94a5 d8bc
00000230: a7c3 2dbe 31a4 14bc 6267 65be 12ce a63a
00000240: 6dcb 78bc 0558 a8ba 7bc4 9abb bd85 8abc
00000250: fc38 6d3a 9c41 edba dd46 28bc 2d19 8cbb
00000260: 6b76 c9be 7012 86be f4e6 84be 50f5 493c
00000270: 088b 25bf b27a fabe d167 23bb f4e9 a9bd
00000280: 0e73 9c3b 2384 9c3e 75eb 51bb 6059 f6bb
00000290: fdee ccbf 30fa 24bc 4d3a abbe e053 933b
000002a0: 8b2d ab3a aaa9 29bb 0dcf 13bb 9ef3 adbe
000002b0: 1328 47bf 68f5 7dbe 9e0c 32bc fdea 02c0
000002c0: d78c b7be 0f1d fdbc 824a 6a3e 1b2a abc0
000002d0: f529 00bb 5fa7 8b39 198c 8cbc 6681 8bbc
000002e0: 86d9 ddbf 07cd 283b 2299 193c f216 73c0
000002f0: 1dc5 c23b 654b 8dbb 45d5 56bc b805 9e3e
00000300: 0829 cdbc 54f6 753b 21f3 343c cf26 ae3b
00000310: 6036 323c ca87 913e e444 1e3f d0dc 71be
00000320: 6822 efbc 86ae 0e3c 9fbe 4cc0 aafd bebe
00000330: a982 d6bf 783a 17c0 697c 94be 26d0 2fbd
00000340: 327a 153c 1fed 4bbc 1b2c 673c 17bc c83b
00000350: 4a10 8db9 9f3d 623c b04f a6bb a8d2 f7bb
00000360: a56a 6c3c 5c80 53be e1e8 0b3c ae7b a0bc
00000370: f7b6 0dbf 0fd8 ebbb aac7 f7be 28af 143b
00000380: a462 13bf 54ab b8bc 043b a5be b0d8 6bbb
00000390: 5de7 773a aef3 64bc 5cb2 723e 2fb0 41b9
000003a0: 301e 92bb 3b67 093f c7b6 243f b041 913b
000003b0: 8775 05ba b42b debf cebf 013c 86cb e9bb
000003c0: 4a28 42bf fdaf d3bb 4e98 67ba 6cfa e13e
000003d0: 67ff 26bd 7c76 66ba 0e29 f63b 4bb5 a73e
000003e0: 8254 b8bf f1fe ec3e 059d 6abf c729 16bc
000003f0: 72a0 aebe f68c 4a3c dc5f 36bd 8a2f 483e
