benchmarks/CartPole-v1/Test_CartPole-v1_DQN_20230419-022457/models/checkpoint.pt (torch, 272471 bytes, 6 tensors)

layers.0.0.weight f4 [256, 4]
0.37757137 -0.24507444 -0.29206118 0.21782847 -0.7193979 0.42253548 0.07518985 0.23080416
0.11498864 -0.06148933 0.05815105 0.020037888 0.18261409 -0.1948505 -0.03645438 -0.045013666
0.07605516 0.0015862732 0.43350008 0.15201145 -0.09422374 -0.2802588 -0.1130041 -0.14945357
-0.40646002 0.091647 0.6273004 0.37220675 -0.71028304 0.3820834 0.45968524 0.5692312
0.42193604 -0.4615237 -0.6160875 -0.24432193 0.44059637 -0.14877771 0.10473175 -0.18539406
0.53860545 -0.20645478 0.2974168 0.0017491463 -0.26340872 0.25700742 -0.26541007 0.14705235
0.12550944 -0.020266838 -0.7290966 -0.3233744 0.17811604 -0.06520218 0.68335277 0.4388226
-0.24666451 -0.3739962 0.5455812 0.23963971 -0.485777 0.36684912 0.49987048 0.4791073
-0.28027982 -0.08230299 -0.009685934 0.07302874 -0.4166832 -0.38421315 0.18378542 -0.112462826
0.3188822 0.12666556 0.2902576 -0.0133890165 0.23109928 0.2452855 -0.5418879 0.2505564
-0.3698634 -0.4032408 -0.08073179 -0.09291396 0.3805494 -0.32337478 -0.58145416 0.3799349
-0.14354908 0.2660179 0.19647552 -0.3296044 0.069945596 0.0976108 -0.36748657 -0.18600218
0.286642 0.07872323 -0.42187953 -0.15540487 0.36727953 -0.03631212 0.4705734 0.2590662
-0.5779823 -0.45857075 0.70222634 0.08359382 0.21624488 0.08730296 0.4564273 0.4965933
0.55913085 -0.33673516 -0.06330199 0.36642414 0.3984498 0.34432265 -0.44157633 -0.3961485
-0.2272964 0.09249316 0.522097 -0.27773252 0.3651947 -0.24878064 -0.51331466 -0.060808998
0.24014354 0.3589267 -0.38643986 0.17896467 0.15534429 0.2615866 0.61940676 0.46988
0.44471633 0.12283892 -0.5910464 -0.49124014 -0.12117696 -0.043421645 -0.39123037 0.18032128
0.20923671 -0.11702195 0.11725627 0.16617654 0.30676597 0.33201143 -0.1965868 0.4945753
0.20804022 0.03519286 -0.72256744 -0.41646692 -0.33922148 -0.19842237 0.3568208 -0.14528207
-0.6021336 0.18102992 0.49804524 0.47733748 -0.06681041 0.07478945 -0.44028863 -0.18870805
-0.53221965 -0.24252598 -0.093738616 0.2151429 -0.09254082 0.16482806 0.8125804 0.58493054
0.15007137 -0.046186008 -0.14419419 0.47433692 0.016355896 -0.061592247 -0.52187747 -0.016170839
-0.39411178 0.38535574 -0.4259417 -0.29997057 0.05885603 -0.26261833 0.091911644 -0.19167762
-0.003267372 0.042016115 0.14828788 -0.4252971 0.24335445 0.3357971 0.51651806 -0.35263306
0.12109494 -0.36971343 0.4268751 -0.19395316 0.3615704 0.0882414 0.082725614 -0.100732274
-0.16407576 0.25339463 0.3591819 0.2503676 -0.45203128 0.38400355 0.47040036 0.41951185
0.37765956 -0.41091365 -0.19345069 0.4920238 -0.41785535 0.5008799 -0.35682228 -0.37724125
0.31500494 -0.3669881 -0.22509131 0.36259443 0.30342573 0.50065446 -0.060421664 -0.40445122
0.5330209 -0.11652312 -0.28608662 0.1288815 -0.42562172 0.2949527 0.3638839 -0.3210708
-0.26296693 0.0019722837 0.1739453 -0.0061074547 -0.12211524 0.043101437 -0.48335657 -0.26335582
-0.24402282 0.48411673 0.45244405 -0.24295558 0.16475998 0.24229151 -0.1834271 -0.32951832
00000000: 0951 c13e cbf4 7abe 0b89 95be 6d0e 5f3e
00000010: 762a 38bf 9256 d83e 23fd 993d ed57 6c3e
00000020: 2a7f eb3d 3cdc 7bbd cc2f 6e3d 7f26 a43c
00000030: 30ff 3a3e e486 47be 3051 15bd 4060 38bd
00000040: cfc2 9b3d 7fea cf3a b9f3 dd3e e4a8 1b3e
00000050: 60f8 c0bd 157e 8fbe b26e e7bd 5b0a 19be
00000060: 871b d0be 6cb1 bb3d c296 203f e291 be3e
00000070: 1cd5 35bf 6fa0 c33e dd5b eb3e 23b9 113f
00000080: 0008 d83e d64c ecbe e9b7 1dbf 872f 7abe
00000090: d995 e13e 2f59 18be 9a7d d63d f1d7 3dbe
000000a0: 0ce2 093f e268 53be 0447 983e 9c43 e53a
000000b0: 82dd 86be 7a96 833e d4e3 87be e494 163e
000000c0: 8c85 003e a406 a6bc 13a6 3abf 5491 a5be
000000d0: 0d64 363e b888 85bd 35f0 2e3f 5bad e03e
000000e0: 9f95 7cbe 6e7c bfbe 36ab 0b3f 1d64 753e
000000f0: c3b7 f8be a6d3 bb3e 06ef ff3e 8d4d f53e
00000100: d680 8fbe 788e a8bd c0b1 1ebc 1890 953d
00000110: 8057 d5be 96b7 c4be 3f32 3c3e e952 e6bd
00000120: 8744 a33e 9eb4 013e a59c 943e 9b5d 5bbc
00000130: 4aa5 6c3e 1f2c 7b3e 2ab9 0abf ee48 803e
00000140: bc5e bdbe 9475 cebe b556 a5bd ad49 bebd
00000150: 5fd7 c23e 6191 a5be 2eda 14bf d486 c23e
00000160: 88fe 12be 8033 883e e130 493e e8c1 a8be
00000170: a33f 8f3d 2ce8 c73d 3327 bcbe 5b77 3ebe
00000180: bdc2 923e a539 a13d 9800 d8be 7422 1fbe
00000190: 100c bc3e 04bc 14bd ffee f03e 53a4 843e
000001a0: a6f6 13bf c9c9 eabe 1bc5 333f 3d33 ab3d
000001b0: 4c6f 5d3e e5cb b23d d7b0 e93e 7a41 fe3e
000001c0: 3323 0f3f 8d68 acbe 79a4 81bd f29b bb3e
000001d0: 9d01 cc3e 0f4b b03e 4b16 e2be fad3 cabe
000001e0: 63c0 68be 0e6d bd3d 26a8 053f f532 8ebe
000001f0: cdfa ba3e 5ac0 7ebe 9768 03bf db12 79bd
00000200: 30e8 753e 3ec5 b73e 72db c5be 8442 373e
00000210: 9312 1f3e aeee 853e 7191 1e3f 1d94 f03e
00000220: dcb1 e33e f992 fb3d d14e 17bf d483 fbbe
00000230: a02b f8bd e5da 31bd 594f c8be 24a6 383e
00000240: 2642 563e 34a9 efbd 0e24 f03d 2f2a 2a3e
00000250: 6e10 9d3e 67fd a93e 0d4e 49be f938 fd3e
00000260: 7f08 553e 6326 103d 2efa 38bf 273b d5be
00000270: 70ae adbe 3c2f 4bbe 37b1 b63e d3c4 14be
00000280: 6d25 1abf e85f 393e c9ff fe3e 9465 f43e
00000290: e5d3 88bd 362b 993d 836d e1be af3c 41be
000002a0: 8c3f 08bf bb58 78be 08fa bfbd 6c4e 5c3e
000002b0: 0b86 bdbd b0c8 283e 4505 503f 02be 153f
000002c0: 4fac 193e 8a2d 3dbd a4a7 13be 4adc f23e
000002d0: cdfc 853c 2748 7cbd c399 05bf b578 84bc
000002e0: 05c9 c9be 594d c53e 0815 dabe be95 99be
000002f0: 0513 713d e975 86be 2c3c bc3d 2347 44be
00000300: 6821 56bb 1719 2c3d c7d8 173e 8bc0 d9be
00000310: e931 793e 99ed ab3e 873a 043f 528c b4be
00000320: a000 f83d 144b bdbe 608f da3e a89b 46be
00000330: c11f b93e e8b7 b43d 0c6c a93d b94c cebd
00000340: 7a03 28be f1bc 813e b1e6 b73e 2f30 803e
00000350: a570 e7be 1d9c c43e 51d8 f03e 42ca d63e
00000360: 985c c13e 4663 d2be f017 46be 8bea fb3e
00000370: 23f1 d5be aa39 003f 69b1 b6be c425 c1be
00000380: 5448 a13e dde5 bbbe 567e 66be faa5 b93e
00000390: 9e5a 9b3e e42a 003f b57c 77bd 3b14 cfbe
000003a0: 0f74 083f aca3 eebd f279 92be 83f9 033e
000003b0: 17eb d9be 0a04 973e fe4e ba3e 6463 a4be
000003c0: 9aa3 86be 6e41 013b b71e 323e 0b21 c8bb
000003d0: 8e17 fabd 228b 303d 837a f7be 93d6 86be
000003e0: 1ee1 79be 26de f73e bfa6 e73e 59c9 78be
000003f0: d7b6 283e 441b 783e 50d4 3bbe a0b6 a8be

layers.0.0.bias f4 [256]
0.16095287 0.118864186 0.14864084 -0.27984387 -0.49332798 0.21614394 -0.11370787 -0.10840153
0.45688236 0.18070179 0.2998121 -0.13973606 -0.3079865 0.13646625 -0.26031387 0.07487915
-0.39021122 0.42749238 -0.19312114 0.5009801 0.39576474 0.43129942 0.369741 0.2292547
0.1741161 -0.0054769893 -0.13034934 -0.31346592 0.53068954 0.12453589 0.31062925 0.23484017
0.24952222 -0.23548669 -0.36597243 0.45659474 0.25119305 0.31277448 -0.39031845 0.11582974
-0.2590763 0.025219306 -0.035376854 -0.24963817 -0.42552364 0.17325214 0.54412705 0.5288225
-0.24866709 -0.05684029 -0.4181217 -0.2755759 -0.11339085 0.54033095 -0.03818666 0.08066865
0.54180807 0.18660966 0.4778656 0.4107094 0.546344 0.29471967 -0.32939348 -0.3775374
-0.19270536 0.49986792 0.35131377 0.19265929 -0.3598751 -0.36825234 0.47286284 0.023059353
-0.4207769 -0.0016614435 -0.017062947 0.12890086 0.2817088 0.2793392 -0.29886776 0.008122776
-0.17631982 0.41430396 0.3146029 0.34193316 0.5188428 0.3066438 -0.49964595 0.20657192
-0.26890707 0.16088748 0.050834287 0.5695459 -0.31980246 -0.37825328 -9.300201e-05 0.17377226
0.42830503 0.4901077 0.45380324 0.2431307 -0.10307433 -0.05258455 -0.21064204 0.15652728
-0.30127227 0.25807303 0.40315658 0.49625158 -0.42066276 0.4915005 -0.31409633 -0.041768294
0.52050847 0.37459752 -0.15136854 0.3508673 -0.39681387 0.46149877 0.5645851 0.0453781
0.15232949 -0.04031762 -0.2761696 -0.20853762 0.11876377 -0.368361 -0.3063456 0.11158404
-0.24441515 -0.20777373 0.045807265 -0.18871906 0.5351899 -0.16394368 -0.26075643 -0.038796462
-0.30105057 0.33774436 0.498709 -0.20950973 -0.1335654 0.5416469 -0.36169708 0.2504507
-0.40738255 -0.37430927 0.0898633 -0.19142404 0.35728368 -0.063420415 -0.004615943 -0.22356161
0.2838767 0.5256917 -0.085057296 -0.2014697 -0.45735273 0.5438231 0.28355002 0.34794495
0.13231775 0.30893221 0.22786768 0.3497283 0.38301063 0.10088958 0.4913401 0.3564478
0.025692366 -0.1959739 0.13680978 0.4584771 0.39151207 -0.13674329 -0.038409673 0.26621085
0.2432635 0.550689 0.3137516 0.22827865 0.17971185 -0.44872802 -0.10067924 0.13443728
-0.34783125 -0.34883064 0.40363702 0.24323916 -0.39379844 0.1260482 0.36407214 0.35542035
0.52781063 -0.12678756 0.3403603 -0.40559113 0.021436535 -0.2600913 -0.107037336 0.35614038
0.32149863 -0.14320573 -0.06309219 -0.040870897 -0.120914 -0.15997265 0.43838644 0.44394454
0.48277056 -0.24480182 0.43809408 -0.11056575 -0.025088925 -0.075137585 0.036150753 -0.20217244
0.13853918 -0.2762361 0.28309196 -0.35240453 -0.16303158 -0.32201165 0.41004866 0.44190586
-0.41456345 -0.20383497 0.5180001 0.18472622 0.42384586 -0.3044985 0.2952662 0.38915154
-0.079292364 0.051393148 0.43515167 0.22661774 0.21767224 0.114719756 -0.16890582 -0.246088
0.6041788 -0.0029423793 0.5167461 0.48543578 -0.21598016 0.06606332 -0.05091943 0.05484176
0.39093506 0.33020917 -0.25459483 -0.22496411 -0.30052567 -0.29296222 0.4311615 -0.231929
00000000: d4d0 243e 116f f33d 4e35 183e b247 8fbe
00000010: 7c95 fcbe d654 5d3e acdf e8bd 9f01 debd
00000020: 7cec e93e e409 393e f980 993e f816 0fbe
00000030: 68b0 9dbe cfbd 0b3e dc47 85be 3d5a 993d
00000040: c4c9 c7be 48e0 da3e 8cc1 45be 3b40 003f
00000050: ada1 ca3e 47d3 dc3e b14e bd3e bec1 6a3e
00000060: 7e4b 323e 5178 b3bb 4c7a 05be 9b7e a0be
00000070: 45db 073f ac0c ff3d cc0a 9f3e f179 703e
00000080: c182 7f3e 6c23 71be bd60 bbbe c9c6 e93e
00000090: 609c 803e fa23 a03e d2d7 c7be 2538 ed3d
000000a0: a6a5 84be b898 ce3c 52e7 10bd 26a1 7fbe
000000b0: 3cde d9be 0269 313e e94b 0b3f e960 073f
000000c0: 96a2 7ebe 5dd1 68bd 0c14 d6be 4918 8dbe
000000d0: 7639 e8bd 2153 0a3f 9d69 1cbd 9b35 a53d
000000e0: efb3 0a3f 9a16 3f3e cdaa f43e 8148 d23e
000000f0: 33dd 0b3f 7fe5 963e 43a6 a8be 954c c1be
00000100: 8e54 45be b0ee ff3e 66df b33e 7a48 453e
00000110: 8d41 b8be 928b bcbe 141b f23e f8e6 bc3c
00000120: 1270 d7be cbc4 d9ba 98c7 8bbc 96fe 033e
00000130: 233c 903e 8c05 8f3e 3205 99be 6415 053c
00000140: 2f8d 34be a61f d43e a213 a13e dd11 af3e
00000150: e2d2 043f 6b00 9d3e 98d1 ffbe 9787 533e
00000160: 30ae 89be b0bf 243e 9d37 503d c3cd 113f
00000170: 26bd a3be 6aaa c1be 130a c3b8 5bf1 313e
00000180: cc4a db3e 65ef fa3e e658 e83e 41f7 783e
00000190: a218 d3bd e662 57bd 8cb2 57be b048 203e
000001a0: 5c40 9abe 2622 843e 8a6a ce3e b014 fe3e
000001b0: 1c61 d7be f4a5 fb3e 3cd1 a0be 3b15 2bbd
000001c0: 0b40 053f 3fcb bf3e 5b00 1bbe e1a4 b33e
000001d0: 302b cbbe 9149 ec3e a688 103f 63de 393d
000001e0: 43fc 1b3e 1724 25bd 1a66 8dbe e38a 55be
000001f0: 6b3a f33d d099 bcbe 55d9 9cbe 2c86 e43d
00000200: f747 7abe a3c2 54be 66a0 3b3d 923f 41be
00000210: 3502 093f dae0 27be de81 85be 0ae9 1ebd
00000220: 4d23 9abe d4ec ac3e c956 ff3e b889 56be
00000230: 5ec5 08be 5fa9 0a3f 5c30 b9be 133b 803e
00000240: 7294 d0be 77a5 bfbe 400a b83d aa04 44be
00000250: e3ed b63e 90e2 81bd 5641 97bb 56ed 64be
00000260: 4958 913e bb93 063f 8532 aebd 134e 4ebe
00000270: 232a eabe fe37 0b3f 782d 913e d725 b23e
00000280: 4e7e 073e 5d2c 9e3e 2556 693e 960f b33e
00000290: f819 c43e 329f ce3d ee90 fb3e 5380 b63e
000002a0: cc78 d23c 62ad 48be dd17 0c3e 83bd ea3e
000002b0: 4574 c83e 6f06 0cbe 7653 1dbd ca4c 883e
000002c0: 111a 793e f4f9 0c3f 0da4 a03e e1c1 693e
000002d0: 6206 383e aebf e5be eb30 cebd eda9 093e
000002e0: f016 b2be ee99 b2be 83a9 ce3e b013 793e
000002f0: f39f c9be c812 013e aa67 ba3e a8f9 b53e
00000300: 991e 073f 99d4 01be b543 ae3e a4a9 cfbe
00000310: ac9b af3c b02a 85be 6436 dbbd 0858 b63e
00000320: 789b a43e 86a4 12be 7a36 81bd 3e68 27bd
00000330: c2a1 f7bd dfcf 23be 3074 e03e b34c e33e
00000340: b42d f73e 54ad 7abe de4d e03e 4c70 e2bd
00000350: 4a87 cdbc bce1 99bd d012 143d 4b06 4fbe
00000360: 37dd 0d3e d16e 8dbe 6ef1 903e 5e6e b4be
00000370: c0f1 26be b6de a4be e6f1 d13e 7c41 e23e
00000380: a941 d4be 1dba 50be a89b 043f df28 3d3e
00000390: 5302 d93e 3ae7 9bbe 222d 973e df3e c73e
000003a0: 0964 a2bd 9f81 523d 33cc de3e 7b0e 683e
000003b0: 79e5 5e3e 31f2 ea3d a6f5 2cbe 7efe 7bbe
000003c0: 76ab 1a3f efd4 40bb 7949 043f 0a8b f83e
000003d0: e729 5dbe 354c 873d e490 50bd c1a1 603d
000003e0: a428 c83e 2d11 a93e 415a 82be fe5c 66be
000003f0: 80de 99be 25ff 95be 33c1 dc3e cc7e 6dbe

layers.1.0.weight f4 [256, 256]
0.02905521 0.0052116653 0.031320814 -0.0036567375 0.029416155 0.06081925 -0.06274129 -0.112032466
0.03809661 0.06682367 0.061676696 0.009433381 -0.13036478 -0.01972844 -0.030030685 0.0016613438
-0.059005685 0.033164658 0.098396316 0.006732459 0.019098071 0.032689553 0.08015702 0.061958592
0.0038950418 -4.5904362e-05 -0.07823191 -0.06866978 0.0037831431 0.05081762 0.049571693 -0.026973872
0.06033751 -0.1394862 -0.08434144 0.032867838 0.020151611 0.04829068 -0.14771618 -0.021037929
-0.16923048 -0.03645428 0.0006740767 -0.055368837 -0.00780035 0.1267974 0.007299229 -0.020677716
-0.036177646 -0.02410171 -0.018226497 0.030576492 -0.28421536 0.07735493 0.00095313205 0.0895762
0.04855148 0.018555123 -0.025022693 0.07929212 -0.0040912596 0.07946064 0.011773094 -0.09113039
-0.07541535 -0.012244177 0.01815771 0.018519595 -0.042612545 0.010587126 0.06638879 0.014314223
-0.12919618 -0.0155685395 -0.001247787 0.05895825 -0.017764017 0.106299356 -0.06916999 -0.08997655
-0.12367225 0.07093479 -0.015476572 0.077363074 0.080347195 0.018542746 0.0394457 0.042369347
0.023225345 0.038712718 -0.041641183 0.030049125 -0.01774028 -0.028641753 0.045625344 0.07876807
0.09199613 0.028880443 0.0283576 0.04085291 0.046777826 -0.20953667 -0.039107565 0.054372247
-0.025294505 -0.018909888 0.024693837 0.101886645 -0.023234174 -0.0032025338 -0.013412401 -0.07986259
-0.003999501 0.06602323 -0.11492252 0.051519588 -0.1941563 0.011719333 0.011705961 0.042791918
0.024623979 0.011950325 -0.07161101 -0.028915538 -0.010654432 -0.12225921 -0.1297107 0.030301463
-0.049096692 0.0173503 -0.0083423685 0.010918767 -0.042474672 -0.09766999 -0.06861017 -0.21771167
-0.049306713 0.09533715 0.061026655 -0.24691138 -0.11749077 0.018277537 0.014366254 0.04869359
0.01000198 -0.04022576 0.041062485 -0.13361296 0.031141872 0.035672728 -0.037759762 -0.043042712
0.10461942 0.034781106 -0.13618201 -0.07905011 0.034747176 0.02370006 0.06844737 0.013629895
0.03390956 0.036626037 0.079773135 -0.0020666388 -0.011428004 0.08117923 0.02307278 0.057572737
-0.11681857 -0.094434515 0.02074615 0.06484956 0.07076687 -0.07712872 -0.053777236 0.028957788
0.036214028 -0.022379879 0.0072956895 -0.0004033915 0.043802913 -0.06335748 -0.008275459 0.06149599
-0.05343958 -0.064475484 0.02176541 -0.0022908754 -0.0049070246 -0.017424645 0.023254866 0.039140914
0.09571085 0.051276162 0.095543325 -0.05052188 -0.110585056 -0.16011578 -0.28902435 0.059373397
-0.017527841 -0.0040459097 -0.06270543 -0.08559223 -0.02107611 -0.098324984 0.0030475205 -0.03948005
-0.0025274402 0.04994461 0.047030255 0.06704084 -0.03032116 0.010623409 -0.08318149 -0.020425055
0.03170084 -0.17107219 0.055533048 -0.092428766 -0.02664415 -0.03386991 0.010368199 0.010957441
-0.026141416 -0.08494469 0.009972819 0.10273913 0.06805085 -0.10756079 0.0042575644 0.030713134
-0.0384455 0.09699429 0.08490541 0.016755031 0.09702843 0.11441095 -0.01994611 -0.05521894
0.05043711 0.013410784 -0.026837766 0.048451155 -0.04296976 -0.004109517 -0.027623942 0.042453673
0.09205376 0.017776124 -0.06024877 -0.031915136 -0.042467248 0.030867111 0.049833156 -0.06940813
00000000: 3105 ee3c 9ec6 aa3b 414a 003d e0a5 6fbb
00000010: 26fa f03c 9b1d 793d 817e 80bd 4771 e5bd
00000020: 310b 1c3d d9da 883d b4a0 7c3d 788e 1a3c
00000030: 587e 05be 8a9d a1bc e902 f6bc 73c1 d93a
00000040: f2af 71bd aad7 073d 0284 c93d f69b dc3b
00000050: 8f73 9c3c 7be5 053d 5d29 a43d 4bc8 7d3d
00000060: f543 7f3b 6f89 40b8 0d38 a0bd bea2 8cbd
00000070: 9cee 773b 2326 503d b00b 4b3d 4ff8 dcbc
00000080: 7724 773d 78d5 0ebe 34bb acbd 6da0 063d
00000090: fe14 a53c 73cc 453d e942 17be bc57 acbc
000000a0: c14a 2dbe 1551 15bd 86b4 303a 6fca 62bd
000000b0: 149a ffbb 2dd7 013e 5f2e ef3b 5064 a9bc
000000c0: 032f 14bd f370 c5bc bc4f 95bc 8d7b fa3c
000000d0: ad84 91be 436c 9e3d 9cdb 793a ba73 b73d
000000e0: ebdd 463d ea00 983c 64fc ccbc e863 a23d
000000f0: f90f 86bb 43bc a23d efe3 403c 92a2 babd
00000100: 5d73 9abd cd9b 48bc 7abf 943c 68b6 973c
00000110: 7e8a 2ebd a075 2d3c d9f6 873d 3486 6a3c
00000120: 014c 04be 3013 7fbc c98c a3ba 357e 713d
00000130: d885 91bc 7ab3 d93d ffa8 8dbd a045 b8bd
00000140: e047 fdbd 4246 913d 7391 7dbc 8870 9e3d
00000150: 128d a43d f5e6 973c d091 213d 7b8b 2d3d
00000160: 1443 be3c 3a91 1e3d f28f 2abd 9529 f63c
00000170: 1054 91bc 1ca2 eabc a4e1 3a3d 2751 a13d
00000180: 7868 bc3d ae96 ec3c 334e e83c 6255 273d
00000190: 1b9a 3f3d c890 56be 412f 20bd 6fb5 5e3d
000001a0: 6c36 cfbc e9e8 9abc bb4a ca3c f2a9 d03d
000001b0: 9855 bebc 9ae1 51bb b0bf 5bbc ff8e a3bd
000001c0: 3f0e 83bb 3037 873d 805c ebbd 3406 533d
000001d0: e9d0 46be 7202 403c 5cca 3f3c 9446 2f3d
000001e0: 3ab8 c93c 4ccb 433c cba8 92bd 47e0 ecbc
000001f0: ed8f 2ebc 0963 fabd e2d2 04be c63a f83c
00000200: 9d19 49bd 3722 8e3c 6eae 08bc a1e4 323c
00000210: ecf9 2dbd 3407 c8bd 7d83 8cbd cfef 5ebe
00000220: d6f5 49bd 2040 c33d 16f7 793d 56d6 7cbe
00000230: 009f f0bd c6ba 953c 7060 6b3c ee72 473d
00000240: 58df 233c c4c3 24bd 2331 283d d6d1 08be
00000250: 3d1d ff3c 911d 123d fba9 1abd 8e4d 30bd
00000260: b542 d63d a276 0e3d 4c73 0bbe 06e5 a1bd
00000270: 0e53 0e3d a126 c23c 222e 8c3d ec4f 5f3c
00000280: c0e4 0a3d 2f05 163d 1960 a33d 7270 07bb
00000290: 863c 3bbc 4c41 a63d 2003 bd3c 64d1 6b3d
000002a0: 933e efbd e266 c1bd d4f3 a93c d9cf 843d
000002b0: 39ee 903d aaf5 9dbd 8545 5cbd e238 ed3c
000002c0: 2955 143d 0256 b7bc ae10 ef3b 4a7e d3b9
000002d0: af6a 333d 91c1 81bd ca95 07bc 38e3 7b3d
000002e0: 76e3 5abd b90b 84bd 604d b23c 8322 16bb
000002f0: 1bcb a0bb 21be 8ebc fd80 be3c 3952 203d
00000300: 0d04 c43d f406 523d 38ac c33d 08f0 4ebd
00000310: 6b7a e2bd 64f5 23be 00fb 93be 8531 733d
00000320: 8c96 8fbc 8d93 84bb b46b 80bd fb4a afbd
00000330: cea7 acbc 9c5e c9bd e9b8 473b d5b5 21bd
00000340: 69a3 25bb b892 4c3d cca2 403d b54c 893d
00000350: 1564 f8bc cf0d 2e3c 0f5b aabd 7252 a7bc
00000360: bdd8 013d 8c2d 2fbe 9f76 633d 4b4b bdbd
00000370: d544 dabc 2dbb 0abd 61df 293c d786 333c
00000380: 8626 d6bc 7bf7 adbd 0965 233c e568 d23d
00000390: 3e5e 8b3d d548 dcbd 0a83 8b3b 1c9a fb3c
000003a0: 0779 1dbd f1a4 c63d e3e2 ad3d d941 893c
000003b0: d7b6 c63d 4a50 ea3d 0666 a3bc 412d 62bd
000003c0: 2597 4e3d e8b8 5b3c e0da dbbc b874 463d
000003d0: 0f01 30bd 21a9 86bb 9b4b e2bc e7e3 2d3d
000003e0: af86 bc3d 3c9f 913c 6ac7 76bd 72b9 02bd
000003f0: 23f2 2dbd 06dd fc3c da1d 4c3d da25 8ebd

layers.1.0.bias f4 [256]
0.09077862 -0.0413859 0.048414826 0.09829232 0.04038844 0.021764766 -0.040421784 0.005820643
-0.020248592 0.050768606 0.005053115 -0.03605888 0.037768133 0.06409762 0.018560555 0.084586695
0.123705655 0.012441355 0.07204153 0.08049509 0.035703007 0.06025511 -0.014782397 0.04959778
-0.0030383468 0.08649506 0.02190119 0.11029329 0.051740658 0.10818088 0.08378332 0.017544752
0.07188118 0.05799377 -0.09126327 0.09971715 -0.008860813 0.038006272 -0.009305976 0.008713194
0.036554746 0.0016689054 -0.03174585 0.074221924 0.09336328 0.020164605 -0.0027330536 0.019598337
0.09115943 0.08495447 -1.2953779e-05 -0.057473466 0.037736025 0.039656673 -0.01481738 -0.005754767
0.05253209 0.04816011 0.014560681 0.021861592 -0.021193022 0.029304957 0.03811172 0.05755429
0.019586042 0.029386658 0.080405496 -0.0038606068 0.07044142 0.04375808 -0.016187008 -0.026751405
-0.027826395 -0.04554013 0.018246671 -0.015898136 0.061151452 0.0006179631 0.07890953 0.09210037
0.00013620437 0.08100942 0.022200782 -0.05300178 0.06073943 0.0067814877 -0.0007613151 0.06252202
0.043599606 0.02564434 0.08862399 0.039634466 0.030717373 0.053195074 0.042442016 0.035916157
-0.023940906 0.042635925 0.08476509 0.058835305 0.06359755 0.05654552 -0.014148604 -0.00962089
-0.055548936 0.11770188 0.10708357 0.00067859143 0.042973023 -0.021220744 -0.0018926391 0.0024256434
0.023431253 0.116337225 0.020065784 0.102324136 0.030964112 -0.005457316 0.07791663 0.04644314
0.10380674 0.00471442 0.063980244 -0.026808368 0.01897783 -0.0042323023 0.0038806966 0.011162115
0.029379807 0.085915506 -0.022508416 0.04075667 0.0965539 0.057545263 0.10451047 0.034818705
0.013999553 -0.0077434704 -0.041489802 -0.011533293 0.107451186 0.019046199 0.013686833 0.01162322
0.07103773 -0.018533092 0.10565882 0.021793393 -0.0025181347 0.052476227 0.018370537 0.02786937
0.041866697 0.06640865 0.047661986 0.030333137 0.023040224 0.02815692 -0.06152091 0.09527097
-0.03705419 0.080571875 0.036874183 0.034846913 0.005511105 0.03009229 0.0269394 0.046519108
0.0642443 0.004243517 0.06102083 0.050384644 0.056974612 0.013495873 0.061925996 0.100336455
-0.009979081 0.055085275 0.077431776 -0.025679268 0.011292651 0.034479458 -0.00796565 0.109985225
0.09027131 0.034925666 -0.0045931414 -0.06475724 -0.013989103 0.03191355 0.00045902282 0.049952812
-0.0004497102 0.010542169 0.0036316793 0.05098418 0.003583124 0.061072707 0.06673231 0.08788986
0.05367325 0.09078413 0.088336125 0.023952758 -0.020017773 -0.038488805 0.04673602 0.09220946
-0.0068177497 -0.039156713 -0.03504811 -0.033236366 0.09880452 0.06566396 0.025615664 0.011878859
0.07812465 -0.0044560516 0.094225146 0.017254356 0.038043033 -0.0048656687 -0.0471859 -0.005729054
-0.016445383 -0.00012576117 0.0018871836 -0.009709421 0.10249878 0.013984358 0.12074689 0.04439516
0.026891023 0.037738148 0.010991938 0.047497272 -0.05598094 0.108814254 0.009303894 0.07722634
0.038541824 0.0052339276 0.013030193 0.05779896 -0.057914637 0.058856618 0.0077689285 -0.013070352
0.053515017 0.11021508 0.046423145 0.032858882 0.028970972 -0.049529083 -0.011940484 0.06300191
00000000: 24ea b93d 4384 29bd a04e 463d 7c4d c93d
00000010: 596e 253d 064c b23c 5091 25bd 18bb be3b
00000020: 60e0 a5bc bef2 4f3d 9a94 a53b 7ab2 13bd
00000030: c2b2 1a3d 9d45 833d 4e0c 983c ca3b ad3d
00000040: 6459 fd3d d3d6 4b3c 828a 933d 9cda a43d
00000050: 513d 123d 10ce 763d de31 72bc 0b27 4b3d
00000060: 001f 47bb 5224 b13d 206a b33c 73e1 e13d
00000070: 03ee 533d f08d dd3d 9796 ab3d 03ba 8f3c
00000080: 7136 933d e08a 6d3d 3de8 babd 8138 cc3d
00000090: f22c 11bc 77ac 1b3d 1878 18bc c9c1 0e3c
000000a0: 6eba 153d 2cbf da3a f007 02bd aa01 983d
000000b0: 3f35 bf3d 3e30 a53c 081d 33bb b18c a03c
000000c0: ccb1 ba3d 9cfc ad3d 0f54 59b7 4c69 6bbd
000000d0: 1791 1a3d 096f 223d 99c4 72bc 7c92 bcbb
000000e0: e42b 573d 8943 453d ec8f 6e3c 1517 b33c
000000f0: fd9c adbc f310 f03c 091b 1c3d 0cbe 6b3d
00000100: e872 a03c 4abc f03c a3ab a43d 3c02 7dbb
00000110: 9743 903d ac3b 333d 9e9a 84bc c325 dbbc
00000120: 2ef4 e3bc 4a88 3abd 0b7a 953c cf3c 82bc
00000130: f279 7a3d cdfe 213a 529b a13d 1e9f bc3d
00000140: 15d2 0e39 44e8 a53d 6ade b53c 6518 59bd
00000150: e9c9 783d 3e37 de3b fe92 47ba 8b0b 803d
00000160: 8095 323d 1414 d23c 7f80 b53d c057 223d
00000170: 00a3 fb3c 14e3 593d aed7 2d3d d21c 133d
00000180: b81f c4bc 02a3 2e3d 5299 ad3d 4afd 703d
00000190: 6f3f 823d 469c 673d 8ccf 67bc f0a0 1dbc
000001a0: 4887 63bd af0d f13d a14e db3d 80e3 313a
000001b0: 7b04 303d 20d7 adbc 6e12 f8ba 8bf7 1e3b
000001c0: e6f2 bf3c 3642 ee3d 0061 a43c 518f d13d
000001d0: 73a8 fd3c 49d3 b2bb c192 9f3d 293b 3e3d
000001e0: a198 d43d 6c7b 9a3b 1308 833d 399d dbbc
000001f0: 6577 9b3c 20af 8abb 4953 7e3b 4ee1 363c
00000200: ecad f03c 78f4 af3d 9263 b8bc 77f0 263d
00000210: 0dbe c53d 95b4 6b3d 9609 d63d 0f9e 0e3d
00000220: 625e 653c f0bc fdbb 36f1 29bd 23f6 3cbc
00000230: 5e0f dc3d c606 9c3c bd3e 603c 516f 3e3c
00000240: 3b7c 913d b6d2 97bc a763 d83d 0f88 b23c
00000250: 4a07 25bb 50f1 563d cf7d 963c 4e4e e43c
00000260: 6a7c 2b3d 4201 883d 3739 433d 337d f83c
00000270: dabe bc3c 57a9 e63c 5afd 7bbd 6d1d c33d
00000280: 22c6 17bd de02 a53d 6209 173d a3bb 0e3d
00000290: 8096 b43b 1b84 f63c 04b0 dc3c d28a 3e3d
000002a0: 8492 833d 330d 8b3b faf0 793d 2160 4e3d
000002b0: 365e 693d cb1d 5d3c 1da6 7d3d 337d cd3d
000002c0: 4d7f 23bc 19a1 613d 8d94 9e3d 545d d2bc
000002d0: d004 393c 553a 0d3d 5c82 02bc ef3f e13d
000002e0: 2ae0 b83d 370e 0f3d 1082 96bb 729f 84bd
000002f0: 8d32 65bc c8b7 023d 00a9 f039 529b 4c3d
00000300: 15c7 ebb9 10b9 2c3c 7801 6e3b cad4 503d
00000310: d8d2 6a3b 6027 7a3d f3aa 883d 99ff b33d
00000320: 7bd8 5b3d 08ed b93d 92e9 b43d 9338 c43c
00000330: 50fc a3bc 70a6 1dbd 456e 3f3d 50d8 bc3d
00000340: 6e67 dfbb ca62 20bd 9b8e 0fbd db22 08bd
00000350: 065a ca3d d47a 863d f1d7 d13c 8c9f 423c
00000360: d1ff 9f3d 1204 92bb 1df9 c03d 0259 8d3c
00000370: 03d3 1b3d 3070 9fbb 0146 41bd caba bbbb
00000380: 78b8 86bc c2de 03b9 605b f73a 4314 1fbc
00000390: e1ea d13d a61e 653c 254a f73d b3d7 353d
000003a0: 904a dc3c 5193 1a3d 8817 343c 808c 423d
000003b0: 454c 65bd 02da de3d 5c6f 183c d828 9e3d
000003c0: 08de 1d3d 5e81 ab3b 977c 553c 9abe 6c3d
000003d0: e637 6dbd a313 713d 7f92 fe3b 0825 56bc
000003e0: 9032 5b3d 72b8 e13d 3226 3e3d 0997 063d
000003f0: 8854 ed3c 02df 4abd 05a2 43bc 2507 813d

layers.2.0.weight f4 [2, 256]
0.13299948 -0.0035969438 -0.13557234 0.13885404 -0.018811561 -0.050705932 0.04356678 0.08002895
-0.0059512556 -0.055453185 -0.039101496 0.039481588 0.13101642 0.08515667 -0.0045296242 0.15909424
0.07233003 0.023831422 -0.055880837 0.12840869 0.115259305 0.13527156 0.05329595 0.104815096
0.036466576 0.13328284 0.061346024 0.07986887 0.0083183125 0.042977538 -0.11373204 0.09383499
0.12357555 0.12845527 -0.10227763 -0.07263166 -0.03006168 0.13755822 -0.018811733 0.11605808
-0.1901529 0.0026309933 0.05018752 0.09794162 0.13173509 0.11780609 -0.029700173 -0.10678308
0.09769071 0.117271796 0.07511638 -0.0072166547 0.11453568 0.107947 -0.17470755 -0.2588168
0.10036062 -0.033934873 0.05811441 0.110073335 -0.03434821 0.1058639 0.12091893 0.11251613
0.12914695 0.12516618 0.08511489 -0.012718185 0.118934184 0.008514561 0.14684261 -0.12985952
-0.029223438 -0.03575752 0.097976334 -0.04194048 0.076651946 0.13259883 0.1118859 0.13274927
0.14409266 0.011950117 0.14124751 -0.18264392 0.1077206 0.108562104 0.107408315 0.08669398
0.05393938 -0.1480247 0.090387255 0.10570794 0.05728756 0.13849528 -0.07403359 -0.016585438
-0.041996237 0.0047923396 0.1358605 -0.07048273 0.086017326 0.09118261 0.12906556 0.055382423
-0.01436885 0.06473784 -0.07448114 -0.04205489 0.050593898 0.120093234 -0.17344652 0.15996054
0.06370923 0.102761246 0.09041898 0.101775065 0.10406833 0.08441346 0.090301685 0.1267542
0.11372057 0.089526854 0.07620334 -0.13458231 0.098630436 0.05489908 0.057010617 -0.118257135
0.14634019 0.0707567 -0.011836373 0.11068205 0.08682468 -0.23930402 0.13916995 -0.012036721
0.11413681 -0.18998757 -0.082183294 -0.016499473 0.10284297 -0.1267402 -0.16720626 -0.036565974
0.124285996 -0.0084214825 0.10924703 0.0030069004 -0.047700074 -0.10044218 -0.06406818 -0.088399254
-0.21244167 0.10833162 0.15599558 0.104045235 -0.20084 0.10701303 0.008322999 0.15350394
-0.026441116 -0.00429029 -0.0021875799 0.06964412 0.05553466 0.1357151 0.023811355 0.11815306
-0.19057025 0.103682615 -0.22127874 -0.2914193 -0.030987013 -0.046037395 0.042732988 0.09689572
0.102058604 0.114794664 0.09405839 0.10996649 0.12987533 0.13341281 -0.33999515 0.08863235
0.10914789 -0.13075405 -0.012072086 -0.004125677 -0.19027963 -0.04327685 -0.026756532 0.11669102
0.049371477 0.012638539 0.04775374 0.123063415 -0.024331769 0.016568795 0.08739006 0.146639
0.073555015 0.14182611 0.10589534 0.08678187 -0.0112231225 0.036573768 -0.13809243 0.0887681
0.1159976 -0.032935195 -0.19312167 0.12955293 0.0667433 0.13137536 0.11415063 -0.23834953
0.05184116 -0.25743964 0.120760195 0.13901483 0.105537735 0.077490315 -0.016519837 -0.044121273
0.10686586 0.08602272 0.059090644 0.14262456 0.09125431 0.07755161 0.09729166 0.121145114
-0.05124332 0.1391193 -0.0070426143 0.12594073 -0.05182073 0.11498982 -0.24676788 0.102665044
0.06793747 -0.00032388308 -0.016500242 -0.023797588 -0.04025861 -0.047696408 -0.18163113 -0.18627796
0.13938256 0.040874653 0.11939777 0.10010251 -0.18884505 0.011672743 0.14599949 -0.16464482
00000000: 0431 083e b4ba 6bbb 7ad3 0abe c12f 0e3e
00000010: b41a 9abc 06b1 4fbd 1473 323d 38e6 a33d
00000020: c002 c3bb e122 63bd e428 20bd 72b7 213d
00000030: 2b29 063e 9f66 ae3d 3e6d 94bb 9ae9 223e
00000040: c421 943d 1d3a c33c 4ee3 64bd 917d 033e
00000050: 120d ec3d a184 0a3e db4c 5a3d 4ca9 d63d
00000060: fa5d 153d 4c7b 083e f845 7b3d 4a92 a33d
00000070: 8849 083c 3709 303d 58ec e8bd 8f2c c03d
00000080: 2e15 fd3d c789 033e ef76 d1bd e8bf 94bd
00000090: ea43 f6bc 10dc 0c3e 101b 9abc dcaf ed3d
000000a0: 71b7 42be be6c 2c3b 6e91 4d3d 9e95 c83d
000000b0: 90e5 063e 5244 f13d c74d f3bc 16b1 dabd
000000c0: 1112 c83d 322c f03d 9ed6 993d b079 ecbb
000000d0: af91 ea3d 5113 dd3d 89e6 32be a383 84be
000000e0: de89 cd3d 4bff 0abd 6009 6e3d 216e e13d
000000f0: b5b0 0cbd 2ccf d83d 58a4 f73d db6e e63d
00000100: 193f 043e 902b 003e b750 ae3d ef5f 50bc
00000110: c493 f33d a880 0b3c e95d 163e e5f9 04be
00000120: fe65 efbc 7a76 12bd d1a7 c83d c8c9 2bbd
00000130: b2fb 9c3d fdc7 073e 6f24 e53d 6def 073e
00000140: 078d 133e 6cca 433c 30a3 103e 0207 3bbe
00000150: 9e9c dc3d cf55 de3d e4f8 db3d 9d8c b13d
00000160: 8aef 5c3d c993 17be f41c b93d 687d d83d
00000170: 5ca6 6a3d b5d1 0d3e ec9e 97bd 2fde 87bc
00000180: 3f04 2cbd 0f09 9d3b 041f 0b3e 4059 90bd
00000190: da29 b03d f3bd ba3d c329 043e aed8 623d
000001a0: 536b 6bbc 4695 843d 9189 98bd c041 2cbd
000001b0: 8c3b 4f3d 71f3 f53d f79b 31be b2cc 233e
000001c0: fc79 823d 7d74 d23d 962d b93d 726f d03d
000001d0: c721 d53d f7e0 ac3d 17f0 b83d dacb 013e
000001e0: 55e6 e83d db59 b73d 7f10 9c3d f2cf 09be
000001f0: c1fe c93d dcdd 603d f783 693d cc30 f2bd
00000200: 34da 153e e4e8 903d 59ed 41bc 45ad e23d
00000210: 23d1 b13d 1d0c 75be 9182 0e3e ab35 45bc
00000220: 8fc0 e93d 1a8c 42be b74f a8bd e729 87bc
00000230: 569f d23d 2fc8 01be 1e38 2bbe 34c6 15bd
00000240: a889 fe3d 42fa 09bc e8bc df3d 6b0f 453b
00000250: 2761 43bd a1b4 cdbd 2e36 83bd ab0a b5bd
00000260: 4f8a 59be f8dc dd3d 4ebd 1f3e ab15 d53d
00000270: 00a9 4dbe a629 db3d 305d 083c 2330 1d3e
00000280: 0a9b d8bc 9095 8cbb 805d 0fbb 94a1 8e3d
00000290: 5078 633d e6f8 0a3e 0810 c33c 3bfa f13d
000002a0: d924 43be 8d57 d43d e596 62be e934 95be
000002b0: 7ad8 fdbc b591 3cbd c908 2f3d 4371 c63d
000002c0: 1a04 d13d 7719 eb3d afa1 c03d 1c36 e13d
000002d0: 0afe 043e 5e9d 083e d813 aebe e184 b53d
000002e0: ee88 df3d 64e4 05be 00ca 45bc b030 87bb
000002f0: aad8 42be 1143 31bd 8430 dbbc b4fb ee3d
00000300: bf39 4a3d e011 4f3c 6d99 433d ac08 fc3d
00000310: 6b53 c7bc 48bb 873c 8ff9 b23d 8928 163e
00000320: 03a4 963d dd3a 113e a8df d83d b1ba b13d
00000330: 30e1 37bc 60ce 153d 1a68 0dbe 0dcc b53d
00000340: 2690 ed3d 0ee7 06bd b0c1 45be 86a9 043e
00000350: b6b0 883d 4387 063e cec7 e93d e611 74be
00000360: 6557 543d 21cf 83be 1f51 f73d e759 0e3e
00000370: 2b24 d83d 3eb3 9e3d 9c54 87bc 82b8 34bd
00000380: 7ddc da3d ae2c b03d 0809 723d 2c0c 123e
00000390: 8ae3 ba3d 61d3 9e3d da40 c73d ee1a f83d
000003a0: 84e4 51bd 4a75 0e3e bbc5 e6bb 9bf6 003e
000003b0: f941 54bd c87f eb3d b8b0 7cbe 0d42 d23d
000003c0: cd22 8b3d dace a9b9 842b 87bc 29f3 c2bc
000003d0: 36e6 24bd 4f5d 43bd 83fd 39be a6bf 3ebe
000003e0: 4dba 0e3e 2e6c 273d d186 f43d 8b02 cd3d
000003f0: 9960 41be 083f 3f3c e480 153e a798 28be

layers.2.0.bias f4 [2]
0.021722205 0.03291111
00000000: c4f2 b13c cdcd 063d
