benchmarks/CartPole-v1/Train_CartPole-v1_PER_DQN_mp__20230415-215002/models/checkpoint.pt (torch, 272407 bytes, 6 tensors)

layers.0.0.weight f4 [256, 4]
00000000: 85d5 983e 47ef 88be f8b7 49be a009 7e3e
00000010: f822 13bf 1a49 a93e f972 8e3b 00c4 713e
00000020: 6332 6c3d 8b48 51bd 881a 1d3e c493 ca3c
00000030: 7f3d 3b3e 5f24 42be b07b f5bc f170 49bd
00000040: ab40 2fbe f7c2 8bbd b1cc 463f 5ebe 943e
00000050: 8577 d4bd 2af4 a0be a6f4 2fbe e000 53be
00000060: f23c 9cbe c566 863d 383a 253f 2b82 c63e
00000070: 6d5e 1fbf ecb9 b93e 51d7 f93e 23ef 153f
00000080: 1550 b43e 13ef f6be 0f4d 0dbf 454e 79be
00000090: 90b2 d23e db01 12be ba38 513e b73f 33be
000000a0: ddf8 003f 2ef9 40be b110 c73e 50d7 403b
000000b0: 0056 8cbe 8613 803e 048a 89be feb8 213e
000000c0: 062f 65bc 2956 92bd ae3f 52bf d850 babe
000000d0: 7c7d 7e3e 5ee2 59bc 1c10 3c3f 4c40 e53e
000000e0: 5ce6 75be 5b91 c7be 61f4 0f3f 2c04 7c3e
000000f0: 4820 c7be b68e d83e fff0 123f 7dea 003f
00000100: c055 c0be 0f14 19be 1896 aabd d654 853d
00000110: 6dcd c5be 84a5 b8be 4fd0 8d3e e251 dbbd
00000120: 73f1 903e cde1 823d 105e 503e 56ce 223e
00000130: 09fd 493e 8150 833e 108d ecbe 171e 823e
00000140: 4ea8 afbe aaac bfbe 0484 023c e28b b8bd
00000150: 7f84 a13e f02c a9be 1b9a 00bf 47f6 c73e
00000160: edf3 4abe c8eb 7b3e 36df 9d3e b635 98be
00000170: 0628 e7bc e93f 0d3d 8c1c 82be 1ca9 0fbe
00000180: 4543 d13d d452 0d3e 51ea 18be 8112 2bbe
00000190: 1162 d33e cd6b 3fbc 87c2 013f 7c5d 893e
000001a0: 79dc 0bbf f7a1 03bf 7430 313f c5a0 d23d
000001b0: 11f1 463e 831a c63d 2c4e fb3e d221 013f
000001c0: 5d25 013f ad59 a9be e1fd 8d3c cad7 bf3e
000001d0: eedb 4b3e 5972 b13e c54f 8abe b37f c1be
000001e0: 083c b4be 3e6a 783d 8c57 0c3f 38b6 9abe
000001f0: 9d7d b03e e697 a8be b30c 0cbf 19a6 4ebd
00000200: 0b58 223e 84ef c33e 1470 a2be 0004 0d3e
00000210: 83aa 833e 4b8a a93e 3210 2a3f 88eb f83e
00000220: 039a 163f 0618 133e 678c 22bf 61fe 03bf
00000230: 822a 76be 2a79 62bd 94e5 9abe d5c9 3b3e
00000240: 40a4 283e 6d05 b3bd b740 543e d046 2a3e
00000250: 5e3b 4f3e 9462 a93e 89b2 26be 70fe f23e
00000260: 6556 6b3e e814 033d b13e 47bf 0c36 e0be
00000270: e83f 94be 1a64 4bbe 9c88 c63e 2166 19be
00000280: 4414 0ebf 3668 173e 0935 f23e c766 e73e
00000290: 92ce 4fbe aa51 b43c e10a e0be 63a3 36be
000002a0: e363 03bf cfd1 7cbe d1c6 2ebd 3fdc 663e
000002b0: 7879 4fbd 906b 243e 2526 573f 7ee7 1a3f
000002c0: 52ed 083e 2901 bbbc 46e5 b8bd d2b8 f73e
000002d0: 0678 b4bd fd97 abbd 9e08 03bf 5aaa 72bd
000002e0: 2a49 efbe b9dc b73e 9941 91be a9ad 84be
000002f0: 2173 b8bc 220b 8fbe 1183 263e e7ff 42be
00000300: 7eeb d839 de5b 393d e232 f73d 3a10 dbbe
00000310: 1568 223d d6b9 ca3e bec8 253f 16d7 b9be
00000320: ae81 123d 40e7 e5be 1d7e df3e 4ab2 03be
00000330: ca33 9a3e 40e3 733c f080 1fbd c0b1 82bc
00000340: 05bc 8cbc 280d aa3e 3853 c43e e7cf 893e
00000350: c9fd f3be 261c cb3e 68db 023f 916f d53e
00000360: 87e0 8b3e 20d9 c9be 46ac c6bd fb28 f53e
00000370: e1fd ffbe 78b5 053f 53c6 76be 802c b7be
00000380: 7eaa 893e 8f44 bcbe 9f80 22be 068a bd3e
00000390: ba27 143e a990 013f 4e2e 5c3d 2c98 c8be
000003a0: c169 f73e f4d9 e9bd 12d2 57be 56d1 043e
000003b0: c340 f2be 6bdc 913e d48d ef3e d574 a0be
000003c0: c0ac d6be 883d 2cbd b1b3 5a3e 1019 5fbc
000003d0: 8712 b2be fbe0 703c 2aab bcbe 026d 9ebe
000003e0: d4e1 6ebe 1a2c e73e 938e b83e 5cf9 5abe
000003f0: 6bae 893e d9b4 873e a408 3ebe e602 acbe
0.29850402 -0.26745054 -0.19699085 0.24808359 -0.57475233 0.33063585 0.004347202 0.23609924
0.05766524 -0.051094573 0.15342152 0.024728663 0.18285178 -0.18959187 -0.029966205 -0.049179975
-0.17114513 -0.06824296 0.77656084 0.2905149 -0.10374359 -0.31436282 -0.1718317 -0.20605803
-0.30515248 0.065625705 0.6454196 0.38771185 -0.6225346 0.3627466 0.48797086 0.5856802
0.35217348 -0.48229274 -0.5519571 -0.24346264 0.41151857 -0.1425852 0.20431796 -0.17504774
0.50379735 -0.18845055 0.38879922 0.0029425211 -0.27409363 0.25014895 -0.2686311 0.15793225
-0.013988262 -0.0714534 -0.8212842 -0.36389804 0.24852556 -0.013298599 0.7346208 0.44775617
-0.24013656 -0.38978085 0.5623227 0.24610966 -0.38891816 0.4229638 0.5739898 0.503578
-0.37565422 -0.14949058 -0.08329409 0.06510322 -0.3863329 -0.36063778 0.2769799 -0.10708977
0.2830921 0.06390724 0.20348382 0.15899023 0.19725432 0.25647357 -0.46201372 0.25413582
-0.34308094 -0.3743642 0.007966045 -0.090110555 0.315464 -0.33042097 -0.50235146 0.39055082
-0.19819613 0.24601662 0.3083436 -0.29728478 -0.028217327 0.034484778 -0.25412405 -0.14029354
0.10217909 0.13801128 -0.14933135 -0.16706277 0.41285756 -0.011683417 0.5068745 0.26829135
-0.5463329 -0.51419014 0.6921456 0.102845706 0.19427897 0.096730255 0.49083078 0.5044223
0.50447637 -0.3307623 0.017332973 0.3746932 0.19908115 0.34657553 -0.27013984 -0.3779274
-0.3520205 0.060648195 0.54821086 -0.30217147 0.34470835 -0.3292839 -0.5470688 -0.05045137
0.15853898 0.38268673 -0.31726134 0.13771057 0.25716028 0.33113322 0.6643096 0.48617196
0.58828753 0.14364633 -0.63495487 -0.51560026 -0.24039653 -0.055291332 -0.3025328 0.18338712
0.16468906 -0.08741269 0.20727812 0.16628575 0.2023749 0.33083022 -0.16279043 0.47459745
0.22982176 0.03200236 -0.77830034 -0.43791234 -0.28955007 -0.19862404 0.387761 -0.14980365
-0.5549967 0.14785847 0.47306088 0.451956 -0.20293644 0.022011597 -0.437583 -0.17835765
-0.5132429 -0.2468941 -0.042670075 0.22544955 -0.05065295 0.16056657 0.8404258 0.6050948
0.1337178 -0.022827702 -0.090281054 0.48383194 -0.08811955 -0.08378599 -0.51185024 -0.05924449
-0.46735507 0.35910586 -0.2837036 -0.25913742 -0.022515835 -0.2793818 0.16260935 -0.19042931
0.00041374186 0.045253627 0.12070252 -0.42785817 0.03965004 0.39594907 0.64759433 -0.3629691
0.035768203 -0.44902992 0.43650904 -0.1286098 0.30117637 0.014885724 -0.038941324 -0.015953898
-0.017179498 0.33213162 0.3834474 0.2691643 -0.4765456 0.39669913 0.5111604 0.4168668
0.27319738 -0.39423466 -0.09700827 0.47882828 -0.49998382 0.52230024 -0.24099092 -0.35776138
0.26887888 -0.36771056 -0.15869378 0.37019366 0.1446828 0.5061136 0.053755097 -0.39178598
0.4832287 -0.114185244 -0.21076229 0.1297048 -0.47315034 0.28488478 0.46787894 -0.31339136
-0.41928673 -0.04205087 0.2135761 -0.013616815 -0.3477976 0.014702077 -0.36849338 -0.3094254
-0.23328334 0.45150834 0.36046275 -0.21384186 0.26890883 0.26505163 -0.18557984 -0.3359596

layers.0.0.bias f4 [256]
00000000: 33bf 393e 9ec9 5a3e 08ef 4f3e 44f4 92be
00000010: b89c a6be ba51 3b3e 2324 edbd 8881 a8bd
00000020: d6be fe3e c993 733e 6681 b43e 0558 08be
00000030: 93c5 66be 629c 523e e027 6cbe 0e8b df3d
00000040: 6a4f afbe 2ed2 ff3e 6fce 9abe 8aed 0e3f
00000050: 3a69 f23e 742d f63e 785e e73e ab92 9b3e
00000060: 447d 193e 8c15 f63d 0160 dfbd afe2 9cbe
00000070: 57fb 133f e3ae 533e e3a9 b93e e9c0 443e
00000080: 267b a53e bfb4 20be fced 8fbe e003 023f
00000090: d041 9d3e e44f cf3e 2928 bbbe 03c3 233e
000000a0: a1f4 a5be 5bf2 69bb 834e 1ebb 7f7b 66be
000000b0: ee7a dcbe 7cc9 463e 4e49 1f3f 1af0 143f
000000c0: e65a 8cbe 7670 2a3d fd0d c3be 96ec c7be
000000d0: 0f94 66bc c31e 1d3f 5708 22bd 381a 3c3e
000000e0: cf19 173f 3d60 8d3e 75b8 073f eb8c f43e
000000f0: 8133 193f 47d2 903e fcc4 c6be 26c3 b8be
00000100: f6df 2ebe b939 123f 3ddd d33e a32e 753e
00000110: 2d42 99be d765 afbe 6650 093f 3e4a 573b
00000120: d341 dabe 4d0d 983d f6f8 02bd a17c 1f3e
00000130: c229 9c3e 9470 bc3e aeaf 91be 249f 563e
00000140: e352 f3bd f0bc ee3e 877b c43e d28b c83e
00000150: a985 153f f276 b63e d64f e2be 1186 883e
00000160: f185 8dbe 7908 723e 96f1 073d 5aca 203f
00000170: 08d1 94be 402d bcbe 8201 133d 50ff 603e
00000180: 0e8d ff3e db24 093f e496 033f 7f55 ad3e
00000190: ac0b 4bbd 0865 4bbd 2aa3 4ebe b823 603e
000001a0: edf9 87be ae87 c23e 4cdd fa3e bc76 0d3f
000001b0: 6a91 d6be 9814 0d3f 5f86 a0be cec4 cd3b
000001c0: 16be 173f d0d3 d63e d6db 78bd f347 cd3e
000001d0: 8093 c4be 0765 033f 268d 263f 0415 053e
000001e0: 2989 3a3e 61cb 05bd 22f7 83be bd4e 06be
000001f0: 1388 c53d 87f0 64be 7284 75be bb6b fd3d
00000200: 493a 75be ae7a 2ebe def4 253d 63d8 12be
00000210: 9eb7 183f 84c5 f0bd 01ab 5dbe 9b73 b6bb
00000220: 4080 8fbe 4e5d ca3e 039c 0a3f ee96 1bbe
00000230: a73e bfbd 70fe 193f a400 b9be cbaa 963e
00000240: 4da5 d0be 66ed a6be 09a1 0c3e 6671 eebd
00000250: e130 d63e 9737 78bd 1cc4 943c de3c 32be
00000260: 2751 b33e 68e2 173f 9450 b5bc 46fc 52be
00000270: 9984 a5be 4367 1c3f 33db ae3e 80c1 bd3e
00000280: 85a0 583e 1050 c43e fdbd 943e bf92 cc3e
00000290: 716a e93e 7b1d 6c3e bce0 0c3f dc0a e03e
000002a0: 51b8 3f3c a40e c6bd 7ac5 653e bb75 043f
000002b0: 11e2 e73e 3fef 04be 515a 62bc 3379 9a3e
000002c0: 5b38 ab3e ffa9 193f 172b bc3e 74dd a53e
000002d0: b1ac 9d3e 266c d3be c882 c9bd 972c 163e
000002e0: 57e1 adbe ac81 9dbe 2d5a f33e 76ef ac3e
000002f0: c272 adbe e254 643e 0f95 df3e 7345 d63e
00000300: 9721 173f d405 f4bd 9191 ba3e 174d cfbe
00000310: 228d a1bc ce06 4cbe 3dc4 5fbc da04 d73e
00000320: f0d3 e13e 5607 3abe a655 77bd 621d b5bc
00000330: 4696 72bd 9f99 fcbd 5621 fe3e 5656 fe3e
00000340: e8b6 0a3f b8ae 31be bffa fa3e b7f2 003d
00000350: b040 07bd f685 67bd 7b86 093d fbbe 04be
00000360: f919 593e 184c 65be fcb7 ae3e 169c 92be
00000370: 26e3 cbbd dd28 8fbe b61d fb3e a21f 013f
00000380: d466 cbbe 883b 29be cd36 123f fbc2 823e
00000390: 03fa 003f 3fe1 8cbe 940f b63e cac7 d93e
000003a0: 95c8 13bc 879f 273e 1362 fc3e 944d a83e
000003b0: 8b1b 8a3e 21c5 303e 6165 cdbd 680d 68be
000003c0: 0280 243f af77 113e a00a 133f 4f46 0f3f
000003d0: 3c08 3dbe 4afa 233d 3aa4 51bd 5432 f23c
000003e0: a12d d43e 33f7 c13e c88a e1bd 08ad 38be
000003f0: f565 97be e4bf 99be 2f26 ec3e 0989 4abe
0.18139343 0.21365973 0.20306027 -0.28701985 -0.32541442 0.18292895 -0.11579158 -0.08227831
0.4975497 0.23786844 0.35254973 -0.13314827 -0.22536306 0.20567468 -0.23062086 0.109151945
-0.34240276 0.49965042 -0.3023562 0.55831206 0.47345906 0.48081553 0.4518926 0.30385336
0.14989191 0.120158285 -0.10906983 -0.30641696 0.5780539 0.20672183 0.36262426 0.19214214
0.32320517 -0.15693949 -0.28111255 0.5078716 0.30714273 0.4049064 -0.36554077 0.1599236
-0.324132 -0.0035697434 -0.0024155683 -0.22508048 -0.43062538 0.19412798 0.6222123 0.58178866
-0.274131 0.041611157 -0.3809661 -0.39047688 -0.014073386 0.61375064 -0.039558735 0.18369377
0.59023756 0.27612486 0.53015834 0.47763762 0.59844214 0.2828543 -0.38822162 -0.36086386
-0.17077622 0.5711933 0.4137973 0.23943572 -0.299333 -0.34257385 0.53638303 0.0032850648
-0.42628345 0.07424412 -0.03197571 0.15574886 0.3050061 0.3680464 -0.28454345 0.20959145
-0.11881044 0.46628523 0.38375494 0.39169174 0.58407074 0.35637623 -0.44201535 0.26664785
-0.27641252 0.23636045 0.03318938 0.62808764 -0.29065728 -0.36753273 0.03589011 0.21972394
0.49912304 0.5357186 0.51402116 0.3385429 -0.049571678 -0.049656898 -0.2017943 0.21888626
-0.26557866 0.3799414 0.4899696 0.552593 -0.41907817 0.5510955 -0.31352517 0.0062795645
0.59274423 0.41958475 -0.060756527 0.40093955 -0.38393784 0.5132603 0.65059125 0.12996298
0.18216385 -0.03266466 -0.25774485 -0.13115974 0.09645095 -0.22357379 -0.23976305 0.123740636
-0.23948015 -0.17038986 0.040516727 -0.14340357 0.5965518 -0.11756423 -0.21647264 -0.0055679805
-0.28027534 0.3952431 0.54144305 -0.15194294 -0.09338122 0.60153866 -0.361333 0.2942718
-0.40751114 -0.32602996 0.13733305 -0.11642723 0.41834167 -0.06059989 0.018159918 -0.17406031
0.35022852 0.59329844 -0.02213315 -0.20604047 -0.32327726 0.61095065 0.3415161 0.3706169
0.21154983 0.38342333 0.290512 0.39955708 0.4558902 0.23058121 0.5503042 0.43758285
0.011701659 -0.09670761 0.22438613 0.5174214 0.45289662 -0.1298189 -0.013815478 0.30170593
0.33441433 0.6002502 0.36751625 0.32395518 0.30795816 -0.41293448 -0.09839398 0.14665447
-0.33960983 -0.30762994 0.47529736 0.33776444 -0.33876616 0.22298005 0.4366841 0.4184986
0.5903563 -0.11915174 0.36439183 -0.40488502 -0.019720618 -0.19924471 -0.013657627 0.4199589
0.44107008 -0.18166861 -0.060384415 -0.022108737 -0.059225343 -0.123339884 0.49634808 0.49675244
0.5418534 -0.17351806 0.4901943 0.03148147 -0.033020675 -0.05652424 0.033575516 -0.12963478
0.21201314 -0.22392309 0.34124744 -0.2863471 -0.099554345 -0.27960864 0.49046105 0.5043889
-0.3972689 -0.16526616 0.5711487 0.25539383 0.5038149 -0.275156 0.3555876 0.4253524
-0.00901999 0.16369449 0.49293575 0.32871687 0.2697414 0.17262699 -0.10029102 -0.22661364
0.64257824 0.14205812 0.5743809 0.5596666 -0.18460172 0.040033616 -0.05118201 0.029565014
0.41441062 0.3788391 -0.110127985 -0.18034756 -0.29569975 -0.30029213 0.46122882 -0.19778837

layers.1.0.weight f4 [256, 256]
00000000: 0c2e 9eb8 7579 37ba 9ae7 1d3c 0085 94bb
00000010: 3d54 023d 4036 023c 761e debe 300a 5d3c
00000020: 1948 51bb e3c1 053c 1e1b 283d a243 0c3c
00000030: af81 2f3d ac77 42bf 4b9a 8eba 4f00 533d
00000040: 786f 75bd c127 b83b bbb6 653d f713 03bd
00000050: 7526 cebf a0c6 76bb cba2 a33c 357b bc3c
00000060: cb52 5d3c 4ef6 c43c 0029 e1bc 6e5d d23c
00000070: 9d81 a9bc b2b2 1c3d b3af 3cbd 57f7 6fc0
00000080: 27e0 643b 8a35 053d 470e 5bbb 8a81 d938
00000090: e395 4bba 4c59 053d 546f 843b be36 67bd
000000a0: 31d8 42bd 8605 12bd 1953 9bbd 9bff 713d
000000b0: 2bcb 7dbc 3266 413d e8d4 5abd 789d 76bd
000000c0: 2b8c d0bb 87f5 31bd a9ee ecbf 20af e63b
000000d0: 1f95 60bd 3bbd 2b3d eab5 2abd 086d 39c0
000000e0: 6369 a13c 0b51 4cbc 00d6 97c0 fc62 72c0
000000f0: 1489 11bd af9a 593d 19e1 59bd 243f 87bc
00000100: 2f34 11bd 669d 27bd 8e0f 08bd 2b56 e7bb
00000110: d350 573b 2862 233c 2d71 98c0 5e23 d6bc
00000120: e494 76bd f9b3 03bf a0b7 6e3d d24d 08bc
00000130: 2809 5abd ae92 453d dfea 693c 799a 233c
00000140: 6b24 253c 49ee 2e3d d022 e9bc aa79 a3be
00000150: 797f 733d b613 90bc ac81 e13b 663d 0d3d
00000160: a938 6d3d 9db3 78bc 0be0 1abd 2215 c5bc
00000170: 2a8d 31bd 5615 af3a b1f9 fe3c c6ec 633d
00000180: 0bda 3e3d ef6d 7fbc d912 09bd eaef 263d
00000190: cd9e 79c0 003c cbbb 2793 86bc 3a39 c33c
000001a0: 8660 4ebb e010 37bd 2e3c 04c0 ae10 21c0
000001b0: f44a 343d 82b2 cebc 22df 65bc c166 01bd
000001c0: 4ae5 55c0 b305 663d eca1 68bd 239f ec3c
000001d0: 000e 1dc0 7fca fabc dee3 5bbc 9696 6f3b
000001e0: b4fd 35bc f2cf f5bc 00be eabc cbb4 1fbd
000001f0: 7f74 35bd a202 22bd eef7 723d 0e47 f6bc
00000200: f4e2 54bd 1c53 2c3d 3f98 c13c 2f34 2c3d
00000210: 9594 80bd 2dd5 76bd e833 f3bf a61c 1bbe
00000220: ca48 45ba 76c5 d73c 3c54 123d 31cf 5ebd
00000230: 9f52 c63c 74a8 17bd f663 5c3c 4463 bbc0
00000240: fd50 193c fe1b b03c 6085 4cbb 1202 293d
00000250: 5b0e 8cc0 4111 5d3d 116b 523c 7c66 0bbd
00000260: 6add 203d dd20 2cbc e537 733d cc47 f7bb
00000270: 61c0 793d c905 18bd 6ec5 f73c 0b7f 41bd
00000280: 38c5 2d3d d38c 2a3c 79d2 0e3d 98c2 a5bf
00000290: 583a 89c0 9921 ef3c bb03 d9bc ef12 c13c
000002a0: fcb7 1abd 6fb0 a7bc 2270 e0b9 48a5 173d
000002b0: dffd 0c3d 8a74 d5bb 4885 98bc f83b 22c0
000002c0: c210 003d c0e4 5bbd 867c a1bc 6791 79bd
000002d0: f3bb 093c 520c b4bd 2773 0e3d 67e0 483d
000002e0: 5668 5dbd 3aa1 e7bc ee21 e0bf 79f2 c8ba
000002f0: d21d 74bc 7785 24bd 48b6 ccbc 7361 2bbb
00000300: c1d8 473d 3710 88bc 559f 4d3a 4576 51bd
00000310: 1456 5dbd 6f05 96c0 fadb 72bd 50f3 43be
00000320: 407a efbc 9027 6dc0 57af 473d f0a8 5bc0
00000330: d41c a5bb 0e6d 3dbc c3e1 15bd cdf6 77c0
00000340: 2d52 debc 733e 93c0 c202 663c 6d58 163d
00000350: 4b42 8fbb 9e9e 013d 8302 1d3c c7cf 6fbc
00000360: e84b 96bb e351 16bf 5d61 9bbb 093d adbc
00000370: a461 b0bc 7aae d2bc 20f5 69bc 8d86 42bd
00000380: 5936 fb3a 9b01 66bb d732 8dbc f439 5e3d
00000390: 96dc 273d 28aa 8ac0 37a9 a5bf c4be ea3b
000003a0: 1ad8 37bd dc4a 2c3d af83 6b3d 2360 25bc
000003b0: 40e9 423d f44e 6c3d 28de 96bb 48af c4bc
000003c0: 6b0b 1f3b 5f7c 0f3c 958b 70bd 2eec 9bbb
000003d0: b5c3 bebc 8c6b 273d 412f e2bb a3e9 253d
000003e0: 1999 603d 6c83 a5bc 9db1 513c dc8e 0dbc
000003f0: c716 e7bc e690 11bd 0090 bd3a c9d6 933c
-7.542604e-05 -0.00069989945 0.009637738 -0.0045324564 0.031818617 0.0079475045 -0.43382615 0.013491198
-0.0031933843 0.008163902 0.041041486 0.008561047 0.042848285 -0.75963855 -0.0010879723 0.051513966
-0.059920758 0.0056199734 0.05608247 -0.03200146 -1.6105486 -0.003765501 0.019975087 0.023007968
0.013508509 0.024043228 -0.02748537 0.025679316 -0.020691687 0.038256355 -0.046065997 -3.7494714
0.0034923644 0.032521762 -0.0033425258 0.00010371495 -0.00077661703 0.032555863 0.0040415917 -0.05644869
-0.047569457 -0.0356498 -0.07584209 0.059081655 -0.015490334 0.0472166 -0.0534257 -0.060208768
-0.0063643656 -0.043447044 -1.8510333 0.0070399195 -0.054829713 0.04192851 -0.041677393 -2.8972797
0.019703573 -0.012470494 -4.744873 -3.7872915 -0.03553112 0.053126033 -0.053193185 -0.0165096
-0.035450157 -0.04092159 -0.03321796 -0.0070598326 0.0032854571 0.009972133 -4.7638154 -0.026139911
-0.060200587 -0.5144649 0.058280587 -0.008319335 -0.05323139 0.048235588 0.014277189 0.00998556
0.0100794835 0.042707715 -0.028458983 -0.3192876 0.05944774 -0.017587524 0.006881913 0.034482382
0.057915363 -0.015179542 -0.03781132 -0.024057928 -0.043347515 0.0013357799 0.031124922 0.055645727
0.04659466 -0.015590175 -0.03346524 0.040756144 -3.9003174 -0.006202221 -0.01642759 0.023830999
-0.0031490638 -0.044693828 -2.066173 -2.516643 0.044016793 -0.025231604 -0.01403025 -0.031592134
-3.3421197 0.05615778 -0.056795046 0.028884476 -2.4539795 -0.030614136 -0.013421027 0.0036558262
-0.011107851 -0.030006383 -0.028655052 -0.038990777 -0.044300552 -0.039553292 0.059318475 -0.030063178
-0.051974252 0.042071447 0.023632167 0.042041954 -0.0627834 -0.060261894 -1.9000216 -0.15147647
-0.00075258 0.026339274 0.035724863 -0.054396812 0.024209319 -0.037025884 0.013451567 -5.8558674
0.009357688 0.021497723 -0.0031207427 0.04126174 -4.3767524 0.053971533 0.012842909 -0.034033284
0.039273657 -0.010505882 0.059379477 -0.0075464007 0.060974482 -0.037114892 0.030245509 -0.0472403
0.04242441 0.010409552 0.03486869 -1.295001 -4.288372 0.029190825 -0.026491037 0.023568599
-0.037773117 -0.020469872 -0.00042808155 0.03702286 0.034421798 -0.0065141367 -0.018618241 -2.5349102
0.03126598 -0.05368495 -0.019712698 -0.060929682 0.008406627 -0.087914124 0.034777787 0.04904213
-0.05405458 -0.028275121 -1.7510355 -0.0015331052 -0.014899688 -0.040166344 -0.024989262 -0.0026150614
0.048790697 -0.016609294 0.0007843872 -0.05113818 -0.05403717 -4.6881633 -0.059291817 -0.19135785
-0.029233098 -3.7055397 0.0487512 -3.4321861 -0.005038837 -0.011561645 -0.036592256 -3.8744385
-0.027138794 -4.601373 0.014038743 0.036705423 -0.0043719164 0.03164541 0.009583118 -0.01463694
-0.0045866854 -0.587187 -0.004741831 -0.021147268 -0.021530934 -0.025717963 -0.014279634 -0.0474916
0.0019165977 -0.0035096172 -0.017236156 0.054254487 0.04098185 -4.333271 -1.2942265 0.0071638543
-0.044883825 0.04206358 0.05749863 -0.010093722 0.047585726 0.057692483 -0.00460412 -0.024009362
0.002426828 0.00875768 -0.058726866 -0.0047583794 -0.02328668 0.04087405 -0.0069026058 0.040506016
0.054833505 -0.020204268 0.012798694 -0.008640017 -0.028209103 -0.035538577 0.0014462471 0.018046753

layers.1.0.bias f4 [256]
00000000: ad50 4f3d 5c2e 26bd 5e74 5b3b 433b 123e
00000010: 6020 353d 7648 5b3c 0720 23bd eceb 293d
00000020: 00d3 a6bc 0811 503d b0a8 d53b 7da7 15bd
00000030: bb01 b13d 0447 c73d 6873 9d3c b2c3 f73d
00000040: 93b6 213e c113 8a3d 0cd5 703d b6c7 fe3d
00000050: 9c32 973d e2c2 d53d 8d31 19bd 6e48 bf3d
00000060: 5b96 78bb 4a4e 033e aa0d b83c f0b6 143e
00000070: ae05 613d 8ba6 163e d925 703d bf03 5e3d
00000080: 0575 003e 8f49 cf3d beeb 4b3c 97fd a93d
00000090: b00a 53bc 8f13 763d 0662 0fbc 83c6 4c3d
000000a0: a347 483d 07c9 8d3c 744d 04bd d69f e93d
000000b0: 1796 073e 9ed0 763d 6822 823c ebc3 2f3c
000000c0: 216a 003e 5b20 033e 6527 193d 448a 473c
000000d0: 66f5 b23d d1b2 013c caa3 1ebd eea2 ddbb
000000e0: b4e9 d83d 552a 453d f7f9 433d 4f5c 8e3d
000000f0: 5022 a8bc 850e f83a 8995 153d f621 bf3d
00000100: d710 8d3d 57e8 973d b658 fd3d f8a4 d63d
00000110: b569 e33d e013 353d f463 573d 4c33 3e3d
00000120: b33b bdbc 0397 3dbd e313 5d3d a88f 77bc
00000130: 8f5c be3d 668c 36bd 8ed0 803d 306c 083e
00000140: a4d3 82bd 574d 9f3d e432 7f3d 93c0 d23b
00000150: 8989 983d 73af 383d 708c 093d 42e3 d33d
00000160: 2a11 9b3d 620f c13a b7f5 143e bcc4 a73d
00000170: 0b1b f73c a684 d23d ba52 2c3d 802e 153d
00000180: 0e8a c2bc 1d8a c83d dd91 093e 31d1 2a3c
00000190: 7856 e93d 9c60 51bc d6b7 1d3d 29e8 26bc
000001a0: 9856 9ebb e460 203e 077a c23d 6fe9 bd39
000001b0: 2e79 993d fc54 de3c d6cb 083c 1ec3 143d
000001c0: 5789 a73d 50e0 243e 6f05 6e3d 536f e73d
000001d0: bd8f 953d c078 383d bf52 f23d 07e8 bd3d
000001e0: 56ad 133e 231b 2f3d ffb8 d13d eef5 16bd
000001f0: 4d58 973d 22db 9cbb 4af7 1f3d f1ba 283c
00000200: 42ea 8e3d 3362 0e3e 91bc b3bc 6d6d a03d
00000210: 355f 103e 32e2 963d 0e5a 103e caaa 4dbc
00000220: 07f1 583d 4cb8 a5bc 1b79 47bd 08e9 dc3b
00000230: 8562 193e c61f bb3c 8f4c ab3c 8631 6f3c
00000240: 052b ea3d 3286 a4ba 83b8 113e 0c8b 2a3d
00000250: 1259 ad3c afa7 243d ef6b b43b 196d 023c
00000260: 55a7 6f3d a97c e93d 7cfb b43d 5d4b 953d
00000270: 3531 303d 1961 a63d a90e 7bbd 1b3a 0a3e
00000280: 8b52 c83c cd27 953d eac9 133d a3ca 8f3d
00000290: 6c4c c23b 4507 1e3d 9c37 dc3c 4eea b53d
000002a0: c90e ab3d b80f 653d 90b6 603d 2e4e 483d
000002b0: 8bbb e53d e8cf 5e3c 1620 de3d 69ca 0e3e
000002c0: a7d2 163d 911f c83d e9a1 f23d dd05 9c3c
000002d0: 7d61 513d cf1d 973d 3834 06bd ea39 193e
000002e0: 81fb be3c 81c9 8fbc 06d9 86bb ce4a 7ebd
000002f0: 5a53 12bb efc2 003d 32ce 92b9 cd5e c73d
00000300: 12e0 e13a cd61 263c 0a94 cb3d 240f c23d
00000310: 97b0 883b ebaf 773d 82ca d93d a019 063e
00000320: 8636 bc3d e20d 063e e449 033e 9316 ce3c
00000330: 6040 a7bc 70a6 1dbd eb3f 613d 605d 033e
00000340: 40f8 343d 0be9 1abd 6b70 98bc 34e7 8a3c
00000350: aa31 0c3e e30c 9c3d bdce 823d cac7 643c
00000360: e94f e43d a917 4dbc 9c5e 173e 8bdf 7f3d
00000370: aa4d 953c eca8 4ebd f9b5 92bc 5673 be3c
00000380: 57db 023d 0810 163d 3f58 7d3b 4ca0 f93c
00000390: 1d4e 103e 08f0 4b3d 89fd 263e 1920 b13d
000003a0: c645 233d 6e5d a53d 360b 3c3c 67ed b33d
000003b0: a85a 66bd 1813 163e 5504 f23b fd94 f73d
000003c0: a240 923d f1a1 973b 4b59 f73c f113 6b3d
000003d0: 8b0b 6fbd 3635 be3d 3756 dc3c e234 d33a
000003e0: b90b c23d 2a0f 213e f449 c33d 3aae 983d
000003f0: 9d8f 403d 9db9 7bbd c31c 1abd 6580 953d
0.050614048 -0.040571555 0.0033486108 0.14280419 0.04422033 0.013383975 -0.039825466 0.04148476
-0.020364285 0.050797492 0.0065203533 -0.036536682 0.08642908 0.09730342 0.019220069 0.12097873
0.15792303 0.06742049 0.058796927 0.124404356 0.073827 0.104375616 -0.03740077 0.09339987
-0.0037931416 0.12822834 0.022467453 0.1452291 0.054937057 0.14711969 0.058629844 0.05420279
0.1254464 0.10121452 0.012446342 0.083003215 -0.012880966 0.060077246 -0.008751398 0.049994003
0.048896443 0.017307771 -0.032300428 0.114074394 0.13240848 0.060257547 0.015885547 0.010727863
0.12540485 0.12805311 0.037391085 0.012178961 0.08738212 0.007916168 -0.03873042 -0.0067638075
0.1059145 0.048136074 0.047845807 0.069512 -0.020524174 0.0018925226 0.03651956 0.093326494
0.068879776 0.07417362 0.12370436 0.10480684 0.111041464 0.044208407 0.052585557 0.04643564
-0.023099756 -0.046286594 0.053974044 -0.015109934 0.09294998 -0.044567488 0.06289779 0.1332252
-0.063880235 0.07778423 0.062304392 0.006431648 0.07448108 0.045089196 0.033581197 0.1034608
0.07571633 0.0014729316 0.14546858 0.08191821 0.030164262 0.10279207 0.04207108 0.0364213
-0.02374747 0.09791968 0.13434549 0.010425852 0.11393446 -0.012779381 0.038505398 -0.010187187
-0.0048321 0.15661961 0.09495931 0.0003622281 0.07493816 0.027140133 0.0083493795 0.03631889
0.08180492 0.16101193 0.05811065 0.1130053 0.073028065 0.04503703 0.11832189 0.09272771
0.14421591 0.04275049 0.10240363 -0.03685563 0.07389889 -0.004786865 0.039054193 0.010298477
0.06978275 0.13904648 -0.021940501 0.07833371 0.14098819 0.07367362 0.14096853 -0.012552926
0.052964237 -0.020229481 -0.04869948 0.0067416467 0.14978988 0.0228423 0.02091053 0.01459921
0.114339866 -0.00125522 0.14230542 0.04163651 0.021160636 0.040198978 0.0055060307 0.007960581
0.05850919 0.1140073 0.08837029 0.07289765 0.043015677 0.08123989 -0.061293278 0.13498728
0.024453422 0.07282982 0.036081232 0.07021072 0.0059295204 0.03858115 0.026881985 0.08882581
0.083524294 0.055923194 0.054861605 0.048902683 0.112174116 0.013599373 0.10845964 0.13944401
0.036821987 0.09771646 0.11847288 0.019045765 0.051118363 0.073787324 -0.032764643 0.14963499
0.023313286 -0.01755214 -0.0041152267 -0.062083058 -0.0022327513 0.031435903 -0.00028000918 0.09734879
0.0017232916 0.010155153 0.099403456 0.09475544 0.004171442 0.060470503 0.106343284 0.13095713
0.09190087 0.13091233 0.12821156 0.025157249 -0.020416439 -0.038488805 0.054992598 0.12828588
0.044182062 -0.037819903 -0.018608293 0.01695595 0.1369082 0.076196454 0.063870884 0.013963649
0.11148054 -0.012517848 0.14782184 0.062469047 0.01822551 -0.050454065 -0.017909037 0.023248356
0.03194746 0.036636382 0.0038657335 0.030471943 0.14092298 0.04978946 0.16307653 0.086487
0.039861463 0.08074461 0.011477282 0.08785515 -0.0562388 0.14655721 0.0073857703 0.12088964
0.07141234 0.004627459 0.030193945 0.057392064 -0.058360618 0.09287493 0.02689658 0.0016113783
0.09474892 0.15728441 0.0953559 0.07455106 0.04701196 -0.06145631 -0.037625086 0.0729988

layers.2.0.weight f4 [2, 256]
00000000: 0be4 803d 23a3 5dbb 459c 54bd 2f68 4c3e
00000010: 69de 93bc 96ff 4ebe 8072 353d 7e1f 093e
00000020: dcde aabb 45e3 63bd 0108 24bd f6fc 233d
00000030: eb4a 403e e921 133e 7317 6fbb cf28 6e3e
00000040: 4ad2 123e 5a9f b63d c261 e2bd d19a 3c3e
00000050: ee58 353e eb30 3d3e e9ff 47be f57f 283e
00000060: cbf1 173d aa80 343e cc97 7d3d e9af 103e
00000070: 6092 fc3b fff0 d93d 81f3 1dbe e684 1a3e
00000080: 7232 483e 9184 503e 6fbd 713e 26c2 b7bd
00000090: 77c5 06bd db7f 6b3e 0f90 95bc b5f3 303e
000000a0: 3799 23be 0cbe cfbd f1d6 4f3d 67a3 1c3e
000000b0: 06a1 3f3e 18f9 383e 95a1 ecbd 44c8 f5bd
000000c0: a0c7 233e 2071 333e 5dfa 073e f97c 223e
000000d0: b03e 483e 41e6 b7bd c340 28bd dcfe 40be
000000e0: 4ea6 303e 9ce6 08bd acde fa3d 2da1 223e
000000f0: 2416 10bd eb02 20be 309b 6dbc 8222 353e
00000100: d39e 443e ba5d 383e 1a2c 083e 2f16 003e
00000110: e0a9 3e3e e6df 163c 2308 4e3e 244b 463e
00000120: ad09 07bd f990 0fbd bb77 1f3e d4e9 2dbd
00000130: d409 133e b895 e33c f4a3 1dbd 8c05 443e
00000140: 1e91 133d e2db 093d bd7a 453e 252b 1abe
00000150: ebdd 44be 9a0f 253e 323f 263e 0389 0b3e
00000160: 2df6 ec3d cec9 3bbe 50ab 163e e20b 2d3e
00000170: 63eb 6c3d 02a5 4a3e 1701 b53c 6276 86bc
00000180: 4942 2fbd 708f 063e 2eae 423e e12e fdbb
00000190: 676e ea3d 580f 21bd ebe1 473e 872a 653d
000001a0: 0fe3 aebd 1626 f83d 19e7 b2bd 97e1 29bd
000001b0: 9001 de3d fd5d 5c3c 2d2d eabd c866 d5bb
000001c0: 94b3 e43d 64cb 1b3e 7002 173e 5a7a 723d
000001d0: 3888 293e 9333 c63d 71cb 013e 4226 4b3e
000001e0: 0c45 2d3e 64af 0e3e f44e 083e 003c 15be
000001f0: 8da9 2b3e 5b23 633d fa42 e93d ee8d 0bbe
00000200: 312d 463e d257 163e bd9d 4cbc d272 283e
00000210: 9e2a 013e 39d4 5fbe ccd1 413e abfd ba3b
00000220: b59b 323e 4bd6 3bbe 236a 643d 933b 10be
00000230: 84f9 243e ed0d 2ebe 3fc0 01be 57f8 0abd
00000240: a2ce 3b3e cfc1 0fbe 77d5 2f3e 5b6a 17be
00000250: c6a6 54be d093 0cbe f048 bfbd 41d4 1ebe
00000260: 2fa4 36be 5d37 223e 3a7a 4e3e 913f 223e
00000270: a0ee 31be 74e6 443e 92a4 113c 8b90 563e
00000280: 7aaa 49be 86d1 45bd 8f92 b9ba 91bc 043e
00000290: 8538 663d 72a5 783c ff6f c83c 9169 323e
000002a0: 2146 29be 3214 333e a86c f9bc bb57 40be
000002b0: 06e5 253c 5488 3fbd 0ac8 d03d 67fb 1f3e
000002c0: c090 1a3e 4f5a 323e 7640 193e 1c5c ed3c
000002d0: 078e 393e 4880 3e3e 35c2 74bd b7e6 143e
000002e0: 10db bbbc eedf 5ebd 0f02 44bc d0b7 d0bb
000002f0: 9163 2bbe dca3 32bd 079e d6bc dc4c 353e
00000300: 78aa 593d f127 583c b39b 453e d2fd 373e
00000310: 102d cabc 305d 8d3c d0e6 163e 3f43 563e
00000320: f8db fb3d a1bf 473e 8580 213e 5c16 41be
00000330: 1afd 2bbc 60ce 153d 0f6c ef3c 8324 143e
00000340: 45cf 413e 7d1b 04bd 3250 1ebe c88e 3abd
00000350: af3c f63d 6193 aa3d 315c 343e 9423 2bbe
00000360: 63e0 e33d 4b04 15be 8d9e 403e cb89 483e
00000370: af2e 3dbe 6f99 e43b 8da8 37be a8fa 1cbe
00000380: ee1d 263e d6c6 0b3e 19c7 733d 6178 583e
00000390: 3516 093e 70ca 083e 94d4 193e c8a4 383e
000003a0: 4850 43be dac9 483e 0f49 d6bb 532e 3e3e
000003b0: 37fd 54bd acbe 343e 3480 1cbe fe09 213e
000003c0: 1cb7 0c3e 94a4 13bb 8dae edbd 2935 bfbc
000003d0: a55b 22bd 46fa 33be b27f 1dbe ff69 25be
000003e0: 56e6 4c3e 7418 d23d 459b 373e 4160 233e
000003f0: 14dd 10be 3d44 cb3d e0f5 243e 88ff 02be
0.06293496 -0.003381916 -0.051906843 0.19961618 -0.01805039 -0.20214686 0.04429865 0.1339092
-0.005214555 -0.055636663 -0.040046696 0.040036164 0.18778579 0.14368404 -0.0036482483 0.23257755
0.14338031 0.08917113 -0.11053802 0.18418433 0.17709705 0.18475692 -0.19531216 0.16455062
0.037095826 0.17627206 0.061912343 0.14129604 0.007707879 0.106416695 -0.1542492 0.15089759
0.19550493 0.2036307 0.2360742 -0.08972578 -0.03290316 0.22997992 -0.018257169 0.17280467
-0.15976416 -0.101436704 0.050742093 0.15296708 0.1871377 0.18063772 -0.11554257 -0.12001088
0.1599412 0.17523623 0.132791 0.15867986 0.19555163 -0.08979464 -0.041077387 -0.18847221
0.1725094 -0.03342305 0.122495025 0.15881796 -0.035177365 -0.15626113 -0.014502332 0.17688945
0.19201212 0.18004504 0.13298073 0.12508462 0.1861949 0.009208655 0.20120291 0.19364601
-0.032968212 -0.035050366 0.15573017 -0.042459324 0.14359218 0.027781352 -0.038486436 0.19142741
0.036027066 0.033656962 0.19285102 -0.15055521 -0.1922528 0.16119233 0.16235045 0.13626485
0.11570392 -0.18338701 0.14713788 0.16899064 0.05784167 0.19789508 0.022095246 -0.016413871
-0.042787824 0.13140655 0.19011757 -0.0077265357 0.11446839 -0.039321274 0.19519775 0.05594876
-0.08539402 0.12116639 -0.08735485 -0.041474905 0.10840142 0.013450143 -0.11434398 -0.0065124966
0.11167064 0.15214306 0.14747024 0.059198715 0.1655587 0.09677806 0.12675263 0.19838813
0.1692087 0.13934094 0.13311368 -0.1457367 0.16763897 0.05545364 0.11389728 -0.1362836
0.19353177 0.14681938 -0.01248878 0.1645005 0.12613913 -0.218583 0.18927687 0.005706509
0.1744221 -0.18343465 0.055765282 -0.14085226 0.16110808 -0.169975 -0.12670992 -0.03392824
0.18340543 -0.14038776 0.17171274 -0.14786665 -0.20766744 -0.13728261 -0.093400836 -0.15510656
-0.17836069 0.15841432 0.20163813 0.15844561 -0.17376184 0.19228536 0.008889334 0.20953576
-0.19693938 -0.04829552 -0.0014158058 0.12962557 0.056206245 0.015176164 0.024467466 0.17423083
-0.16530658 0.17488173 -0.03044732 -0.18783467 0.010125404 -0.046760872 0.101944044 0.15623246
0.1509428 0.17417262 0.14965996 0.028974585 0.18120585 0.18603623 -0.059755523 0.14541136
-0.022931606 -0.054412775 -0.011963381 -0.0063695684 -0.167372 -0.0436133 -0.0261984 0.17705101
0.053141087 0.0131931165 0.19297676 0.17967919 -0.02467969 0.01725635 0.14736485 0.2092409
0.12297815 0.19506694 0.15771683 -0.18856186 -0.010497356 0.036573768 0.029226331 0.14467053
0.18926723 -0.032252777 -0.1546028 -0.045546323 0.12023293 0.083288915 0.17613293 -0.1671279
0.11126783 -0.14552419 0.18810482 0.19583814 -0.1847484 0.0069762985 -0.17935391 -0.15329993
0.16222355 0.13650069 0.059516046 0.21139671 0.13387378 0.13358474 0.15022498 0.18031609
-0.19073594 0.1960825 -0.006539471 0.18572359 -0.051999297 0.1765086 -0.1528328 0.15726468
0.13741726 -0.0022528516 -0.116055585 -0.023340778 -0.03963818 -0.1757594 -0.15380743 -0.16153716
0.20009741 0.1025857 0.17930324 0.15954687 -0.14146835 0.09925125 0.16109419 -0.1279279

layers.2.0.bias f4 [2]
00000000: ec89 723d b50a 423d
0.059213564 0.047373492
