benchmarks/Acrobot-v1/Test_Acrobot-v1_A2C_20230424-003235/models/actor_checkpoint.pt (torch, 275679 bytes, 6 tensors)

fc1.weight f4 [256, 6]
00000000: 534a 40bd e8b8 443e 70b1 fabd 7742 cebe
00000010: 6564 39be 5686 c13c 0fa0 9fbd fb71 9b3e
00000020: 8efa 2c3e 6811 88bd 42de 903e 5d7e 29bc
00000030: 923b 91bd bc58 9a3e 8296 2e3e bfe2 a9be
00000040: 8146 75be 31a3 593e b232 3b3e fd04 aa3e
00000050: b9a2 ffbd 4a47 3e3e 5d40 1b3d 1164 473e
00000060: 77b7 553e f795 91be eef8 793e 6f3e aa3d
00000070: e550 bcbe fb06 b83e 68ca 5abd a87b 75be
00000080: 6fb0 a93e a53d 133d 1828 9cbe a0d0 bf3d
00000090: 67c6 ba3e 4cb3 b33d 22be aabd 8f77 c53e
000000a0: 0699 f03d dbeb 20be ad1d 56be a5d7 863e
000000b0: a09e b63e 73ee b4be a951 8bbe 7bd4 d6bd
000000c0: b1cc fdbd 2549 793e 1b9e c33e 5f51 0f3e
000000d0: 5d5c 88bd 330b c83e cdb6 ba3e db30 1fbe
000000e0: b8e8 0c3e d410 223e bc8d 77be 6077 aabe
000000f0: cb68 4f3e bfa4 8cbe c7a4 953e 3b83 fe3d
00000100: 941b 8f3e 6c80 c4be 3bbb 31be b0ce 49be
00000110: 4238 0cbe 20af d0be 25a3 ba3e ed3b e8bd
00000120: 82e7 633e d682 8abe a018 3e3e 34e5 bb3d
00000130: 3935 cdbd 6653 c03d 1922 a2be 08cd bdbe
00000140: f291 9fbd 9e34 e33d aca3 74bc fca3 173e
00000150: 1f63 4b3e bf5a 823d 6ada bcbe 8680 6d3d
00000160: 8288 27bd 311f e3bd 68be 9dbe 080f 9abe
00000170: def1 b5be d6f9 b03e 1e1b acbe e9e4 a3bd
00000180: 0815 a8be 8561 d93d 75e4 8bbe 991e 21bd
00000190: 4ad6 66bd faa5 84be 6910 4d3e 7478 8e3e
000001a0: 117d 93bd ae28 93be ef86 53be d361 90be
000001b0: f726 9b3d f8e0 18be e9b1 323e f2fa 5dbe
000001c0: da89 893e b787 55be 2284 a13e 2efd 89bd
000001d0: 180e 90be 9cc8 8c3e 482f d73c 9de3 63be
000001e0: b7f3 823c a8ba 1fbd 29d5 b0be 318b 1cbd
000001f0: 45fe d0be 2102 3d3e 3738 4b3e eff9 083d
00000200: ba17 b43e cde0 69be 0845 fb3d f490 6f3e
00000210: 40a4 e6bd 24d1 05be 2179 4ebd 123d 3dbe
00000220: 16e3 9bbd 8a40 023e ddab a33e 0935 0ebe
00000230: 5b36 4f3e 8e4a 19be d5b8 3d3e 00e1 efbd
00000240: 0c39 5e3d 80c8 95be 0f66 acbe f2ca d33d
00000250: 96e1 1a3e cf89 9a3d 88d7 b33e 742f 7fbd
00000260: 5d9b 0cbe 25dc e83d a73c 083e 47c1 463e
00000270: 8501 623e 0097 c1be 36b4 083e 137e 12bd
00000280: ce1a 6c3e 5a60 f23d df46 28be c8ed a8bd
00000290: 55f6 133e 2e31 cabe ab4a 153c 80d7 133e
000002a0: 0728 ad3e 0baf 2dbe d943 ccbe 929d 75be
000002b0: 49a7 10be 0f28 79be e5ad 8ebe d558 50be
000002c0: dbb7 6e3e ae6c b7bc 8978 83be f552 80be
000002d0: 85c0 a63e 1ab2 263e f28b ca3d 477f a53e
000002e0: 1a58 523e b662 a6bd 52fd 49be 7308 333e
000002f0: eaa5 103e 3c51 afbd d34d b7bc ddda 70be
00000300: 2765 37bd f3b2 603e 082b 943e 3e3b 7abd
00000310: b829 82bd 8942 e1bd 4d66 fabd f3d8 4f3e
00000320: 5d96 dcbd 6f7e 313e 135b 1ebe 0be6 40be
00000330: 843f bbbe 4695 743e 15ef 86be 9960 b6be
00000340: f67a 4a3e 682f 873e d020 5b3e 2ace 593e
00000350: cd9e 833e 756e 4a3e c749 553e 0a97 c2be
00000360: 4158 cbbd 1ba1 a6bb 97d0 1dbe 120a 87bd
00000370: dd96 9abe b81e cbbd 6190 9bbe 6269 03be
00000380: db00 043e 7558 c93e 9760 083d d366 87be
00000390: f777 c5be 0ec2 7cbe 3b9e 503e f43f ae3d
000003a0: a632 09be c274 483e cec7 97be b838 873d
000003b0: a7c3 c3be 3736 66be 26be 13bc aae1 87be
000003c0: 812a 8cbd 5439 dfbd db6c 19be 3644 75bd
000003d0: 5fc5 b5be 74bf 68bc e103 c9be addb 70be
000003e0: aea0 1dbe ed5f 143e cb53 963e f47f adbe
000003f0: 2d2d 99be 9ff8 17bd 0464 a5bc 23c4 203e
-0.04694588 0.19211161 -0.12240875 -0.40285084 -0.18104704 0.023623627 -0.07794201 0.30360398
0.16892454 -0.06643945 0.2829457 -0.010345069 -0.0709144 0.30145824 0.17049602 -0.33180806
-0.23952676 0.21253659 0.18281057 0.3320693 -0.12482209 0.18581882 0.03790318 0.19471766
0.20870768 -0.28434727 0.24411365 0.083126895 -0.36780468 0.35942826 -0.053415686 -0.23972952
0.3314242 0.03594746 -0.3049934 0.09365964 0.36479494 0.087744325 -0.08337046 0.38567778
0.11747937 -0.15714972 -0.20909758 0.263364 0.35667896 -0.35338172 -0.2721074 -0.10489746
-0.123925574 0.24344309 0.38206562 0.13995884 -0.06658242 0.39071044 0.3646759 -0.1554598
0.1376065 0.15826732 -0.24175161 -0.332942 0.20254819 -0.2746944 0.29227278 0.12427374
0.27950728 -0.38379228 -0.17356579 -0.19707751 -0.13693336 -0.4075861 0.36452594 -0.11339555
0.22256282 -0.27052945 0.18564081 0.091745764 -0.10019917 0.09390907 -0.3166664 -0.3707049
-0.07791509 0.1109402 -0.014931601 0.14808649 0.1986203 0.06364965 -0.36885387 0.057983898
-0.04090167 -0.11089934 -0.3080933 -0.30089593 -0.35536093 0.3456561 -0.3361444 -0.080026455
-0.32828546 0.106143035 -0.27322736 -0.03933582 -0.056356706 -0.2590788 0.20025791 0.27826273
-0.07201589 -0.28741974 -0.20656942 -0.28199634 0.07575791 -0.14929569 0.1745068 -0.2167776
0.26862985 -0.20852552 0.31546122 -0.06737743 -0.28135753 0.27496803 0.026267663 -0.22254796
0.015985353 -0.03899637 -0.34537628 -0.03821868 -0.40818992 0.18457843 0.19845663 0.03344148
0.35174352 -0.22839661 0.12269026 0.23395139 -0.11261797 -0.13068062 -0.050408486 -0.18480328
-0.076116726 0.12719932 0.3196706 -0.13887419 0.20235579 -0.14969847 0.18527539 -0.11712837
0.054253623 -0.29254532 -0.33671615 0.10341443 0.15125117 0.07545816 0.35125375 -0.062301114
-0.13731141 0.11370114 0.13304387 0.19409667 0.22070892 -0.37810516 0.13349995 -0.035764765
0.230571 0.11834784 -0.16433285 -0.08248478 0.14449437 -0.39490646 0.0091120405 0.14437675
0.338196 -0.16961305 -0.39895514 -0.2398589 -0.14126314 -0.24331687 -0.27867046 -0.20346387
0.23312323 -0.02239069 -0.256779 -0.2506329 0.32568756 0.16278878 0.09889974 0.32323667
0.2054142 -0.08124296 -0.1972554 0.17483692 0.14125791 -0.08560416 -0.022375977 -0.2352099
-0.0447742 0.21943264 0.2893908 -0.061091654 -0.063556135 -0.10999019 -0.122265436 0.20297603
-0.10770867 0.17333387 -0.1546443 -0.18837754 -0.36571896 0.23885068 -0.2635428 -0.35620573
0.19773468 0.26403356 0.21399236 0.21270052 0.25707093 0.19768699 0.20828925 -0.3800586
-0.099289425 -0.0050851232 -0.15411602 -0.06593718 -0.30193225 -0.099179685 -0.3038359 -0.12833169
0.12890951 0.393253 0.03329524 -0.26445636 -0.38568088 -0.24683401 0.2037286 0.08508292
-0.13398227 0.1957579 -0.29644626 0.06602615 -0.38235208 -0.22481619 -0.009017503 -0.26539356
-0.068440445 -0.10899606 -0.14982931 -0.059879504 -0.35502145 -0.014205802 -0.39260772 -0.235213
-0.15393326 0.14489718 0.29360804 -0.33886683 -0.2991728 -0.037102338 -0.020189293 0.1569982

fc1.bias f4 [256]
00000000: 5229 cbbe ee89 333e 3b8b 04be cf55 ffbc
00000010: ffe4 e1bd 6dd7 2fbe 5045 663d b59d 70be
00000020: 176f 863d f2e7 ffbd 6b7f f23d 9797 313e
00000030: 8429 51be 3f30 fabd f6dd cbbe 898d b53e
00000040: b3dc 953e ce9d 8c3d a7e5 893e 9299 183e
00000050: e444 7fbe 5736 70be 1734 863e 884f 25bc
00000060: 5362 8dbe 07af 3ebd 4173 cf3e 31a1 b63e
00000070: 0a61 6c3e c7b3 8f3e d452 7cbd 37e0 4bbd
00000080: bf3d a43e fb6d 92bc bf1a 6c3d 7d37 33be
00000090: f713 61be c353 bebd 4884 b13e 5e05 813e
000000a0: 4f2a c53e 6de0 4cbe a996 64bd 9a33 7a3e
000000b0: 17bd 8a3e 0959 7cbe 7e70 aebe 59e2 653e
000000c0: 9c28 55be a103 7e3c 8e8d a7be 2e1d a6bd
000000d0: cbc7 2a3e 44b0 ac3e 5b62 4e3e cf8b c4be
000000e0: aa58 35be 8ccc cfbe b8f7 bc3e 62a7 013e
000000f0: 95e0 083e dc75 c4be d859 78be 0e7c 113e
00000100: 8964 883e be33 bdbe 0710 b9bd b3e3 7ebd
00000110: 72c2 12bd 74df ac3e e884 493e b9b7 b73e
00000120: e964 a8be 97ea b3be 931b 7dbc c4e5 95be
00000130: 9990 0e3e f1fe ae3e 723f f0bd 2a56 c0be
00000140: 6cf5 b1be dffe 903e c9fb e23d 4131 b3be
00000150: 642b de3c 72f5 6dbe feab 723e 19f8 713e
00000160: 639d 9abe ecc6 823e 00ef 6e3e 1b58 d0bc
00000170: 5530 d33b 29ad b0be d05b 3cbe 37af 833e
00000180: 231c 96be f5a1 9c3e 9ed5 bd3e d15e ff3d
00000190: 40d3 c83e 02d2 cabe cf57 53be fd7b 7e3e
000001a0: 87b5 ba3e 4a4d 433c 99be 1d3e 4e35 a43e
000001b0: 166b 9abe 8926 283e 561a 243e a227 09be
000001c0: b9ce 753d a320 3a3d 2835 bc3e 0f9b 22bd
000001d0: 37b0 b03e b4f5 183e 6edf adbe 34f2 183d
000001e0: 947f 7d3e 4a83 bbbd 77ec ad3e e7fa 17be
000001f0: bb33 27be a6e9 5abe e08b 64be b1da 503e
00000200: dd30 98be ef19 8c3e c029 a2be d565 5bbe
00000210: ce9b c83c 06d4 a5be e869 383e 6219 94be
00000220: 169d 36be 4a29 74bd ee7c 75be 7d68 463d
00000230: 142b 803e eb84 083e f908 b1be 5853 f83d
00000240: 2755 a93e 1b39 0c38 c84f e0bd 2f6a b3be
00000250: ecf1 39be 69a4 bbbe 5f8f b93d fff9 023e
00000260: a1e2 cebe b04f aa3d 6241 b93e 7461 463e
00000270: dc4c aabe 3a44 843e 7ba7 afbe d0bb 75bd
00000280: f532 853d 97ed 4e3d 67cd 9f3e 3cf2 293e
00000290: 2d0e 38be 8217 45be ce0e d5bd 779d b0be
000002a0: 6062 93be 0a6a e03c ff28 5ebe 1bc9 a1be
000002b0: 8974 7ebd 1f18 8fbe b421 073e bf43 063e
000002c0: 541b 693e 352b a7be 91f0 ff3c 3553 1c3e
000002d0: 059d 49be 9b6f ff3d d19f 96be 693b 9d3e
000002e0: 1b89 abbe 881a 7dbd 5baa a33e 66e2 34bc
000002f0: 362e 823e 98a2 9abd cc17 97be d9fe 7b3d
00000300: 020d 15be 2f2d 8fbb 8e30 4f3e 8abf 163d
00000310: c08f c2be c0ea 893e 64ca 383e 741c 8fbd
00000320: e4d7 893e de91 f13d 9361 c5be 3125 d03d
00000330: 2ce0 c03d b070 0c3a 8b6b 593e bd35 a7be
00000340: 3b3f 87be 643e 12be 19a2 273e 206e cf3d
00000350: f289 7abe 798a 83be 70e6 38be 885a c73e
00000360: 2e9d 6ebe f8fb 01be dea4 b1be 5a7e 633d
00000370: c795 90be 9cdf 713d f2ef 643e 1684 77be
00000380: 66ab 92bd 3fff 06be bcff abbd 417d e83d
00000390: 60aa 2cbe 0a61 ba3e 8539 cc3e 0429 c83b
000003a0: 064b 4d3e 1a65 3d3e 2293 0bbe df36 24bd
000003b0: f9d6 63bd 2fdc b03e b57d 993e aa42 b63d
000003c0: 363e 473d ffac 5cbe a047 bebe 773e ed3d
000003d0: abd6 a7be 135a b2bd 7e5c 683e e235 b9be
000003e0: e638 85be 99b2 72be c1d3 90be 879e 5ebe
000003f0: f2f1 d43e 0fac 88be eff9 f13d 94cf cf3e
-0.39679962 0.17533085 -0.12943737 -0.031168846 -0.11030006 -0.17172022 0.056218445 -0.2349766
0.065641575 -0.12495412 0.11840709 0.17342983 -0.20425993 -0.122162335 -0.3981778 0.35459545
0.29269943 0.06866036 0.26933023 0.14902332 -0.24928623 -0.23458229 0.26211616 -0.0100897625
-0.27614078 -0.046553638 0.4051762 0.35669854 0.23083892 0.28066847 -0.06160243 -0.049774375
0.3207836 -0.017874708 0.057642695 -0.17501636 -0.21980272 -0.0929332 0.34671235 0.25199407
0.3850884 -0.20007487 -0.055807743 0.24433747 0.2709739 -0.24643339 -0.340702 0.22449626
-0.20816272 0.015503795 -0.32725185 -0.08111034 0.16677777 0.3372823 0.20154707 -0.38387915
-0.17709604 -0.40585744 0.36907744 0.12661508 0.13366921 -0.3837117 -0.24253023 0.1420748
0.26639202 -0.3695354 -0.0903626 -0.06222887 -0.03582997 0.3376423 0.19679606 0.35882357
-0.32889488 -0.35139915 -0.015448469 -0.2927686 0.13922347 0.3417888 -0.11730851 -0.37565738
-0.34757555 0.2831945 0.110831805 -0.34998515 0.0271203 -0.23238161 0.23698422 0.23629798
-0.30198202 0.2554239 0.23333359 -0.025432637 0.0064449706 -0.3450711 -0.18394399 0.25719616
-0.29318342 0.30592313 0.3707704 0.12469257 0.3922367 -0.39613348 -0.20638965 0.24851985
0.3646662 0.011920283 0.15404738 0.32071918 -0.30159825 0.1642095 0.16025671 -0.13394025
0.0600116 0.04544128 0.36759305 -0.039698657 0.3450944 0.14937478 -0.33959526 0.037340358
0.24755698 -0.09155901 0.3396947 -0.14841805 -0.16328327 -0.21378192 -0.22318983 0.20395924
-0.2972478 0.27363536 -0.31672478 -0.21425565 0.024488356 -0.32388324 0.1800915 -0.28925616
-0.17833361 -0.05960969 -0.23973438 0.04843949 0.25032866 0.13331954 -0.34577158 0.121252716
0.3307278 3.3431785e-05 -0.10952717 -0.3504195 -0.18158692 -0.36648872 0.09060549 0.12790678
-0.4040728 0.083159804 0.36182696 0.19373113 -0.33261764 0.25833303 -0.34307465 -0.059993565
0.0650386 0.050519552 0.31211397 0.16596311 -0.17974158 -0.19247249 -0.104032144 -0.34495136
-0.28785992 0.027394313 -0.21695326 -0.31598744 -0.062122855 -0.2794809 0.1319645 0.1311178
0.22764331 -0.32650152 0.03124264 0.15266116 -0.19688804 0.12472459 -0.29418805 0.3070939
-0.3350304 -0.06179288 0.31965908 -0.011040306 0.2542588 -0.075505435 -0.29510343 0.06152234
-0.14555743 -0.0043694 0.20233366 0.03680376 -0.38000298 0.26936913 0.18045956 -0.06987849
0.26922524 0.117954 -0.38551006 0.10163344 0.094177574 0.0005357368 0.2123243 -0.32658187
-0.2641543 -0.14281613 0.16370429 0.101284266 -0.24466684 -0.25691584 -0.18056655 0.38936257
-0.23302147 -0.12693775 -0.34696096 0.05554042 -0.2823927 0.05905114 0.22357157 -0.2417148
-0.07161598 -0.13183306 -0.08398387 0.11352015 -0.16861868 0.3640216 0.39887634 0.006108405
0.2004815 0.18495598 -0.13630345 -0.04009139 -0.055624936 0.34542987 0.2997872 0.08899434
0.048643313 -0.21550368 -0.3716402 0.1158418 -0.32780966 -0.087085865 0.22691533 -0.36173922
-0.26019973 -0.23700942 -0.28286555 -0.21740161 0.4159084 -0.2669377 0.11815249 0.40588057

fc2.weight f4 [256, 256]
00000000: a2f1 16bd 551d c23c 6954 61bd 6b6b b43c
00000010: a7f8 1f3c a185 a33c 1ca1 dabc ab54 32bc
00000020: 06e6 abbc d793 94bc e563 d73c 4d3b 46bb
00000030: a299 323c be37 81bc 52d8 883d 5257 893c
00000040: a2d9 c2bc e577 553d 70a8 2b3c 7c2e 2a3d
00000050: 39a7 1abd b8db d6bc 31ae 013d 3abe 873d
00000060: accc 33bc 0ab0 3d3d 993d 13bd 3a8a cd3c
00000070: 97f1 2dbc a9e1 a03c a3a9 043d 61c5 26bc
00000080: 27ba 13bd 9a9e 213d 0709 09bd 4952 55bc
00000090: fe50 1fbd 847f 55bd 964a 6d3d 6f85 273d
000000a0: f78d f3bc 4c15 85bb 3add 5ebd 5440 bf3c
000000b0: a696 55bd f554 4539 0ca3 323d 312d 5b3d
000000c0: 9fbc 4ebd 8b12 3c3d 7860 79bd f775 16bd
000000d0: 575b 6abc 6e1a 563c fe85 b13c 69b1 ad3c
000000e0: aea0 8a3c 9a63 84bd 4463 c9bc acf2 c53c
000000f0: 692d a2bc cfd0 89bb 696d 383c 9c48 6e3d
00000100: f4eb 6f3c 60d9 e3bb 8873 7b3b 5f3f 853d
00000110: c4fc 7a3d de16 843d ae4a f33c 66ca c73b
00000120: b27c 04bd 6879 0d3d add6 4e3d a119 863d
00000130: 510e c3bc 9557 b5bc b7ed 67bd a4e4 89bd
00000140: b934 b33c ac40 8f3c 142b 713c fe2b 05bd
00000150: 8118 0d3d 8984 c1bc c134 52bc f54a 513b
00000160: c04d 73bd b600 b43c eeef b0bc 01f2 af3b
00000170: f1fd af3c 8435 33bd 8c08 6c3b 7954 8a3d
00000180: 6c48 b1bc 68ca 333d 8f5a 493d 05de 1e3d
00000190: e24a 76bd 7ef8 5cbd acd5 42bc a7ab aebc
000001a0: 0ff1 ae3c 2f20 3d3d 41a1 593d 14bd 683c
000001b0: c86b 853d aeed e63c 5afa 62bc 8ade 353d
000001c0: 71ea 663d f346 2ebd 6956 32bd b408 38bd
000001d0: 2cfe 0fbc 7e0b 1fbd 8855 1dbd ca21 07bd
000001e0: 7746 59bd 8826 013d e9e4 c83c 7f51 31bd
000001f0: 5d3c 503d aa46 1cbd bb2e 63bd 22e6 0abd
00000200: 277f 22bd 903e 443d b247 7b3d e7a4 4e3d
00000210: 1272 a7bc 0024 04bd 8350 75bc 30af 373d
00000220: 1bba 4fbd 47e9 ea3b d1af 22bd 7818 35bd
00000230: eb1d 703d f9fe 353d 6d5a f03b eba4 8f3c
00000240: 5707 0ebc bfe9 713d 318c 43bd ef5b 6c3d
00000250: f280 f8bc 2162 65bd 902a cdbc acd5 033d
00000260: 7840 c539 a875 38bd c40a 5e3d d90e db3c
00000270: 71ba c33c 4a8f 1abd 21a9 d6ba 9e80 2fbd
00000280: 9e57 f43b b51d 80bc 4ffc 873c 0dc8 61bd
00000290: f527 0fbd 25a5 503d 35b7 64bd 83f3 043d
000002a0: 9bdf 453d fb96 ffbc 3816 5ebc af3b 393d
000002b0: 61c1 193c 7360 84bc b644 773c 6240 823d
000002c0: acbe 7b3d 16b2 873c 74da 463c 2036 05bd
000002d0: 1f0b 503c 9484 3a3c 79f9 a1bb 9550 4f3d
000002e0: 264b f63c 0533 873d d2bd 463b 4315 653c
000002f0: b8ee db3c 34e4 58bd 5ed8 8cbc 9c60 39bd
00000300: 7fc2 c1bc 8887 803c b950 893d 07c6 e93c
00000310: 723f 62bd ba5c 8d3d 2766 613d 7a0b 863c
00000320: 396e 433d c4d4 613d e06f 00bd c5ad eabc
00000330: e879 5c3d cf1a dcba 8e54 283d 9787 f73b
00000340: efec 31bd 1d8d 9a3c a663 543a 724a 5d3d
00000350: 1eb5 6dbc 888d 023c 8fe4 8a3d 4f81 e3bc
00000360: 2039 343d db04 fc3c 1bbb 553d c5e2 f33c
00000370: 9748 773d 49ee 2abd 7c73 3ebd f133 3fbd
00000380: ec7d e6bb 5d8b 273d 59bf ed3c 5365 3b3d
00000390: c593 dabc f69f 19bd 2c16 c9bc 9a70 62bc
000003a0: 71d8 b8bc 7f07 8abb ff02 943c 8881 bc3c
000003b0: 1225 83bd 21d2 73bd 99b1 03bd 6743 3e3d
000003c0: 0bb8 27bd 6cd9 873d cd13 25bd 7a82 a8bc
000003d0: 031f 3dbc 8c5f 513d 4975 473d 8278 4f3d
000003e0: f0f5 813d 7766 fc3c 2438 853b b0c7 72bd
000003f0: e818 4bbd 4d2d f4bc f00c 2fbd 2e13 f7bc
-0.036851533 0.023695627 -0.05501214 0.022023877 0.009763873 0.01996118 -0.026688151 -0.010884444
-0.020983707 -0.018136902 0.02629275 -0.0030247748 0.010900887 -0.01577365 0.06681885 0.01676527
-0.023785416 0.052116293 0.01047717 0.041548237 -0.037757132 -0.026227817 0.031660262 0.0662808
-0.010974091 0.046310462 -0.035947416 0.025090326 -0.010616682 0.019638853 0.03238834 -0.010178895
-0.0360662 0.039457895 -0.033455875 -0.013020107 -0.0388956 -0.05212356 0.05793246 0.040898737
-0.02973078 -0.0040613767 -0.054410197 0.023346104 -0.052145623 0.00018819033 0.043612525 0.053509895
-0.05047285 0.04591612 -0.060883015 -0.036733594 -0.014304004 0.013067825 0.021670338 0.02120276
0.016922321 -0.0646431 -0.024583466 0.024163567 -0.019797044 -0.0042058 0.011256554 0.058174714
0.014643658 -0.0069534034 0.0038368423 0.06506228 0.061276212 0.06449674 0.029698696 0.006097126
-0.03234548 0.03453961 0.0504977 0.06547857 -0.023810538 -0.022136489 -0.056623187 -0.06733063
0.021875726 0.017486893 0.014719743 -0.032512657 0.034447197 -0.023622768 -0.01282996 0.0031935547
-0.05940032 0.021972995 -0.021598782 0.0053694253 0.021483393 -0.04375221 0.0036015837 0.06754393
-0.021640979 0.0438942 0.04915863 0.038785953 -0.060130008 -0.053947918 -0.011891764 -0.021322085
0.02135518 0.04617327 0.0531323 0.014205236 0.06514698 0.028189506 -0.013853634 0.044401683
0.056375924 -0.04254813 -0.04353944 -0.044930175 -0.008788627 -0.03882932 -0.038411647 -0.032991208
-0.053045716 0.031530887 0.024523215 -0.04329061 0.050838817 -0.038153328 -0.055464488 -0.033910878
-0.039672043 0.047911227 0.06134767 0.050450232 -0.020440135 -0.032260895 -0.014972809 0.044844806
-0.050714593 0.007168922 -0.039718453 -0.04421279 0.058622282 0.044432614 0.0073349983 0.017534694
-0.008668742 0.05906081 -0.04774112 0.057704862 -0.030334923 -0.056001786 -0.02504471 0.032186195
0.000376228 -0.04503408 0.054209486 0.026740478 0.023892613 -0.037734307 -0.0016377309 -0.04284727
0.007456734 -0.015639165 0.016599802 -0.055122424 -0.034950215 0.050938744 -0.055838782 0.032458793
0.04830895 -0.031199923 -0.013555102 0.045222934 0.009384484 -0.016159272 0.015092066 0.06359936
0.061461136 0.01656441 0.012137044 -0.03252232 0.012697964 0.011384148 -0.0049430695 0.05061396
0.03006513 0.06601528 0.0030325544 0.01398212 0.026847228 -0.052952006 -0.017193016 -0.04525815
-0.023652313 0.015689626 0.0670485 0.02853681 -0.055236287 0.06902452 0.05502906 0.016362894
0.04771254 0.05513455 -0.031356692 -0.028647313 0.053827196 -0.0016792658 0.041096263 0.0075540054
-0.043438848 0.018866116 0.0008102007 0.054026075 -0.014508514 0.007968314 0.06781875 -0.02777162
0.04399979 0.030764034 0.05218039 0.029771218 0.06037196 -0.041731153 -0.046496853 -0.046680395
-0.007034054 0.04090439 0.029021906 0.045750927 -0.02668179 -0.037506066 -0.024546705 -0.013820792
-0.022564145 -0.0042123194 0.018067835 0.023010984 -0.06403555 -0.059526566 -0.032151792 0.046451
-0.040947 0.06633267 -0.040302087 -0.020570029 -0.011543038 0.05111651 0.048695836 0.050652035
0.06345737 0.030810578 0.0040655304 -0.059272468 -0.0495843 -0.029806757 -0.042736948 -0.030160513

fc2.bias f4 [256]
00000000: e645 d8bc 6fbc 81bc d8c3 10bd 5e7c 053c
00000010: 515c 69bd 0db5 513d 9258 31bc f814 30bd
00000020: e91e 41bd c13f 5f3b 6364 433d e3cc f9bc
00000030: 0212 afbb 8371 02bc 752f 733d c1a4 aebc
00000040: 1459 b1bc 4058 0dbd f942 fe3a 0e55 71bd
00000050: c726 cf3c 8892 cd3c 76be 363d fef4 e83c
00000060: 13d5 3c3c 3be4 6d3d ea89 78bd 7674 2ebb
00000070: 7a5f b1bc 6628 c03c 3e30 453d b79f 033c
00000080: 35a0 3bbd b96d 45bc 3b5a 463b 7fd2 b7ba
00000090: 4561 6e3d b5ac 09bd a4bd 853d a664 bebc
000000a0: 923a e5bc a967 553d ba4d 9c3c 9f9c 653c
000000b0: fbb6 653b 1245 643c b69a 543a 4df9 243d
000000c0: 061a 543d f038 b3bc aa5d 503d f698 3fbd
000000d0: 9e23 49bd bc6f 543b 48cb 31bc 13a7 3dbd
000000e0: 6935 59bd 0f67 50bd 5099 473d 50ca 373d
000000f0: 24d0 2cbd 17a3 133c e818 be3c 7f86 fd3c
00000100: c95a ccbc 5a8a 6a3d 73a8 a0bc 1827 263d
00000110: da91 0d3d 6b4c 33bc 0de1 8bbc bc27 c6bc
00000120: aab6 553c 3c12 c5bc 83c0 d6bc bc77 483d
00000130: d534 44bd 4d55 963c ffce 1bbd f862 5d3c
00000140: 8f52 4b3d 4553 58bd 6647 41bd 16d9 93bc
00000150: 43d2 14bd 4ef4 b5bc 0642 023c cd7b 5b3a
00000160: bac6 73bc 1c31 15bc 8cf3 9e3c 8d06 753c
00000170: 3606 f13c 6a70 66bd 64b7 2bbd a6f3 8fbc
00000180: c8a8 bd3c 677c 263d 9e97 9cbc e160 80bc
00000190: 545a 1b3d 5cf6 a03c 42c7 20bd 9b15 0b3d
000001a0: 12cd 5a3d 2ecd 493d df4b 82bc 368b 55bd
000001b0: 9011 4b3d 6663 7fbc 8113 d3bc 9e4d 84bb
000001c0: 370f c7bc 47d4 99bc faf6 03bd b5af 013d
000001d0: 3537 4abc 3f2b d23c 847a 78bb bef7 353d
000001e0: 0340 97bc 10d2 933b 0c4f 7abb 799a 2d3d
000001f0: 92d9 37bd e280 e5bc af19 52bc 832e 843d
00000200: f048 91bc 0cb5 0b3d 98ec 25bc 8222 7dbd
00000210: a5fa 233d 10cf 5f3b acac 67ba ddfa 833d
00000220: a8a5 b93c 1eee 3b3c ec9d 4d3d 7bbc 6fb9
00000230: b53f 39bd db6c 8fbc 5df0 77bd 5a80 4f3d
00000240: fd76 283d e68a 3bbd ee7b e73c 0e92 c93c
00000250: b752 853c 5336 1c3d 0b95 b03c 9928 a63b
00000260: d93a d5bc 912c 5b3c 9f1d 17bd 160e 3dbd
00000270: 66b8 6f3d b307 613d 6d8a fc3b 3e9d 55bd
00000280: 0f16 8b3c 461c 8b3d 387a a03c 4267 f43c
00000290: b5d8 7abd 72e1 e93b e228 273d 5f59 083d
000002a0: da5c 013d a710 493d 31d6 c73c e3a1 6f3c
000002b0: 0f60 b63b 80be 86bc 0433 e2ba ec25 01bd
000002c0: e326 ccbc 4c5c b83c b009 48bd ed59 d7bc
000002d0: 40b4 12bd e867 183d 74f1 053b a375 66bc
000002e0: 1ced 6a3d ec4c c1bb 53cf 4dbd 44c0 833b
000002f0: cd4d 253d fdf6 f7bc 142f f53c 7e2c 9b3c
00000300: 22cc 68bd 6098 5cbd e2c4 833d afda fc3b
00000310: de71 003d 0512 493d bebf c7bc 92cd 413d
00000320: 0566 32bd 89d4 1bbc 0513 693d dc68 1cbd
00000330: b03f 7bbb 6a40 57bd f186 52bd b681 4c3d
00000340: b329 19bd 377d e3bc 73fa 4ebc 1ffc c7bc
00000350: 2117 f1bc c01e e23c 2fe3 82bc 87b4 433d
00000360: f2fc 01bb ace8 5bbd aee2 4c3c 8ecd c63c
00000370: b9e4 943c a08b 253c 59a0 28bd 68d0 283d
00000380: deae 6bbd 231b c7bc 6ca3 d7bb d214 10bd
00000390: be0b 82bb aa60 3c3d ac51 3fbd 1131 543d
000003a0: a2e3 eb3c 8e35 6bbd b383 72bd 3e0f 6b3d
000003b0: 425b 533d 1b91 143d 9161 f73c 5c35 563d
000003c0: 2b06 193d 3a0d 463d 1de0 1bbc d190 33bd
000003d0: 579d c23c 92c2 803b 5681 05bd 228d d5bc
000003e0: 53ac 52bd 7422 043d ecfe 49bd e71c 2f3d
000003f0: bb76 4dbd fe81 213d 61cc 953c 097b 273d
-0.026400518 -0.015836922 -0.03534302 0.008147327 -0.056972805 0.051198054 -0.010824339 -0.042988747
-0.04714862 0.00340651 0.047703158 -0.030493205 -0.005342723 -0.007961634 0.05937143 -0.021318795
-0.021648921 -0.03450799 0.0019398622 -0.058919005 0.025287045 0.025094286 0.04461523 0.028437134
0.01152541 0.058078986 -0.0606784 -0.002661971 -0.021651972 0.023456763 0.04814171 0.008033684
-0.045807082 -0.012050086 0.0030266184 -0.0014024525 0.058198232 -0.033611972 0.06530312 -0.023241352
-0.02798203 0.05210081 0.019080032 0.014014392 0.0035051692 0.013932483 0.0008110212 0.040276814
0.05178263 -0.021877736 0.050870575 -0.046776734 -0.049106233 0.0032415232 -0.010851689 -0.046301913
-0.05302945 -0.050879534 0.048730195 0.044870675 -0.042190686 0.009011052 0.023205236 0.030947922
-0.024945633 0.05726085 -0.019611573 0.040564626 0.034562923 -0.010943512 -0.017075086 -0.024188869
0.013044039 -0.024056546 -0.026214844 0.048942313 -0.047901947 0.018351221 -0.038039204 0.0135123655
0.04963928 -0.052813787 -0.04718723 -0.01804785 -0.036333334 -0.02221122 0.0079503115 0.0008372635
-0.014878923 -0.009105947 0.019403242 0.014955175 0.029421907 -0.05625955 -0.04192294 -0.017572235
0.02315177 0.040645983 -0.019115265 -0.015671195 0.03792794 0.019648723 -0.039252527 0.03395615
0.053418227 0.04926794 -0.015905319 -0.052134715 0.049577296 -0.015587663 -0.025766136 -0.004037573
-0.024299247 -0.01877798 -0.032217957 0.031661708 -0.012342264 0.025655387 -0.0037914822 0.04442572
-0.01846314 0.0045111254 -0.0038194088 0.042383645 -0.044885226 -0.028015558 -0.012823506 0.06454184
-0.017734975 0.034108207 -0.010127209 -0.061800487 0.040033955 0.0034150518 -0.0008837681 0.06444333
0.022661999 0.011470346 0.050199434 -0.0002286303 -0.04522677 -0.017507961 -0.060531963 0.050659515
0.0411291 -0.04578676 0.028257336 0.024605777 0.016274793 0.038137745 0.021555444 0.0050707576
-0.026029037 0.013377325 -0.036893483 -0.04615601 0.058525465 0.054938983 0.0077069313 -0.05215191
0.016978292 0.06792502 0.019589528 0.029834393 -0.061241824 0.007137471 0.040810473 0.033288356
0.03158269 0.049088147 0.024394127 0.014625999 0.0055656503 -0.01644826 -0.0017257635 -0.031530306
-0.024920886 0.022504948 -0.048837364 -0.026287997 -0.03581643 0.037208468 0.0020438107 -0.014066133
0.05735503 -0.0058990624 -0.050246548 0.0040207226 0.0403574 -0.03026914 0.029929675 0.018942114
-0.0568353 -0.053856254 0.06434037 0.007716499 0.031358592 0.04908945 -0.024383422 0.047315188
-0.043554325 -0.009511122 0.056902904 -0.03818594 -0.0038337521 -0.052551664 -0.05139822 0.04992839
-0.037393283 -0.027769668 -0.012632954 -0.024412213 -0.029429974 0.027602553 -0.01597747 0.047779586
-0.0019834605 -0.05368869 0.0125052165 0.024267938 0.01817547 0.01010409 -0.041168544 0.041214377
-0.057539813 -0.024304932 -0.0065807607 -0.035176106 -0.003968685 0.045990624 -0.046708748 0.051804606
0.028795067 -0.05742412 -0.05920763 0.057387583 0.051600702 0.036271196 0.03019789 0.05229698
0.037359398 0.048352458 -0.009513882 -0.04383928 0.023756666 0.0039294446 -0.032594047 -0.026068274
-0.051433872 0.03225942 -0.049315378 0.042752173 -0.05016206 0.03943061 0.018285932 0.04088882

fc3.weight f4 [3, 256]
00000000: 4ea7 473d 2768 113b e476 383d 2f07 58bd
00000010: 6d74 1b3d 60c7 c23c 051f 0fbd 7baa d3bc
00000020: 651b 6e3d 8d5d 673d ea7b 503d d46d 493d
00000030: 3e17 47bd 0873 5d3d 9c1a 843d 2f0f c8bc
00000040: af55 bd3b ffdd 4ebd 681c 613d a026 723c
00000050: a675 093d 8b24 213d 4b11 0fbc 3598 87bc
00000060: e675 c93b 5163 a6bc b89d 063d 20d9 f9bc
00000070: dc12 e03c 466b 65bd 3188 8a3d 788f 4ebd
00000080: 0923 403d e56f 923c 05ff 00bd 2dd1 3e3d
00000090: 5383 283d 6645 ffbc 41d5 eabb 9ecd 843d
000000a0: 8316 113d f81f 903d 6338 6cbd 963e f23c
000000b0: 2535 6dbd 575e e2bc 5a69 b1bb 1473 813d
000000c0: 1108 3dbd 7ada 13bb 2558 b4bc 175d cfbc
000000d0: 7af2 d13c d0e9 b63c 367e dcbb d903 4cbd
000000e0: e196 413d 720f f5bc e78d 9ebc 102b aabc
000000f0: 9b7d 303d 9f2c 3abd 8115 c33b e152 9c3b
00000100: 364a 4c3d 705d 47bd e059 58bd 76ad 143b
00000110: e919 d43c b0d4 1fbd a8d5 fabc f701 283d
00000120: 8420 e23c a019 553d 1f6f 9dbc d07b 1ebd
00000130: f7b6 4fbd abbb 01bd e20e 5fbd 217c 223d
00000140: 1a6b 2ebd 0b57 d1bc f404 1e3d 1a19 6c3c
00000150: 0f84 173d 3d19 30bd 77f9 e2bc aa92 4bbd
00000160: a700 d83c 2ac6 903c c9d6 bebc a4e0 7f3c
00000170: 5321 1dbd 7b3a 013d 9a59 81bc 9ddf e93c
00000180: 56b8 0fbd 4c5f 3e3d 23f1 57bd 1058 553d
00000190: e8d9 22bd 14f5 1abd 9af3 82bd 0162 70bc
000001a0: cd13 cf3c 7500 103d 504f 3f3d 3c6b b1bc
000001b0: 90e2 1fbc 1337 f2bc 4b1f 0bbd ec89 2a3d
000001c0: df2b f4bc 723a 073d dd87 cabc 5f2e 3c3d
000001d0: 1101 63bd 507d 38bc c31e 063d d6bb 803d
000001e0: da3e 793d ccd3 e13a a155 bdbc 2194 40bc
000001f0: f8e8 4f3d 7c4d 24bd 02e3 32bd 9d78 823c
00000200: 4168 193d f2b8 4bbd a410 60bd 2f02 06bb
00000210: d620 15bd fcad 3dbd f344 cabc f40f 2d3d
00000220: 8922 783d 7373 dd3c 98dd da3b f931 433d
00000230: 2e91 7f3c b542 b539 30e5 263d 78b7 c23c
00000240: fb44 5c3d c215 8b3b 0909 543b 0bb3 0c3d
00000250: c5e5 56bd 7346 b03a 438f 033d 2daa 5a3d
00000260: 5edd 78bc 6113 2fbd b822 3e3d eb92 4b3d
00000270: c1bf 583d f0e4 84bc f56e d53b 1ecf 84bb
00000280: 18a6 703d a617 e4bc 5158 733d fd6a 78bb
00000290: 1c32 723d 8cb4 0f3d b567 1dbd a48a f53b
000002a0: 8822 42bd d065 6d3d 0d34 123d 303a 553d
000002b0: 643c 54bc 1458 f9b9 0bae 52bc 9fbf 8abc
000002c0: aff6 913c 2dec c2bc 809a 0bbd ab81 7e3c
000002d0: 8310 6e3c 72de 783c 3751 633d 6190 253d
000002e0: 9361 413c 8992 0d3c 9b32 bc3c 5f20 c5bb
000002f0: d887 593d 74c2 423d 79aa 3cbc 5161 813d
00000300: 7920 0bbd 730d 383c cafd 553b f3a1 343c
00000310: 64d6 4cbd 83ad 603d dd9b 2b3d fa63 69bd
00000320: 7674 3a3d 6f40 edbc 45be 863d a46a 23bc
00000330: 1e51 2b3c 5945 fbbc 21b6 56bd 80cf 543d
00000340: ee4b 6dbc 4de4 c0bc c6d7 483d d4f7 353d
00000350: 917b 6b3c 7cff 12bd ef62 42bd e189 593b
00000360: be43 603d f348 79bd 5e8d 923d 5f42 4b3c
00000370: 8987 f8bc 97f1 fabc d0e6 8cbc 2bd6 c43c
00000380: ccd2 2a3c 1094 a9bb 9d63 66bd 2159 153d
00000390: a3c1 45bd 84a4 203c cf11 3e3d c2b0 7dbd
000003a0: b689 73bd c676 203d ef5d 603c be1b ef3c
000003b0: df5a 32bc 944d 223d a7af 503d 3523 96bb
000003c0: 693e 2e3d 8f13 0d3d 32e9 4ebd 34bf 2c3c
000003d0: 25ba 6abc db77 963c 894f 6dbc 738c 70bd
000003e0: 64b3 09bd 2f93 b3bc 9ce6 033c f6da a3bc
000003f0: 579f 923c 270e 1ebd 96b5 103d 3ead 0f3d
0.04874354 0.0022187324 0.045035258 -0.052741226 0.03795283 0.02377671 -0.034941692 -0.025838127
0.058131594 0.0564857 0.050899424 0.049177006 -0.04860615 0.05406478 0.06450388 -0.024421303
0.0057780365 -0.05050468 0.05495873 0.014779717 0.033559464 0.03934149 -0.00873215 -0.01655207
0.006148088 -0.02031103 0.032865256 -0.030499041 0.027352743 -0.056010507 0.06764258 -0.05042979
0.046908412 0.017875621 -0.031493206 0.046586204 0.041140866 -0.031161021 -0.007166535 0.06484531
0.03542186 0.070373476 -0.057670962 0.029570859 -0.05791201 -0.027632875 -0.00541417 0.063207775
-0.04615027 -0.0022560642 -0.022014687 -0.025312943 0.025628317 0.022328287 -0.0067289127 -0.049808357
0.04726303 -0.029914591 -0.019354774 -0.020772487 0.043088537 -0.04545271 0.005953491 0.004770622
0.04987546 -0.048673093 -0.052820086 0.0022686399 0.025891261 -0.039021194 -0.030619457 0.0410175
0.027603395 0.05202639 -0.019218026 -0.038692296 -0.0507116 -0.031673115 -0.054457553 0.03966916
-0.04258261 -0.0255542 0.038578942 0.014410282 0.036991175 -0.04299282 -0.027706845 -0.049700417
0.026367499 0.017672617 -0.023295777 0.015617523 -0.03836186 0.031549912 -0.015789796 0.02854901
-0.035087906 0.0464776 -0.0527202 0.052085936 -0.039758593 -0.03783138 -0.063941196 -0.014671803
0.025277996 0.035156686 0.046706498 -0.021657579 -0.009758607 -0.029567277 -0.03396539 0.04163544
-0.029806076 0.033014722 -0.024722988 0.04594266 -0.05542094 -0.011260346 0.03274418 0.06285827
0.060850956 0.0017229258 -0.02311212 -0.011754067 0.050759286 -0.040112957 -0.043673523 0.015926654
0.03745294 -0.049736924 -0.05470337 -0.002044808 -0.036408268 -0.046308503 -0.02469108 0.042251542
0.06057981 0.02703259 0.006679248 0.04765508 0.015598578 0.0003457271 0.040745914 0.023769125
0.053776722 0.004244537 0.0032354018 0.034350436 -0.05246522 0.001344873 0.032119047 0.05338495
-0.015189497 -0.04274309 0.04641983 0.04970066 0.052917246 -0.016222447 0.0065134712 -0.0040530106
0.05875215 -0.027843308 0.059410397 -0.0037905567 0.05912982 0.035084292 -0.03842898 0.007493334
-0.047396213 0.057958424 0.03569417 0.052057445 -0.012953851 -0.00047558604 -0.012858878 -0.016937075
0.017817823 -0.023794258 -0.03408289 0.015533845 0.014530304 0.015189754 0.055497374 0.040420894
0.011803049 0.008640894 0.02297335 -0.006015822 0.053108066 0.047548726 -0.011515253 0.0631739
-0.033966515 0.011233675 0.003265249 0.01102494 -0.050009146 0.054852974 0.04189669 -0.05698011
0.045521222 -0.028961388 0.0657926 -0.009974156 0.010456352 -0.030672716 -0.052419785 0.0519557
-0.014483435 -0.023546362 0.049033903 0.0444258 0.014372722 -0.03588818 -0.04745763 0.0033193754
0.054752104 -0.060860585 0.0715587 0.012405961 -0.030338066 -0.030632777 -0.017199904 0.024027904
0.010426234 -0.005175121 -0.056247342 0.036461953 -0.04828037 0.009804849 0.046403702 -0.061936148
-0.059457503 0.03917577 0.0136942705 0.029188033 -0.010885923 0.039624766 0.050948765 -0.0045818337
0.042539988 0.03444248 -0.05051536 0.010543633 -0.014326607 0.018367698 -0.014484295 -0.058727693
-0.033618346 -0.021920769 0.008050587 -0.02000187 0.017898245 -0.038587715 0.035329424 0.035077326

fc3.bias f4 [3]
00000000: 60ca 61bd 9bfc 083d 2b81 023c
-0.05512464 0.03344403 0.007965366
