benchmarks/BipedalWalkerHardcore-v3/Train_BipedalWalkerHardcore-v3_TD3_20230505-230159/models/critic_2.pth (torch, 186711 bytes, 5 tensors)

fc1.weight f4 [200, 28]
00000000: d108 aa3e 81ee 7e3f 7982 ee3e 130f c3bd
00000010: cd7a eb3d 3c0a 173d c7a1 c8be 0083 0bbd
00000020: a66f ad3d 1394 dbbd 725d f53c c48a 173e
00000030: 9c39 163d d3a9 433d c3d5 433d 7a65 74be
00000040: 4981 183e bd41 a83d 6e73 50be 5352 24be
00000050: 1f75 fb3a 7bc3 b13d 527a e7bd 008c d03d
00000060: de6b d73d 2d37 82be e808 9cbd 736b 073e
00000070: d8fa 6a3e a433 9c3e d3b6 9fbf 0423 f8be
00000080: 963a d83e 500b 87bd 0c78 983e 2f08 09bd
00000090: d52e 3c3d 3e67 903e 3f8e e13b d034 34bd
000000a0: b6e9 90bc 0d6e ce3d 862e 4ebe 4f91 d1bd
000000b0: 1e04 0fbe d361 823d 6692 e13d 014b f6bd
000000c0: 6cac 6abe 1037 523d 326f 133d dbbd 26be
000000d0: c528 af3b 3351 223d 3aed beba 93da 403d
000000e0: c2e7 ab3e bf18 853f a681 0dbf 04a7 d9be
000000f0: 700c bf3d e6f3 8cbc 2990 81bd b9fa 543d
00000100: 13a2 dc3d eb1d 863e 86dd 8f3e a310 4e3e
00000110: 97e9 1b3d dcc6 9ebd 8160 32be 1fa7 76be
00000120: 0bf8 aabd a675 f6bd cc0d 70bd e3de 31be
00000130: 9158 8cbe 9c39 93be 8edd 37be b13c b83c
00000140: c3ec 34bc f906 7a3d 0666 983c b68c b53d
00000150: e3da e03e 5508 c73f e0e3 a1bd aafc 553e
00000160: 3da9 853e 3bca 9b3d 8c4d 6ebd 15a9 733c
00000170: c537 ddbc d1df 92bd 177d 143e 55a0 d03d
00000180: 693c 5b3a 45fe a1bd f283 143d 5c13 793d
00000190: f886 673e 308f fb3d 030e f33d f6e4 07ba
000001a0: 41aa 403e b835 d43d cb42 e53d 249a 2e3c
000001b0: 85c0 9e3c 7ae5 2abd bb6a a13d 8fcc 80bd
000001c0: 18d3 97be 3590 a5bf 439f aa3e e98f 10be
000001d0: 568f 12bd 3ed2 8b3c f61e 863d 9ae7 8f3d
000001e0: 5e4c cb3d dfeb 05bf 0062 4abe ecf0 d5bd
000001f0: 5205 a43c b421 babd a135 19be 7a91 e43b
00000200: b514 b4bd 239e 543e 97ad 593e 0302 89bc
00000210: 35e1 543d aee1 1a3e ec37 da3b 7da7 fdbc
00000220: 0b22 bd3c 0f05 fc3d 39f6 09bd 7d91 dc3b
00000230: aec2 073f 25b6 73bf 0576 c6be 6242 e23d
00000240: 00b0 67bc 78c8 7a3c bfbe b83d 843a acbc
00000250: dcc7 23be 3a55 72be d052 d63d 7a4d bebd
00000260: 6e5c 8d3d 7940 443d 841f 91bd bd16 95bd
00000270: 21bf a2bd c206 373e ba34 873e 4e98 863e
00000280: 079e 82bc 8d59 303e d213 8cbc e239 3c3e
00000290: 4278 c43d 3b93 293d 2819 2b3e e74a 2dbd
000002a0: e7f3 c0bd a1f0 4dbf 8478 a83e ca32 053f
000002b0: f762 90bd e858 da3d c31c 4dbe 7ce0 9cbd
000002c0: bb64 06be 6c57 e83d afd9 1ebe e39f 073e
000002d0: 3f62 8b3d fd41 42ba c337 0c3e ebb8 fe3c
000002e0: 45a2 59bd c979 e03d 002d 9239 2f19 923e
000002f0: 2d0f ff3d c4bf 17be 69bd 053e 5cf5 893d
00000300: fb7f bfbd 9559 acbe f40e 653d a736 013e
00000310: 75a9 acbe 2f61 27bd cc41 383e 85ba c1be
00000320: a89f 9fbd 8e2e a93c 3873 693b fd27 303d
00000330: fc75 793d 1207 e3be 0b7f 56bd 3594 94be
00000340: f48a 03be 7de4 f33b 8d70 833e 7b55 c2bd
00000350: 23cc 1bbd afd0 c23d 543a c63c d24e 07be
00000360: 1cf7 0ebe 8dd3 12be 5376 2fbe 2ab2 19be
00000370: 5356 ec3c 50f2 c13d 5bfa c1bc c9e7 10bd
00000380: df90 11be cbad 70be 129f 003f b680 5bbe
00000390: d4fb 7cbe 2ac9 25be 0dfb c9ba 4beb bbbd
000003a0: 1be2 12be 4d01 e73a 36a4 fbbc 2373 cb3c
000003b0: d0b5 b4bd 000c 8ebc 798f 28be 9fde 03be
000003c0: 7fec 873d 2cca 333e a8f5 123e d449 453e
000003d0: bcbd 7dbd 6ca1 8a3d 1853 a6bd 921e a83d
000003e0: 11cb b4bb 7a31 cc3c c49e 1abe 6600 c4bd
000003f0: 6e44 e43d 6464 543f ebc4 bf3d ccaf c93e
0.3320985 0.9958268 0.46583918 -0.095243596 0.11498032 0.036874995 -0.39185926 -0.03406048
0.08468561 -0.10721602 0.029951785 0.14799029 0.036676034 0.04776938 0.04781128 -0.23866835
0.14893068 0.082156636 -0.20356533 -0.16047029 0.0019184685 0.08679863 -0.113026276 0.10182953
0.10518621 -0.2543272 -0.07618886 0.13224582 0.22947252 0.3050815 -1.2477669 -0.48464215
0.42232198 -0.065939546 0.29779088 -0.03345507 0.0459431 0.28203768 0.006883412 -0.04399568
-0.017689567 0.10079584 -0.20134935 -0.102327935 -0.13966414 0.06366315 0.110142514 -0.120260246
-0.22917336 0.051322043 0.035994716 -0.16283362 0.0053454363 0.03962822 -0.0014566549 0.04708345
0.33575255 1.0398177 -0.5527595 -0.42510235 0.09328544 -0.017206144 -0.063263245 0.05199692
0.10773101 0.261947 0.28098696 0.20123534 0.038064566 -0.07752773 -0.17419626 -0.24087189
-0.08348092 -0.120341584 -0.058606908 -0.17370181 -0.2741132 -0.2875489 -0.1795561 0.022489877
-0.0110427765 0.061041806 0.018603336 0.08864729 0.43916997 1.5549418 -0.07904792 0.20897165
0.2610568 0.07606932 -0.058179423 0.014871855 -0.027004132 -0.07171596 0.14500843 0.10186831
0.0008363189 -0.07909826 0.036258645 0.06080948 0.2261008 0.1228317 0.11867907 -0.0005183959
0.18814947 0.103618085 0.111943804 0.010656867 0.01937891 -0.041722752 0.07881685 -0.062890165
-0.2965324 -1.2934633 0.33324632 -0.14117397 -0.035781227 0.017068025 0.06548874 0.07026596
0.09926675 -0.52313036 -0.19763947 -0.10446343 0.020022068 -0.090884596 -0.14961864 0.00697535
-0.08793012 0.2076345 0.21257626 -0.016724592 0.051972587 0.15125152 0.0066594984 -0.030963654
0.023087522 0.12305652 -0.03368208 0.0067312107 0.5303143 -0.95199805 -0.38761917 0.11047818
-0.014141083 0.015306585 0.09020757 -0.021023996 -0.15994209 -0.23665324 0.10465014 -0.09292121
0.06902395 0.04791305 -0.07086089 -0.072797276 -0.07946611 0.17873672 0.26407415 0.26288074
-0.015944494 0.17221661 -0.017099295 0.18381456 0.0959325 0.041400176 0.16708815 -0.04230776
-0.09421521 -0.80445296 0.32904446 0.5203062 -0.07050126 0.10661489 -0.20030503 -0.076600045
-0.13124363 0.113447994 -0.15512727 0.13244586 0.06805848 -0.0007410346 0.13693146 0.031094035
-0.053133268 0.10960729 0.00027880818 0.2853484 0.124540664 -0.14819247 0.13060535 0.06736252
-0.09350582 -0.33662096 0.055922464 0.12618504 -0.33723035 -0.040864166 0.1799385 -0.37837616
-0.07794124 0.020652082 0.0035621654 0.043006886 0.060903534 -0.44341332 -0.05236725 -0.29019323
-0.12845975 0.0074430094 0.25671807 -0.0948896 -0.038036477 0.095124595 0.024197735 -0.13213661
-0.13961452 -0.14338513 -0.17134981 -0.1500937 0.028849756 0.094700456 -0.02367895 -0.035377298
-0.1421542 -0.23503797 0.5024272 -0.21435818 -0.2470544 -0.16190019 -0.0015409902 -0.09175738
-0.14344065 0.0017624289 -0.03071795 0.024835175 -0.088237405 -0.017339706 -0.1646098 -0.12877892
0.06636905 0.17557591 0.14351523 0.19266444 -0.061948523 0.0676907 -0.081213176 0.08208956
-0.0055173715 0.024925936 -0.15099627 -0.095703885 0.111458644 0.82965684 0.09363731 0.39391935

fc1.bias f4 [200]
00000000: 0d5c 613e e63a 5e3d 1580 233d 63e4 61bd
00000010: 7178 f5bd a0be 8fbd 57b3 6bbe ac24 ae3d
00000020: 1cbf 1f3e 55c4 47be e858 ccbd bd74 103e
00000030: 60da 4abd 5dbd fabd e911 a23d d9b5 003e
00000040: 70a1 743e 93c9 e7bd 1220 443d b575 8ebc
00000050: 2b7b 2b3e c65f d0bd 3237 0a3d e193 96bd
00000060: b919 93bd 8fd9 bd3e 6e81 d1bd 1a5b 51be
00000070: a0e5 9fbd 0ed4 723c 40d2 10be 24a4 0e3d
00000080: 2116 f1bd 28f1 9c3e 7d02 7bbd 4877 023e
00000090: e716 f4bd 2638 6abe 101f 723d 9a13 633e
000000a0: ece8 d8bc b203 01be 0167 123e ea09 acbb
000000b0: 4135 67bd b987 e1bc 2377 17be 73d9 053e
000000c0: ff87 f33c 974e 25bd d457 a83d 31fa 01be
000000d0: 37ed 833c 016b c2bc 3fec babb d93c 44bc
000000e0: 1adb c5bd 82ae 49be e1b7 dfbc 24db cb3d
000000f0: acdf 513d a473 2d3e d12e 433d 0b77 54bd
00000100: db96 1ebe f6d0 283e 5f7f 63bd 4b38 ba3d
00000110: 7d89 7c3d 9806 65bd 284e 9a3e 14e1 413e
00000120: 9710 a03e 0976 49bd 6b48 f9bb da04 4b3e
00000130: 030a c63c 05b2 bfbd fa5a 12be 74bc 04be
00000140: 7030 0e3e a0a1 603e cdc7 2c3d ad90 303e
00000150: ce81 29bd 58e7 8a3e 1c9a 593e 1489 803e
00000160: 8fa9 9a3e bc0b d2bd fa2c a2bd af9c 28be
00000170: 7f1a e5bd e99a 1a3e 4f6a 063e 1dfa debd
00000180: 9f54 68be f99b 82bd def0 cabd 47fe c9bc
00000190: 9e96 de3c bf25 743d bf4a 15be ed58 7fbc
000001a0: 75a1 5a3e c676 913c 9d53 543e 6287 b03d
000001b0: 075e 993d 2de8 48be 165a 0b3e 513f 543e
000001c0: a775 22bd 6262 643d 3fc3 eb3d 7abd 2bbe
000001d0: 7bb6 0ebe 870e 0dbe 66c6 09be a6bf f63d
000001e0: 4af2 f7bd 1807 713d e341 523e 4507 953e
000001f0: e00e 90bd 5f9b 9b3d e878 cc3c 2617 9f3c
00000200: 1250 8cbd df3e b23d 6155 95bd 7d84 123e
00000210: f84a 22be 50be 1bbe f790 11be 2489 84bc
00000220: cf4c 163e 509c b7bd 42fb f13b 9f08 2b3e
00000230: 60da f8ba 7c9e 2a3e 61e5 4c3e a0ca c4bd
00000240: 4603 573e 8f3b 98be a964 db3c 37f7 313e
00000250: 55ea 1cbe a661 e73d ade3 59bd b610 9e3e
00000260: 96a3 863e 05c5 093d 4b4a 2abe be5c d23d
00000270: 81ba e93d 4dfe b2bd 49cf 86bd 8eab 253e
00000280: d4f4 923d 3042 29be 6d03 e3bd 25ca 12be
00000290: dbbb cc3c 863d de3e 3c71 8cbd 809e 15bd
000002a0: f13e 3cbd 80f5 57bd b49a e13d 9aa8 003e
000002b0: 6f36 01be 44a9 3bbd 95d7 0fbd acfe 4dbd
000002c0: 2242 ed3d 0395 953e a0ca 9dbd 111e 39be
000002d0: b956 093e e10c e8bd 3bc7 ccbd d2d3 0ebe
000002e0: dbe1 7cbc 1b66 aebd 611d fa3d 3b2a 8a3d
000002f0: e26f aa39 ff9f 573e b90c 6abd c0bf 81be
00000300: 4058 4abd db65 3bbd 6fef 4b3d 7fa9 663e
00000310: fe46 07bd e591 043d 83b1 c43b 6d60 00be
0.22007771 0.05425539 0.03991707 -0.055149447 -0.11985863 -0.07018781 -0.23017631 0.08503088
0.15600246 -0.19508488 -0.09977895 0.14107032 -0.049524665 -0.122431494 0.07913572 0.1256937
0.23889709 -0.11317744 0.047882147 -0.017390111 0.16746204 -0.10174517 0.033744045 -0.073524244
-0.071826406 0.37080047 -0.10229765 -0.20444909 -0.07807469 0.014821066 -0.14142704 0.034824505
-0.11771799 0.30652738 -0.06128167 0.12740815 -0.11918431 -0.22872981 0.059111655 0.22175446
-0.026478253 -0.12599066 0.14297105 -0.0052502053 -0.05644727 -0.027530538 -0.14791541 0.13071232
0.029727934 -0.040358152 0.08219877 -0.12693097 0.016104324 -0.023732664 -0.0057044323 -0.011977398
-0.09660931 -0.19695476 -0.02730936 0.09953907 0.0512387 0.16938645 0.04765207 -0.05187134
-0.15487234 0.16485962 -0.055541392 0.09092768 0.061654557 -0.05591449 0.30137753 0.18933517
0.31262657 -0.049184833 -0.00760751 0.1982607 0.024174696 -0.093601264 -0.14292517 -0.12962514
0.13885665 0.21936655 0.042182732 0.1724269 -0.041383557 0.27129626 0.21250194 0.25104582
0.30207488 -0.102561444 -0.07918735 -0.1646602 -0.11186694 0.15098156 0.13126491 -0.10887549
-0.2268853 -0.06377406 -0.09909223 -0.024657382 0.02717143 0.05960631 -0.14579295 -0.015585166
0.21350653 0.01775683 0.20735021 0.08619572 0.074886374 -0.19619818 0.13608584 0.20727278
-0.039662983 0.055757888 0.115118496 -0.16771498 -0.13936798 -0.13775073 -0.13454589 0.12048273
-0.1210676 0.058844656 0.20532946 0.2910711 -0.07034087 0.07597994 0.024959996 0.019420218
-0.0685121 0.08703398 -0.07291675 0.14308353 -0.15848911 -0.15209317 -0.14215456 -0.016178675
0.14677738 -0.08965361 0.0073846886 0.16702507 -0.0018985979 0.1666202 0.20009376 -0.0960896
0.20997342 -0.2973294 0.026781397 0.17379461 -0.15323766 0.11297922 -0.053195644 0.30872124
0.2629668 0.033635158 -0.16629903 0.102715954 0.11412526 -0.0873991 -0.06582505 0.16178724
0.071756035 -0.16529155 -0.11084638 -0.14334925 0.02499192 0.43406314 -0.06857535 -0.03652811
-0.045958463 -0.05272436 0.110158354 0.12564316 -0.12618421 -0.04581572 -0.035117704 -0.050291702
0.115848795 0.2921525 -0.07704663 -0.18077876 0.13411988 -0.113305815 -0.09998938 -0.1394799
-0.0154347075 -0.08515569 0.12212635 0.06746336 0.00032508286 0.21057127 -0.05714104 -0.25341606
-0.049400568 -0.045751434 0.04978889 0.22525595 -0.033026688 0.0323657 0.0060026064 -0.12536784

fc2.weight f4 [200, 200]
00000000: 3ad6 ddbd e352 b23d 1f84 70be 96b5 83bd
00000010: 79d3 8d3e adc7 c23d 67ed 333e d06d 92be
00000020: cb03 29bd b9dc ee3d 75ac 7fbc a83a 9bbd
00000030: 246d ed3d 9e36 04bd 2a69 39bd f1b1 3bbe
00000040: 4cc9 673d 7672 3c3d 1850 c73d 242c 2a3e
00000050: 511b 393d 0eba 9f3c 39d4 9f3d 7b25 23bd
00000060: 9972 a93c 47af 7ebd 2912 173e 8733 0c3e
00000070: 3c50 5e3e a4c9 28bd 7b98 8bbd b443 563c
00000080: fee8 4d3d 28b3 17bd eaba 6bbd f68b a9bd
00000090: 6df1 9dbd 406e bb3d 03da d6bb 8ced 56bd
000000a0: 9621 b33d b460 57bd 6a2f 75bc cdaa 81bd
000000b0: 73ae b03d 629e 3e3d f325 3e3d 2bc2 8c3d
000000c0: 4925 52bc 25d1 5239 f533 bf3d 17fa 953e
000000d0: 350e e6bc c116 5cbd 15a3 cbbc 9057 3e3d
000000e0: 0d0b a43d a652 203e f241 64bd ce5e 023b
000000f0: 8496 8abd aac0 74bd d201 cdbd 371c 653b
00000100: 7b77 c1bd 9c73 55bd 7258 d73d 3ac2 58be
00000110: c50e 90bd 70b9 62bc 4327 2ebe b211 c03d
00000120: b5ff 9bbd 315e 9e3d 333f 143d a4cb cbbd
00000130: ece7 38bd 285b fe3d 739d 063d b8ee c83e
00000140: 2006 d13d e87b 3fbc 7767 f63d eda1 a0bb
00000150: 822f 183d 0415 b8bd 9687 1fbd 98f9 573d
00000160: ae81 7ebc 8c72 7cbd dbef 8dbb a371 bc3d
00000170: f31c 513d 8e10 a13d 89a4 e0bb 3834 673d
00000180: da52 52bd 597e 2fbd 5825 70bb 5c7c 06bd
00000190: 03ea 95bb 83a7 96b9 f8d3 aabd 1eb9 413d
000001a0: f7c9 ebbc 16a6 26bd 27d2 1b3c d75b 01bd
000001b0: 518e 263d 6ee6 46be c282 663d 8ad0 29be
000001c0: 355b 133d eb46 363e 5ab9 54bb 2d54 773d
000001d0: 453b 9cbd 899c 6c3d 78fd 823d 8d30 923b
000001e0: 2838 b23e bf7d 82bd 7f2d d03c 34b6 163d
000001f0: 5029 fc3d ab40 a3bb a085 6a3d bab3 c3bd
00000200: 518d 8e3d 90ab 463d 661e 18bd 6180 d93d
00000210: 1807 d73a c00f d03d 5f1a 9fbd bb24 393d
00000220: d5ca ce3c c7ad c4bd ff88 c43c 2220 f1bd
00000230: a124 d0bd 9cf0 bdbb 7a37 ac3c f8cc d23c
00000240: 195c 73be e5d9 f8bd 3c89 9e3c 5689 85bd
00000250: 3d33 c63d 2d09 73bd 6584 b23b e822 07be
00000260: e38a acbe 3682 063e a9f8 8f3d 18ea 6f3d
00000270: 49a2 143d bad4 9fbd 4a0f 07be e81b 863c
00000280: e597 99bc 8ef2 9cbd a9f6 a63d 46c6 323c
00000290: 16b0 353d 7ed1 acbd 2f34 b1bd c788 6bbd
000002a0: 0288 9e3d 7878 5f3d b16c 6fbd 4688 8e3d
000002b0: c443 b83d 7c20 913d acd8 e13d 4c9b b03d
000002c0: a4bc 55bd 5252 303d 2d39 503d ef77 12bd
000002d0: b3af 5dbe 2b29 81bd e0e9 0abe b920 ee3d
000002e0: ac59 e03d d629 2fbe a1e8 0d3c 93e9 d23d
000002f0: 8982 d33c aca0 b83c b8cd f03d fa39 8ebd
00000300: e63d 93bd ef4b 08be 56b0 4a3d 0b90 183d
00000310: ebdd c13d a6f2 82bc 7fd8 cc3c 37ed 583d
00000320: 5058 453e 6622 37bd eb30 f93d e527 043e
00000330: 68eb c73d 3fa2 06bd ec97 903d e5c6 ea3d
00000340: 7c63 f23a 5469 9ebd b593 653d 4a6f 28be
00000350: 6cfb 0dbe e43b ae3d 200f 2f3c 6447 95bd
00000360: 152c 9abd 4299 623e 87ee cbbd 1f08 343e
00000370: f71f 3abc 439c b1bd 4ecd 06be 2846 613e
00000380: f80d 663d 7657 edbd 7fad 0eb9 5748 babd
00000390: 54ac a4bd c802 ffbd 5a57 623d 503b fe3d
000003a0: 7741 733d b56c 18bd c576 c23d 9037 ab3d
000003b0: ef12 eabb 8fe4 11be d2b7 c8bd 05ae 4dbd
000003c0: 2f52 69bd 6460 38bd 5f80 083b 1b8c cb3b
000003d0: 30fe 1d3e 5730 4cbc 8d31 a43c 52f6 bc3d
000003e0: 82dc b73d 37cc 563d 8037 06bd b0cb f53d
000003f0: 64b4 4ebc f5ab ea3d 79ae aabc a050 d53c
-0.10831876 0.08707216 -0.234879 -0.06431119 0.27700403 0.095107414 0.1757103 -0.28599405
-0.041263383 0.11663193 -0.015605082 -0.07579547 0.115930825 -0.03227865 -0.045266308 -0.18329598
0.056588456 0.046007596 0.097320735 0.16618401 0.045192067 0.019497897 0.0780415 -0.039830666
0.020684527 -0.062178876 0.14753021 0.13691531 0.21710294 -0.041207924 -0.06816193 0.013077665
0.050271027 -0.03703609 -0.057551302 -0.082786486 -0.07712064 0.09151888 -0.0065567507 -0.052472636
0.087466404 -0.052582458 -0.014964918 -0.06331406 0.086270235 0.046537764 0.04642291 0.06872972
-0.012826272 0.00020105073 0.09336082 0.29292366 -0.028082946 -0.053732637 -0.024858037 0.046470225
0.0800992 0.15656528 -0.055726953 0.0019892934 -0.0676699 -0.05975405 -0.10010113 0.0034959444
-0.09446617 -0.052112207 0.105149165 -0.21167842 -0.07034067 -0.013838157 -0.17007165 0.09378375
-0.076171316 0.07732809 0.036193084 -0.09950951 -0.045143053 0.124197304 0.032865 0.39244628
0.102062464 -0.011687256 0.12031453 -0.0049021156 0.037154682 -0.089883834 -0.038947664 0.052728266
-0.015533848 -0.061632678 -0.0043315715 0.09201362 0.051053 0.07864486 -0.0068555516 0.056446284
-0.051348545 -0.042845104 -0.0036643352 -0.032833442 -0.0045750155 -0.00028735035 -0.08341211 0.047295682
-0.028782828 -0.040685736 0.009510553 -0.031581726 0.040663067 -0.1942384 0.056277044 -0.16583458
0.035975654 0.1780049 -0.003245911 0.06038301 -0.07628492 0.05776647 0.063960016 0.004461354
0.3480847 -0.063716404 0.02541232 0.036794856 0.12312567 -0.0049820743 0.05725634 -0.095557645
0.06960548 0.04850346 -0.037138365 0.106201895 0.0016405312 0.10159254 -0.07768702 0.045201045
0.025243202 -0.09603458 0.023991106 -0.11773707 -0.101632364 -0.005796505 0.021022547 0.025732502
-0.23765601 -0.12150935 0.019352548 -0.065203354 0.09677742 -0.059334923 0.0054479116 -0.1319691
-0.33699712 0.13135609 0.0702985 0.05857286 0.03628758 -0.07804246 -0.13189426 0.016370729
-0.018749187 -0.07663451 0.081525154 0.01091153 0.04435738 -0.08438395 -0.08652531 -0.057503488
0.07740785 0.054558247 -0.058453266 0.06959586 0.089973 0.07086274 0.11027655 0.086233705
-0.052181855 0.043047257 0.050835777 -0.03575891 -0.21649055 -0.0630668 -0.13565779 0.11627335
0.109546036 -0.17105803 0.00866142 0.10298457 0.02581908 0.022537552 0.11757988 -0.06944652
-0.071895406 -0.13310216 0.049484573 0.037246745 0.094661556 -0.015984844 0.025005577 0.0529606
0.1927197 -0.04471054 0.121675335 0.12905844 0.09761697 -0.032869574 0.07060227 0.11463717
0.0018492783 -0.077349335 0.056049068 -0.16448703 -0.13865441 0.08507517 0.010684758 -0.07289007
-0.07527939 0.22128776 -0.09957605 0.17581223 -0.01136016 -0.08672383 -0.13164255 0.21999419
0.056165665 -0.115889475 -0.00013606808 -0.09095829 -0.080406815 -0.12451702 0.055259086 0.12413657
0.059388604 -0.037213046 0.0949531 0.08360207 -0.0071433703 -0.14247344 -0.09800686 -0.050214786
-0.056963142 -0.0450138 0.0020828468 0.00621177 0.15428996 -0.012462697 0.020043159 0.09226669
0.089776054 0.05244085 -0.032767773 0.12001741 -0.012616251 0.114585795 -0.020835148 0.026039422

fc2.bias f4 [200]
00000000: 207b 353b a8f1 ae3d 8855 25bd efc5 6f3d
00000010: 1e81 493c ba13 14bd 5025 c9bd 6fe6 b0bd
00000020: f9e5 7bbd c351 80bd bda5 8b3d bfff 50ba
00000030: 1d0e 21bc b981 cdbd 985a 733d 6bac b6bd
00000040: 264d 75bd 74c9 8ebc a920 9d3d af22 3ebd
00000050: f87b 7fbb 0863 983d 39a6 6f3d 23f6 aebd
00000060: b62e d6bb 20b2 873d 0cd6 363d 6961 d53c
00000070: 665f ccbd b859 1f3c ceac b8bc 60cd a23c
00000080: 9a10 063d 9d6e a73c 8a51 e0bd 2909 98bd
00000090: 2014 79bd 6c6e 0f3c 7fcd 873d b4e2 e63b
000000a0: 138e 10bd 5f63 2cbd 2c0b db3a 1055 10be
000000b0: 95b8 01bd f0a0 9abd 3687 5cbd 90a0 c3bb
000000c0: 8d53 a3bd bf5d aebd b85b 153d a37b 0f3d
000000d0: 4377 e3bc 95b8 07bd 6c3c f0bd 8b6a 503d
000000e0: 1d55 693c 38a8 a63d 85a6 11ba 8b9b eebc
000000f0: 8296 5e3c 2f0b 0abd 0686 8fbc 921e c9bd
00000100: 4c9f 793c f906 283d 642d a33c 7f8b 22bd
00000110: 6075 14bd 5346 c43d c4b9 cabd 3dcf e4bc
00000120: 77c2 45bd df36 e53c 4e49 063c 7b91 1abd
00000130: 8517 a2bc 4a2a 7fbc e617 8ebd 2c8e 263d
00000140: c6aa 0d3d 93d3 973d 31ed 14bd 3c69 ac3b
00000150: a328 7fbd 376d 093d 3a75 5d3d b12f 00bd
00000160: 6c4e 07be f0fe acbc 303d a3bd 7f0f 54bd
00000170: e685 13bd e9c6 473d 1f06 253d 940f afbb
00000180: 6110 c03c d4e8 5ebd 68b8 e03c 8ddc 81bd
00000190: 35fb ad3c d710 66bd ad9b d9bd d42f 26bd
000001a0: 7f04 9c3c 88ab a5bd ee48 97bd 7c67 8b3c
000001b0: 99b0 66bd 1df5 c4bd 3c38 f63d 472b 07bd
000001c0: 4c52 f63b e721 a0bc 421b 6bbc da16 643d
000001d0: 5782 ad3a 5308 ef3c 4d0b 3abd 7267 3d3d
000001e0: 9a1f 513d e73e 4d3d 45e2 91bc 5bc6 06bd
000001f0: 07bd 8a3d 4cba 62bd f705 ad3d e91a 76bd
00000200: 344a 2f3c 10c4 8dbc 9980 39bd 7032 7e3c
00000210: bf4b 823d 4a22 343c 6724 033d 2f40 6c3d
00000220: f0f1 673c 8531 2bbc 0afa dbbd bbde 273d
00000230: 77fd 9b3d 666d 84bd 21c0 a03b d29a 97bd
00000240: f9c2 2a3d 2d28 b93d f11e 00bd 66c5 03bb
00000250: 3eef 0cbd 3d60 a0bd d60f a93d c29f 89bd
00000260: 8dd0 933d 4816 323d adac 0aba d029 8c3d
00000270: 8ded 913d ccad 0c3d c202 32bc f7e3 833c
00000280: d20f a53c e1a7 563d 60c6 1bbd 7569 d43d
00000290: 6e60 d53b 4bd5 7b3c 773b 433d 5d17 1bbd
000002a0: e5bf c8bd 304c 903d 2fb4 c63d a02f 3fbd
000002b0: fd68 1a3d 60c9 c1ba 45ec 73bc 7b2f 2a3d
000002c0: f2e9 493d 82a1 763c 551b f8bd ad91 5abd
000002d0: d907 363c f100 22bc 0860 223c f1da 82bd
000002e0: 6d08 cd3c 98b7 07bd 65f5 13bc 7fde 07bd
000002f0: 0906 e43a 58e5 803b 42a1 8d3d 5068 b13c
00000300: 4fc6 1e3d ecf9 c83c 6f81 91bd ed22 eb3c
00000310: f122 fa3c 8db7 563c 6081 073d 6dc4 76bc
0.0027691796 0.08542186 -0.040364772 0.058538374 0.01229885 -0.036151625 -0.0982157 -0.08637702
-0.061498616 -0.06265595 0.068187214 -0.00079726795 -0.009830025 -0.10034508 0.05941257 -0.08919605
-0.059888028 -0.017430045 0.07672245 -0.046419796 -0.0038983803 0.07440764 0.05850813 -0.085430406
-0.00653633 0.066257715 0.044637725 0.026047425 -0.09979133 0.00972598 -0.022543337 0.019873321
0.032730676 0.020438487 -0.10953052 -0.07423622 -0.06081021 0.008754354 0.06630992 0.007046068
-0.035291743 -0.042086955 0.0016711704 -0.14094949 -0.03167017 -0.07550228 -0.053839885 -0.0059700683
-0.079749204 -0.085139744 0.036464423 0.03503002 -0.02776683 -0.033135016 -0.117302746 0.050882857
0.014241484 0.08137554 -0.00055561244 -0.029126903 0.013585689 -0.03370207 -0.017519962 -0.09820284
0.015235733 0.041022275 0.019919105 -0.039683815 -0.03624475 0.09583726 -0.09898713 -0.02793085
-0.04828116 0.027980266 0.008196188 -0.037736397 -0.019786606 -0.015574047 -0.06938152 0.04066293
0.03458669 0.074134015 -0.036359016 0.0052615684 -0.062294614 0.03355142 0.054066874 -0.031295482
-0.1321351 -0.021117657 -0.07970655 -0.05177259 -0.036016367 0.04877368 0.04028904 -0.005342433
0.02344531 -0.05442126 0.027431682 -0.06340895 0.021237949 -0.056168403 -0.10625396 -0.040572956
0.019045113 -0.080893576 -0.07386957 0.017017119 -0.05632076 -0.09617064 0.120224446 -0.033000257
0.007517135 -0.019547416 -0.0143497605 0.055685855 0.0013237697 0.029178774 -0.045420934 0.04624123
0.05105553 0.050108816 -0.017808089 -0.03290401 0.06774335 -0.055353448 0.08448403 -0.060084257
0.010698844 -0.017305404 -0.045288656 0.015514955 0.06362104 0.010994503 0.032017138 0.057678398
0.0141568035 -0.010448818 -0.107410505 0.040983897 0.07616704 -0.064661786 0.004905716 -0.074025765
0.041689847 0.09040866 -0.031279508 -0.0020106672 -0.034407847 -0.07830856 0.082549736 -0.067199245
0.07217512 0.04347828 -0.0005290013 0.068439126 0.07125387 0.034345433 -0.010864915 0.016099913
0.020149145 0.052406196 -0.038030982 0.10371677 0.0065117395 0.015370677 0.047664132 -0.037864078
-0.09802226 0.070457816 0.09702336 -0.046676278 0.03769778 -0.0014784746 -0.014887874 0.041549187
0.049295373 0.015053155 -0.12114588 -0.053361584 0.011110269 -0.00988792 0.009910591 -0.06389416
0.025028432 -0.033134073 -0.009030675 -0.033171173 0.0017396818 0.00393359 0.06915523 0.021656185
0.03876334 0.024533235 -0.071047656 0.028703177 0.03053424 0.013105285 0.033082366 -0.01506148

fc3.weight f4 [1, 200]
00000000: 96a8 b9be e277 af3e 89e0 5abe b47b 3d3e
00000010: f969 f53e cc7b ae3e 1ffa d3bd e193 c5be
00000020: 9cae 22bf ce5b 15bf 8f89 0d3e 08dc 98be
00000030: 9a10 7cbe abb5 8cbe 1b3f a53e 40e9 c53e
00000040: 6901 8bbe 12a2 2cbe a217 c3be b41b 89be
00000050: ae4b dfbe a8b7 9b3e d430 173e d952 2dbf
00000060: b1e6 e23e e6c1 7e3e 6a46 773e 317e 06bf
00000070: 20e8 b7be d308 68be 3023 9fbe 96c2 1abf
00000080: d2e6 f63e a172 823e f974 7bbf 1372 023f
00000090: 011f a23d a44e 3f3e b094 01bf b971 943e
000000a0: 0724 f93e 08cf 27bf 73ee 6bbe a981 2dbf
000000b0: 2650 043f b559 ccbe 7b34 513f 85c0 b1be
000000c0: e2df c6be 5859 01bf af56 94be 2c34 673e
000000d0: d160 d83e dbe8 0abf cd91 59bf de2c a2be
000000e0: 6ed0 06be 1fbb 0b3e ce2c 1b3f 3a48 9fbe
000000f0: 9ef5 c43e 913a 83be 216c 3ebe 530e bdbe
00000100: ace4 a63e 4fad 503e bbab dabe 667b 67be
00000110: 16b8 89be f0da 9e3e 5596 e8be ba29 063f
00000120: 8536 3b3f b81c 9a3d 1c86 843e 7382 c53e
00000130: 783b 003f 8e27 043f 8188 bcbe cb7c 033f
00000140: 3c60 a73e 0a48 f53e f0d5 d53e b73c 033f
00000150: 69ac 473f c426 56be 1a3b 8cbe d6a5 e03e
00000160: 02e4 04bf ef1b 253e 52fc 0bbf dd2c 4e3f
00000170: 8972 e3be 761a 07be 82f8 e03e e012 9b3e
00000180: 2ed1 613e 8bcd 463e 595c 043f 602d c3be
00000190: b213 8f3e c811 4bbe 5738 19bf 114b 3abe
000001a0: 3318 ff3e 4332 67bf c625 a7be ba37 d7be
000001b0: 3f7e cdbe 450d 55bf a152 c9be 48c8 8d3e
000001c0: 643d cabe 12eb e2be 3d3e 863e 19dc 993e
000001d0: 1701 8cbe 0eff 073f 1a90 0e3f c252 6e3e
000001e0: 0152 82be 657f 4d3e ad41 e4be 2355 f1be
000001f0: 6cfd 153e 91a6 03bf 8754 0f3e 6b2b 233f
00000200: 760a 933e 8375 823e 411b abbe 4be3 80be
00000210: 84c2 e83d 756e 9c3e 1345 883e 8a92 b7be
00000220: f3fe 41be 83d0 a33e 1e6c 33bf 0137 b9be
00000230: 8360 fd3d 16e6 aabe 1814 99be 3067 dd3e
00000240: ef86 883e 3b6c 803d 2ece a93e c25a a13e
00000250: d119 a53e b674 b4be c468 7b3e 603c debe
00000260: 85df 203e a224 5a3e 15ff 77be 55e0 053e
00000270: 65e2 fbbe db13 d33e 7dcf 9cbe c6da b3be
00000280: 294a a9be 9dda 35be e38c dfbe e0a1 993e
00000290: 52e5 fbbe 772a a23e 89b7 6e3e 26d9 393e
000002a0: a176 183f f977 853e c009 f6be d3f8 24bf
000002b0: 8b5d b0be 3fdd 5dbe 8c82 c3be 313a f23d
000002c0: 4d53 6e3e ef5e c1be 280a afbe 30c7 da3e
000002d0: b519 0fbe bf63 eabe 5d5c ae3e 1b32 b9be
000002e0: 1f77 2d3e caaa 0bbf d3ba 38be 3da5 c33e
000002f0: f998 9d3e c7cc 393e a9e5 ecbe 9c74 c3be
00000300: 4da2 4b3e 0637 3abf 5dab 77be 7924 84be
00000310: fc98 aebe 45f8 823e 6ee2 2b3e 7b18 1c3f
-0.36261433 0.3427115 -0.21374716 0.1850422 0.47932413 0.34078825 -0.10350441 -0.38589385
-0.6354768 -0.5834321 0.13822006 -0.2985537 -0.24615708 -0.27482352 0.32274708 0.38654518
-0.27149513 -0.168587 -0.38103968 -0.26778948 -0.43612427 0.30413556 0.1476472 -0.6770454
0.4431663 0.24878654 0.24147955 -0.525363 -0.35919285 -0.22659616 -0.31081533 -0.60453165
0.48222977 0.2547808 -0.9822536 0.50955313 0.0791607 0.18682343 -0.50617504 0.28993014
0.486603 -0.6555028 -0.2304018 -0.6777597 0.51684797 -0.3991219 0.81720704 -0.34717193
-0.38842684 -0.5052695 -0.28972384 0.22578496 0.42261365 -0.5426156 -0.849881 -0.31674856
-0.13165447 0.136456 0.6061524 -0.31109792 0.3846864 -0.2563062 -0.18595935 -0.3692499
0.32596338 0.20378612 -0.42709145 -0.22605667 -0.2689826 0.3102641 -0.45427194 0.5240742
0.73130065 0.07525009 0.25883567 0.38576087 0.5009074 0.51622856 -0.36822894 0.51362294
0.32690609 0.47906524 0.41764784 0.5126452 0.7799745 -0.20913225 -0.2738884 0.43876523
-0.5191041 0.16123937 -0.54681885 0.80537206 -0.4442332 -0.13193688 0.43939596 0.30287838
0.22052452 0.19414346 0.5170341 -0.38120556 0.27944714 -0.19831002 -0.5985159 -0.18192698
0.4982315 -0.9031107 -0.32646006 -0.42034703 -0.4013538 -0.8322337 -0.39320853 0.27691865
-0.39499962 -0.4431997 0.2621936 0.30050734 -0.2734458 0.5312356 0.5568863 0.23273757
-0.2545319 0.20068128 -0.44581357 -0.47135267 0.14647454 -0.51426035 0.13997088 0.63738126
0.2871892 0.2548028 -0.3341923 -0.2517341 0.11365226 0.30553022 0.266152 -0.35853988
-0.18944912 0.3199502 -0.7008685 -0.36174777 0.12371924 -0.33378667 -0.29898143 0.43242788
0.26665446 0.06270643 0.33165115 0.31514555 0.3224626 -0.35245293 0.24551684 -0.43405437
0.15710266 0.21303037 -0.242184 0.13073857 -0.49196163 0.41226086 -0.3062705 -0.35127848
-0.33064392 -0.17759176 -0.43662176 0.30006313 -0.49198395 0.31673023 0.233122 0.18149242
0.59556013 0.26068094 -0.48054314 -0.64442176 -0.34446368 -0.2166643 -0.38185537 0.118275054
0.23273964 -0.3776774 -0.34187436 0.42730093 -0.1397465 -0.45779225 0.34054843 -0.3617104
0.16939972 -0.5455748 -0.18040018 0.38212004 0.3078077 0.18144523 -0.46268967 -0.38174903
0.19886132 -0.7274021 -0.24186464 -0.25809076 -0.34101093 0.2558004 0.16785595 0.60974854
