benchmarks/Ant-v4/Train_Ant-v4_SAC_20230426-134747/models/checkpoint.pt (torch, 320107 bytes, 64 tensors)

linear1.weight f4 [64, 27]
0	0x3f1aaf31	0.6042357
1	0xbe605ae0	-0.21909666
2	0x3f9c55ef	1.2213725
3	0x3f12fc95	0.5741666
4	0x3f9c68e9	1.2219516
5	0xbe0b3671	-0.13594986
6	0xbd1bf848	-0.038078576
7	0x3e1a9400	0.1509552
8	0xbe8b5093	-0.2720991
9	0x3f46ce7e	0.7765883
10	0xbdf0e68a	-0.11762722
11	0xbc6ad813	-0.014333743
12	0xbd3751f4	-0.04475589
13	0x3bab635b	0.00523035
14	0xbd97baa4	-0.07408646
15	0x3b520c46	0.0032050773
16	0xbd778a68	-0.06043473
17	0xbb6644ce	-0.0035136226
18	0x3d9677ae	0.07347046
19	0x3d4774a0	0.048695207
20	0xbbd346fe	-0.006447672
21	0x3bb23355	0.005438248
22	0xbcb229a5	-0.021748373
23	0x3d11aa04	0.03556253
24	0x3c90a443	0.017656451
25	0x3ba4b8c9	0.005026911
26	0x3c8762d7	0.016526623
27	0xbe1b8f58	-0.151914
28	0x3f8d030e	1.1016557
29	0xbfa654ae	-1.2994592
30	0x3ff9d872	1.9519179
31	0x3ead2c97	0.33823082
32	0x3e80582f	0.2506728
33	0x3dc515e0	0.09623313
34	0x3c14945d	0.009068576
35	0x3e3be1cb	0.18347852
36	0x3ec5a740	0.38604164
37	0xbc25ace5	-0.010112022
38	0xbd5dfd41	-0.0541966
39	0x3c4f59ab	0.012655656
40	0x3dbbdaae	0.09172569
41	0x3de887ee	0.113540515
42	0xbe80e2bf	-0.25172994
43	0xbdbb9f94	-0.091612965
44	0x3dff6627	0.12470656
45	0x3e1a7595	0.15083916
46	0xbc98b5fb	-0.018641463
47	0x3d238424	0.03992094
48	0x3cd573f3	0.026056265
49	0x3c12c41b	0.008957888
50	0x3ba2476a	0.004952361
51	0x3b4a548b	0.0030873145
52	0x3c27a7b7	0.010232857
53	0xbd0c674a	-0.03427819
54	0xbe2b3569	-0.16719593
55	0xbed6d392	-0.4195829
56	0xbfd776d1	-1.6833135
57	0x3e12df8b	0.14343087
58	0x3f4a3f17	0.7900252
59	0xbde28b88	-0.1106177
60	0x3c9c76d4	0.01909963
61	0x3e32e982	0.17471889
62	0x3e78120c	0.24225634
63	0xbe57ac1b	-0.21061747
64	0xbdc05bc5	-0.09392504
65	0x3e342e51	0.17595793
66	0x3e4a73df	0.19770764
67	0x3d439b36	0.047755443
68	0x3cd47b04	0.025937565
69	0xbe646ee9	-0.22307934
70	0xbc8f5c8d	-0.017500186
71	0xbea98287	-0.33107397
72	0x3e93ce04	0.28868115
73	0x3c1f4194	0.009720225
74	0xbd5450ea	-0.05183498
75	0x3d97a4c4	0.074044734
76	0xbce40497	-0.02783422
77	0x3db9bf67	0.0906971
78	0xbd69d36f	-0.057086404
79	0x3cf59b3d	0.02998125
80	0xbd69a5f1	-0.05704302
81	0xbe3fb3d0	-0.18720937
82	0x3edbf00d	0.42956582
83	0x3e0e59be	0.13901421
84	0xbefebb14	-0.49752104
85	0x3f6da095	0.92823154
86	0xbf429f54	-0.76024365
87	0xbe3567b6	-0.17715344
88	0xbece1dd2	-0.40257126
89	0x3e5f12ae	0.2178447
90	0x3c0d161d	0.008611229
91	0xbcdc5f8c	-0.026901029
92	0x3e19a1f7	0.15003191
93	0xbe172a96	-0.14762339
94	0xbf20f9c2	-0.628811
95	0xbe015d03	-0.12633137
96	0xbee9a4ab	-0.45633444
97	0x3df7a77b	0.12092491
98	0xbec63960	-0.3871565
99	0xbd590e37	-0.052992072
100	0xbd00504a	-0.03132657
101	0xbc65e566	-0.014031744
102	0xbd79255c	-0.060826644
103	0xbd9f1d73	-0.07769289
104	0x3d1fa785	0.03897812
105	0xbd0fa7fe	-0.03507232
106	0x3d8d2729	0.06892235
107	0x3bb35ecb	0.0054739467
108	0x3de9d720	0.11417985
109	0x3e8a8618	0.2705543
110	0x3f3f049b	0.746164
111	0x3f123a1d	0.57119924
112	0xbf63bc1c	-0.8895891
113	0xbf258514	-0.64656186
114	0xbe6f2497	-0.23353802
115	0x3f22a5ca	0.63534224
116	0x3e5fa648	0.21840775
117	0x3d4fcc61	0.05073202
118	0x3e80637b	0.25075898
119	0x3dca2c19	0.09871692
120	0xbcf7d826	-0.030254435
121	0x3dfd71fd	0.12375257
122	0xbeddca30	-0.4331832
123	0x3e281523	0.16414313
124	0xbd4955f8	-0.04915425
125	0xbd06f580	-0.03294897
126	0x3d9e7fed	0.07739244
127	0x3d3618d4	0.04445727
128	0x3cba31c4	0.022728808
129	0x3d32b301	0.043627743
130	0xbc9c59c3	-0.01908577
131	0x3be02ada	0.006841046
132	0x3d2fcf33	0.04292221
133	0xbcdbe16d	-0.02684089
134	0xbd62dcde	-0.055386417
135	0x3ed49cc2	0.41525847
136	0xbe2fd126	-0.17169628
137	0xbec5dc76	-0.3864476
138	0xc0325075	-2.7861607
139	0x3fa4ff5d	1.2890431
140	0x3e27c98d	0.1638548
141	0xbebf39a5	-0.37348667
142	0x3e641e00	0.22277069
143	0x3de04c7a	0.10952087
144	0x3ea62cac	0.32455957
145	0xbe26d492	-0.16292027
146	0x3e992e2e	0.29918045
147	0xbed2a030	-0.41137838
148	0xbdf74814	-0.12074295
149	0x3c0dc401	0.008652688
150	0x3e8dead1	0.27718213
151	0xbc3834e8	-0.011243083
152	0xbe42f2d0	-0.19037938
153	0x3eac01a6	0.33595008
154	0x3ceaf8be	0.028683063
155	0xbb59b54a	-0.003321963
156	0x3ca4796b	0.020077428
157	0xbcb55045	-0.022133002
158	0x3cee223e	0.029069062
159	0xbc83dd77	-0.016096814
160	0x3dc8731e	0.09787582
161	0xbcfb926a	-0.030709464
162	0xbf034a49	-0.51285225
163	0x3ec6bbee	0.38815254
164	0x3dea5cb8	0.11443466
165	0x3e0d6ef4	0.13811857
166	0x3ee5ae86	0.44859713
167	0x3f12a15f	0.5727748
168	0x3e634954	0.22195941
169	0xbc54492c	-0.012956899
170	0xbd550711	-0.052008692
171	0x3e0a046a	0.13478246
172	0xbe1b78a2	-0.15182737
173	0xbdfcb150	-0.12338507
174	0xbed21141	-0.4102879
175	0xbe067db7	-0.13133894
176	0x3cc7a629	0.024371224
177	0xbd2067b9	-0.039161418
178	0xbd283947	-0.04107025
179	0xbdf4434e	-0.119269
180	0xbd9a9931	-0.0754875
181	0xbc59e902	-0.013300182
182	0x3d8a07ce	0.0673977
183	0x3d49a0db	0.04922567
184	0x3da2c880	0.079483986
185	0xbd3701c5	-0.044679422
186	0xbd26592c	-0.040612385
187	0xbd63ed6a	-0.055646338
188	0x3c077c87	0.008269436
189	0xbf277f69	-0.6542879
190	0x3ef11753	0.47088107
191	0xbf27f002	-0.656006
192	0x3eda91d2	0.42689377
193	0xbf48d5b9	-0.78451115
194	0x3e5251c7	0.20539008
195	0x3e4a9e92	0.19787052
196	0x3f0864ca	0.5327879
197	0xbd934ba9	-0.071921654
198	0xbe142eeb	-0.14471023
199	0x3e03c043	0.12866311
200	0xbe3317df	-0.17489575
201	0x3e8c5517	0.27408668
202	0xbe2abf94	-0.16674644
203	0xbda8a29b	-0.082341395
204	0x3d100dda	0.03516946
205	0xbe507d6a	-0.20360342
206	0x3d4479df	0.047967788
207	0x3d0de8f0	0.034645975
208	0x3c8f5df7	0.01750086
209	0x3c349e0f	0.011024012
210	0x3ac8f403	0.001533151
211	0x3d1aa42a	0.037754215
212	0x3be959a6	0.0071212826
213	0xbd026721	-0.031836633
214	0xbbd0d367	-0.0063728574
215	0xbd16fa62	-0.036859877
216	0xbd8d8361	-0.06909824
217	0x3f634d5c	0.88789916
218	0xbf88bbdb	-1.0682329
219	0xbfef493f	-1.8694228
220	0xbeaf3652	-0.3422113
221	0xbea3b252	-0.31971985
222	0x3d36daab	0.04464213
223	0x3be44608	0.006966356
224	0xbe20fd8f	-0.15721725
225	0x3e8862e7	0.26637957
226	0xbe17fb54	-0.14841968
227	0x3d61aebd	0.055098284
228	0xbebb086b	-0.3652986
229	0x3e2a7ea0	0.16649866
230	0xbd51191c	-0.051049337
231	0x3df74d67	0.1207531
232	0xbd49d149	-0.049271856
233	0xbdee9a92	-0.11650576
234	0xbd3dc637	-0.04633161
235	0x3c9934b5	0.01870189
236	0x3cf8d500	0.030375004
237	0x3d033614	0.032033995
238	0xbcc528c8	-0.024067298
239	0x3c08b99f	0.008345037
240	0x3c25acad	0.01011197
241	0xbc2eddff	-0.010673045
242	0xbcf3ed07	-0.02977611
243	0x3e02eac7	0.12784873
244	0xc010b5f6	-2.261106
245	0x3e859c43	0.2609578
246	0x400bb1bc	2.182723
247	0xbf2013dd	-0.6253031
248	0xbec4cdf2	-0.38438374
249	0x3e9107e4	0.28326333
250	0xbd070f5c	-0.032973632
251	0xbdfd204a	-0.12359674
252	0xbe399ad6	-0.18125471
253	0xbe1b78b4	-0.15182763
254	0xbee748bd	-0.45172682
255	0x3ec0ca5a	0.37654382

linear1.bias f4 [64]
0	0x3d31ac0e	0.043376975
1	0xbd96c185	-0.0736113
2	0x3e9354ee	0.28775734
3	0xbd5e6bdd	-0.054302085
4	0xbd199a11	-0.037500445
5	0x3e072122	0.13196233
6	0x3e50c7d9	0.20388736
7	0x3cb70ae4	0.02234406
8	0x3e339519	0.17537345
9	0x3e2ba0f2	0.16760615
10	0xbc835b4a	-0.016034741
11	0xbd504173	-0.050843667
12	0xbcf2e85c	-0.029651813
13	0xbe1c494b	-0.15262334
14	0x3ead5ef9	0.3386152
15	0xbd39d754	-0.04537137
16	0x3d6c35ad	0.057668377
17	0xbd9dd4e2	-0.0770662
18	0x3e6854b7	0.22688566
19	0x3d8780f6	0.06616394
20	0xbebfa4b3	-0.37430343
21	0xbf02dc07	-0.51116985
22	0xbe5d8dcc	-0.21636122
23	0xbe8fafa2	-0.28063685
24	0xbe0f0101	-0.13965227
25	0xbe9b84e3	-0.30374822
26	0x3e04252f	0.1290481
27	0x3da139d4	0.07872358
28	0xbeb1e7af	-0.34747073
29	0xbe7d3f63	-0.24731211
30	0x3e9118ee	0.28339332
31	0xbe5978f0	-0.2123754
32	0xbe94d5d0	-0.29069376
33	0x3f2bcb0c	0.671067
34	0xbe62cefa	-0.22149268
35	0xbe01d268	-0.1267792
36	0x3daad5aa	0.083415344
37	0x3d6468db	0.05576406
38	0x3ed3db65	0.41378322
39	0x3eaa2280	0.33229446
40	0xbef5c6a8	-0.48003125
41	0x3b9f16b3	0.004855001
42	0x3c40876f	0.01175104
43	0x3e723b30	0.2365539
44	0xbad450bc	-0.0016198377
45	0x3c01e825	0.007928883
46	0xbe0f3575	-0.13985236
47	0xbf0807e0	-0.53137016
48	0xbeb741d9	-0.35792425
49	0x3e34d9fb	0.17661278
50	0x3a297a5d	0.0006465072
51	0xbe33fa74	-0.17576009
52	0xbed19765	-0.40935817
53	0x3db5fbab	0.088858925
54	0xbe03d71d	-0.12875028
55	0xbe667504	-0.22505575
56	0x3e18919d	0.14899297
57	0xbd93920f	-0.07205593
58	0xbeeb8246	-0.45997828
59	0x3e180ff8	0.14849842
60	0x3e2cb03b	0.16864102
61	0xbe03733b	-0.12836926
62	0xbd847504	-0.064676315
63	0x3ddd26ee	0.10798441

linear2.weight f4 [64, 64]
0	0x3db52aa6	0.08846025
1	0xbde85b5e	-0.11345552
2	0xbe9ccf7b	-0.30627045
3	0xbc992259	-0.018693136
4	0x3dcc7c24	0.099846154
5	0x3df6bc71	0.12047661
6	0x3eca0620	0.39457798
7	0x3e38b3f9	0.18037404
8	0x3e7c3409	0.24629225
9	0xbeff0127	-0.49805567
10	0x3ec7026d	0.38869038
11	0x3d64c7c1	0.055854563
12	0x3e251433	0.16120987
13	0x3e5e1ae6	0.21689948
14	0x3ddf8abb	0.109151326
15	0xbd49963b	-0.049215537
16	0x3ca4d30a	0.020120163
17	0x3c59f40e	0.013302816
18	0xbe915f8f	-0.28393218
19	0x3e1613ce	0.14655992
20	0xbadd970f	-0.0016905981
21	0xbed95ef1	-0.42455247
22	0x3dd7c5f2	0.10535802
23	0xbe2462da	-0.16053334
24	0x3e6ab73a	0.22921458
25	0x3e0fddea	0.14049497
26	0x3e9a7e69	0.30174568
27	0xbc300ab3	-0.010744738
28	0xbe261c69	-0.16221775
29	0x3de4a59b	0.11164399
30	0x3cf68cba	0.0300964
31	0x3d1f771c	0.03893195
32	0x3cd9124d	0.026497984
33	0xbe9ca16e	-0.3059191
34	0x3e119d12	0.14220074
35	0x3cf638d2	0.03005639
36	0x3d06daaa	0.032923378
37	0x3ec05d42	0.3757115
38	0xbe78b688	-0.2428838
39	0xbc961e19	-0.018324899
40	0x3e10441a	0.14088479
41	0x3e1486b4	0.1450451
42	0x3e2b779c	0.16744846
43	0xbdf4be07	-0.11950307
44	0xbe1f1eda	-0.15539113
45	0xbd322553	-0.043492626
46	0xbdb899c5	-0.09013704
47	0x3e5f9f31	0.2183807
48	0x3decc0fa	0.11560245
49	0xbe6541f2	-0.22388437
50	0xbd90c558	-0.0706889
51	0xbee71662	-0.45134264
52	0x3e3a522e	0.18195412
53	0x3df3a84e	0.11897336
54	0xbcd91ba2	-0.026502434
55	0xbdc6ab22	-0.0970061
56	0xbd61f17a	-0.05516193
57	0x3e32a54b	0.17445867
58	0xbdd3ab48	-0.10335404
59	0x3e1ab8bd	0.15109535
60	0x3de16825	0.11006192
61	0xbe3596f4	-0.17733365
62	0x3dc48908	0.09596449
63	0xbe36d8f7	-0.17856203
64	0xbd7972db	-0.06090055
65	0x3dc7d807	0.09758001
66	0x3dbf6203	0.09344866
67	0xbe32e2ac	-0.17469281
68	0x3d4d9bd4	0.050197437
69	0xbee2400c	-0.4418949
70	0xbeecdf2a	-0.4626401
71	0xbf06a19a	-0.52590334
72	0xbed3082e	-0.41217178
73	0xbeb1fcc2	-0.3476315
74	0x3eddc9a5	0.43317905
75	0x3da748b2	0.081681624
76	0xbcd74f9b	-0.026283076
77	0xbe6015f7	-0.21883379
78	0x3e370b1a	0.17875329
79	0x3e3d6001	0.18493654
80	0xbe97543c	-0.29556453
81	0xbb6bbbe2	-0.0035970141
82	0xbe146bd7	-0.14494263
83	0x3db278c1	0.08714438
84	0xbcc53203	-0.024071699
85	0x39caea5c	0.00038703054
86	0x3d93ed27	0.072229676
87	0x3e0c5c00	0.1370697
88	0x3d2d8037	0.042358603
89	0x3ee1b969	0.4408677
90	0x3dad4034	0.084595114
91	0xbdf51c66	-0.11968307
92	0x3d2b6cdd	0.041851867
93	0x3d1f39f5	0.03887363
94	0xbe0a08a6	-0.13479862
95	0xbd8a268c	-0.067456335
96	0x3e9fca04	0.31208813
97	0xbe7e793a	-0.24850932
98	0x3d63ce41	0.05561662
99	0xbe9288e5	-0.28620067
100	0x3d1b8bd4	0.037975147
101	0xbe428904	-0.1899758
102	0xbd962035	-0.07330362
103	0x3ea21818	0.31659007
104	0xbda91909	-0.08256728
105	0xbc8c9b9c	-0.017164044
106	0x3e770365	0.24122389
107	0xbc859128	-0.016304567
108	0xbdb92fed	-0.09042344
109	0xbe65e679	-0.224512
110	0x3e35d53e	0.17757127
111	0xbd3efcdb	-0.04662786
112	0x3da1be73	0.078976534
113	0x3db0a4e1	0.08625198
114	0xbe1dfb27	-0.15427838
115	0xbde0ac76	-0.10970394
116	0x3c02c5e0	0.007981747
117	0x3d19f99f	0.037591573
118	0x3cfc1779	0.030772911
119	0x3d2921b7	0.04129192
120	0xbe78e740	-0.24306965
121	0x3dc305a0	0.09522557
122	0xbdfb4566	-0.12269096
123	0x3eee2325	0.46511188
124	0xbe34e649	-0.17665972
125	0xbc6b934d	-0.014378381
126	0xbe4feb2e	-0.20304558
127	0x3c75f6d2	0.01501246
128	0xbe1e738f	-0.1547377
129	0xbdb64342	-0.08899547
130	0x3e06f01f	0.13177536
131	0xbd380a43	-0.04493166
132	0xbd6a68a8	-0.057228714
133	0xbc0df290	-0.008663788
134	0x3e16782f	0.14694284
135	0xbe994211	-0.29933217
136	0xbeb50b75	-0.35360304
137	0xbd585af4	-0.052821115
138	0x3e096e92	0.13421085
139	0xbe3d9011	-0.18511988
140	0x3d80483b	0.06263777
141	0xbe7e3d4f	-0.24828075
142	0xbe3b678f	-0.18301223
143	0xbe157d74	-0.14598638
144	0x3d7cc343	0.061709654
145	0xbe6272f3	-0.22114162
146	0xbd71a2c8	-0.05899313
147	0x3d2bbea6	0.041929863
148	0xbe0cd3e8	-0.13752711
149	0x3e1ef44a	0.15522876
150	0xbcde126b	-0.027108392
151	0x3c65f2f3	0.014034974
152	0x3d42d0dd	0.04756247
153	0xbe9099c3	-0.2824231
154	0x3f0f5e77	0.56003517
155	0xbe0fe61d	-0.14052625
156	0x3dd7982c	0.10527071
157	0xbda08b83	-0.0783911
158	0xbdf7d08a	-0.121003225
159	0xbe346980	-0.1761837
160	0x3d9ce12f	0.07660138
161	0x3aad5831	0.0013225136
162	0xbe0a08f7	-0.13479982
163	0xbe32ce8d	-0.17461605
164	0xbe56b121	-0.20966007
165	0xbe4cdea2	-0.20006803
166	0x3e528cc7	0.20561515
167	0xbebb0b2f	-0.3653197
168	0x3d9f72dc	0.077855796
169	0xbe5d204d	-0.21594353
170	0x3d657f62	0.056029685
171	0xbd93c78e	-0.072157964
172	0x3d51c397	0.05121192
173	0xbda64692	-0.08118929
174	0x3e007da9	0.12547936
175	0x3e45cab4	0.19315606
176	0x3e8a0b02	0.26961523
177	0xbd878045	-0.06616262
178	0xbe953cd6	-0.29147977
179	0x3d3bc5cf	0.04584294
180	0x3e8012c1	0.25014308
181	0xbd1b44b0	-0.037907302
182	0xbeda1946	-0.42597407
183	0xbec284c6	-0.37991923
184	0x3eabb008	0.3353274
185	0xbe1a6229	-0.15076508
186	0xbeedc237	-0.46437237
187	0xbe82e7b5	-0.25567403
188	0x3e463ea8	0.19359839
189	0x3e02f5c0	0.12789059
190	0x3db12f98	0.08651656
191	0xbec80605	-0.39067093
192	0x3db9fa4c	0.090809435
193	0x3ea51dc0	0.3224926
194	0xbde67d66	-0.112543866
195	0x3d52b1b1	0.05143899
196	0xbd75fb74	-0.060054258
197	0xbd511e60	-0.05105436
198	0x3e221713	0.15829115
199	0xbe8ae1cf	-0.27125403
200	0xbe3152b9	-0.17316712
201	0x3e5d928f	0.21637939
202	0x3bc5fe4d	0.006042278
203	0xbe40f344	-0.18842798
204	0xbe69bd0d	-0.22826023
205	0xbdd0ae25	-0.101894654
206	0x3e32379c	0.17404026
207	0x3de901ba	0.113772824
208	0x3e0945dd	0.13405557
209	0xbeab6f02	-0.3348313
210	0xbdbdc425	-0.09265927
211	0x3d6258e2	0.055260547
212	0x3e8a5092	0.27014595
213	0xbea596aa	-0.3234151
214	0xbe171c51	-0.14756896
215	0xbd89b463	-0.06723859
216	0xbe8a92a2	-0.27064997
217	0xbe0b7cd0	-0.13621831
218	0x3de2f5bc	0.11082026
219	0xbe9fce0e	-0.31211895
220	0x3e903c98	0.2817123
221	0x3dac5a40	0.08415651
222	0x3e71dbc9	0.23618998
223	0xbd9f1016	-0.0776674
224	0x3cb9f759	0.022700952
225	0x3eb50b72	0.35360295
226	0xbd6750be	-0.056473486
227	0x3de2d241	0.11075259
228	0x3d92d44f	0.07169401
229	0xbc123495	-0.008923669
230	0xbecc52fc	-0.39907062
231	0x3d7f3a64	0.062311545
232	0x3d5059a3	0.050866734
233	0xbe0176cf	-0.12642978
234	0xbe9c6501	-0.3054581
235	0x3e17c831	0.1482246
236	0x3e0d90c2	0.13824752
237	0xbee273fb	-0.4422911
238	0x3ee1b885	0.4408609
239	0x3d82b09f	0.06381344
240	0xbf278ffe	-0.6545409
241	0xbe27f3fc	-0.16401666
242	0xbec77c21	-0.3896189
243	0x3e051f62	0.13000253
244	0xbddf3d6c	-0.10900387
245	0x3ce447bf	0.027866242
246	0xbeaed4ed	-0.34146824
247	0xbe488db0	-0.195853
248	0x3c2fd4ce	0.010731889
249	0x3df174ee	0.11789881
250	0x3db518b0	0.088425994
251	0x3e0fd6f8	0.14046848
252	0x3e7d778c	0.24752635
253	0x3e8a3b68	0.26998448
254	0xbed8525f	-0.42250344
255	0xbecf36fd	-0.4047164

linear2.bias f4 [64]
0	0x3eb7d461	0.3590422
1	0x3e662935	0.22476657
2	0xbd9f94e7	-0.07792073
3	0xbdb5f30c	-0.08884248
4	0x3f09be67	0.53806156
5	0x3da38d92	0.07985987
6	0x3e84e00d	0.25952187
7	0x3e2ce1c4	0.16882998
8	0x3eb70cf3	0.35752067
9	0x3e47f4fd	0.1952705
10	0x3ea744d9	0.32669714
11	0xbda1ba76	-0.07896893
12	0xbe869dc4	-0.2629224
13	0x3e61fe73	0.22069721
14	0x3eeaed62	0.45884234
15	0x3e0aedc8	0.13567269
16	0x3db7b15f	0.08969378
17	0x3efd2746	0.49444026
18	0x3dd44a79	0.10365767
19	0xbe2f5f73	-0.17126255
20	0xbc525f05	-0.012840037
21	0x3f54a14b	0.83058614
22	0x3c9cf4f2	0.019159768
23	0x3d3babe0	0.04581821
24	0xbe47c8d7	-0.19510208
25	0x3e09ece7	0.13469277
26	0xbd3b1db8	-0.04568264
27	0x3e3e7338	0.1859864
28	0xbe6b09b2	-0.22952917
29	0xbea0480e	-0.31304973
30	0x3e456291	0.19275881
31	0x3e407ecb	0.18798368
32	0xbe824059	-0.25439718
33	0x3e1122dc	0.14173454
34	0x3e059c73	0.13047962
35	0xbc235a27	-0.009970224
36	0x3e21beb4	0.15795404
37	0x3ebc222c	0.3674482
38	0x3ef6750a	0.4813617
39	0xbe692e24	-0.22771508
40	0xbe6a9654	-0.22908908
41	0x3ee9b5db	0.45646557
42	0x3e0c3f4a	0.13696018
43	0xbe267953	-0.16257219
44	0xbe0f4ef0	-0.13994956
45	0xbe7e7bd1	-0.2485192
46	0x3efcc760	0.4937086
47	0x3ca1714a	0.01970734
48	0x3cd46c4d	0.025930548
49	0x3d67660c	0.056493804
50	0x3e820c51	0.25400022
51	0x3e36ad85	0.1783963
52	0xbb43172a	-0.0029768446
53	0x3ebca77a	0.36846524
54	0xbe2e05cd	-0.169944
55	0xbd5ce614	-0.053930357
56	0xbd271211	-0.040788714
57	0xbddfd8f7	-0.10930055
58	0x3eb058df	0.34442803
59	0xbe0f7bae	-0.14012024
60	0x3e7ccfae	0.24688599
61	0xbe34322d	-0.17597266
62	0x3e40a056	0.18811163
63	0x3e77f488	0.24214375

mean_linear.weight f4 [8, 64]
0	0xbd870834	-0.065933615
1	0x3e7d9d59	0.24767055
2	0xbdde0cd1	-0.10842288
3	0xbd745733	-0.059653472
4	0x3dfb527a	0.122715905
5	0xbe726c12	-0.23674038
6	0xbc4e9e50	-0.012610987
7	0x3dbe1b19	0.09282512
8	0xbdd42e74	-0.10360423
9	0x3e4341b7	0.19068037
10	0x3e327972	0.1742914
11	0x3e0d6dd3	0.13811426
12	0xbb73e838	-0.003721727
13	0xbdcb1909	-0.099168845
14	0x3ebce5a0	0.3689394
15	0x3de367e1	0.11103798
16	0xbe7d3c91	-0.24730136
17	0x3da87a0b	0.08226403
18	0x3db1c4e1	0.0868013
19	0x3e8a6a45	0.27034202
20	0x3e4fa431	0.20277478
21	0x3d37c053	0.04486115
22	0x3c2ba874	0.010477174
23	0x3de1b55f	0.11020922
24	0x3e1b7ef4	0.15185148
25	0xbe68ee36	-0.2274712
26	0x3e4a3260	0.19745779
27	0xbed1e27c	-0.40993106
28	0xbd2cd34d	-0.0421937
29	0xbe386407	-0.18006907
30	0x3d533949	0.051568303
31	0x3b12812c	0.0022354824
32	0x3e0ab0ca	0.13544002
33	0xbd9d1d98	-0.0767166
34	0x3c43e4f2	0.01195644
35	0xbdcab3b2	-0.098975554
36	0xbd8d6759	-0.069044776
37	0xbe6bcbb6	-0.23026928
38	0xbdc7fe34	-0.09765282
39	0x3c315f38	0.010825925
40	0x3e863874	0.26214945
41	0xbebe244e	-0.37137073
42	0x3dc474dc	0.09592602
43	0x3dcc59ad	0.09978042
44	0x3d24b3b2	0.040210433
45	0xbea23e23	-0.31688032
46	0x3d96c744	0.07362226
47	0xbd185e41	-0.037199263
48	0xbd5c4e11	-0.053785387
49	0x3b348dfb	0.0027550447
50	0xbe0df4b9	-0.13862886
51	0xbc8a59c8	-0.016888514
52	0x3e9e4b8f	0.30917022
53	0x3dbdb1d8	0.09262437
54	0x3dfa9de4	0.122371465
55	0xbe0673a7	-0.13130055
56	0xbd1fe94a	-0.03904084
57	0xbda2b00d	-0.07943735
58	0x3d6a63c3	0.057224046
59	0xbe0000f3	-0.12500362
60	0x3e9d80db	0.3076237
61	0x3e3fc5ee	0.18727848
62	0xbe8fde75	-0.2809941
63	0xbe733c45	-0.2375346
64	0xbe6813a9	-0.2266375
65	0xbd7e61e1	-0.062105063
66	0xbe0d61af	-0.13806795
67	0x3e35ca47	0.17752944
68	0xbdac176c	-0.08402905
69	0xbe842ce9	-0.25815514
70	0xbdcf8ee4	-0.10134676
71	0xbc1959f6	-0.009359827
72	0x3cf352c1	0.029702546
73	0x3e1735e0	0.14766645
74	0x3dbceb5f	0.09224581
75	0x3b10841b	0.0022051397
76	0x3e33c744	0.17556483
77	0xbdb0e995	-0.08638302
78	0x3d8f16b2	0.06986751
79	0x3e27b069	0.16375889
80	0xbe072619	-0.13198127
81	0x3dcef031	0.101044066
82	0xbd92455e	-0.07142137
83	0x3c995c0f	0.018720655
84	0x3e74e8ae	0.23916885
85	0xbdb24db5	-0.08706228
86	0x3d942a57	0.07234638
87	0xbe4c836a	-0.19972005
88	0x3da9050c	0.08252916
89	0xbe3cd227	-0.18439542
90	0x3d7489ad	0.05970161
91	0x3dd51666	0.10404663
92	0x3de4eb02	0.11177637
93	0xbdb5247a	-0.08844848
94	0xbe04e2c6	-0.12977132
95	0xbe830277	-0.25587818
96	0x3e3c2e30	0.18376994
97	0x3e837d71	0.25681642
98	0x3d641dd2	0.0556925
99	0xbd47b0a2	-0.048752435
100	0x3e09254c	0.13393134
101	0xbe83d507	-0.25748464
102	0x3e704475	0.23463614
103	0xbe766c69	-0.24064793
104	0xbe381ee6	-0.17980537
105	0x3e8539ed	0.26020756
106	0x39b10c8e	0.00033769425
107	0xbe0bf5df	-0.13668011
108	0x3e74845e	0.23878619
109	0xbcd9aa20	-0.02657038
110	0xbe6449a7	-0.22293721
111	0xbbf148ca	-0.0073634135
112	0xbd30e10f	-0.043183383
113	0x3de35ea3	0.11102035
114	0x3e26f480	0.16304207
115	0xbd673185	-0.05644371
116	0xbe651c93	-0.22374181
117	0x3d6c8a43	0.057749044
118	0x3e80a432	0.2512527
119	0xbe645015	-0.22296174
120	0xbe2738a9	-0.16330208
121	0x3e3264ae	0.17421219
122	0x3de7f120	0.11325288
123	0x3d2d3e57	0.04229578
124	0x3d1a72cd	0.03770714
125	0xbde9ea45	-0.114216365
126	0xbdb39fd0	-0.08770716
127	0x3e02e8ad	0.12784071
128	0x3c8e5efa	0.017379273
129	0xbbf3f11a	-0.007444513
130	0x3e88b900	0.26703644
131	0x3d2269c0	0.039651632
132	0xbdc656de	-0.09684537
133	0x3d601d11	0.05471522
134	0xbda93920	-0.08262849
135	0xbd457201	-0.048204426
136	0xbd8e4c2d	-0.06948123
137	0x3c9ab609	0.01888563
138	0xbdfc02c2	-0.123052135
139	0x3e1803d5	0.14845212
140	0xbe3d33ab	-0.18476741
141	0xbbed6dcb	-0.0072457544
142	0xbd1418b6	-0.03615638
143	0xbe0902c5	-0.13379963
144	0x3e4ecda8	0.20195639
145	0x3d8456e8	0.064618886
146	0xbe04f17f	-0.12982748
147	0xbe61d235	-0.22052844
148	0x3e5c9f43	0.21545129
149	0xbc3bee26	-0.011470353
150	0x3d7d26d0	0.061804593
151	0x3e0984dd	0.1342959
152	0xbe31bb45	-0.17356594
153	0x3d03d9ad	0.032190014
154	0xbc850009	-0.016235368
155	0xbdd26a9c	-0.102742404
156	0xbd987456	-0.07444064
157	0x3d876e36	0.06612818
158	0xbd99bcfc	-0.07506749
159	0x3d85793b	0.065172635
160	0xbda7ce46	-0.081936404
161	0xbd24a167	-0.040192988
162	0x3e237fb4	0.15966684
163	0x3cce059c	0.02514916
164	0xbc56ba4a	-0.013105938
165	0x3dd27920	0.10277009
166	0xbd0fbb10	-0.035090506
167	0xbdc103c9	-0.0942455
168	0x3e96da5f	0.2946348
169	0x3cb3e55b	0.021959951
170	0x3e458c64	0.19291836
171	0x3c62cfd5	0.013843496
172	0xbe13b887	-0.1442586
173	0x3e3e2fef	0.18572973
174	0xbd50ad58	-0.050946563
175	0xbe4400fb	-0.19140999
176	0x3e96a790	0.29424715
177	0xbd9ab894	-0.07554737
178	0xbbf30cab	-0.0074172816
179	0x3c77f9fc	0.0151352845
180	0xbd3f1133	-0.04664726
181	0x3c086f1d	0.008327273
182	0x3c30e80a	0.01079751
183	0x3d83dc04	0.06438449
184	0xbe731788	-0.23739445
185	0xbd7edc85	-0.062222023
186	0x3e9c6458	0.30545306
187	0x3e0cecf5	0.13762267
188	0x3c988fbb	0.018623224
189	0x3e3495b8	0.17635238
190	0x3e5ff79d	0.218718
191	0xbdfcb0ea	-0.12338431
192	0xbe893dac	-0.26804864
193	0xbe05bda1	-0.13060619
194	0xbe7b243f	-0.24525546
195	0x3d8803c0	0.0664134
196	0xbd8da97c	-0.06917092
197	0x3d14f7ce	0.036369137
198	0x3e943331	0.28945306
199	0xbe30104b	-0.17193715
200	0xbe505f6d	-0.20348902
201	0x3e63beb0	0.2224071
202	0xbe6aa250	-0.2291348
203	0x3e1b6178	0.151739
204	0x3ee37e64	0.44432366
205	0xbe3f132c	-0.18659657
206	0x3e84cfdf	0.25939843
207	0x3d82f366	0.06394081
208	0xbdf12836	-0.11775248
209	0x3c6b6eef	0.01436971
210	0x3c9137d4	0.017726816
211	0xbe31d193	-0.17365102
212	0x3d4c1574	0.049825147
213	0x3d92192f	0.0713371
214	0x3e834c1f	0.25644013
215	0x3d338095	0.043823797
216	0x3d20bae0	0.039240718
217	0xbcaeb897	-0.021328254
218	0xbe25604b	-0.16150014
219	0x3e1ec5a2	0.15505078
220	0x3cc9bbcd	0.024625683
221	0xbbbaae9b	-0.005697084
222	0x3e2094fb	0.15681832
223	0xbd9dc9b3	-0.07704487
224	0x3e8d2dc6	0.27573985
225	0xbc1cf863	-0.009580704
226	0xbe091fd7	-0.13391052
227	0x3d90b8da	0.07066508
228	0xbe33b7a8	-0.17550528
229	0x3d4e1ef7	0.0503225
230	0x3d602ffe	0.05473327
231	0xbdd44431	-0.10364569
232	0x3e04d086	0.1297017
233	0x3d6091c5	0.054826517
234	0xbde5054d	-0.11182652
235	0xbd238788	-0.039924175
236	0x3e8fbcfe	0.28073877
237	0x3e2082a4	0.15674835
238	0x3cad65e5	0.021166751
239	0x3d884455	0.06653658
240	0xbe3288bf	-0.17434977
241	0x3d669465	0.056293864
242	0x3e041049	0.12896837
243	0xbd621411	-0.055194918
244	0x3c37ed89	0.011226066
245	0x3e91caf6	0.2847516
246	0xbc00c0f1	-0.007858501
247	0xbe3a212d	-0.18176718
248	0xbe8c18bb	-0.27362618
249	0x3cc7346f	0.024316994
250	0x3cedcfae	0.029029693
251	0xbda1d2da	-0.07901545
252	0x3e46e877	0.19424616
253	0xbdfa999d	-0.12236331
254	0x3d1cf90f	0.03832346
255	0xbcec20d9	-0.028824257

mean_linear.bias f4 [8]
0	0xbe78ac44	-0.24284464
1	0xbd905f58	-0.070494354
2	0x3e0f90bd	0.14020057
3	0x3dff5653	0.12467637
4	0x3e3abb57	0.18235527
5	0x3e6841b6	0.22681317
6	0x3de4e63f	0.111767285
7	0x3d01de46	0.031706117

log_std_linear.weight f4 [8, 64]
0	0xbd7f4ea0	-0.062330842
1	0x3c63658b	0.01387919
2	0x3cd8d9c0	0.026471019
3	0xbcd6f0a0	-0.026237786
4	0x3d94483f	0.07240342
5	0x3d752cc8	0.05985716
6	0x3d9bb86b	0.07603534
7	0x3d18e6bd	0.037329424
8	0xbc12a135	-0.008949568
9	0xbc83b981	-0.016079666
10	0xbc88322f	-0.016625492
11	0x3df0223a	0.11725278
12	0x3d60746f	0.05479854
13	0x3c7dabd6	0.015482863
14	0x3d9b1d2d	0.07573924
15	0xbc951686	-0.018199217
16	0x3d18b7a9	0.037284527
17	0x3c8fdfa9	0.017562704
18	0xbc46ef08	-0.01214195
19	0xbbe63e49	-0.007026468
20	0x3d9b7a6b	0.07591709
21	0xbe39edef	-0.1815717
22	0x3ccf8a39	0.025334464
23	0x3d8b3ade	0.067983374
24	0x3dd043e6	0.101692006
25	0xbd8bcd4d	-0.068262674
26	0x3db7d586	0.08976273
27	0x3dcb150c	0.09916124
28	0xbc0a9a81	-0.008459688
29	0xbd0cdf32	-0.034392543
30	0x3b18049c	0.0023196107
31	0x3c959f9b	0.018264582
32	0x3cbf1942	0.023327474
33	0xbd200e5e	-0.0390762
34	0x3db2a24d	0.08722363
35	0xbc1b306a	-0.009471992
36	0x3d5740a3	0.052551877
37	0xbc31766f	-0.010831459
38	0xbc4b6d45	-0.012416189
39	0xbc78e0fe	-0.015190361
40	0x3cf88615	0.030337373
41	0x3cb5d090	0.022194177
42	0x3cb7d6b5	0.022441247
43	0x3cc1ca6e	0.023656096
44	0x3e484015	0.19555695
45	0x3d8f79b7	0.07005637
46	0xbcab5d17	-0.020918412
47	0x3cfd7b5a	0.030942608
48	0xbd5f4daa	-0.054517426
49	0x3d644b5d	0.055735935
50	0x3cef6664	0.029223628
51	0xbccaafba	-0.024741996
52	0x3d577671	0.05260319
53	0xbd0cacfb	-0.034344655
54	0xbc402554	-0.01172765
55	0xbdc61195	-0.09671322
56	0xbc92ce07	-0.017920507
57	0xbe28b0ba	-0.16473666
58	0xbc44473a	-0.011979872
59	0x3d16b84d	0.036796857
60	0x3e30df04	0.17272574
61	0x3bb49e54	0.0055120382
62	0x3dc1d7d4	0.09464994
63	0xbbe45297	-0.0069678533
64	0xbd78362f	-0.06059855
65	0xbb841dc7	-0.00403187
66	0x3d743d50	0.059628785
67	0xbc8f8f00	-0.017524242
68	0x3dc71754	0.09721246
69	0x3dd5143f	0.10404252
70	0x3dc19316	0.094518825
71	0xbda5273f	-0.08064126
72	0xbb8fc23a	-0.0043871673
73	0x3de59822	0.11210658
74	0xbd900abd	-0.07033298
75	0x3d87646b	0.0661095
76	0x3d092ab6	0.033487998
77	0x3cd7c3fa	0.026338566
78	0xbd88ac4b	-0.06673487
79	0xbd4d0400	-0.050052643
80	0x3c771f99	0.015083217
81	0x3a471aa4	0.00075952173
82	0xbc15600c	-0.009117138
83	0xbd41d44e	-0.04732161
84	0x3dc86f7f	0.09786891
85	0xbe44ea04	-0.19229895
86	0x3d4a6ce3	0.04942025
87	0x3d3aab07	0.04557326
88	0x3d9cff90	0.07665932
89	0x3dd2310f	0.102632634
90	0xbc4bfea3	-0.012450847
91	0xbdc7e4b6	-0.0976042
92	0x3ca275af	0.019831507
93	0x3b1d6354	0.0024015503
94	0xbc8e0f5c	-0.017341308
95	0x3d903522	0.07041384
96	0xbcbec810	-0.023288757
97	0xbd72bb64	-0.05926074
98	0x3d9cb658	0.07651967
99	0xbc2f28cb	-0.010690878
100	0x3bf4cd93	0.0074707954
101	0xbbe335f5	-0.0069339224
102	0x3d6dc724	0.058051243
103	0x3c9b0856	0.018924873
104	0xbd509587	-0.05092385
105	0x3d865ff4	0.0656127
106	0x3c903d92	0.017607484
107	0xbdec28fd	-0.115312554
108	0xbc7521e5	-0.014961694
109	0xbcaa59a4	-0.020794697
110	0x3d142ca1	0.036175374
111	0xbd924d6c	-0.07143673
112	0xbcfd8998	-0.030949399
113	0x3c0ab3e7	0.008465744
114	0x3d3162bc	0.04330705
115	0xbd09c94d	-0.03363924
116	0x3da7cab4	0.081929594
117	0xbc5b6530	-0.013390824
118	0xbdc19db7	-0.0945391
119	0x3d713c7a	0.058895566
120	0x3e10acb0	0.14128375
121	0x3e9e8719	0.30962446
122	0xbcfa131e	-0.030526694
123	0xbb61245e	-0.0034353952
124	0x3dbf25d3	0.09333386
125	0x3d6776ff	0.056509968
126	0x3c9d6136	0.019211393
127	0x3d7299f6	0.05922886
128	0xbd2cbb16	-0.042170607
129	0x3c534946	0.012895888
130	0x3c8847f7	0.016635878
131	0x3d3a2a3f	0.045450445
132	0x3ab1bd55	0.0013560454
133	0x3d60069c	0.054693803
134	0x3d8a5f27	0.0675643
135	0x3d3aa6c9	0.045569215
136	0xbd017eb4	-0.031614974
137	0xbbcc9234	-0.0062430147
138	0xbdd1d837	-0.10246318
139	0x3d6a6a59	0.057230327
140	0x3c3e813b	0.011627491
141	0xbd0dac7e	-0.03458833
142	0xbcc4c240	-0.024018407
143	0xbd1e16da	-0.03859601
144	0x3d33e417	0.043918695
145	0xbdab75e0	-0.08372092
146	0x3d9f6e94	0.07784763
147	0xbc35a2df	-0.011086195
148	0x3db1488f	0.086564176
149	0xbe2be924	-0.16788155
150	0x3d2b61ee	0.04184144
151	0x3d306826	0.043068074
152	0x3d889ba7	0.06670313
153	0x3c4ddc2b	0.012564699
154	0x3ce63d35	0.028105358
155	0xbcc77f57	-0.024352713
156	0x3d88257f	0.06647777
157	0xbc0a6345	-0.008446519
158	0xbd368096	-0.044556223
159	0x3d647cfe	0.055783264
160	0xbd4dd71d	-0.050253976
161	0xbcb2f662	-0.021846
162	0x3d7cbd2f	0.061703857
163	0x3d50839e	0.05090677
164	0x3bf9c9f5	0.007622952
165	0x3dade657	0.084911995
166	0xbdd4c650	-0.103893876
167	0xbd06b92a	-0.03289143
168	0x3dc971ce	0.0983616
169	0xbd04363d	-0.03227829
170	0x3c34d0fb	0.011036153
171	0xbd2706b0	-0.040777862
172	0x3c9df478	0.01928161
173	0x3cdc7f15	0.026916066
174	0xbb4a8c13	-0.0030906245
175	0x3dac65f0	0.084178805
176	0x3cee4006	0.029083263
177	0xbc8cc7ef	-0.01718518
178	0xbbf69224	-0.0075247455
179	0xbd6c4525	-0.05768313
180	0x3ccc6c56	0.024954002
181	0xbcbe7292	-0.02324799
182	0x3cf1b4a7	0.029505087
183	0xbceb2f38	-0.02870904
184	0x3b21bb9b	0.0024678472
185	0xbc4cf771	-0.0125101665
186	0x3d324242	0.04352022
187	0x3d8efe1e	0.06982063
188	0x3d69bfb8	0.057067603
189	0xbba400ea	-0.005004992
190	0x3db83196	0.08993833
191	0xb90ae181	-0.00013244712
192	0xbd049e5b	-0.032377582
193	0xbc37c589	-0.01121653
194	0x3ca742f2	0.020417664
195	0xbcf97caf	-0.030454962
196	0xbd014816	-0.031562887
197	0xbba94495	-0.0051656463
198	0x3d093753	0.033500027
199	0x3ca9490f	0.02066472
200	0xbc8a96ff	-0.016917704
201	0x3c3ade9c	0.011405613
202	0xbcf24c30	-0.029577345
203	0x3d6cb522	0.05778993
204	0x3da735d9	0.081645675
205	0x3c1513ac	0.009098928
206	0x3b4a70a2	0.0030889888
207	0xbabed910	-0.0014560539
208	0x3d93e04c	0.072205156
209	0x3cb8e7ec	0.022571526
210	0x3bdd251b	0.006748808
211	0xbcd0fffe	-0.025512692
212	0x3d2dd318	0.042437643
213	0xbe1b9071	-0.15191819
214	0x3b937566	0.004500079
215	0x3c34decc	0.011039447
216	0x3dcb806d	0.09936605
217	0xbccd3ba6	-0.025052857
218	0x3c8fe24a	0.017563958
219	0xbd5c9ce9	-0.05386058
220	0x3c8c991a	0.017162848
221	0xbc01ec89	-0.0079299295
222	0xbcf77e3c	-0.03021156
223	0x3d85548e	0.06510268
224	0xbc1795bb	-0.009252007
225	0xbd449991	-0.047998015
226	0x3d0b0a23	0.033945214
227	0x3cb9da10	0.022686988
228	0x3ca5b7e5	0.02022929
229	0x3d4f8c9d	0.05067121
230	0xbcb006c1	-0.021487596
231	0xbd810993	-0.06300654
232	0x3da8931c	0.08231184
233	0x3d6a0bbb	0.057140093
234	0x3c0330dc	0.008007254
235	0xbd27137d	-0.04079007
236	0xbcd1259e	-0.025530633
237	0xbd1e34e2	-0.03862465
238	0x3a574ddd	0.00082132017
239	0xbcf788e4	-0.030216642
240	0x3d20f058	0.03929171
241	0xbc590193	-0.013245004
242	0x3d6ca3c3	0.057773363
243	0x3cb42e00	0.02199459
244	0x3c476cbf	0.012171923
245	0x3c8c3149	0.017113345
246	0x3d91067f	0.07081317
247	0xbd912475	-0.07087032
248	0x3d19337f	0.037402626
249	0xbd6e2df3	-0.05814929
250	0xbba8dd1c	-0.0051533114
251	0x3d03b26b	0.032152575
252	0x3d9573a9	0.07297451
253	0x3bd56a4d	0.006512916
254	0x3cb0117d	0.021492714
255	0x3c460de3	0.012088272

log_std_linear.bias f4 [8]
0	0xbf85371a	-1.0407441
1	0xbf751868	-0.95740366
2	0xbf90dafc	-1.1316829
3	0xbf3d2aac	-0.7389324
4	0xbf53598c	-0.8255851
5	0xbf7b66ce	-0.9820374
6	0xbf6ade32	-0.91745293
7	0xbf7b000c	-0.98046947

linear1.weight f4 [64, 35]
0	0x3f19ea01	0.60122687
1	0xbfd89efc	-1.6923518
2	0xc02b2a8e	-2.6744723
3	0xc022b9de	-2.5425944
4	0x3e3bacb0	0.18327594
5	0x3ccb0f00	0.024787426
6	0x3dbd828a	0.09253414
7	0x3e16086c	0.1465165
8	0xbd8fb80e	-0.070175275
9	0x3e5a4954	0.21317035
10	0xbe38cd0a	-0.18046966
11	0xbd92f6d4	-0.07175985
12	0xbdc6f867	-0.09715348
13	0xbd2a3309	-0.041552577
14	0x3e24b15b	0.1608328
15	0x3d8a1bfb	0.06743618
16	0xbe2a97ed	-0.16659518
17	0xbdc08bae	-0.09401642
18	0x3da8c7ef	0.08241259
19	0x3cf3ba9a	0.029752064
20	0x3c0917a5	0.008367454
21	0x3b1a3b78	0.0023533981
22	0xbcdcf800	-0.026973724
23	0x3cb9fb54	0.02270285
24	0xbcb7d815	-0.022441903
25	0x3c9abae9	0.018887954
26	0xbcf2a717	-0.02962069
27	0x3d7b4e1c	0.061353788
28	0x3b987e0c	0.004653698
29	0x3d81061b	0.06299993
30	0x3cafa7d4	0.021442331
31	0xbb8f7012	-0.0043773735
32	0x3e08b98e	0.13352033
33	0xbda1ec06	-0.07906346
34	0x3c1597bb	0.009130414
35	0x3d3bdb1d	0.04586326
36	0x3f2e5ca9	0.6811014
37	0xbcaddb11	-0.021222623
38	0xbe8e8dd6	-0.27842587
39	0xbdeead34	-0.116541296
40	0xbbd788d5	-0.006577591
41	0x3e7363ae	0.23768494
42	0x3e6590b4	0.22418481
43	0x3d02f21c	0.031969175
44	0x3db70013	0.08935561
45	0xbf27f611	-0.6560984
46	0xbbf137ac	-0.007361373
47	0x3ecd6be4	0.40121377
48	0x3f59a6ba	0.8502003
49	0xbe9e7eee	-0.30956215
50	0x3f48872e	0.7833127
51	0x3ea25cf0	0.3171153
52	0x3e9568a4	0.29181397
53	0x3cd1e93c	0.02562391
54	0x3c5cf37e	0.013485787
55	0x3de9d208	0.114170134
56	0xbd672d36	-0.0564396
57	0x3b05061a	0.0020297826
58	0xbd860f1e	-0.06545852
59	0x3dd45538	0.10367817
60	0x3ca33023	0.019920414
61	0x3d8cff42	0.06884624
62	0x3e0ce6ec	0.13759965
63	0xbd8ae342	-0.06781627
64	0xbe119f8a	-0.14221016
65	0x3acbca66	0.001554799
66	0xbdfd8cb6	-0.12380354
67	0xbe4bcfa6	-0.1990343
68	0x3e822c6b	0.25424513
69	0x3e882909	0.26593807
70	0x3f00c29b	0.50296944
71	0xbf619740	-0.88121414
72	0x4012af66	2.2919555
73	0xbfaf25ce	-1.3683412
74	0xbf0a8072	-0.5410224
75	0x3d590c44	0.052990213
76	0xbe3a8077	-0.18213068
77	0xbe51f81e	-0.20504805
78	0x3d04871f	0.032355424
79	0xbe6aa5c6	-0.229148
80	0xbe579c83	-0.21055798
81	0x3c92ffde	0.017944273
82	0x3e2fa309	0.17152037
83	0xbe310804	-0.17288214
84	0xbb96ac0a	-0.0045981454
85	0x3e1954a9	0.14973702
86	0x3e3ce1b5	0.18445475
87	0xbd47c787	-0.04877427
88	0xbddcffe4	-0.10790995
89	0xbd1daee2	-0.03849686
90	0xbc4c78a6	-0.012479937
91	0xbd0a3ead	-0.03375118
92	0x3d1616a8	0.0366427
93	0xbc5d2f53	-0.0135000525
94	0xbc4fff8f	-0.012695207
95	0x3aec5fb6	0.0018033895
96	0x3c2c02c6	0.010498708
97	0xbdfb5d52	-0.12273659
98	0x3c956162	0.018234912
99	0xbdd18471	-0.10230339
100	0xbd1f56d3	-0.03890116
101	0xbcdca457	-0.026933832
102	0x3d50c205	0.05096628
103	0x3cd5185d	0.026012594
104	0x3d68da36	0.056848727
105	0x3f8ff4d1	1.1246587
106	0x3d4b758f	0.04967266
107	0x3f315117	0.6926436
108	0x3f2aae8e	0.666726
109	0xbef15247	-0.47133085
110	0xbdac9be8	-0.08428174
111	0x3e557427	0.2084509
112	0xbdf24e9e	-0.11831401
113	0x3e1ca8f7	0.1529883
114	0x3df9e0cf	0.12201082
115	0x3e29e8e8	0.16592753
116	0xbd6a3565	-0.057179827
117	0x3e046419	0.12928809
118	0xbe3e477e	-0.1858196
119	0x3d614add	0.055003036
120	0x3e74823a	0.23877802
121	0x3b8356d5	0.004008154
122	0x3e5454a9	0.2073542
123	0xbe0c8b79	-0.1372508
124	0xbc17d69e	-0.009267477
125	0x3d2b6dca	0.04185275
126	0xbcd5862d	-0.026064957
127	0x3d291b35	0.041285712
128	0xbd120e83	-0.03565837
129	0x3ccbbabb	0.024869313
130	0xbcd9d90d	-0.026592756
131	0xbbb0372d	-0.005377671
132	0xbdaf5f0e	-0.08563052
133	0xbdaeaa89	-0.08528621
134	0x3da8c8a9	0.08241398
135	0xbce93fe7	-0.028472854
136	0xbd81a050	-0.06329405
137	0x3d9d259c	0.07673189
138	0xbdec2600	-0.115306854
139	0x3cff1606	0.031138431
140	0x3e2b3415	0.16719086
141	0x3f94f0ca	1.1635983
142	0xbf9f8eb0	-1.246542
143	0xbfb0a556	-1.3800457
144	0x3e895bbb	0.26827797
145	0xbef9e52a	-0.4880765
146	0x3e7f10a5	0.24908693
147	0xbf9b0ea3	-1.2113842
148	0x3e231b38	0.15928352
149	0x3e343d7d	0.17601581
150	0xbe837a48	-0.2567923
151	0xbf098b50	-0.537282
152	0xbf18c85a	-0.5968071
153	0x3f639aba	0.8890797
154	0xbd892127	-0.066957764
155	0x3f64c446	0.8936199
156	0x3e1e1008	0.15435803
157	0xbdaf0c01	-0.085472114
158	0xbdf133d4	-0.117774636
159	0xbdf11daf	-0.1177324
160	0xbd20f7db	-0.039298873
161	0xbdb370dd	-0.08761761
162	0xbd0f1467	-0.034931567
163	0x3e02f33e	0.12788102
164	0xbe1713c3	-0.14753632
165	0x3df7856b	0.12085994
166	0x3d31c539	0.043400977
167	0x3f11fbf3	0.5702507
168	0xbec37dc0	-0.38181877
169	0x3eab7902	0.3349076
170	0xbe0cfaf5	-0.13767608
171	0xbddbfcf5	-0.10741607
172	0xbed91a0e	-0.4240269
173	0x3d6c56fa	0.057700135
174	0xbe2840d1	-0.16430975
175	0x3f1748ab	0.5909526
176	0xbd3700b9	-0.044678424
177	0x3e13ce97	0.14434277
178	0xbfd728ee	-1.6809366
179	0xbfabfcaa	-1.3436482
180	0x3e25348b	0.16133325
181	0x3d138ad6	0.036021076
182	0xbe84c9b2	-0.2593513
183	0xbe884205	-0.2661287
184	0xbd8ce3cf	-0.068793885
185	0x3cf9f058	0.030510113
186	0xbeba3266	-0.36366576
187	0xbf23118d	-0.63698655
188	0xbdaf1cc6	-0.0855041
189	0x3d72765d	0.05919491
190	0x3d08e8d7	0.03342518
191	0x3c923b9f	0.017850695
192	0xbdb1bfca	-0.08679159
193	0xbe6a34ab	-0.22871654
194	0xbc92aa43	-0.017903453
195	0x3bebc72c	0.007195374
196	0xbcc79ef8	-0.024367794
197	0x3cecda6f	0.028912751
198	0xbce8460b	-0.028353712
199	0xbb1130f3	-0.002215442
200	0xbd933b0e	-0.07188998
201	0xbbd0e92a	-0.0063754516
202	0xbe327f7d	-0.17431445
203	0x3d15e0ea	0.036591448
204	0xbbdb90c2	-0.006700606
205	0x3dde4afe	0.108541474
206	0x3e20e0dc	0.15710777
207	0x3ea57056	0.32312268
208	0xbd951d80	-0.07281017
209	0xbdb3a3c0	-0.08771467
210	0x3f533a45	0.8251079
211	0xbf0a2b9c	-0.5397279
212	0xbfd13057	-1.6342877
213	0x3f6ed5b4	0.93294835
214	0xbeadaa5a	-0.3391903
215	0xbe7a72ea	-0.24457899
216	0x3ec075a5	0.37589756
217	0xbe7f0ca8	-0.24907172
218	0xbd3ceac0	-0.046122313
219	0x3e84ed1c	0.2596215
220	0xbdf47222	-0.119358316
221	0x3ed252be	0.41078752
222	0x3d11067d	0.03540658
223	0xbdbfafea	-0.09359725
224	0x3d31564e	0.043295197
225	0xbb8eaabe	-0.00435385
226	0xbd72c33e	-0.05926823
227	0x3bb7511b	0.0055943853
228	0x3be1d784	0.0068921465
229	0xbcfaa6e7	-0.030597163
230	0x3cd6c0ba	0.026214946
231	0x3d18a115	0.037262995
232	0xbb9ca4c6	-0.0047803847
233	0x3c6eb876	0.014570346
234	0xbbaf3602	-0.0053470144
235	0x3b3970ae	0.0028295922
236	0xbc733dda	-0.0148462895
237	0xbe47f047	-0.19525252
238	0x3de13c12	0.10997786
239	0x3da297ce	0.07939111
240	0x3d404e65	0.046949763
241	0xbd240b09	-0.040049586
242	0x3c309c8c	0.010779511
243	0x3ddec82e	0.10878025
244	0xbe2e1ad1	-0.17002417
245	0x3ebebcc0	0.3725338
246	0x3fd14d3a	1.6351693
247	0x3e9d6458	0.3074062
248	0xc0265069	-2.5986578
249	0x3ecd1cd8	0.4006107
250	0x3d448669	0.047979746
251	0xbf1868e8	-0.59535074
252	0x3f1f8767	0.6231598
253	0xbe9d5fb7	-0.30737087
254	0x3d9219a5	0.071337976
255	0x3e295db8	0.16539657

linear1.bias f4 [64]
0	0xbd8c83ee	-0.06861101
1	0x3f65288d	0.89515
2	0xbef75a85	-0.48311248
3	0xbf82c236	-1.0215518
4	0xbd8cd58a	-0.06876667
5	0xbf3cc4b7	-0.73737663
6	0xbedfd6a4	-0.43718445
7	0x3e61357b	0.21993057
8	0xbf3aa56b	-0.7290866
9	0xbf63aa0f	-0.88931364
10	0x3f30ab6c	0.6901157
11	0x3e129bfc	0.14317316
12	0x3ec9bea4	0.3940326
13	0xbf74a918	-0.95570517
14	0x3f1f1b2a	0.62150824
15	0x3f14ed68	0.58174753
16	0xbf159992	-0.58437455
17	0xbf0fabe3	-0.56121653
18	0xbf149ff6	-0.5805658
19	0xbf2211bd	-0.63308316
20	0x3d97bdf3	0.07409277
21	0x3fa64e1e	1.299259
22	0xbf34b025	-0.70581275
23	0xbdf12ed9	-0.117765136
24	0x3f2a1c11	0.66449076
25	0xbf152ff6	-0.5827631
26	0x3f2608ab	0.64856976
27	0xbeea1eaa	-0.4572652
28	0x3edcd78d	0.43133202
29	0xbf39eb2a	-0.72624457
30	0x3f4f66ae	0.8101605
31	0xbf4ed19c	-0.8078859
32	0x3d517b0f	0.05114275
33	0xbf53189a	-0.82459414
34	0x3eeae212	0.45875603
35	0xbf889d4d	-1.0673004
36	0xbf4bf69b	-0.79673165
37	0xbd07597b	-0.03304432
38	0x3fbd1851	1.4773046
39	0xbee9d1f3	-0.4566799
40	0xbf52a310	-0.82280064
41	0x3f158a90	0.58414555
42	0x3ee8fab8	0.45503783
43	0x3ed36f88	0.4129603
44	0xbe3bf765	-0.18356092
45	0xbf3ca31d	-0.7368639
46	0xbf520cf4	-0.82051015
47	0x3f16b097	0.58863205
48	0x3f00a4e4	0.50251603
49	0xbf03c6c7	-0.51475185
50	0x3ed421b2	0.41431957
51	0xbdae01a5	-0.084964074
52	0x3ed6054a	0.4180091
53	0xbd2a6624	-0.041601315
54	0xbdaecb66	-0.08534889
55	0xbf74bffa	-0.95605433
56	0xbf05a91b	-0.5221116
57	0xbd809ed6	-0.062802956
58	0x3e5edd55	0.21764119
59	0x3e10641f	0.14100693
60	0xbf8b1025	-1.0864302
61	0xbf16fb86	-0.58977544
62	0xbe306a84	-0.17228132
63	0x3f611452	0.8792163

linear2.weight f4 [64, 64]
0	0x3f6db284	0.9285052
1	0x3e2c8167	0.16846238
2	0xbda3ffe1	-0.080077894
3	0xbe80b26d	-0.25136128
4	0x3d8efe23	0.069820665
5	0x3dca1475	0.09867183
6	0xbd936e59	-0.071987815
7	0x3e6435bd	0.22286125
8	0xbe25316b	-0.16132133
9	0x3e12fb76	0.14353737
10	0x3ef403c8	0.47659135
11	0xbdca965d	-0.09891961
12	0x3c6f72a1	0.014614732
13	0x3e0e093c	0.1387071
14	0xbeec786f	-0.46185634
15	0xbe5d1621	-0.21590473
16	0x3ef0ff77	0.47069904
17	0x3e6de572	0.23232058
18	0x3eb14dda	0.3462971
19	0xbd646ddc	-0.055768833
20	0xbea800f2	-0.3281322
21	0xbeabc597	-0.33549187
22	0xbdbba1db	-0.09161731
23	0x3f1281ec	0.57229495
24	0x3d9acad1	0.075582154
25	0x3f37f3e9	0.7185655
26	0xbd82df52	-0.06390251
27	0xbc9d2074	-0.019180514
28	0x3ea976c0	0.33098412
29	0xbd84e44a	-0.06488855
30	0x3e8b5ad4	0.27217734
31	0x3e5868c1	0.2113371
32	0xbe875b18	-0.26436687
33	0x3e933c8f	0.2875714
34	0xbe7bf612	-0.24605587
35	0xbeb6cf13	-0.3570486
36	0xbe1aeffa	-0.15130606
37	0xbe9eeae6	-0.31038588
38	0x3e5cbfa1	0.21557476
39	0xbc49269d	-0.0122772725
40	0x3e0a60e9	0.13513531
41	0xbcf1a2f9	-0.029496657
42	0xbd86bba1	-0.06578756
43	0x3cc03ff1	0.02346799
44	0xbdb96c85	-0.090539016
45	0xbe15c67e	-0.146265
46	0xbacdca4b	-0.0015700547
47	0xbdd14ccd	-0.10219727
48	0xbd9b8654	-0.075939804
49	0xbe230249	-0.1591884
50	0xbde877b5	-0.11350957
51	0x3f1f1a99	0.6214996
52	0xbc40c4ae	-0.011765642
53	0xbd5eb5e9	-0.0543727
54	0x3e3362fc	0.17518228
55	0x3e9e0b3b	0.30867943
56	0x3dab74b4	0.08371869
57	0xbe6fbbaa	-0.23411432
58	0xbe1057f5	-0.14096053
59	0x3d8e8dc6	0.06960635
60	0xbe9ac32b	-0.30227026
61	0xbe35b230	-0.17743754
62	0x3ed9b222	0.42518717
63	0x3ee336f1	0.44377854
64	0xbf861d89	-1.0477763
65	0xbe93336a	-0.28750163
66	0xbf21f8b5	-0.6327012
67	0xbe6a5fa9	-0.22888054
68	0x3e3b3be8	0.18284571
69	0xbf8093fa	-1.0045159
70	0xbd8bfdd7	-0.068355255
71	0x3f228c1e	0.6349505
72	0xbeee5f89	-0.46557263
73	0xbed6153b	-0.41813073
74	0xbe3a10de	-0.18170497
75	0xbe81f0c8	-0.25379014
76	0xbe795349	-0.24348177
77	0xbec700a6	-0.38867682
78	0xbe21365f	-0.15743397
79	0x3e8548cf	0.2603211
80	0xbf1bffde	-0.609373
81	0xbfc25937	-1.5183476
82	0xbee05595	-0.43815294
83	0xbe8b6847	-0.27227995
84	0x3e230f8e	0.15923902
85	0x3d6ef5aa	0.058339752
86	0xbe5d4ae0	-0.21610594
87	0xbf4ae7d7	-0.7926001
88	0x3ea46bbe	0.3211345
89	0xbf6a58d2	-0.9154178
90	0x3eb37d47	0.35056517
91	0x3df2fabf	0.11864232
92	0xbf0abeb9	-0.5419727
93	0x3d6be01b	0.05758677
94	0x3d820a93	0.06349673
95	0xbf405364	-0.75127244
96	0xbe8074d9	-0.25089148
97	0x3e3454fb	0.17610542
98	0x3eb141fd	0.34620658
99	0x3e73dd2c	0.23814839
100	0xbdbbe88a	-0.09175213
101	0x3e4ddfff	0.20104979
102	0xbcfedc06	-0.031110775
103	0xbefd08b8	-0.49420714
104	0xbf9872e5	-1.1910063
105	0xbedc71be	-0.43055528
106	0xbe649565	-0.22322614
107	0x3f55f974	0.8358376
108	0x3d5c18e7	0.053734686
109	0xbe8465b2	-0.25858837
110	0x3f08a3fc	0.5337522
111	0x3e6063e3	0.21913104
112	0x3d887f57	0.06664913
113	0xbd43bde9	-0.047788534
114	0x3e650d18	0.22368276
115	0xbf777461	-0.96661955
116	0xbe78e6be	-0.24306771
117	0x3bf4c881	0.007470191
118	0x3e78d94c	0.24301642
119	0xbfb434b3	-1.4078583
120	0xbeb3bc9b	-0.35104832
121	0xbbae31c3	-0.0053159907
122	0x3e13404c	0.14379996
123	0x3e1659f8	0.14682758
124	0x3e627271	0.22113968
125	0x3e9530bd	0.29138747
126	0xbf22b329	-0.63554627
127	0x3e9df0e6	0.30847853
128	0xbc14f17c	-0.0090907775
129	0xbece64fe	-0.40311426
130	0xbf101306	-0.5627903
131	0x3e978cf4	0.29599726
132	0xbda25c08	-0.0792771
133	0x3e4541ad	0.19263335
134	0xbe2d3b15	-0.1691707
135	0xbe9e61b1	-0.30933908
136	0x3eb938c1	0.36176112
137	0x3f10bd4b	0.5653884
138	0xbde4deb4	-0.1117529
139	0x3e114512	0.14186504
140	0x3e94631a	0.28981858
141	0x3da02e54	0.078213364
142	0x3c8fa9bd	0.017536992
143	0xbea159fb	-0.31513962
144	0x3eec84e0	0.46195126
145	0xbf6947a9	-0.9112497
146	0xbf730dad	-0.9494274
147	0x3e02bbfc	0.12767023
148	0xbd650689	-0.055914436
149	0xbe36c0f5	-0.17847045
150	0xbde5bda5	-0.112178124
151	0xbe190bc7	-0.14945899
152	0xbe7f5fcf	-0.24938892
153	0x3eee9719	0.46599653
154	0xbd288c92	-0.041149683
155	0x3d2c4981	0.042062286
156	0xbd9329bf	-0.07185697
157	0xbe8de5b9	-0.27714327
158	0xbf2905db	-0.6602456
159	0x3e9aa6f2	0.30205494
160	0x3e5b855c	0.21437591
161	0xbf02b3dd	-0.510557
162	0xba06ce6d	-0.0005142454
163	0xbe15625b	-0.14588301
164	0x3e5f0f51	0.21783186
165	0xbe9563f0	-0.2917781
166	0xbf0cffb7	-0.5507769
167	0x3e8d8bd6	0.2764575
168	0x3e46d644	0.19417673
169	0x3d5fb874	0.054619268
170	0xbcbf2b52	-0.023336086
171	0xbe2f31b7	-0.17108808
172	0x3e183cd2	0.14866951
173	0xbf238b4b	-0.6388442
174	0x3d45f894	0.048332766
175	0xbfbca7f7	-1.4738759
176	0xbec4467b	-0.38335022
177	0x3ebc5afa	0.3678816
178	0xbe921768	-0.28533483
179	0xbeb1de11	-0.34739736
180	0xbe7cc6c7	-0.24685203
181	0x3dda23e4	0.10651377
182	0x3eba035d	0.3633069
183	0xbe63e370	-0.2225473
184	0x3efaf6e6	0.49016494
185	0xbf8aefaa	-1.085439
186	0x3eaec9d6	0.34138364
187	0x3f05a714	0.52208066
188	0x3f1c59fa	0.61074793
189	0x3d5110a1	0.05104125
190	0x3c8f76fa	0.017512787
191	0x3dcb490b	0.09926041
192	0x3e55d091	0.20880343
193	0x3e5bfb38	0.21482551
194	0xbed7f7cc	-0.42181242
195	0xbee7d7ed	-0.45281926
196	0xbf0f90ca	-0.56080306
197	0xbdf7f09b	-0.12106439
198	0x3e81b478	0.25333
199	0x3d610604	0.054937378
200	0xbe077361	-0.13227607
201	0xbee9abe4	-0.45638955
202	0x3e18a40b	0.14906327
203	0xbf07e77f	-0.5308761
204	0xbe4c84f3	-0.19972591
205	0xbea8a80e	-0.32940716
206	0xbd533c8f	-0.051571425
207	0x3cd90c12	0.026495013
208	0xbc12882a	-0.008943597
209	0xbe6541c1	-0.22388364
210	0x3e5bb27d	0.21454807
211	0x3e6baf4f	0.23016094
212	0x3e7b2130	0.24524379
213	0xbd81f9a6	-0.06346445
214	0xbdf8bfe6	-0.12145977
215	0x3dad6cb0	0.08467996
216	0xbe00a374	-0.12562352
217	0xbe8bcdd1	-0.27305463
218	0x3ed50955	0.41608682
219	0xbe8afa34	-0.27144015
220	0x3d615d58	0.05502066
221	0xbecd467a	-0.40092832
222	0x3dbda00b	0.092590414
223	0x3daddc5b	0.08489295
224	0x3e4f7efa	0.20263281
225	0xbca6ed31	-0.020376774
226	0xbe485bb1	-0.19566227
227	0x3e7490e6	0.238834
228	0xbf3565b9	-0.7085834
229	0xbe31c270	-0.17359328
230	0xbdf3fd37	-0.11913531
231	0xbe27efbe	-0.16400048
232	0x3dca5b19	0.09880657
233	0x3e1bbd68	0.15208972
234	0x3ce21f52	0.027602825
235	0x3e547266	0.20746765
236	0x3e1f4e13	0.15557127
237	0x3e052fe6	0.13006553
238	0xbd8169bf	-0.063189976
239	0xbe0e72d6	-0.13910994
240	0x3e0a9b37	0.13535772
241	0x3edde1b9	0.43336275
242	0xbd490f7c	-0.049087033
243	0xbc545999	-0.012960815
244	0x3e5d226b	0.2159516
245	0xbd3134cd	-0.043263245
246	0xbe882615	-0.26591554
247	0xbeb0dab0	-0.34541845
248	0xbe422215	-0.18958314
249	0xbe4a9cfd	-0.19786449
250	0xbdedb2d9	-0.11606378
251	0xbec03d41	-0.37546733
252	0xbdb0cf50	-0.08633292
253	0x3d17af68	0.037032515
254	0x3de1c928	0.11024696
255	0x3ec07587	0.37589666

linear2.bias f4 [64]
0	0x3f651340	0.894825
1	0xbe32baf0	-0.17454123
2	0xbd406185	-0.046968002
3	0x3f0b006d	0.54297525
4	0xbee95b35	-0.45577398
5	0x3e8c53f6	0.27407807
6	0x3c9ea0f8	0.019363865
7	0xbf0ddce1	-0.5541516
8	0xbf2c5250	-0.673131
9	0xbd7a32cd	-0.061083604
10	0xbf2126d8	-0.62949896
11	0x3c9cf36a	0.019159038
12	0xbf93c9d7	-1.1545972
13	0x3e95b92b	0.29242834
14	0x3f570574	0.83992696
15	0xbf5f6e9c	-0.8727815
16	0x3ef4a455	0.47781625
17	0xbe10736b	-0.14106528
18	0xbf41644b	-0.7554366
19	0x3eeae75f	0.45879647
20	0x3de133c5	0.109962024
21	0xbe989094	-0.29797804
22	0xbf342193	-0.7036373
23	0x3cbe6195	0.02323989
24	0x3d936933	0.071977995
25	0xbe5e59f4	-0.21714002
26	0xbf87cc71	-1.0609266
27	0xbead693e	-0.33869356
28	0xbea1b3b9	-0.3158243
29	0xbe179309	-0.14802183
30	0xbebbb20f	-0.36659285
31	0x3ecb8476	0.39749497
32	0x3f03b74b	0.5145156
33	0x3e349b0a	0.17637268
34	0x3e2681af	0.16260408
35	0x3f1ca6d4	0.6119206
36	0xbe6986e7	-0.22805367
37	0x3f329193	0.6975338
38	0x3e35775b	0.17721312
39	0x3f093093	0.53589743
40	0xbf03a07b	-0.5141675
41	0x3e572a81	0.21012308
42	0x3e82e9e3	0.25569066
43	0x3f1734f6	0.59065187
44	0x3e2d0f95	0.16900475
45	0xbf251c39	-0.6449619
46	0x3f009509	0.5022741
47	0xbe905996	-0.2819335
48	0xbde65cc9	-0.11248166
49	0x3f1a9cf9	0.6039577
50	0x3ef3c3e8	0.47610402
51	0xbf311043	-0.6916544
52	0x3f274d62	0.6535245
53	0x3e91786f	0.28412196
54	0xbef69dc0	-0.4816723
55	0x3edd818f	0.43262908
56	0x3f3b922a	0.73269904
57	0xbe05e00e	-0.13073751
58	0x3d6f7fdc	0.058471546
59	0xbe84ca61	-0.25935653
60	0x3f32313a	0.69606364
61	0xbde330dc	-0.110933036
62	0xbd6108b7	-0.05493995
63	0x3e11fcfb	0.1425666

linear3.weight f4 [1, 64]
0	0x3ef8c13e	0.48584932
1	0x3f65be51	0.89743525
2	0xc039618e	-2.8965793
3	0x3ef067f3	0.46954307
4	0xbf75a8f4	-0.95960927
5	0xbfaf028c	-1.3672652
6	0x3f612193	0.87941855
7	0xbf69e5bf	-0.9136619
8	0xbea4d663	-0.32194814
9	0x3f47797e	0.7791976
10	0xbf04b00d	-0.5183113
11	0x3f26da6b	0.6517703
12	0x3c43748e	0.011929644
13	0xc0113f8e	-2.269504
14	0x3f16fc47	0.58978695
15	0xbd0b9b20	-0.034083486
16	0x3f256c8d	0.6461876
17	0xc0037dd8	-2.054556
18	0xbf0e9251	-0.5569201
19	0xc017175d	-2.360801
20	0x3f0dc8c7	0.55384487
21	0xbf5c1f8e	-0.8598565
22	0xbf581a2b	-0.8441493
23	0xbfc360cb	-1.5263914
24	0xbeb8a049	-0.36059788
25	0xbed338eb	-0.41254362
26	0xbe13f857	-0.14450203
27	0xbf0b7d3e	-0.5448798
28	0xbf5083b6	-0.81450975
29	0xbfbffde5	-1.4999357
30	0xbf0ecc13	-0.5578014
31	0x3f2c2efd	0.672592
32	0xc01eaa8f	-2.47916
33	0x3f4cff89	0.80077416
34	0x3f192e4b	0.5983626
35	0x3f10ce55	0.5656484
36	0xbfeb6513	-1.839022
37	0x3efadccd	0.48996583
38	0xbfb1426e	-1.3848398
39	0x3f30662a	0.6890589
40	0xbea52d15	-0.32260957
41	0xc02da68e	-2.7132907
42	0x3f4b984c	0.7952926
43	0x3ef2e5ec	0.4744104
44	0x3f00d3ed	0.50323373
45	0xbea9207d	-0.330326
46	0xbff5b59f	-1.9196051
47	0x3ec8d2d8	0.3922336
48	0x3f20954b	0.62727803
49	0x3f2cc8aa	0.6749369
50	0x3f44ecda	0.76923907
51	0xbf20ad26	-0.62764204
52	0x3f37efad	0.7185009
53	0x3f304b47	0.68864864
54	0xbf13cf78	-0.5773845
55	0x3f3cea6b	0.73795193
56	0x3f39ea7e	0.7262343
57	0x3f0339bd	0.51259977
58	0xbfe01ce7	-1.750882
59	0x3f011da3	0.5043585
60	0x3f181d30	0.59419537
61	0xbfbecb75	-1.490584
62	0x3f45c686	0.7725605
63	0x3f4f6535	0.81013805
