benchmarks/Pendulum-v1/Train_Pendulum-v1_DDPG_HER_20230414-150220/models/actor_checkpoint.pt (torch, 270167 bytes, 5 tensors)

linear1.weight f4 [256, 3]
0.5651552 -0.08006993 0.49818584 -0.2845008 -0.20606965 0.30525053 -0.29533455 -0.14214367
-0.40435869 0.5258655 -0.46366104 -0.39884654 0.29430178 0.12126649 -0.31577417 0.46184364
-0.061645746 -0.5199664 0.049383923 -0.24493568 0.41664845 -0.640188 -0.4863198 0.3014148
0.16709273 -0.48192194 0.23670684 0.03889309 0.2100207 0.36300817 0.16984515 -0.6442961
-0.2913815 0.21437423 0.4519106 -0.30864394 0.21556526 -0.41089478 -0.510193 -0.55653006
-0.20410848 -0.4828306 0.0662555 0.3095042 -0.14403439 0.47222522 0.47977597 -0.4453407
0.037756313 0.70949006 -0.44029692 0.23940223 0.40718776 -0.6215018 -0.36238518 -0.6109694
-0.2754121 -0.3898268 -0.6135592 0.38701516 0.36285532 -0.5448443 -0.3958929 -0.025782349
-0.34594908 -0.3378572 0.39549696 -0.019904548 -0.286011 -0.70568144 -0.4260114 -0.53323317
0.37830138 0.41958034 0.2820625 -0.15230684 0.5354352 -0.041339613 -0.073309064 0.15874957
0.57363814 0.43003175 0.49307385 -0.5596903 0.13595825 0.5654306 -0.10292593 -0.031798687
0.7709119 0.028501868 -0.3699944 0.037452374 -0.15454717 -0.5423222 -0.27056792 0.2956744
-0.35283744 0.6197587 -0.07819577 -0.19146204 -0.2902841 0.016973658 0.41910282 0.625829
-0.32519823 0.20765303 -0.19894719 0.2808631 0.27531856 0.0329872 -0.17069514 -0.5038703
0.07124926 -0.58577764 -0.2762585 -0.6162992 0.57347167 -0.06723394 0.4315766 0.31582448
-0.24102406 0.45096543 0.4345882 0.4442062 0.6059447 0.13031092 -0.38436007 0.2517761
0.5650751 -0.045119245 -0.71876013 0.21572739 -0.29978392 0.41790822 0.47667456 0.32646996
0.41868293 -0.29545695 0.44664076 0.3274931 -0.39426848 -0.36855534 -0.3538301 0.42566535
-0.43160018 -0.30600286 -0.14327277 0.4617984 0.6011466 -0.4960644 0.3998411 0.5291596
0.21248177 -0.52288705 0.37419003 0.37497857 0.498349 0.39902866 -0.24637447 0.09339202
-0.071568124 0.5062884 0.61100787 0.3415688 0.5415132 -0.30011365 0.41821674 -0.18184343
0.4657914 -0.6958614 -0.4540484 -0.09249797 0.12794417 -0.27264014 0.13892826 -0.5955936
0.58102554 0.21753949 -0.4524015 -0.36685404 -0.64710236 -0.4938323 0.21856092 0.16005236
0.2538812 -0.051749628 -0.2892978 -0.3411063 0.23847003 -0.5595608 -0.2452147 -0.3141944
0.10112769 -1.0117055 -0.28354028 0.34850544 0.4958705 0.50230527 0.39803505 -0.0010102362
0.5852132 -0.3785684 -0.38226596 -0.34203243 -0.08491213 0.111333236 0.2972145 -0.36614168
-0.32910785 -0.55015266 -0.6065493 -0.027161013 -0.27350083 -0.5807063 0.28585342 -0.18632835
-0.44921213 -0.4605165 -0.11614783 -0.15094285 0.015362911 0.4143503 -0.058705796 0.16189006
-0.24171281 -0.3174728 -0.009142991 0.45526043 -0.2566026 0.23694056 0.57255375 0.27536133
0.27179608 -0.35872275 -0.43206745 0.06461683 -0.044659857 -0.082476445 -0.33824077 -0.3118341
-0.11463109 0.16234738 0.57057214 -0.46879816 0.14401776 0.3699031 -0.42100674 0.2763183
0.22694398 0.107734285 -0.46353826 -0.40369913 -0.110769056 -0.020261573 0.23729053 -0.6620345
00000000: 03ae 103f b4fb a3bd 3712 ff3e 17aa 91be
00000010: ec03 53be cc49 9c3e 1736 97be 1c8e 11be
00000020: 1a08 cfbe 1f9f 063f fb64 edbe 9d35 ccbe
00000030: b9ae 963e 915a f83d 27ad a1be c576 ec3e
00000040: 4080 7cbd 851c 05bf cc46 4a3d 6bd0 7abe
00000050: f252 d53e 5ce3 23bf e9fe f8be 0a53 9a3e
00000060: 5b1a 2b3e 79be f6be 4763 723e 5c4e 1f3d
00000070: ab0f 573e 35dc b93e e3eb 2d3e 97f0 24bf
00000080: f52f 95be eb84 5b3e d360 e73e 9406 9ebe
00000090: 24bd 5c3e cd60 d2be 029c 02bf c178 0ebf
000000a0: d001 51be 9335 f7be f7b0 873d 5677 9e3e
000000b0: c07d 13be 81c7 f13e 32a5 f53e b203 e4be
000000c0: 5da6 1a3d 24a1 353f 996e e1be dc25 753e
000000d0: ea7a d03e be1a 1fbf 8d8a b9be 7e68 1cbf
000000e0: d102 8dbe 6197 c7be 3712 1dbf da26 c63e
000000f0: 2cc8 b93e eb7a 0bbf 79b2 cabe 8135 d3bc
00000100: 3d20 b1be 9efb acbe 947e ca3e dd0e a3bc
00000110: 0970 92be 8aa7 34bf 2b1e dabe f881 08bf
00000120: b8b0 c13e 3cd3 d63e 7f6a 903e 53f6 1bbe
00000130: 4812 093f ba53 29bd 1023 96bd 3f8f 223e
00000140: f3d9 123f 1f2d dc3e 2d74 fc3e dd47 0fbf
00000150: a438 0b3e 0fc0 103f d4ca d2bd 573f 02bd
00000160: 7b5a 453f c07c e93c e86f bdbe a967 193d
00000170: 9d41 1ebe a1d5 0abf e187 8abe a362 973e
00000180: 1ca7 b4be 82a8 1e3f 1b25 a0bd a00e 44be
00000190: 1ea0 94be 570c 8b3c a594 d63e 5436 203f
000001a0: 6280 a6be ffa2 543e d0b8 4bbe 4acd 8f3e
000001b0: 8ef6 8c3e 961d 073d b5ca 2ebe a5fd 00bf
000001c0: 22eb 913d 86f5 15bf c171 8dbe c9c5 1dbf
000001d0: 0acf 123f f3b1 89bd 9cf7 dc3e bfb3 a13e
000001e0: 03cf 76be f1e4 e63e 5882 de3e ff6e e33e
000001f0: 311f 1b3f 3a70 053e d8ca c4be cce8 803e
00000200: c3a8 103f f5ce 38bd aa00 38bf a4e7 5c3e
00000210: 477d 99be 11f8 d53e b00e f43e 1227 a73e
00000220: 9c5d d63e 2246 97be 19ae e43e 2dad a73e
00000230: 8fdd c9be 49b3 bcbe 3829 b5be cff0 d93e
00000240: b3fa dcbe 68ac 9cbe 19b6 12be d770 ec3e
00000250: bee4 193f 27fc fdbe f9b7 cc3e 0177 073f
00000260: d294 593e eddb 05bf d695 bf3e 31fd bf3e
00000270: 9a27 ff3e 7c4d cc3e 9749 7cbe 5144 bf3d
00000280: 4f92 92bd 1e9c 013f 036b 1c3f 1be2 ae3e
00000290: 9ca0 0a3f 7fa8 99be 8120 d63e 2a35 3abe
000002a0: 367c ee3e f923 32bf 0879 e8be 936f bdbd
000002b0: cc03 033e 7d97 8bbe 3643 0e3e d278 18bf
000002c0: 17be 143f acc2 5e3e 2ba1 e7be 4bd4 bbbe
000002d0: 80a8 25bf 96d7 fcbe 6fce 5f3e c4e4 233e
000002e0: b7fc 813e 6bf7 53bd d71e 94be 7ca5 aebe
000002f0: 7d31 743e 603f 0fbf 9019 7bbe 17de a0be
00000300: 091c cf3d 917f 81bf 312c 91be 4e6f b23e
00000310: bde2 fd3e 1497 003f 40cb cb3e e769 84ba
00000320: 88d0 153f b8d3 c1be 5db8 c3be e01e afbe
00000330: 69e6 adbd ae02 e43d 802c 983e ec76 bbbe
00000340: d380 a8be ced6 0cbf d146 1bbf c680 debc
00000350: 4d08 8cbe 2ba9 14bf 615b 923e dccc 3ebe
00000360: 22ff e5be d2c8 ebbe eade edbd c390 1abe
00000370: b8b4 7b3c b925 d43e 7d75 70bd 82c6 253e
00000380: 9083 77be cb8b a2be 7ccc 15bc e517 e93e
00000390: 6a61 83be 8ca0 723e e292 123f 29fc 8c3e
000003a0: db28 8b3e 82aa b7be f237 ddbe d455 843d
000003b0: 41ed 36bd 69e9 a8bd e52d adbe b8a8 9fbe
000003c0: b4c3 eabd 643e 263e 0411 123f 5006 f0be
000003d0: 6479 133e f063 bd3e 328e d7be 9879 8d3e
000003e0: 0164 683e cba3 dc3d e354 edbe a7b1 cebe
000003f0: e3da e2bd 99fb a5bc 4afc 723e 187b 29bf

linear1.bias f4 [256]
0.2541566 0.25737077 0.123837486 -0.42168114 0.07785404 0.26470417 0.24710998 -0.46050745
-0.2765187 -0.5966176 -0.31531084 -0.050515592 0.1510584 -0.020192727 0.17744909 -0.25084153
0.25834486 -0.33961254 0.28911918 -0.21396904 0.26924366 -0.2397437 -0.35731325 0.46845412
0.20922132 0.13309929 -0.5300064 -0.22984432 -0.16133219 0.04809909 -0.44743323 0.31535876
0.22693057 0.32305834 -0.37436396 -0.41128993 0.124582514 0.23269276 0.57168734 0.1574332
0.5459434 0.5231507 0.13987383 0.45858172 0.209098 0.6199011 -0.13480625 0.43366003
0.053796064 -0.27040896 0.2866928 0.4490303 -0.39523408 -0.33938 -0.46578467 -0.26234257
-0.3332672 0.17045815 0.62347347 0.50047874 -0.12691824 0.29810414 -0.029297544 0.14121594
0.52962685 -0.305607 0.6943485 -0.5620082 0.55660665 0.2697141 0.068259284 -0.4294978
0.60604125 0.10303507 0.1607866 0.63109946 0.46721733 -0.1481908 0.017237876 -0.26037583
-0.42047375 0.42272535 -0.5125431 -0.007477895 0.42678064 0.11188002 0.25584581 0.5595896
-0.47082597 -0.44685686 0.055203203 0.1827052 -0.41438454 0.34329116 0.58838946 -0.2024002
-0.11468824 0.30543575 0.12327934 -0.15147536 -0.00019358943 0.42336443 0.6124752 0.30295312
-0.09512224 -0.45124474 0.5384861 -0.45400307 -0.5173105 0.26420474 0.62871 -0.0030282596
0.016223777 -0.37460953 0.33230782 0.30197808 0.47416246 0.2662348 0.5239324 0.41570982
0.3283735 0.4502421 0.19586155 -0.010617327 -0.24251583 0.45838106 0.024711706 0.5186762
-0.57226396 0.22112033 0.16075705 -0.24451883 0.5003562 -0.21427368 0.24705884 -0.015678793
-0.061371166 0.57151085 -0.5543288 -0.39611763 0.58785605 -0.13635635 0.19320463 -0.34040564
0.44892514 -0.38574845 -0.61081237 0.19929382 -0.49122855 0.3119735 0.07410578 -0.16457346
-0.3422953 0.3229582 0.26302767 -0.04266492 -0.39627907 0.24521506 -0.34892568 -0.29880157
0.4223974 -0.15486075 0.23540962 0.26862335 -0.6435456 -0.31579307 0.25453192 0.49814287
-0.32395035 0.62716764 0.47686303 0.3802841 -0.07543682 -0.19142942 -0.29659554 -0.1841364
-0.37296876 0.034796923 0.32467476 -0.38622996 -0.21124247 0.070752226 -0.5054112 0.40572628
-0.30735698 -0.27969146 -0.24329375 0.49895412 0.54559964 0.55641043 0.18187599 0.4734763
-0.28875816 -0.24704307 -0.18817818 0.163908 -0.29311663 0.06639235 -0.08853551 0.39975432
0.52765846 0.19025072 -0.524581 -0.3190174 -0.5574653 -0.021948969 -0.41533822 -0.058633517
-0.05603994 0.17835633 -0.15148968 0.16441776 0.4371595 0.13298067 0.2599028 0.03449331
0.5882226 -0.235657 0.2904453 0.5767544 -0.22699177 -0.5328599 -0.13186444 0.18699184
-0.5640275 -0.44734687 -0.16694959 -0.104991265 0.48987764 0.14810601 -0.16339871 -0.25231832
0.4881598 0.56839925 -0.4412994 0.46098626 0.21439058 -0.3561813 -0.17819627 -0.37312716
0.691167 0.57087195 0.3848169 0.2181244 -0.10157075 0.05132784 -0.08316141 0.13589266
-0.5646934 -0.102650285 0.22657682 -0.55530643 0.18450725 0.06295392 0.4432739 0.610649
00000000: d020 823e 1ac6 833e 829e fd3d 97e6 d7be
00000010: f071 9f3d 4e87 873e 660a 7d3e a2c7 ebbe
00000020: dc93 8dbe eebb 18bf 6c70 a1be 70e9 4ebd
00000030: 0eaf 1a3e 386b a5bc 37b5 353e 4d6e 80be
00000040: c745 843e b2e1 adbe 6e07 943e b31a 5bbe
00000050: 4eda 893e 5f7f 75be c3f1 b6be 38d9 ef3e
00000060: 1d3e 563e 2e4b 083e 80ae 07bf 4f5c 6bbe
00000070: 4434 25be 8d03 453d f815 e5be b476 a13e
00000080: 7d60 683e e767 a53e a2ac bfbe 9894 d2be
00000090: 1e25 ff3d 0347 6e3e 1a5a 123f 2b36 213e
000000a0: f2c2 0b3f 34ed 053f 163b 0f3e 39cb ea3e
000000b0: c91d 563e d7b1 1e3f a60a 0abe b008 de3e
000000c0: 4359 5c3d 0b73 8abe 66c9 923e 4de7 e53e
000000d0: 1f5c cabe 37c3 adbe 547b eebe c451 86be
000000e0: 00a2 aabe 958c 2e3e f59b 1f3f 601f 003f
000000f0: dbf6 01be 1ba1 983e 6701 f0bc e99a 103e
00000100: a095 073f 8578 9cbe d3c0 313f c5df 0fbf
00000110: c67d 0e3f f717 8a3e 86cb 8b3d 23e7 dbbe
00000120: 8525 1b3f 0d04 d33d 3ea5 243e bc8f 213f
00000130: 1c37 ef3e 54bf 17be 7236 8d3c fb4f 85be
00000140: 5648 d7be 756f d83e 0636 03bf 2109 f5bb
00000150: fe82 da3e 5a21 e53d 39fe 823e 4441 0f3f
00000160: 1a10 f1be 6cca e4be c11c 623d 1217 3b3e
00000170: 362a d4be dcc3 af3e b1a0 163f ff41 4fbe
00000180: abe1 eabd 1362 9c3e e179 fc3d 5b1c 1bbe
00000190: 44fe 4ab9 39c3 d83e 2dcb 1c3f ac1c 9b3e
000001a0: 73cf c2bd 8d09 e7be 3ada 093f 1773 e8be
000001b0: 766e 04bf d845 873e 23f3 203f c475 46bb
000001c0: bae7 843c d2cc bfbe 4024 aa3e df9c 9a3e
000001d0: 6cc5 f23e ed4f 883e 6f20 063f ebd7 d43e
000001e0: 9220 a83e 2286 e63e ee8f 483e 4cf4 2dbc
000001f0: 1256 78be ecb0 ea3e 3470 ca3c f7c7 043f
00000200: e47f 12bf 5e6d 623e 7f9d 243e 2563 7abe
00000210: 5817 003f 8f6a 5bbe fefc 7c3e d070 80bc
00000220: 5560 7bbd 894e 123f 7ee8 0dbf eecf cabe
00000230: bc7d 163f 00a1 0bbe 6fd7 453e a649 aebe
00000240: 84d9 e53e d280 c5be 335e 1cbf ae13 4c3e
00000250: 4f82 fbbe feba 9f3e c5c4 973d f285 28be
00000260: 5441 afbe c75a a53e 90ab 863e 69c1 2ebd
00000270: 17e5 cabe a819 7b3e 63a6 b2be 85fc 98be
00000280: 7944 d83e d193 1ebe 380f 713e 0089 893e
00000290: 68bf 24bf a1af a1be 0252 823e 950c ff3e
000002a0: d2dc a5be 0f8e 203f 6427 f43e 99b4 c23e
000002b0: 9f7e 9abd 1306 44be 5fdb 97be 418e 3cbe
000002c0: c3f5 bebe 3887 0e3d c53b a63e efbf c5be
000002d0: f24f 58be 8be6 903d a162 01bf 5bbb cf3e
000002e0: e55d 9dbe b833 8fbe ff21 79be ea76 ff3e
000002f0: 6bac 0b3f ea70 0e3f b33d 3a3e 7c6b f23e
00000300: 1cd8 93be dcf8 7cbe c8b1 40be 80d7 273e
00000310: 6213 96be b6f8 873d 1b52 b5bd 99ac cc3e
00000320: a014 073f 16d1 423e f14a 06bf 4056 a3be
00000330: 0cb6 0ebf 53ce b3bc 36a7 d4be b329 70bd
00000340: 238a 65bd 0ba3 363e 1c20 1bbe 215d 283e
00000350: 5fd3 df3e 162c 083e fb11 853e db48 0d3d
00000360: c295 163f 1250 71be 3fb5 943e 2da6 133f
00000370: 8870 68be 8269 08bf 7907 07be ca7a 3f3e
00000380: 1b64 10bf a60a e5be d5f4 2abe a905 d7bd
00000390: 3ed1 fa3e 1aa9 173e fe51 27be de2f 81be
000003a0: 15f0 f93e 9d82 113f fff1 e1be 6406 ec3e
000003b0: 3489 5b3e 655d b6be 1579 36be 860a bfbe
000003c0: 52f0 303f aa24 123f b906 c53e 015c 5f3e
000003d0: 5304 d0bd 243d 523d 8850 aabd 7227 0b3e
000003e0: bf8f 10bf 503a d2bd c103 683e 9028 0ebf
000003f0: 78ef 3c3e fced 803d ccf4 e23e 7e53 1c3f

linear2.weight f4 [256, 256]
-0.046452418 -0.022293136 0.083688796 -0.032699816 -0.0573828 -0.009623293 -0.2673778 -0.22703116
-0.068696894 -0.046512276 -0.057834174 -0.05516323 0.035263434 0.02796743 0.005518985 -0.052358557
-0.0077978554 -0.061288837 -0.00975921 -0.12858237 0.031982966 -0.02877291 -0.08082022 0.00065349624
-0.06922158 0.019216934 -0.046358764 -0.0046220105 -0.13658154 -0.03867307 -0.08021655 0.005525222
0.021563629 0.061087735 -0.00244502 0.04951865 0.0116566075 0.08157544 0.010922975 -0.08310004
-0.0849082 -0.104425825 -0.10449412 0.054732896 -0.04401022 0.07607915 -0.08198292 0.0010364542
0.0146420365 -0.102180526 -0.04247644 -0.051035192 -0.003497714 -0.014662891 -0.059309054 -0.03091301
-0.00916543 -0.0195193 -0.12617442 -0.010111817 -0.08062001 -0.015182909 -0.08668935 0.07538248
0.015070637 -0.04708951 -0.18240649 -0.07773195 -0.00570001 0.040546358 0.08130239 0.0810871
0.10055819 -0.25008857 0.026212603 0.038832497 -0.022109646 -0.06407417 0.09288541 -0.089630105
-0.04565147 -0.04921338 0.0985641 0.010096084 -0.0058498424 -0.0857943 0.012852151 -0.026869806
-0.056711905 0.122047625 -0.026345883 0.029130299 -0.007846058 0.024489272 0.030600345 -0.051067468
-0.10031323 0.079769745 0.07088462 0.026465213 -0.10393023 0.081267126 0.0587058 -0.10798072
-0.25779077 -0.06596517 -0.08955396 -0.023389889 -0.022622047 0.04950029 0.051900763 -0.019265411
0.067289375 -0.05703767 0.09331972 0.043796666 -0.012237274 0.015092532 -0.118231826 -0.083449945
0.042174753 -0.061929107 -0.06469273 -0.2598524 -0.010276168 0.063307926 0.07565472 0.024923682
-0.10327288 -0.21295595 -0.011084221 -0.05128131 0.052712478 -0.06839609 0.02185249 0.026594663
0.051127773 0.042858027 -0.080403104 -0.030601455 -0.050305545 -0.06385776 -0.09351005 -0.10704401
-0.057554036 -0.047019444 -0.012292758 -0.035717115 -0.04874455 0.036045164 0.06259406 -0.08507191
-0.03201376 0.06687051 0.046087354 -0.08794391 -0.0016287962 -0.028206408 -0.0023613407 0.3237493
0.024485094 -0.07165035 -0.030116782 0.0591569 -0.07476558 -0.02918541 0.0030656753 -0.01542802
0.022245811 -0.059297647 0.028370183 0.0061234287 -0.019529263 -0.030938048 0.024303151 -0.018123675
-0.11883926 0.031175362 0.0234471 0.002842922 0.022194829 -0.058094386 0.02016242 -0.051182516
-0.09197336 0.052249048 -0.11959823 0.016457092 0.053218022 -0.0131626325 0.033571485 0.02343798
-0.0003190795 -0.03903784 -0.025602525 -0.0478901 0.039588254 -0.037315805 -0.022788055 -0.018925147
-0.0054250527 -0.17634428 -0.011838334 -0.017336162 -0.10653865 -0.058632955 -0.065366365 -0.028369589
-0.08684207 0.042147547 -0.016107725 -0.044530332 -0.028272867 0.030288406 -0.26817942 -0.08764685
0.039675996 -0.11336113 0.044160478 0.07906935 0.12813304 -0.03015281 0.07035841 -0.05312514
-0.017963478 0.23405293 -0.080988266 -0.03641514 0.028888384 -0.15145116 0.10752492 0.055898044
0.03772427 -0.089735 -0.002416767 -0.14877596 -0.071302876 -0.07515978 0.014526573 -0.015483429
-0.21731406 -0.012571977 0.03969838 0.010865453 0.02545132 -0.24266979 0.023799794 -0.07742024
0.12820879 0.050249185 0.0710485 -0.012979385 0.038728066 8.260929e-05 0.07790913 -0.056675356
00000000: e444 3ebd 18a0 b6bc 0865 ab3d 3ef0 05bd
00000010: 3a0a 6bbd 04ab 1dbc bee5 88be db7a 68be
00000020: f5b0 8cbd a883 3ebd 87e3 6cbd d7f2 61bd
00000030: 6470 103d f41b e53c 9ad8 b43b ed75 56bd
00000040: 2785 ffbb 010a 7bbd 18e5 1fbc 19ab 03be
00000050: 9200 033d 2ab5 ebbc 1285 a5bd 644f 2b3a
00000060: 0bc4 8dbd d56c 9d3c b0e2 3dbd 3c74 97bb
00000070: 08dc 0bbe a767 1ebd 9348 a4bd ec0c b53b
00000080: 35a6 b03c 2237 7a3d a13c 20bb 11d4 4a3d
00000090: 5bfb 3e3c 0611 a73d 47f6 323c 5b30 aabd
000000a0: 5ae4 adbd 35dd d5bd 0301 d6bd 9a2f 603d
000000b0: 0f44 34bd 63cf 9b3d a9e6 a7bd a2d9 873a
000000c0: 27e5 6f3c 0644 d1bd c7fb 2dbd 470a 51bd
000000d0: e739 65bb 9f3c 70bc 0dee 72bd 483d fdbc
000000e0: 9a2a 16bc f0e6 9fbc de33 01be 09ac 25bc
000000f0: 1b1c a5bd bcc1 78bc 308a b1bd 2162 9a3d
00000100: d5ea 763c eee0 40bd c4c8 3abe ee31 9fbd
00000110: 26c7 babb f013 263d de81 a63d fe10 a63d
00000120: 74f1 cd3d 9c0b 80be d0bb d63c d30e 1f3d
00000130: 4a1f b5bc 5239 83bd b53a be3d fd8f b7bd
00000140: 09fd 3abd f893 49bd fadb c93d 0c6a 253c
00000150: 09b0 bfbb ecb4 afbd d491 523c 111e dcbc
00000160: be4a 68bd 1bf4 f93d 52d3 d7bc aaa2 ee3c
00000170: c18c 00bc ba9d c83c 93ad fa3c 1f2c 51bd
00000180: 0671 cdbd 525e a33d f52b 913d 93cd d83c
00000190: 5fd9 d4bd 616f a63d 7e75 703d ff24 ddbd
000001a0: 27fd 83be bf18 87bd 1168 b7bd 279c bfbc
000001b0: df51 b9bc d1c0 4a3d e595 543d 7fd2 9dbc
000001c0: 03cf 893d 55a0 69bd 691e bf3d 2264 333d
000001d0: d97e 48bc ab46 773c 8723 f2bd cee7 aabd
000001e0: 6fbf 2c3d 60a9 7dbd 9f7d 84bd 600b 85be
000001f0: 5f5d 28bc 96a7 813d ddf0 9a3d c02c cc3c
00000200: bb80 d3bd 2011 5abe 989a 35bc 5a0c 52bd
00000210: 0ae9 573d 4013 8cbd fe03 b33c 0ddd d93c
00000220: 5b6b 513d e68b 2f3d 62aa a4bd e7af fabc
00000230: 300d 4ebd dbc7 82bd 3282 bfbd e439 dbbd
00000240: c8bd 6bbd 7697 40bd 9067 49bc 1c4c 12bd
00000250: 5ea8 47bd 18a4 133d 5131 803d 2e3a aebd
00000260: dc20 03bd 68f3 883d 18c6 3c3d f01b b4bd
00000270: 557d d5ba 2011 e7bc b9c0 1abb 78c2 a53e
00000280: f794 c83c 6bbd 92bd 78b7 f6bc 814e 723d
00000290: b21e 99bd 3e16 efbc 7fe9 483b cec5 7cbc
000002a0: d93c b63c 17e2 72bd 9668 e83c 0ba7 c83b
000002b0: d5fb 9fbc ca71 fdbc 6717 c73c 1a78 94bc
000002c0: ff61 f3bd 7963 ff3c 2214 c03c 5150 3a3b
000002d0: eed1 b53c 61f4 6dbd a92b a53c c2a4 51bd
000002e0: 875c bcbd 1903 563d ebef f4bd 06d1 863c
000002f0: 24fb 593d 15a8 57bc 4182 093d 0201 c03c
00000300: 204a a7b9 24e6 1fbd 63bc d1bc 6928 44bd
00000310: 4b27 223d 75d8 18bd 04ae babc e908 9bbc
00000320: a4c4 b1bb 9893 34be 92f5 41bc 9104 8ebc
00000330: f030 dabd 1c29 70bd cdde 85bd 5767 e8bc
00000340: 41da b1bd e8a2 2c3d 59f4 83bc 7065 36bd
00000350: 809c e7bc 641f f83c d04e 89be 3180 b3bd
00000360: 4c83 223d e129 e8bd 9ee1 343d 1def a13d
00000370: 4f35 033e 0703 f7bc 1218 903d bf99 59bd
00000380: 2528 93bc 92ab 6f3e 2ddd a5bd 0b28 15bd
00000390: 55a7 ec3c 0316 1bbe 0636 dc3d 59f5 643d
000003a0: c484 1a3d fcc6 b7bd 9f62 1ebb ba58 18be
000003b0: 3e07 92bd 5fed 99bd dd00 6e3c 35ae 7dbc
000003c0: 9487 5ebe b2fa 4dbc c59a 223d 0305 323c
000003d0: 497f d03c 6e7e 78be c9f7 c23c 818e 9ebd
000003e0: 2a49 033e 17d2 4d3d e081 913d 7da7 54bc
000003f0: 52a1 1e3d 863e ad38 d28e 9f3d 6b24 68bd

linear2.bias f4 [256]
-0.01425582 0.044068735 -0.05951049 0.07749025 0.06997751 -0.00465378 0.030000933 0.06451905
0.0954041 0.051879145 -0.026586603 0.065472975 -0.04537086 0.11692072 -0.0083297575 0.006993206
0.057978123 -0.035160396 0.023326594 -0.055239975 0.024042562 0.029986516 -0.0196547 -0.024226611
0.12119157 0.03808649 -0.037740953 0.019499559 -0.1158762 0.0396946 0.037836738 -0.020845208
0.07064766 0.076036096 0.07638618 0.024237016 -0.048393592 0.06181906 0.038975157 0.02907154
0.020002652 -0.012946658 0.05841109 0.039353132 -0.034798436 -0.14034007 0.056451943 -0.037006125
-0.022579346 -0.04584717 0.057435326 -0.054521497 0.035277136 0.107034445 -0.032324634 0.078112714
-0.031911828 -0.039851785 0.041988093 0.042288143 0.028937213 0.02362852 -0.04525924 -0.006199418
-0.015441144 0.039735697 -0.058037996 0.059167918 -0.012449341 -0.080138154 -0.020849084 0.038862236
-0.05755268 -0.028864361 0.0025926824 0.016652064 -0.026382333 -0.03651041 0.07359487 -0.037980326
0.10423807 0.0380396 -0.0465975 0.04684364 -0.058404166 -0.05028975 0.026353782 0.030894222
0.038937 0.050273627 -0.05786777 -0.036887527 -0.042217504 0.102762885 0.07113136 -0.1431438
0.07933426 0.06750208 -0.009100828 0.00043049656 0.10284166 0.095911816 0.019607687 0.02353551
-0.023487598 0.005966783 -0.05312977 0.09702574 0.0048273425 0.08142902 0.1010092 -0.029459825
-0.0423665 -0.041923434 -0.052917097 -0.015383069 0.05438447 -0.05358565 -0.016465276 0.020808037
0.026715228 0.07029244 0.009256635 -0.0012186589 0.04383039 0.06760602 0.037589625 0.08505802
0.101811245 -0.021698192 0.022039082 -0.060611315 0.00053321396 0.02070943 0.056348078 0.059689574
0.05508873 0.025274733 -0.030101411 0.013839827 -0.040031258 0.0024370668 0.026259698 0.021659665
0.102942504 0.09090468 -0.03733177 -0.025434382 0.045257613 0.06243336 0.023445845 0.07038625
0.0020677608 0.07838584 0.09998863 0.09109575 0.03135371 0.011332 0.051824685 0.103699185
0.03134113 0.092316374 0.04953464 0.09876788 0.047769316 -0.042029154 -0.055659626 0.0074693416
0.08104548 0.02621122 0.024955811 0.023856565 0.05029031 -0.06924799 -0.11523129 0.058126543
0.06862299 -0.009764843 0.009863312 -0.008958669 0.0016582732 -0.010996114 0.054567568 0.056779012
0.024754068 0.069417775 0.060329147 0.0407707 -0.014733982 0.06767277 -0.03801494 0.08219588
-0.05519563 0.06609071 -0.025132075 -0.004539324 -0.008383308 0.06777882 0.072773166 0.07901009
-0.05176775 0.015120809 0.014400548 0.022964975 0.04002206 -0.03918274 0.083530836 0.048365034
0.098742306 -0.044446364 0.06780373 0.09460272 0.008155599 0.06771315 0.090748414 0.042404283
-0.05189162 -0.041752685 -0.018669354 -0.009573292 0.016598968 0.056740686 0.068548545 0.010398225
-0.040107153 0.040925425 0.0855467 0.02613318 0.0010561844 0.085590094 0.03595525 -0.022820598
0.021750437 0.10256535 -0.023145955 0.030777121 0.067117445 -0.010907131 0.048087947 0.05215764
0.008598575 -0.019943813 0.037311483 0.009714143 0.06368699 0.06740403 0.0014592875 0.071442485
0.034194168 0.06085261 0.0047845803 0.0057633296 -0.00412608 0.068359405 0.039089303 0.078169614
00000000: 3e91 69bc 6b81 343d 46c1 73bd 35b3 9e3d
00000010: 5e50 8f3d bc7e 98bb 84c4 f53c 9022 843d
00000020: 3a63 c33d 3a7f 543d 26cc d9bc b216 863d
00000030: cbd6 39bd 2174 ef3d 8979 08bc 4427 e53b
00000040: 787a 6d3d 5904 10bd 6a17 bf3c 5043 62bd
00000050: e8f4 c43c 48a6 f53c e502 a1bc e376 c6bc
00000060: 4933 f83d 9400 1c3d 4296 1abd 8abd 9f3c
00000070: 8050 edbd ce96 223d b2fa 1a3d 92c3 aabc
00000080: b8af 903d d0b8 9b3d 5c70 9c3d b58c c63c
00000090: 5c38 46bd fc35 7d3d 6aa4 1f3d 7027 ee3c
000000a0: 9adc a33c 381e 54bc 7840 6f3d c030 213d
000000b0: ce88 0ebd 4fb5 0fbe 273a 673d bc93 17bd
000000c0: 52f8 b8bc 3eca 3bbd 4e41 6b3d ef51 5fbd
000000d0: c27e 103d e034 db3d d666 04bd 8ff9 9f3d
000000e0: fab5 02bd a03b 23bd b5fb 2b3d 5536 2d3d
000000f0: bc0d ed3c 9990 c13c c161 39bd 7d24 cbbb
00000100: dafc 7cbc e6c1 223d 40b9 6dbd 0f5a 723d
00000110: 52f8 4bbc 791f a4bd b3cb aabc 022e 1f3d
00000120: 5cbc 6bbd f474 ecbc fee9 293b e969 883c
00000130: c31f d8bc f18b 15bd e8b8 963d 4291 1bbd
00000140: c57a d53d 69cf 1b3d 05dd 3ebd 1edf 3f3d
00000150: 3539 6fbd a0fc 4dbd e3e3 d73c e115 fd3c
00000160: 677c 1f3d b8eb 4d3d c106 6dbd 6017 17bd
00000170: 43ec 2cbd 5975 d23d 52ad 913d 4a94 12be
00000180: 007a a23d 883e 8a3d a41b 15bc 45b4 e139
00000190: a69e d23d 6a6d c43d 4da0 a03c 8bcd c03c
000001a0: 1069 c0bc 0185 c33b 9a9e 59bd 6eb5 c63d
000001b0: af2e 9e3b 42c4 a63d e9dd ce3d bb55 f1bc
000001c0: 7f88 2dbd e8b7 2bbd 99bf 58bd 4509 7cbc
000001d0: 40c2 5e3d a07c 5bbd 30e2 86bc 9e75 aa3c
000001e0: e5d9 da3c 7cf5 8f3d 24a9 173c 68bb 9fba
000001f0: 7f87 333d 0675 8a3d 94f7 193d e632 ae3d
00000200: 6a82 d03d 68c0 b1bc 4e8b b43c 9243 78bd
00000210: 62c7 0b3a d3a6 a93c 3ecd 663d 0e7d 743d
00000220: b8a4 613d f50c cf3c 3c97 f6bc 71c0 623c
00000230: d1f7 23bd 32b7 1f3b 941e d73c 9c6f b13c
00000240: 85d3 d23d 3c2c ba3d 33e9 18bd c45b d0bc
00000250: 0c60 393d 1fba 7f3d 8011 c03c ab26 903d
00000260: 4583 073b c188 a03d d7c6 cc3d 6990 ba3d
00000270: bf6c 003d daa9 393c 1f46 543d 3d60 d43d
00000280: 8f5f 003d 5e10 bd3d d6e4 4a3d d046 ca3d
00000290: c2a9 433d c326 2cbd 59fb 63bd 61c1 f43b
000002a0: 2cfb a53d eab8 d63c 2170 cc3c d86e c33c
000002b0: 36fd 4d3d e4d1 8dbd 62fe ebbd 1916 6e3d
000002c0: 368a 8c3d b8fc 1fbc bb99 213c 62c7 12bc
000002d0: 6a5a d93a 0c29 34bc 3e82 5f3d 1c91 683d
000002e0: 0bc9 ca3c e82a 8e3d b21b 773d 2dff 263d
000002f0: cd66 71bc 0598 8a3d 8eb5 1bbd 5056 a83d
00000300: d014 62bd 915a 873d c8e1 cdbc 9cbe 94bb
00000310: 245a 09bc 9fcf 8a3d 190a 953d 0bd0 a13d
00000320: 6c0a 54bd 45bd 773c 47f0 6b3c 0b21 bc3c
00000330: 2cee 233d 157e 20bd 3712 ab3d 6a1a 463d
00000340: 6839 ca3d 640d 36bd afdc 8a3d 12bf c13d
00000350: 109f 053c 31ad 8a3d 4eda b93d 1db0 2d3d
00000360: 4f8c 54bd dd04 2bbd 79f0 98bc 4cd9 1cbc
00000370: 8ffa 873c ec68 683d 2e63 8c3d 515d 2a3c
00000380: 6647 24bd 6ba1 273d 1c33 af3d 4015 d63c
00000390: ab6f 8a3a dc49 af3d d045 133d 43f2 babc
000003a0: f92d b23c c80d d23d 969c bdbc 4d20 fc3c
000003b0: df74 893d d3b3 32bc def7 443d 40a3 553d
000003c0: 0ae1 0c3c 3561 a3bc edd3 183d 1228 1f3c
000003d0: 536e 823d 200b 8a3d 9045 bf3a 7050 923d
000003e0: 2f0f 0c3d 9640 793d f8c7 9c3b 50da bc3b
000003f0: 1134 87bb 0400 8c3d 1b1c 203d 6417 a03d

linear3.weight f4 [1, 256]
-0.23768802 -0.39445198 -0.0022697672 -0.19596975 -0.24436852 -0.10321029 -0.096849546 -0.19940238
-0.168446 -0.16333653 -0.09102739 -0.27586365 -0.13198583 -0.06971227 -0.18142535 -0.17671256
-0.26351404 -0.1878279 -0.1908433 -0.14273793 -0.0023908492 -0.116896346 -0.00047310608 -0.18722208
-0.21758664 -0.22359131 -0.15628721 -0.1157183 -0.046523776 -0.1633223 -0.22802375 -0.144268
-0.108553365 0.07633638 -0.16334417 -0.16370614 -0.16274007 -0.12699923 -0.11647842 -0.1735712
-0.33138046 -0.10983921 -0.22060266 0.074338004 -0.0011797296 -0.14814581 -0.16317564 -0.00093760405
-0.24816854 -0.0021838264 -0.22954926 -0.1569347 -0.12895004 -0.071666494 -0.119210266 -0.1569507
-0.1598327 0.0016633915 -0.19901586 -0.13995123 -0.1571162 -0.12863964 -0.107822016 -0.1782163
-0.002400786 -0.21923694 -0.00041140124 -0.24429964 -0.17646311 -0.17633404 -0.001105564 -0.23289578
-0.14093028 -0.1418566 -0.12763447 -0.19494104 -0.22114636 -0.11673043 -0.09478756 -0.15540232
-0.17886487 0.111812964 -0.00081091595 -0.23021655 -0.0017657365 -0.0019347836 -0.12658721 -0.1551018
-0.12921165 -0.000119284705 -0.21493931 -0.20647691 -0.28254095 0.0927916 -0.27581105 -0.066211306
-0.14939654 0.10949344 -0.0006786515 -0.033417016 -0.1758185 -0.17208968 -0.18588668 -0.10881622
-0.15346985 -0.15631613 -0.0003216828 0.14118795 -0.18495025 0.11175554 0.10871064 -0.0002481468
2.8412047e-05 -0.000104772065 -0.08962503 -0.118763864 0.0021328698 -0.0029790662 -0.2611581 -0.15600702
-0.13040929 -0.22242618 -0.1265498 -0.23072013 -0.096376546 -0.25662297 -0.18348852 -0.3011778
0.17601562 -5.1894673e-05 -0.15766782 0.00087398966 0.056200743 -0.09202366 -0.22916408 -0.20824736
0.17150797 0.0009599499 -0.074805886 -0.3812539 -0.093505554 -0.26002255 0.003764857 -0.27882287
-0.21273094 -0.22363584 -0.0005439831 -0.1933772 -0.18222395 -0.18376867 -0.20139141 -0.17260067
-0.10065378 -0.18183872 -0.22288923 -0.1298526 -0.26796663 0.17200267 -0.13983147 -0.2542644
-0.32073417 -0.31268555 -0.35935643 -0.25906575 0.18805298 0.0006915892 -0.15417533 -0.29426628
-0.26448202 0.08479818 -0.1803502 -0.39546773 -0.15514939 -0.093734525 -0.03846353 -0.14516933
-0.1479554 -0.24457178 -0.34958628 -0.2668148 -0.12711808 -0.16209163 -0.09932636 -0.3065025
-0.26353687 -0.1879003 -0.39828238 -0.1871188 -0.08146174 -0.15912627 -0.13978626 -0.16328987
-0.21179669 -0.16177052 -0.17134592 -0.12040577 -0.22671542 -0.17291586 -0.2089809 -0.18768385
-0.13770472 -0.15408728 -0.21427007 -0.21024373 0.10396427 0.0017868556 -0.22581431 -0.15526323
-0.22003302 -0.14959651 -0.14229223 -0.21658626 -0.0020391638 -0.15587956 -0.24536677 -0.16476816
-0.012496324 -0.100429766 -0.17112213 -0.18293303 -0.20799685 -0.16862412 -0.21092862 -0.07589961
-0.16188045 -0.28523514 -0.16704735 -0.2724267 -0.10426734 -0.1252495 -0.1666747 -0.20879398
-0.00086158747 -0.07543825 -0.17863338 -0.12925869 -0.1741381 -0.18006113 -0.18312585 -0.26112482
0.07786039 -0.25773162 -0.13831256 0.0018780224 -0.1710444 -0.14681596 -0.1910184 -0.16716465
-0.14771664 -0.04704044 -0.13995577 -0.0028016192 -0.18542911 -0.20084175 -0.25691834 -0.12588346
00000000: 7d64 73be 9cf5 c9be 60c0 14bb 4bac 48be
00000010: be3b 7abe eb5f d3bd 0e59 c6bd 2330 4cbe
00000020: 1c7d 2cbe b141 27be 916c babd 003e 8dbe
00000030: 4b27 07be 4ec5 8ebd 91c7 39be 23f4 34be
00000040: 50eb 86be f555 40be 6d6c 43be e429 12be
00000050: cbaf 1cbb 5a67 efbd 390b f8b9 25b7 3fbe
00000060: 08cf 5ebe 1ff5 64be c109 20be b7fd ecbd
00000070: b78f 3ebd f63d 27be 0f7f 69be feba 13be
00000080: 3a51 debd 3f56 9c3d b243 27be 95a2 27be
00000090: 55a5 26be 160c 02be 3d8c eebd a6bc 31be
000000a0: b3aa a9be 61f3 e0bd aae5 61be 863e 983d
000000b0: 28a1 9aba 89b3 17be 8417 27be 8bc9 75ba
000000c0: e51f 7ebe 871e 0fbb f60e 6bbe 7db3 20be
000000d0: 7b0b 04be e2c5 92bd 8324 f4bd afb7 20be
000000e0: 2fab 23be 2806 da3a d0ca 4bbe 604f 0fbe
000000f0: 12e3 20be 1cba 03be cad1 dcbd 557e 36be
00000100: 8156 1dbb a67f 60be 57b1 d7b9 af29 7abe
00000110: bfb2 34be e990 34be 92e8 90ba 3b7c 6ebe
00000120: 0750 10be db42 11be 9cb2 02be a09e 47be
00000130: 3174 62be 5d10 efbd fb1f c2bd c921 1fbe
00000140: 5a28 37be 32fe e43d a693 54ba e3bd 6bbe
00000150: 4970 e7ba 9198 fdba 14a0 01be 02d3 1ebe
00000160: 0f50 04be 7d28 fab8 0d19 5cbe af6e 53be
00000170: 35a9 90be 8609 be3d 1b37 8dbe cb99 87bd
00000180: 68fb 18be 193e e03d 88e7 31ba 48e0 08bd
00000190: c409 34be 4738 30be 1459 3ebe 0adb debd
000001a0: 3327 1dbe 5611 20be 89a7 a8b9 9393 103e
000001b0: 9963 3dbe 17e0 e43d afa3 de3d b319 82b9
000001c0: 6856 ee37 13b9 dbb8 548d b7bd 783a f3bd
000001d0: 9ec7 0b3b 703c 43bb 84b6 85be 4ec0 1fbe
000001e0: 038a 05be b0c3 63be 4596 01be e641 6cbe
000001f0: 1161 c5bd 1664 83be 6ae4 3bbe fa33 9abe
00000200: 703d 343e 7ba9 59b8 ac73 21be 741c 653a
00000210: c032 663d e776 bcbd fda9 6abe cc3e 55be
00000220: c99f 2f3e 26a5 7b3a d433 99bd b633 c3be
00000230: d77f bfbd ad21 85be d2bb 763b dfc1 8ebe
00000240: 24d6 59be cb00 65be 169a 0eba ac04 46be
00000250: ea98 3abe db2d 3cbe 8d39 4ebe 3bbe 30be
00000260: 9223 cebd ee33 3abe 133d 64be 14f8 04be
00000270: ec32 89be 7821 303e fb2f 0fbe f22e 82be
00000280: 4537 a4be 5218 a0be 91fd b7be 44a4 84be
00000290: f690 403e c44b 353a 23e0 1dbe 12aa 96be
000002a0: 306a 87be abaa ad3d b9ad 38be bf7a cabe
000002b0: 7bdf 1ebe e3f7 bfbd ef8b 1dbd 45a7 14be
000002c0: 9f81 17be 0671 7abe f9fc b2be f39b 88be
000002d0: 3e2b 02be 59fb 25be 9e6b cbbd e5ed 9cbe
000002e0: 4eee 86be f068 40be abeb cbbe 129c 3fbe
000002f0: 6ad5 a6bd fff1 22be 2124 0fbe 7635 27be
00000300: 3be1 58be 2ca7 25be 4e75 2fbe 4d97 f6bd
00000310: 1628 68be db10 31be 17ff 55be 3230 40be
00000320: 7702 0dbe 0ec9 1dbe 9d69 5bbe 224a 57be
00000330: 38eb d43d ed34 ea3a de3b 67be 53fd 1ebe
00000340: 5650 61be d42f 19be 0eb5 11be cac8 5dbe
00000350: 7ea3 05bb e49e 1fbe 6d41 7bbe fcb8 28be
00000360: 62bd 4cbc 1fae cdbd a43a 2fbe cc52 3bbe
00000370: 20fd 54be cdab 2cbe acfd 57be 4171 9bbd
00000380: fdc3 25be 570a 92be 760e 2bbe 837b 8bbe
00000390: 1d8a d5bd 6841 00be c6ac 2abe 17ce 55be
000003a0: 28dc 61ba 5f7f 9abd abeb 36be 645c 04be
000003b0: 4251 32be f261 38be 5885 3bbe 27b2 85be
000003c0: 4575 9f3d 66f5 83be cfa1 0dbe fa27 f63a
000003d0: 4326 2fbe ec56 16be 549a 43be 362d 2bbe
000003e0: 0843 17be 7aad 40bd 9150 0fbe 5f9b 37bb
000003f0: 21e1 3dbe 76a9 4dbe cd8a 83be 98e7 00be
