benchmarks/CartPole-v1/Test_CartPole-v1_TRPO_20230423-103844/models/actor.pth (torch, 71511 bytes, 6 tensors)

fc1.weight f4 [128, 4]
00000000: e724 6f3e d963 8bbe aaf5 7bbd 3c12 b83e
00000010: e1b2 1dbf cfc1 863e 29a7 85bc 5729 803e
00000020: f7b7 7e3d ab02 9ebd 296f 2a3e 4d90 5d3d
00000030: 30ff 3a3e e486 47be 3051 15bd 4060 38bd
00000040: f270 963d 0a18 4b3c 3787 df3e 7975 0c3e
00000050: 08ac 3ebe 369d 9abe 70a3 abbd b0d8 5cbe
00000060: bae8 dbbd 84b4 62bd 880f 8b3e 9db7 e63e
00000070: a254 06bf f4f1 fa3e 39a1 943e 7722 b63e
00000080: aef9 a83e 5240 e9be 2e68 f3be 3cf4 76be
00000090: 6919 df3e 29c1 04be ce99 5c3e dc7a 36be
000000a0: 2862 f43e 0d2b 50be 2dd7 d53e 2930 513b
000000b0: 1fc1 87be 58cc 633e b89f 87be c75c 3f3e
000000c0: e15f c8bd 102d c83d 2286 ecbe 4e72 bfbe
000000d0: c06d 9e3e 5c4a d0bd 14b8 ed3e ff4d b33e
000000e0: a4b9 cb3b e289 9fbe d402 a33e 5111 173e
000000f0: 27d5 a0be a561 cc3e b191 dc3e 9968 e73e
00000100: c82b 95be d5db bebd bcad e93b 5641 683e
00000110: 6b76 c1be 9a27 b7be b3a9 8a3e b371 e6bd
00000120: 6075 563e 3901 a23d 5b64 883e d01c a83d
00000130: 3bfe 003e f967 cdbb 059b 14bf f3bb 013f
00000140: e3ea c5be 529a b6be 965e 5f3d e435 1bbe
00000150: b97d b23e 98ad 2bbe 9862 10bf 9c73 813e
00000160: 2e58 b0bd a628 9b3e e8de 2d3e 173a c4be
00000170: 328d af3d e1af 3d3d 5c36 a4be 273f 0bbe
00000180: 5081 213e e276 c23d 0782 95be 49bd 7cbe
00000190: 9684 f33e 33e6 05be 95c3 a43e 7b9e 8d3e
000001a0: afb0 abbe f68d e7be 5267 f83e 7b89 253d
000001b0: f0f2 9d3e ec1f 183e 3994 883e af21 c13e
000001c0: f770 e23e ecce bcbe cd3f ed3c 6cd1 d53e
000001d0: b2a8 ca3e 3210 a93e 2692 b6be 4549 b8be
000001e0: 0a64 a7be 55ad f93d 5c05 0a3f a789 93be
000001f0: 21aa 8b3e d968 8cbe c5d2 edbe e9d0 06be
00000200: e610 933e e027 003f 1d52 93be 8db8 e23d
00000210: 0ece d13e 07e5 b73e 3732 cb3e 656a ad3e
00000220: d45a b53e fa7c 1a3e 3604 b7be 0ead f6be
00000230: 7e6b 58be 52c0 b93c c427 adbe 4f58 e53d
00000240: c307 3c3e 0924 58be baef 423e 6c10 a33e
00000250: abf2 a33e c538 6e3e ee26 73be 9eeb 053f
00000260: ec13 66bc 7fe8 52be 8523 42bf 6967 fbbe
00000270: d8cb 9ebe 9be2 e3be 2cbe ad3e 0a1b 2f3d
00000280: 84f2 e8be 5c89 4b3e 30f1 913e ebba 9c3e
00000290: 9dad 87be 8ddf a53d df5b 36be 346d a6bd
000002a0: b5c6 c4be 334d 10be 71e1 2dbe f9bc b63d
000002b0: 564f a13d fac3 7d3e 7077 253f 0d0c d83e
000002c0: 1470 9e3e 9734 1cbd c914 8cbe af92 033f
000002d0: a033 fabd a4bf 83bc d062 dcbe 63a5 f1bd
000002e0: 0478 9cbe e7f7 eb3e 88c1 e7be 2dd3 d5be
000002f0: c015 8bbc 546c 8abe 1833 373e f814 45be
00000300: f7fa 77be 5b36 0fbc 1c82 ba3e 40cf 9cbe
00000310: b1b8 8e3e fa37 ec3e ecfe 0e3f b71b a9be
00000320: 00e3 913d 1e4c f4be 426f eb3e 108b a8bd
00000330: a742 9e3e fb15 b13c 2f34 22bd be8b aabc
00000340: 507c 6c3d c87b 523e cd18 2a3e c4e0 6d3e
00000350: fb11 e0be 509a c23e 8c53 e03e 8eec ae3e
00000360: 344d ba3e c7a6 c7be 5503 39be 547e e33e
00000370: 505d b7be a1c9 f53e 594b c7be a148 c5be
00000380: dc35 843e d56a a7be 1f8f 25be 27fd a83e
00000390: 1275 013f 4037 e93e 87ce 6bbe 4ee2 f6be
000003a0: 5e6c 023f 4866 abbd a2f1 aebe 37b3 5e3c
000003b0: 8948 cebe 1096 d43e 680a c63e 6f16 9bbe
000003c0: 7645 d2be c065 33bd 940d 573e 0042 6dbc
000003d0: 271b 8abe 0e22 893b 3177 e6be 9c46 a7be
000003e0: 475c 94be b327 133f ca45 ee3e e694 4bbe
000003f0: 7db4 d73b 282d 533e 9fed bd3d 6994 2abe
0.23353921 -0.27224615 -0.06151358 0.35951412 -0.6160107 0.2631974 -0.01631506 0.2503154
0.06218716 -0.077153526 0.16643967 0.054092694 0.18261409 -0.1948505 -0.03645438 -0.045013666
0.07345761 0.012395868 0.43657848 0.13716687 -0.18620312 -0.30198067 -0.083807826 -0.21567035
-0.107377484 -0.055347934 0.27160287 0.4506196 -0.5247289 0.4901272 0.29029253 0.3557317
0.3300299 -0.45556885 -0.4754042 -0.24116606 0.43574074 -0.1296431 0.21543047 -0.17820305
0.47731137 -0.20328923 0.4176573 0.0031919575 -0.26514527 0.2224592 -0.26489043 0.18687735
-0.097839125 0.0977422 -0.46196085 -0.37391895 0.30943108 -0.10170433 0.46429503 0.35020444
0.0062171984 -0.31159884 0.31838095 0.147527 -0.31412622 0.39918247 0.43079904 0.4519699
-0.29134965 -0.093192734 0.0071313065 0.22681174 -0.37785658 -0.357724 0.27082595 -0.11252155
0.20943213 0.079103895 0.26639065 0.082086205 0.12596981 -0.006268498 -0.5804904 0.5067741
-0.38655767 -0.35664612 0.054533564 -0.15157276 0.34861544 -0.1676544 -0.5640044 0.25283515
-0.08610569 0.3030445 0.16979563 -0.3832557 0.08571853 0.04631031 -0.32072723 -0.1359831
0.15771985 0.09495331 -0.29200765 -0.24681582 0.47562093 -0.13076095 0.32180467 0.27659974
-0.33533236 -0.45225495 0.48516327 0.040414315 0.3084941 0.14855927 0.26675585 0.3772101
0.4422681 -0.3687662 0.028961087 0.4176134 0.3958183 0.3302017 -0.35658377 -0.359934
-0.3269351 0.121912636 0.5391443 -0.28815958 0.27278236 -0.27423742 -0.46449867 -0.1316563
0.2872383 0.50060844 -0.28773585 0.110703565 0.4097752 0.35916921 0.39686748 0.33870235
0.3542086 0.15086737 -0.357454 -0.48178905 -0.21134755 0.022674713 -0.338194 0.11198484
0.18362336 -0.21107496 0.19036761 0.31848466 0.32021078 0.23263843 -0.23745319 0.5231265
-0.014042836 -0.20596503 -0.7583545 -0.49102333 -0.31014895 -0.44508824 0.33934152 0.042750396
-0.45497525 0.19876617 0.28504324 0.30611357 -0.26499644 0.080992796 -0.17808484 -0.081262976
-0.3843285 -0.14091949 -0.1698053 0.089227624 0.0787646 0.2478179 0.6463537 0.42196694
0.30944884 -0.03813609 -0.27359608 0.51395696 -0.12216878 -0.016082592 -0.43044138 -0.11799123
-0.30560315 0.46087572 -0.4526484 -0.41762677 -0.016978145 -0.27035773 0.17890584 -0.1924628
-0.24216829 -0.008740987 0.3642739 -0.3062687 0.27875283 0.46136457 0.5585773 -0.33028957
0.07123375 -0.47714323 0.4598332 -0.08229649 0.30910227 0.021616926 -0.039600547 -0.020818587
0.05773574 0.20555031 0.16611023 0.23230273 -0.43763718 0.38008356 0.4381374 0.34164852
0.36387026 -0.3899443 -0.18067677 0.44432318 -0.3581338 0.48005393 -0.38924673 -0.38531974
0.2582234 -0.32698694 -0.16167878 0.3300564 0.5056926 0.45549965 -0.23028003 -0.48219532
0.50946605 -0.08369118 -0.34168726 0.013592533 -0.40289715 0.4152074 0.38679814 -0.30290553
-0.4106862 -0.04379821 0.21001273 -0.014481068 -0.2697384 0.004184968 -0.4501281 -0.32671058
-0.28976652 0.5748245 0.4653762 -0.19881019 0.006582795 0.20622694 0.09273838 -0.16658176

fc1.bias f4 [128]
00000000: f0c1 86be f985 343e ca69 823e fc92 fbbe
00000010: 0d39 cbbe e6cc a8be a70a 26be 1be8 3f3f
00000020: b825 fdbe 4c2f c8be 1cee 5c3e f90f 38be
00000030: 3944 9ebd 3db3 f4be d1ed 723e 648d 6a3e
00000040: 5e5b 4b3d 9bf3 9dbe 2177 1c3e 5d83 3c3e
00000050: 2519 093e 7531 143f e9a9 9fbc c639 f0be
00000060: cc92 fd3e 9ceb a03c 3a0d a8be 446d e43e
00000070: 390b 473e 25ee c3be 3d75 3fbe 5d6b 29be
00000080: 378b 7abe 8187 943e dce5 92be 172c 073f
00000090: 5536 c03d e9a1 953e 1515 193f ceef 80be
000000a0: 2415 a13e 1a23 d0be 8a77 c0be 9217 ad3e
000000b0: 28fb 9c3e eda0 4fbe 32b3 9bbe 386f a3be
000000c0: da03 94be 558a 843d 1272 6bbd 475d 8ebe
000000d0: ee9f 3c3e 4290 b9be 5064 9bbe 4b69 76be
000000e0: bca4 2c3d 2ddf e63d df6b cc3e 369a a4bb
000000f0: d462 cfbe d915 c9be c568 88bc 1e19 8fbe
00000100: 8ddc 0c3e c626 a1be fc7e 6bbd ac39 4dbe
00000110: 0f0c c93e f06d ea3b 0bf3 cdbe 2819 0a3f
00000120: 630b 8a3d 50c8 c4be ac86 e7bd 336b 963e
00000130: eabe 043e 8711 043f 9cfd 783e 40fb af3e
00000140: e97d f93e 4388 953e 2248 7ebe c2a1 e93e
00000150: da9e a83c cf2a 133d 3be7 c8be e7af 1c3f
00000160: 6169 623e d48c 9b3d b702 153f 32de fcbd
00000170: 5323 b7bd ad4d e9be f6a6 943e 55be 403e
00000180: 2eb9 98be d134 5f3e 3634 85bd 4456 52be
00000190: a2e0 6dbd fcd3 d83e 1228 593e 434f a53e
000001a0: f84d 633e bd7f 753e ef0d e83e 2c60 eebc
000001b0: b2dc 243e 3486 88be 07f6 c33e 748f 1f3e
000001c0: 140b ea3e 4d00 8a3e 3761 e5bd 47b8 9e3e
000001d0: 3d96 35be 5217 ff3e 8d8e cc3e 7432 25be
000001e0: e29a d93c 06b6 3dbe 55f1 16be 0658 2fbe
000001f0: 8e60 a03d 2f2f 3dbe 5ece f5be 8d77 62be
-0.26319838 0.17629232 0.25471336 -0.49135578 -0.39691964 -0.32968825 -0.16215001 0.7496354
-0.4944284 -0.39098585 0.21575207 -0.17974843 -0.07727856 -0.47792998 0.23723532 0.22905499
0.04964768 -0.3084992 0.15279819 0.18409486 0.13388498 0.57887965 -0.0194902 -0.46919078
0.4952606 0.019643597 -0.3282259 0.44614613 0.19437875 -0.38267627 -0.18697067 -0.16544862
-0.24467169 0.2900963 -0.28690994 0.5280165 0.09385363 0.2922509 0.59797794 -0.25182956
0.31461442 -0.4065178 -0.375912 0.33807045 0.30660367 -0.20276232 -0.30410153 -0.3192079
-0.28909189 0.06471697 -0.057481833 -0.2780554 0.18420383 -0.36242872 -0.3034997 -0.24063604
0.04214929 0.11273036 0.3992605 -0.005023266 -0.40505087 -0.3927448 -0.01665152 -0.2794885
0.13756008 -0.31474894 -0.05749415 -0.20041531 0.39267012 0.007154219 -0.4022449 0.53944635
0.06740453 -0.38434076 -0.113049835 0.29378662 0.12963453 0.51589245 0.24315494 0.34371376
0.48728874 0.29205522 -0.24832204 0.45631224 0.020583559 0.035929497 -0.39238915 0.61205906
0.22110511 0.0759522 0.5820727 -0.12347068 -0.089422844 -0.45567074 0.2903363 0.18822606
-0.2982878 0.21797492 -0.06504099 -0.2054072 -0.058075555 0.4234923 0.21206692 0.32287034
0.22197711 0.2397451 0.4532313 -0.029098593 0.16099814 -0.2666489 0.3827364 0.15582067
0.45711577 0.26953354 -0.11200183 0.30999967 -0.17733093 0.4982248 0.39952508 -0.16132528
0.026563112 -0.18526468 -0.14740498 -0.17123422 0.07830916 -0.1847503 -0.48009008 -0.22115918

fc2.weight f4 [128, 128]
00000000: 70b1 75bd e30d 2cbd ed00 8a3d 9024 933d
00000010: b95e 903d 4c3b 203d 4a76 1dbd bc8b c23c
00000020: 1d84 9fbd 8d6f ebbc c8f4 76bd fad2 043d
00000030: ec55 60bd 7b68 e4bc da76 b2bc 554c 9bbd
00000040: cbe3 19bd 1cff c23d 4fc6 1dbd c000 aa3d
00000050: b8f2 31bd 3c40 433e a046 c9bd 7cd4 90bd
00000060: df97 a83d 0d9a 47bd 9b32 a73d f250 bdbd
00000070: 8ad4 85bd ec6a 8fbd 68d6 d63b ecbf 4bba
00000080: 3857 b6bd 6975 8cbd c8d8 3ebc c444 bc3d
00000090: f14a 5bbd 2ea5 5fbd 2a82 2d3e 9f5b 02bd
000000a0: 95b7 143d 6937 9c3d 5783 39bd 0d94 aebd
000000b0: e334 313d 40e4 8dbd 5637 7ebc 06d9 16bd
000000c0: 0e87 e6bc 78b7 31be 60f0 523d 7d83 70bd
000000d0: 05f0 d2bd 6b0d d63c 3f62 bdbd 0515 e7bd
000000e0: 7105 d63c 0f09 c1bd 0dd6 b93d 920a d8bc
000000f0: cbe5 66bd fbb3 1fbd d36e 28be 5d11 033d
00000100: 8a5f 89bd dce6 7abd 9e56 a83c 2875 993d
00000110: 45dd 08bc a1e0 4fbd 94ad 053d a580 883d
00000120: 2488 a93c 58ba 8cbd 5b26 0cbd 39e8 6c3c
00000130: d0e0 5d3c 90cb 583b fdae 4fbd 3212 f1bd
00000140: 9075 ca3d 4c95 a33d a3f2 2e3d ec42 04bd
00000150: f0f4 5b3d 10f5 643d bdae a83c 9cdc 8bbc
00000160: 1054 083d d6eb a4bd 0656 083e b235 2d3e
00000170: 3981 2bbd 5cfc 23bd ddec 9dbc 1f9c c33d
00000180: c8f7 4d3d 0c8f 10bd dc78 163d 4de9 3cbd
00000190: 9325 19be 8175 1c3d 8561 6d3d 5187 443d
000001a0: d121 0cbe be76 0d3c e0a3 ac3b e0d9 453d
000001b0: 1261 25bd 2b37 2b3d a94e 7f3d 2b26 823d
000001c0: 4b3c e73d ba44 8dbd 94b7 06bd fcf6 b83d
000001d0: 66a5 8d3d fef9 e93d 3ecb 16be f135 35bd
000001e0: 7220 83bd 4534 e7bd 2c44 8a3c ec2c b3bd
000001f0: d96c d1bc 3fa8 713c 38f6 73bd 5a19 203d
00000200: 8f8a 73bc 5850 013d 9f77 92bd ead9 473c
00000210: 67d9 a4bd 269b 603d e18f ac3d 52bb 1dbd
00000220: 8f23 563c ad86 3abd 316d 75bd 4b5b 37bd
00000230: 5f79 2cbd 8385 a83c 8687 67bc 7b0c cb3b
00000240: 2fc6 8ebd 4f74 63bd 8d8d 9fbd 8044 84bd
00000250: 80c6 8e3d 96ed e13c 51a3 acbd ffb3 71bc
00000260: a2fb 8c3a dfda 403d e0a4 9c3d 0194 833c
00000270: df9c 693d 4fd4 00bd b944 3dbb e998 5abd
00000280: 55ce a63c b3a6 a23d 445a 633d 9392 a63d
00000290: a358 1abd 4191 65bc a15b 953c 566a 923d
000002a0: 81fe aebd 1bcd 31bd b134 803c 924e 54bd
000002b0: e98c e03c ad74 c5bb f2a0 bbbc 152a 423d
000002c0: 915e 813d 5013 b03d f027 253d a269 1ebb
000002d0: 2fc6 913d 7a2f 923d 5e76 2cbd 62e8 243d
000002e0: f130 f33b 8776 1cbd 1088 d6bc 76fa aabc
000002f0: 5758 7dbd d4f4 dcbc 46a8 f33c b4e3 843d
00000300: 2401 dc3b 50b2 aabd 4c8a 2a3d d7bf d4bc
00000310: 923a a43d 5e96 b2bd 7008 a7bc a71d 7a3d
00000320: 459e 1c3d c19f 34bd f6be 9cbd c762 a7bb
00000330: 9cbf f13c 76f9 93bd 447a 97bd c2bc 97bb
00000340: 1a9f c7bc 6d57 5b3d 8277 aebd ae52 abbc
00000350: 8f92 90bd 7566 63bc 4bf9 38bd 7328 a23c
00000360: 4488 a1bd a066 8ebd 351e 6ebd 56b3 9dbd
00000370: 9197 6f3d a3b5 4dbc 3122 52bd 36be 613d
00000380: bc46 a4bc 58be 293d 91e8 e7bc e3ad 93bd
00000390: f706 9f3c af11 5e3d 8bb5 b4bd 06ed 653b
000003a0: 1251 903c 86a6 043c 90ff e5ba 9ec5 dfbc
000003b0: 2488 8cbd 5991 853c 25e8 80bd a3c6 97bd
000003c0: 0a44 0ebd ba9d 88bd a6b2 dd3c 12e3 683d
000003d0: c8ae 8c3d 4579 7bbd abf6 353d 7ea2 803d
000003e0: f4ef 53b9 9bfd 1d3d 3fdb 4c3d 654d 893d
000003f0: b599 3b3d 1554 1a3d 5669 09bd bd27 49bd
-0.05998367 -0.04200543 0.06738458 0.07184708 0.07049317 0.03911905 -0.038442887 0.023748271
-0.077888705 -0.028739715 -0.060292035 0.032427765 -0.05476944 -0.027881851 -0.021785188 -0.075829186
-0.037570756 0.095213145 -0.0385192 0.08300924 -0.043444365 0.19067472 -0.09827924 -0.07071778
0.08232092 -0.0487309 0.08163949 -0.09243955 -0.06534679 -0.070028156 0.006556321 -0.0007772434
-0.089033544 -0.06858332 -0.011648364 0.091928035 -0.053538267 -0.054600887 0.16944185 -0.031825658
0.03630789 0.07627756 -0.04529127 -0.08524332 0.043263327 -0.06928301 -0.015516123 -0.036828063
-0.028140571 -0.17355144 0.05149877 -0.058719147 -0.10299686 0.026129445 -0.092472546 -0.11283306
0.026125642 -0.09425556 0.0907403 -0.026372228 -0.05637149 -0.038990002 -0.16448526 0.03199898
-0.06707676 -0.06125532 0.020549115 0.07493049 -0.008353536 -0.050751332 0.03263624 0.06665162
0.0206948 -0.0687148 -0.034216266 0.014459663 0.013542369 0.0033080317 -0.05070399 -0.117710486
0.098857045 0.079874605 0.042711865 -0.032290384 0.053700387 0.055897772 0.020591134 -0.017072968
0.033283293 -0.08052795 0.13314065 0.16915014 -0.041871283 -0.04003559 -0.019277984 0.09551262
0.05028513 -0.03529267 0.036736354 -0.04612093 -0.1495574 0.038197998 0.05795433 0.04798061
-0.13684775 0.008634267 0.005268559 0.048303485 -0.040375777 0.04180066 0.062330876 0.06354936
0.11290797 -0.06897874 -0.032889917 0.090314835 0.06916313 0.11424635 -0.14725968 -0.044240896
-0.06402673 -0.112892665 0.01687821 -0.087488025 -0.025564598 0.014749586 -0.059560984 0.039086677
-0.014864578 0.031570762 -0.07151722 0.012197951 -0.08049279 0.05483546 0.0842588 -0.03850872
0.013070001 -0.045538593 -0.059918586 -0.044764798 -0.042107936 0.020571476 -0.014131432 0.006196556
-0.06971394 -0.055530842 -0.077906705 -0.06458378 0.069714546 0.02757911 -0.08429588 -0.014752387
0.0010756145 0.04708373 0.07648635 0.016061785 0.05703437 -0.031452473 -0.0028880073 -0.053368483
0.020362059 0.079419516 0.055506006 0.081334256 -0.037682187 -0.014011682 0.018232169 0.07149188
-0.085446365 -0.043408494 0.015650125 -0.051832743 0.027410941 -0.0060258717 -0.022903893 0.047403414
0.06316865 0.085974336 0.04032129 -0.0024171849 0.07117879 0.07137962 -0.04210507 0.04026068
0.0074216058 -0.038198974 -0.026187927 -0.020871382 -0.061851826 -0.026972212 0.029743325 0.064887434
0.006714003 -0.08334792 0.041635796 -0.025970383 0.08018984 -0.087200865 -0.020389766 0.061063435
0.038236875 -0.044097666 -0.076536104 -0.0051082107 0.029510312 -0.07225315 -0.07396367 -0.004630656
-0.024367858 0.053550173 -0.08518888 -0.020913448 -0.07059204 -0.013879408 -0.04515962 0.019794678
-0.07887319 -0.06953168 -0.058134276 -0.07700221 0.058494154 -0.012555513 -0.05130214 0.05511304
-0.02005326 0.04144129 -0.028309138 -0.07210901 0.0194125 0.054216083 -0.08823689 0.0035083904
0.017616782 0.008096343 -0.0017547477 -0.02731591 -0.06861904 0.016304659 -0.06294278 -0.07410934
-0.034732856 -0.06670709 0.027062725 0.056857176 0.068692744 -0.06139495 0.044424694 0.06280993
-0.00020211918 0.038571935 0.050013777 0.06704215 0.045800883 0.037677843 -0.03354772 -0.049110163

fc2.bias f4 [128]
00000000: 2bf1 793d 71f7 89bd 30e7 28bd b27b 00be
00000010: 83b3 363d 4b8b 3bbd 1ecc 2cbd 14c0 a73d
00000020: c3cb 443c d141 093d 1f5d 433d 03eb 6dbb
00000030: 310a 083d 68a3 cf3d d43b fc3c f9b4 603d
00000040: 35c9 1d3c 6ceb cdbd 6de2 85bd 03b3 0abc
00000050: c1bb 923d 549c 443b f388 85bd 3729 873d
00000060: a281 613d 3f71 eb3c 883f 46bb a85e 433b
00000070: b216 083c f8a3 473d e71f 23bd a847 d33c
00000080: 8db2 8a3c cc44 66bc de66 debc 5e6a afbc
00000090: 48a6 82bd 1b0b 46bd 527f cebc 8420 103e
000000a0: 88f7 903b a0a8 d5bd 5776 aebc 5f41 88bd
000000b0: a1be fdbd 44e3 e93c 9c9e 143d 5c3c a03d
000000c0: 425b c23d 29fc ce3c d671 c5bc 2517 7abc
000000d0: 9cef 7dbc 2c5a 8d3b 2647 a2bc dc9c 353d
000000e0: 0039 17bd 78b6 9abb 865f a83a 46b6 adbd
000000f0: 9a3a d33c d703 68bd c0ab af3b 630f 283d
00000100: 4d26 bcbc f7e6 a8bd 088f 873d 322e f23c
00000110: 0ea0 203e 0883 33bb 76ee 0c3b b267 d43d
00000120: f06e bcbd db70 67bd 990e 10bd fe04 933d
00000130: 92d2 a03d 04d7 b6bc 080b f2bc 2f7e 86bd
00000140: 165c de3d 0c85 e9bb cf23 f63c c2ca 443d
00000150: 68b8 d4bc 8050 fab9 d5fd 49bd ac1b 7bbd
00000160: 9d20 613d f8c0 0a3d 45da bf3c d3aa b9bd
00000170: a208 bc3c 3d59 cdbb a117 913c 398f 28be
00000180: 4bab db3d 7e68 623d 4ad9 babc 2c53 3fbd
00000190: 9108 9dbd 5060 72bb 7ab6 18bd c803 a2bd
000001a0: 9059 863e 24e5 09bd 64de 87bd 5bc5 28bd
000001b0: 345b c73d bac8 863c 71f7 563d bd4a 6b3d
000001c0: 05df 5a3d 01e6 c33c 33df 6dbd 255a e33c
000001d0: 8d5c 13bc dd48 f03b 42d1 e93c c9d9 8f3d
000001e0: 17b3 cdbc 01f3 91bd 43e8 14bd 1630 813d
000001f0: 4198 1b3d ecbd 95bc 9a68 dd3d 68be 8d3d
0.06102101 -0.06736649 -0.041236103 -0.12547186 0.04460479 -0.045787137 -0.04218685 0.08190933
0.012011471 0.033510033 0.04769623 -0.0036303408 0.033212844 0.10138589 0.030790247 0.05486009
0.009630491 -0.10054669 -0.06537328 -0.008465531 0.071647175 0.0030000405 -0.065202616 0.06599658
0.055055268 0.028740523 -0.003025027 0.0029811058 0.008306192 0.048740357 -0.039825346 0.025791004
0.016930843 -0.014054488 -0.02714866 -0.021413025 -0.06379372 -0.048350435 -0.025207195 0.14074904
0.0044240393 -0.10432553 -0.021296663 -0.066530935 -0.12389875 0.028550752 0.036284074 0.07824013
0.09490062 0.025266724 -0.024102133 -0.015264307 -0.015499022 0.004313728 -0.019809317 0.044339046
-0.036919594 -0.004721459 0.0012845851 -0.084820315 0.02578478 -0.056644287 0.0053610504 0.0410303
-0.022967482 -0.08247178 0.06619078 0.029563043 0.15686056 -0.0027391333 0.0021504438 0.10371341
-0.09200847 -0.05650411 -0.03517017 0.071786866 0.07852663 -0.022319324 -0.029546276 -0.06567036
0.10857408 -0.007126456 0.030046372 0.048044927 -0.025966838 -0.00047743693 -0.04931434 -0.061305687
0.054962743 0.033875436 0.023419509 -0.09065785 0.022953335 -0.0062667415 0.017711462 -0.16460885
0.10726031 0.055275433 -0.02280869 -0.04671018 -0.076676495 -0.0036983676 -0.0372834 -0.079108775
0.26240206 -0.03366579 -0.066342145 -0.041203838 0.097341925 0.016453136 0.052482072 0.057444323
0.053435344 0.023913385 -0.058074187 0.027752945 -0.008994234 0.0073329047 0.028542165 0.07023961
-0.02510981 -0.071264274 -0.036354315 0.06308 0.037986998 -0.018279038 0.10810967 0.06921083

fc3.weight f4 [2, 128]
00000000: e6e7 933e fff3 8f3d 0572 a23d 17b8 f73d
00000010: 5ecb cbbe f9a5 fabd 6f23 393d 268b d8bd
00000020: 9109 b53d 732d 143a d213 553e ae6b 20bc
00000030: bfb9 943d b17a 65bd a704 6a3c cc28 543e
00000040: e22e a43d 3d91 833d 4397 68bc e6f6 623e
00000050: 6fe6 8f3d aa71 9f3d 1233 1dbd bfe3 ebbb
00000060: 8426 39bd 31e4 463e d257 89bd 58cb 46be
00000070: 9255 babd 5402 293e f3b1 1cbd 82ff 81be
00000080: 72e7 463d 6190 59bb f01d 51bd bd65 4cbd
00000090: f949 3f3c 868a a83d ac01 d23d fedd c13e
000000a0: 7794 60be 0d95 b53c 2f29 ebbd 6496 4ebc
000000b0: b009 043c f063 5eb9 9b0d e33d 3295 303d
000000c0: 5cc7 20be b648 09be 834a 983d 51e9 00bd
000000d0: 6df7 0abe 70e7 7f3d aefb babb 264b 643d
000000e0: 56d1 f73c 9354 583d ebda 9bbd 0692 32bb
000000f0: 38db c2bb 129d 4cbd 0d80 b8bd f560 c2bc
00000100: 1181 92bd f417 c4bd f132 aabd 87c1 023e
00000110: dcaf 673e 4f57 08bf b88e 57be 60b8 6c3e
00000120: 7699 a03c d5fb 73bd 3eb0 99be 5b0c f9bc
00000130: 2e2c 06bd 2e4a 9f3c ef63 30bc 44fd 893d
00000140: 91ed 53bd edbe 61bd e247 14bd 3067 b5ba
00000150: fbb3 f2bd 7157 b53c e992 53bd 0d23 f33c
00000160: 4dfc 06be 0da5 85bd 6a89 993d 607d 23bb
00000170: dc4b adbe de4e 26bd 2a1e 2c3d 02a5 553e
00000180: 50c2 6abe 99c8 01bf 8180 d4bc 1db3 aebb
00000190: f2dd 00bd eaa3 dc3d e1bc 35be b290 803d
000001a0: 9b85 0e3f 9fa0 84bd a4fa b8bd e482 a9bd
000001b0: a3cb fdbb 31e5 083d 61d5 23be cb42 593d
000001c0: 4e60 4c3d 44ad 13be 62c8 ca3c 1074 7f3d
000001d0: de10 97bd 3a0c 7cbe c86f 063e 0c0f 6abd
000001e0: e0ca 91be a718 353d 1827 4fbc 29b2 89bd
000001f0: ec39 12be 8897 8a3d 5c07 dcbd e124 833d
00000200: 4962 77be b0aa 593d 6506 8ebd 7dc4 b4bc
00000210: a634 a73e e2db 483e 65c6 d8bd 2f05 fb3d
00000220: 976e 143d 810a 6e3d e775 83be 0c01 a8bc
00000230: 474e 1bbc c40b 473e 927b 9a3d f1b1 46be
00000240: 00e3 5fbc 29c6 423d 482e 7cbd f294 53be
00000250: 495b 29bc 51bc ec3c 12e8 163d 4e70 c63d
00000260: 2ca0 3d3d 0d2c 96be 831e 4f3d 0134 2b3e
00000270: 9d62 92bd e37c c2bd 35fa 333b c20b ab3e
00000280: 5961 ebbc e7f4 b23c 69cf 953d d9da 473d
00000290: d8bd 793d a29e 05bd 4a48 c8bd c7c3 a4be
000002a0: be33 123e 2934 a7bd 5ef5 b23d 5ee6 693d
000002b0: a785 febd faa6 ce3d 3ad5 0ebe 574d 08be
000002c0: 9873 fe3d eaba d03d 74f1 5bbd 1e1c 17bc
000002d0: 786c 803d cb9b 4cbd 2c27 b13d 049a 51bd
000002e0: 9a37 64bc e287 1abe d4b0 d0bc 8f03 033c
000002f0: 0313 09bd 7663 1c3b 960f b7bc 89d9 0dbd
00000300: bad1 ad3d 8322 0c3e ad26 16bb 0f4d c8bd
00000310: 995f cabd 09df f23e 0eac 793e 270d 05be
00000320: f996 353d 76c8 fa3d 4a5f 873e 46a9 07be
00000330: 8108 4bbd cf2b 38bd a854 96bb a998 17bd
00000340: c810 923d f549 90bd 1c04 bf3c 5383 a43d
00000350: 6ba6 e53d 6e94 48bd 0d26 c83d ea29 42bd
00000360: a41e 0c3d 220b 8d3d 4eaa 00be b058 8e3c
00000370: ed84 a83e 2fda 913d 1ddb 973d 943f 01be
00000380: e885 fd3d 1317 0a3f 70f6 2c3e 7a39 19bd
00000390: 7242 883d 3c40 95bd d9c0 0d3e a9c5 a6bc
000003a0: ffae 2abf 4655 173e 0bb8 f53d 9bd0 81bd
000003b0: 659c b7bd 73b6 8f3d 8bb0 1e3e eb1f 5ebd
000003c0: b1f4 1fbe ddbe 1e3e 9ee4 8c3d ea3f a7bd
000003d0: 400a b03d 8453 133e 8064 1cbe 28cf 53bc
000003e0: daf0 b73e 0d27 4dbd 1249 8fbd 1820 d0bc
000003f0: 8a01 3f3d 3dcc 53be 4929 ed3d 8735 89bd
0.28887862 0.070289604 0.07931904 0.12095659 -0.39803594 -0.12238688 0.045199808 -0.105734155
0.08839715 0.00056525244 0.20808342 -0.009791298 0.07261991 -0.05602521 0.014283336 0.20718688
0.08016755 0.064241864 -0.01419622 0.22164497 0.070263736 0.077853516 -0.038378783 -0.0071987803
-0.045202747 0.19422986 -0.067062035 -0.19413507 -0.090983525 0.16504794 -0.038255643 -0.2539025
0.048560567 -0.0033197629 -0.05105394 -0.049901713 0.011675351 0.08229546 0.10254225 0.3786468
-0.21931635 0.0221658 -0.114824645 -0.012609098 0.00805895 -0.000212088 0.110865794 0.043111034
-0.1570105 -0.13406643 0.07436087 -0.031472508 -0.13570948 0.062476575 -0.005706272 0.05573573
0.030251186 0.05281503 -0.07610115 -0.0027247681 -0.005946543 -0.04995448 -0.09008799 -0.023727873
-0.07153524 -0.09574881 -0.083104976 0.12769137 0.22625679 -0.5325822 -0.21050537 0.23117208
0.019604426 -0.059566338 -0.30017275 -0.0304014 -0.032756977 0.019444551 -0.0107660135 0.0673776
-0.051740233 -0.05511372 -0.036201365 -0.0013839956 -0.11850735 0.022136422 -0.051653776 0.0296798
-0.13182183 -0.065256216 0.07496913 -0.0024946555 -0.3384694 -0.040602557 0.042020954 0.20863727
-0.22925687 -0.5069671 -0.025940182 -0.0053314106 -0.031461664 0.107734516 -0.17747833 0.062775984
0.55672616 -0.064759485 -0.09032181 -0.082769185 -0.0077452227 0.0334217 -0.15999366 0.053042214
0.04989653 -0.14421564 0.024753753 0.062366545 -0.07376264 -0.24614039 0.13128579 -0.057143256
-0.28475094 0.044212963 -0.012643598 -0.067234345 -0.14279908 0.067671835 -0.10743591 0.064035185
-0.24158587 0.053141296 -0.069348134 -0.02206635 0.32657355 0.19615129 -0.10584716 0.12256848
0.03623828 0.058115486 -0.2567589 -0.020508312 -0.009479112 0.19438082 0.075431004 -0.19403817
-0.013664961 0.04755226 -0.061567575 -0.20662287 -0.0103367055 0.02889839 0.036842413 0.09689389
0.04629533 -0.29330483 0.050566208 0.16719057 -0.07147715 -0.094964765 0.0027462367 0.33407408
-0.028732942 0.021845294 0.07314951 0.048792694 0.060972065 -0.032621987 -0.09779413 -0.32180616
0.1427755 -0.08164246 0.08738206 0.05710446 -0.12427836 0.10090442 -0.13948527 -0.13310753
0.124243915 0.10191901 -0.053697065 -0.009223012 0.06270689 -0.049953263 0.086500496 -0.05117227
-0.013929272 -0.15090898 -0.025474943 0.007996454 -0.033465397 0.0023862994 -0.0223463 -0.034631286
0.08487268 0.1368504 -0.0022911236 -0.09780323 -0.09881515 0.47435787 0.2438204 -0.12993298
0.044333432 0.12245266 0.26439887 -0.13248166 -0.049568657 -0.044963654 -0.0045877285 -0.037010822
0.07132107 -0.07045356 0.02331739 0.080328606 0.11213382 -0.04896968 0.097728826 -0.047403254
0.03420891 0.06886889 -0.12564966 0.017376274 0.32913914 0.07121693 0.074148394 -0.1262191
0.12379056 0.5394146 0.16890883 -0.03740833 0.066532984 -0.07287642 0.13843097 -0.020357924
-0.6667327 0.14778623 0.11997994 -0.063386165 -0.08965377 0.07017221 0.15497033 -0.054229658
-0.15620686 0.15502496 0.06879543 -0.081664875 0.08595705 0.14387327 -0.15272713 -0.012927808
0.35925943 -0.05008607 -0.06996359 -0.025405928 0.046632327 -0.2068338 0.1158014 -0.06699663

fc3.bias f4 [2]
00000000: f0fd 363e c2d4 26be
0.17870307 -0.16292098
