benchmarks/Train/Train_CartPole-v1_DuelingDQN_mp_20230407-170853/models/checkpoint.pt (torch, 537607 bytes, 9 tensors)

hidden_layer.0.weight f4 [256, 4]
000000 dc ac b0 3e 32 be 95 be 69 ef 32 be 50 8f 9c 3e
       0.3450688 -0.2924667 -0.1747414 0.3057809
000010 2e d7 14 bf b2 2d cf 3e 74 d7 af 3e 11 f4 b1 3e
       -0.5814084 0.4046455 0.34344065 0.3475652
000020 56 49 d5 3d 0c d4 02 bd d6 98 33 3e 5c cb 31 3d
       0.10414378 -0.031940505 0.17538771 0.04340683
000030 36 4d 3a 3e ea ec 46 be d0 3c 1a bd 95 dd 3a bd
       0.18193516 -0.19426313 -0.03765565 -0.045621473
000040 c6 3d 97 3d 90 e4 da b9 6c 1e df 3e cc ba 1d 3e
       0.07384829 -0.00041750493 0.43577898 0.15403289
000050 09 16 c7 3c bc 01 c8 be 44 16 51 be 9e bd 0b be
       0.0243025 -0.39063823 -0.2041865 -0.13646552
000060 0d eb bf be 02 af fd 3d cf 51 1d 3f a2 c8 9d 3e
       -0.37484017 0.12386896 0.61452955 0.30817133
000070 99 c3 2d bf b5 31 d9 3e f2 94 f0 3e 1b 40 05 3f
       -0.67876583 0.42420736 0.46988636 0.5205094
000080 86 85 cf 3e 2c b3 fc be b7 7a 04 bf 74 bc 51 be
       0.40531558 -0.49355447 -0.5174975 -0.20482045
000090 9b 0d e3 3e e9 72 f3 bd 00 39 80 3e 05 6e 36 be
       0.44346318 -0.11887152 0.25043488 -0.17815407
0000a0 27 ca 08 3f e3 37 3a be 34 e8 cd 3e e3 ef ca 3c
       0.5343346 -0.18185382 0.4021622 0.02477259
0000b0 39 7c d2 be f9 09 b8 3e ec 8c 3e be f4 48 57 bd
       -0.411104 0.3594511 -0.18608445 -0.052559808
0000c0 66 72 3e 3d 34 6a 84 bd 37 d9 40 bf 32 78 88 be
       0.046495818 -0.06465569 -0.75331444 -0.26654202
0000d0 3c 16 32 3e 91 11 d0 bc 65 83 74 3f fc 11 00 3f
       0.17391294 -0.025399001 0.9551299 0.5002744
0000e0 c7 da 5b be 24 48 7d be 0f 1d 16 3f d7 32 fb 3d
       -0.21470176 -0.2473455 0.5863809 0.12265556
0000f0 f1 b6 ee be 23 c0 e0 3e cd ef 38 3f 74 c9 03 3f
       -0.46623948 0.4389659 0.72240907 0.5147927
000100 69 0d cd be e9 cf 69 be b5 6f 15 be 7f 85 6c 3d
       -0.40049294 -0.22833218 -0.14593394 0.0577445
000110 49 64 b4 be 3e 14 ba be 68 ee a2 3e 8a 71 7b bd
       -0.35232762 -0.3634357 0.31822515 -0.061387576
000120 33 2e c0 3e 67 d1 2e 3e a6 6c 9f 3e 27 07 5c 3e
       0.37535247 0.17072068 0.3113758 0.21487103
000130 bf 71 6b 3e 38 20 88 3e ab d5 df be 0a b9 8e 3e
       0.2299261 0.2658708 -0.43717703 0.2787555
000140 ec 9c a0 be 40 e7 c1 be 7e 92 77 3d b5 20 28 bd
       -0.31369722 -0.37871742 0.06044244 -0.041046817
000150 f1 2d cb 3e 3d 3a ac be c1 f7 06 bf c6 37 de 3e
       0.39683488 -0.33638182 -0.5272179 0.43401927
000160 82 3b 21 be 44 3a c8 3e fb 03 a8 3e 5a 6d d4 be
       -0.15745357 0.39106953 0.32815537 -0.4148968
000170 83 df a7 3d 8f 7d 02 3e d4 d8 8b be 7b c1 84 be
       0.08196928 0.1274321 -0.27313864 -0.25928864
000180 57 74 db 3d 96 fc 83 3e df 5e 7e 3d 5b 1c 3d be
       0.107155494 0.25778645 0.062102195 -0.18467848
000190 ad 3f 12 3f 34 e6 70 3d c4 93 1f 3f f7 11 92 3e
       0.5712841 0.05881329 0.6233485 0.2852933
0001a0 a2 c0 0f bf c1 57 b6 be d0 f3 45 3f b8 c3 85 3b
       -0.5615331 -0.35613826 0.77325153 0.0040821694
0001b0 e3 58 05 3e 90 d0 04 3e 9f f2 ee 3e f8 31 df 3e
       0.13022189 0.12970185 0.4666948 0.4359281
0001c0 ec 59 14 3f 03 17 a5 be 7a 1b 10 bc 18 75 d0 3e
       0.5794971 -0.3224412 -0.008795613 0.40714335
0001d0 9e 8f 12 3f 74 55 87 3e e5 90 20 bf 38 5d e1 be
       0.5725039 0.26432383 -0.6272109 -0.44016433
0001e0 39 97 ac be 3e 77 0a 3e 44 b9 1a 3f c9 b1 a5 be
       -0.33709124 0.1352205 0.6043894 -0.32362202
0001f0 89 34 d2 3e 27 ec ca be 1e a7 06 bf a8 7a 89 3c
       0.41055706 -0.39633295 -0.5259875 0.01678212
000200 0e 57 8d 3e e9 18 fb 3e 24 0c 5a be 69 f5 11 3e
       0.2760548 0.49042442 -0.21293694 0.14253773
000210 34 74 75 3e 97 fa c4 3e 82 87 1a 3f 29 e6 e4 3e
       0.23970109 0.38472435 0.6036302 0.44706848
000220 86 a8 01 3f 4a 00 8c 3d e5 d2 20 bf 42 68 c6 be
       0.5064777 0.06835993 -0.628218 -0.38751417
000230 17 1d 47 be 39 9f 32 bd 25 45 94 be 83 90 50 3e
       -0.1944469 -0.043608878 -0.28959003 0.20367627
000240 6a f8 68 3e e7 bd 21 bd da bd 51 3e 02 b2 28 3e
       0.22751012 -0.039487746 0.20482579 0.16474155
000250 ea 58 c5 3e e5 cf e4 3e 33 fb 24 be 4e 69 e5 3e
       0.385444 0.4468986 -0.1611145 0.44806904
000260 a8 fb 0d 3e 4f 03 c7 bc 06 11 38 bf 97 7d a4 be
       0.1386553 -0.02429357 -0.71900976 -0.32127067
000270 9e 67 6e be 8b 50 37 be e9 c4 d9 3e 5a 9c f7 bd
       -0.23281714 -0.17901818 0.42533043 -0.120903686
000280 d9 fc 14 bf f5 22 31 3e 54 c1 df 3e 40 dd cb 3e
       -0.58198315 0.17298491 0.43702185 0.39817238
000290 46 5e c6 bd ae 42 1a bd 04 1b 1c bf 8d 97 34 be
       -0.0968595 -0.037661247 -0.6097872 -0.17635937
0002a0 c9 f1 21 bf 52 dd a0 be dd 81 bb 3d 13 ae 91 3e
       -0.6325956 -0.31418854 0.09155629 0.2845312
0002b0 1b 6f be bd 9d a2 6d 3e bb 16 54 3f 9f 44 0c 3f
       -0.092985354 0.23206563 0.82847184 0.5479221
0002c0 0a 61 00 3e 93 55 60 3d 97 d0 b5 bd e0 6e bd 3e
       0.12537017 0.05476911 -0.08877676 0.36998653
0002d0 d0 68 4f 3c ad 71 2a be 8c 85 57 bf 16 d0 49 be
       0.012659267 -0.16644926 -0.8418815 -0.19708285
0002e0 71 a1 d3 be ef 98 09 3f 92 49 8b be 36 d9 cf be
       -0.41334108 0.53748983 -0.27204567 -0.40595406
0002f0 f1 17 05 3d 06 e8 8f be 07 59 32 3e c1 3b 25 be
       0.032493535 -0.28106707 0.17416774 -0.16136076
000300 97 c3 4b bc 79 5a d3 bb 4d 14 7a 3d 71 0b a7 be
       -0.012436769 -0.006449994 0.061054517 -0.32625917
000310 eb ae 13 3e f9 cf e5 3e b0 5e 1d 3f e1 93 e9 be
       0.14422195 0.44885233 0.61472607 -0.45620635
000320 da a4 77 bd f4 68 0e bf fa c7 9c 3e af 73 70 be
       -0.06045995 -0.55628896 0.3062132 -0.2348163
000330 0e 6f a0 3e 19 4f d3 3c b5 b5 ec bc 50 7a 6c bb
       0.31334728 0.025794553 -0.028895238 -0.0036083646
000340 ee c0 40 3e 37 37 a8 3e 2f 51 84 3e 57 ed 5d 3e
       0.18823597 0.32854626 0.25843188 0.21672569
000350 61 98 e6 be 19 9b d1 3e af 5a 03 3f 56 90 d7 3e
       -0.4503813 0.40938643 0.5131025 0.42102307
000360 a4 78 06 3e e4 7d 8f be 92 9d 35 3e 25 8a eb 3e
       0.13131958 -0.28025734 0.1773589 0.46003833
000370 6a 83 e7 be 06 52 19 3f a3 34 60 be a9 cf d7 be
       -0.45217448 0.5989078 -0.2189508 -0.4215062
000380 01 8b b1 3e c0 49 b0 be 2e 4c 47 be 34 59 c6 3e
       0.34676364 -0.34431267 -0.19462654 0.38739932
000390 90 06 ac 3e ea 38 1c 3f 45 42 92 3d e3 30 e1 be
       0.33598757 0.61024344 0.07141546 -0.4398261
0003a0 59 cc 06 3f a3 8c df bd e8 6f 35 be 2f 72 24 3e
       0.5265556 -0.10915496 -0.1771847 0.16059183
0003b0 ab 71 d5 be 3f 89 e8 3e b1 48 f9 3e 75 ae e2 be
       -0.41688284 0.4541721 0.48688272 -0.44273725
0003c0 c1 8c c9 be a4 b9 29 bd c7 5e 7e 3e a0 30 9e 3c
       -0.393652 -0.041436806 0.24840842 0.019310296
0003d0 62 ed 24 be 49 73 7e bd e7 2e 25 bf aa 4c d4 be
       -0.1610618 -0.062121663 -0.6452469 -0.4146474
0003e0 ca b3 1a be 0b 7f c3 3e af e2 33 3e 86 19 0b be
       -0.15107647 0.38182864 0.17566942 -0.13583955
0003f0 34 d8 63 3e a4 df 35 3e f4 fe 5a be 22 8c 5f be
       0.22250444 0.17761093 -0.2138632 -0.218308

hidden_layer.0.bias f4 [256]
000000 48 60 91 3e 4f 5b 47 3d 19 24 79 3e e1 00 8f be
       0.2839377 0.048671063 0.24330176 -0.27930358
000010 8b 2d fb be 1a 27 81 3e 5b 7d 6d be 22 e1 3e be
       -0.49058184 0.25225145 -0.2319235 -0.18640569
000020 3a 1b 0e 3f 24 83 8f 3e ee 8b cb 3e 10 13 d3 3c
       0.55510294 0.2802974 0.39755195 0.025765926
000030 41 2e c1 be aa 2a 18 3e 59 29 dd be 3a 52 99 bb
       -0.377306 0.14860025 -0.43195608 -0.0046789916
000040 75 6d 78 be ee 4e 0e 3f 41 dd 64 be de ea 1a 3f
       -0.24260505 0.5558919 -0.22350027 0.6051463
000050 66 47 0a 3f 2d 2a 17 3f de 9d fc 3e a4 54 aa 3e
       0.54015195 0.5904873 0.49339193 0.332677
000060 a7 3c 10 3e f9 a7 35 3e 6a 53 94 be 58 86 d7 be
       0.14085637 0.17739858 -0.2896989 -0.42094684
000070 f8 e2 28 3f f1 4b 60 3e c6 dc cc 3e 90 5f 7d 3e
       0.65971327 0.2190397 0.40012187 0.24743485
000080 3c d5 a0 3e dd e2 5e be d9 36 f7 be 2a cb 0a 3f
       0.31412685 -0.21766229 -0.48284033 0.54216254
000090 42 30 c2 3e a6 bf dc 3e 14 9d 01 bf 4e 93 6e 3e
       0.37927443 0.43114966 -0.5063031 0.2329838
0000a0 f2 a1 d5 be 2e 68 27 3c 03 a0 ac 3d 12 56 a8 be
       -0.41725117 0.0102177095 0.08428957 -0.32878166
0000b0 94 2d 08 bf 18 41 a6 3d 4c e5 26 3f b3 d4 20 3f
       -0.53194547 0.081178844 0.6519363 0.62824553
0000c0 18 8f cc be 3d 18 01 3e 6e b1 79 be 9e 02 c1 be
       -0.39952922 0.12606902 -0.2438409 -0.3769731
0000d0 09 2b cc bd 40 e6 27 3f ea 2c 53 be 8b 63 68 3e
       -0.09969146 0.6558571 -0.20622602 0.22694223
0000e0 39 ac 2c 3f c6 f7 92 3e 5b 77 12 3f 8a 62 01 3f
       0.6745029 0.2870466 0.5721337 0.50540984
0000f0 5d 5f 24 3f 6e b5 a5 3e ae 5f ec be 2c e0 fd be
       0.6420801 0.32364982 -0.46166748 -0.49585092
000100 ad 17 93 be 64 3d 11 3f 7e 38 ea 3e ba ad ad 3e
       -0.28729 0.567343 0.45746225 0.33921605
000110 a8 f9 ed be 40 d8 45 be 98 05 13 3f 43 cb e3 3c
       -0.46479535 -0.19320774 0.5743041 0.027806884
000120 49 84 06 bf 9d 48 89 3d a2 7c b3 bd 9d 15 39 3e
       -0.525456 0.06703303 -0.08764006 0.18074651
000130 37 cb ce 3e 95 23 c2 3e 01 21 dd be cc 24 83 bd
       0.40389416 0.37917772 -0.43189242 -0.06403503
000140 52 32 88 be 2e 99 00 3f 64 d1 dd 3e da 6b e1 3e
       -0.2660089 0.50233734 0.43323815 0.44027597
000150 27 25 20 3f af 81 e5 3e ef ca e3 be 6a af a3 3e
       0.6255669 0.44825503 -0.44490764 0.31969768
000160 2c ab d2 be dd f7 68 3e 85 c9 11 3e 17 f3 2d 3f
       -0.4114622 0.22750802 0.1423703 0.6794905
000170 3f 25 84 be ba 05 f8 be 75 4e f3 bd b9 0a 94 3e
       -0.25809667 -0.4844187 -0.11880199 0.2891443
000180 c5 95 09 3f 47 33 1b 3f c5 27 0d 3f 5e de b7 3e
       0.53744155 0.6062512 0.5513881 0.3591184
000190 76 b4 df bc 98 9d 2d bd 20 84 a9 be 44 1d 97 3e
       -0.02730773 -0.04238662 -0.33108616 0.29514515
0001a0 53 7e e2 be 05 2e d2 3e 77 3d 07 3f 01 0d 19 3f
       -0.44237003 0.41050735 0.5282816 0.5978547
0001b0 6a 69 12 bf c2 a4 14 3f 70 dc a6 be c6 7d a0 bd
       -0.571921 0.580639 -0.32590055 -0.078364894
0001c0 8a 03 2b 3f 94 75 ed 3e c4 3d ea bc 77 be ff 3e
       0.66802275 0.46378767 -0.028593905 0.4995
0001d0 e2 68 fa be 6c 51 13 3f 9d 55 25 3f ed 87 53 3e
       -0.48908144 0.57546115 0.6458376 0.2065732
0001e0 bc 82 91 3e 87 b8 40 3c 7c 50 b0 be 38 b8 8e be
       0.28420055 0.011762745 -0.34436405 -0.27874923
0001f0 02 eb 40 3e b3 a3 58 be 64 de a2 be 1d 52 6f 3e
       0.18839648 -0.21156196 -0.31810296 0.23371167
000200 6c 98 e0 be a6 43 b4 be 04 7a 88 3d cb 3a a3 be
       -0.4386629 -0.35207862 0.06663898 -0.31880793
000210 60 3e 21 3f 53 b8 3e be fd 0a a9 be e7 b5 82 3b
       0.629858 -0.18625002 -0.33016196 0.0039889696
000220 26 ac d5 be 6a 97 de 3e a5 fd 17 3f 5a 50 4f be
       -0.417329 0.43474895 0.59371406 -0.20245495
000230 58 68 fb bd 95 49 26 3f 45 a2 b9 be 4f f0 b4 3e
       -0.12275761 0.6495603 -0.36256614 0.3533959
000240 6a a0 cf be e7 b3 e0 be 52 46 49 3e 06 47 3f be
       -0.40552074 -0.43887255 0.19655731 -0.18679437
000250 8b 69 ed 3e f3 60 68 be 2a b9 09 bd f8 4b a5 be
       0.46369585 -0.22693233 -0.03362385 -0.32284522
000260 cb 7b bd 3e 6e 90 22 3f 26 9e 98 bd 6a 25 ab be
       0.3700851 0.6350163 -0.074520394 -0.33426982
000270 e4 7c d1 be 5c 54 23 3f 1d f3 c7 3e 50 c9 cd 3e
       -0.40915596 0.638006 0.39052668 0.40192652
000280 d4 2e 5b 3e f4 f0 d8 3e 19 a0 ca 3e dd 94 f5 3e
       0.21404582 0.42371333 0.3957527 0.47965136
000290 22 28 f1 3e e4 76 92 3e 95 a6 1a 3f 6c e4 00 3f
       0.4710093 0.2860633 0.60410434 0.50348544
0002a0 49 8c e0 bd b7 4c 31 bd 21 6d 6e 3e 6d d2 0f 3f
       -0.10964257 -0.04328605 0.23283817 0.5618046
0002b0 68 7d f9 3e 9a de 34 be 23 bf d8 bd 11 d4 cc 3e
       0.4872849 -0.17663041 -0.105833314 0.40005544
0002c0 c6 fd b6 3e e9 3b 27 3f 0e 21 d4 3e 49 0d b8 3e
       0.3574049 0.6532579 0.4143147 0.35947636
0002d0 54 9a 9d 3e 52 03 04 bf 96 c2 7a be be 60 5c 3e
       0.30781806 -0.51567566 -0.24488291 0.21521279
0002e0 b3 c0 5c be 4f 79 00 bf 17 01 02 3f d5 bd b2 3e
       -0.21557884 -0.501851 0.5078291 0.34910455
0002f0 c5 64 fe be 18 c4 6a 3e 4b 64 ff 3e b4 57 ee 3e
       -0.49686256 0.22926366 0.49881205 0.46551287
000300 b7 90 22 3f ac 6b 5b be c8 d2 cd 3e 1a 8b cf be
       0.6350207 -0.21427792 0.40199876 -0.40535814
000310 42 fb 00 bd 9e d4 ab be 09 0c 87 bd 7d 97 f1 3e
       -0.031489618 -0.33560652 -0.065940924 0.4718589
000320 d3 9e fc 3e ff ec 9c be 77 ea 66 bd d1 1f 07 be
       0.49339923 -0.30649564 -0.056375947 -0.13195731
000330 63 32 7c be 46 d6 68 be ea d7 0a 3f ad 23 0d 3f
       -0.24628596 -0.22737989 0.5423571 0.5513256
000340 62 bf 17 3f 24 7a 98 be 18 60 0c 3f 58 48 52 bb
       0.592764 -0.29780686 0.5483413 -0.0032086577
000350 df 45 c9 bd 45 10 41 be ea 89 7f bc 6c 1f 88 be
       -0.0982778 -0.18853863 -0.015596846 -0.26586473
000360 7d 16 87 3e 3d 82 a3 be 88 3b c1 3e 6e 1f ec be
       0.26384345 -0.319353 0.3774073 -0.4611773
000370 0f ee 76 be 0f f2 cf be 56 d3 00 3f 4e da 08 3f
       -0.2411425 -0.40614364 0.50322473 0.53458107
000380 f1 ce df be a6 75 92 be a7 1f 1d 3f 03 24 9f 3e
       -0.4371257 -0.28605384 0.6137642 0.31082162
000390 bf c5 02 3f aa 6a bc be aa 64 bc 3e 68 9e 01 3f
       0.51082987 -0.36800128 0.3679555 0.50632334
0003a0 91 2a 06 bd 29 1d 57 3e f0 34 0a 3f e9 d3 b6 3e
       -0.03275544 0.21007217 0.53987026 0.3570855
0003b0 72 ea a1 3e b1 bf 59 3e 71 88 94 be 8d 59 ba be
       0.3162418 0.2126453 -0.29010347 -0.36396447
0003c0 89 10 2e 3f 2a fd 27 3e 20 a1 1c 3f 29 f5 1a 3f
       0.6799398 0.16405168 0.6118336 0.60530335
0003d0 a5 f1 98 be 99 d7 f1 3c a6 27 3c be 19 65 0c bd
       -0.2987186 0.02952175 -0.183745 -0.0342761
0003e0 2f 83 04 3f cf 60 f3 3e f6 ff bf bd 2d e9 b3 be
       0.5176267 0.47534797 -0.093749925 -0.35138837
0003f0 c7 91 cf be 9e ef ab be ff f0 01 3f b5 05 b7 be
       -0.40540907 -0.3358125 0.50758356 -0.35746542

advantage_layer.0.weight f4 [256, 256]
000000 0b 53 70 bb c1 26 f0 bb 17 56 e5 3b c2 67 48 bb
       -0.0036670591 -0.0073288386 0.006998788 -0.0030579423
000010 10 d9 04 3d 6c 64 21 3c 18 47 17 3d ef 74 ae 3b
       0.03243357 0.009850603 0.036933035 0.005323998
000020 1a d9 ad ba 9f 07 aa 3b 59 8e 1d 3d 48 6b 10 3c
       -0.0013263554 0.005188897 0.03846583 0.00881464
000030 b0 b2 2f 3d b1 cd 36 bc 05 d8 f4 bb c7 8a 3c 3d
       0.04289502 -0.011157439 -0.0074720406 0.046030786
000040 c8 01 73 bd 79 2d 82 3b b3 a7 6a 3d 81 a7 0b bd
       -0.05932787 0.003972706 0.057288837 -0.03409529
000050 d2 a7 66 bc 7b df ee bb 36 e5 84 3c 29 50 b9 3c
       -0.014078097 -0.0072898245 0.016222578 0.022621231
000060 5b 7a 3e 3c 29 3b 9a 3c 59 59 0a bd b4 27 99 3c
       0.0116258515 0.018827038 -0.033776615 0.01869569
000070 ca 93 c1 bc d0 b1 19 3d 5f 0b b0 bc 19 c5 4d bd
       -0.023630042 0.03752309 -0.021489797 -0.050236795
000080 85 cf 59 3a 5b 27 e7 3c 76 82 f2 ba 4c 1d 1e bb
       0.0008308816 0.028217008 -0.0018502015 -0.002412635
000090 43 db 68 bb b2 64 e8 3c fa fb b2 3b 89 c2 6c bd
       -0.003553108 0.028368328 0.005462167 -0.05780271
0000a0 6d 3f 46 bd 2f 8f 44 3b a0 54 22 bc a8 21 52 3d
       -0.04840033 0.002999257 -0.0099078715 0.05130163
0000b0 be db ad bc 8a 7e 43 3d b2 ec 65 bd c8 d3 79 bd
       -0.021222945 0.0477281 -0.056133933 -0.060992986
0000c0 2a a1 ae bb cc 11 28 bd bc 4f 95 bc 20 af e6 3b
       -0.005329271 -0.041032597 -0.018226497 0.0070399195
0000d0 20 84 62 bd d3 d9 1f 3d d3 7c 2f bd d1 04 3d 3d
       -0.055301785 0.039026093 -0.04284365 0.04614717
0000e0 33 e8 87 3c 37 59 67 bc ae 88 6b bd f4 7f d5 3b
       0.016590213 -0.014120392 -0.057503395 0.0065154973
0000f0 f3 e2 19 bd 20 57 5c 3d cc 1c 57 bd 5a ce 83 bc
       -0.03756995 0.053794026 -0.052517697 -0.016089607
000100 c5 e0 11 bd a2 51 34 bd d7 d6 02 bd af 39 25 bc
       -0.035614748 -0.044023164 -0.03194317 -0.010084554
000110 a3 c1 48 3b 6b be 23 3c 3b de e6 3c 4a d8 f9 bc
       0.0030632995 0.00999413 0.02818214 -0.030498642
000120 fe 9b 1e bd 37 57 6d bc 9a 3e 71 3d 7e ae fb bb
       -0.038722984 -0.014486126 0.058897592 -0.007680713
000130 6c 42 69 bd 3b 20 35 3d ec 51 6f 3c 87 4d 9f 3a
       -0.05694811 0.04422019 0.014606934 0.0012153842
000140 93 71 2d 3c d6 95 26 3d 15 f5 06 bd 33 03 35 3d
       0.01058616 0.04067024 -0.032948572 0.044192504
000150 30 a4 6a 3d a5 96 a6 bc 28 23 1f 3d 25 68 f6 3c
       0.057285488 -0.020335505 0.038851887 0.030078957
000160 0e e5 4f 3d 10 d8 89 bc 2f b6 29 bd 50 4f b8 bc
       0.050755553 -0.01682666 -0.04143351 -0.022498757
000170 53 50 43 bd eb 6e 99 3a 9d aa 6e 3d 1e e5 6a 3d
       -0.047684025 0.001170603 0.05826818 0.05734741
000180 03 c1 35 3d a3 39 14 3b aa 73 0b bb 63 52 13 3d
       0.044373523 0.0022617362 -0.0021278658 0.035967242
000190 38 02 18 3d 63 d4 bc bb 0b 1a c4 bc 99 1b a5 3c
       0.03711149 -0.005762623 -0.0239382 0.020154761
0001a0 78 ed 57 bb c1 c3 49 bd c1 b5 0a bd 5f 0f 53 3d
       -0.003294794 -0.04925895 -0.03386474 0.05152833
0001b0 fa 1d 54 3d fe 5c e8 bc 04 73 5d bc f2 b8 1b bd
       0.0517864 -0.028364655 -0.013516191 -0.038018174
0001c0 a2 da c5 bc d5 f2 57 3d 1c d1 65 bd 2c 5d d6 3c
       -0.024152104 0.052721817 -0.056107625 0.026167475
0001d0 a3 e2 65 bd 17 f5 f9 bc 46 9e 87 bc 09 2a 8d 3b
       -0.05612434 -0.030512376 -0.016554963 0.0043079895
0001e0 ca 98 72 bc 73 64 09 bd 74 4c e5 bc 46 34 33 bd
       -0.014806936 -0.03354306 -0.027990557 -0.043751024
0001f0 2b 39 45 bd 34 52 22 bd 0f a2 72 3d 9e 75 08 bd
       -0.048150223 -0.039629176 0.059236582 -0.033315293
000200 8d b0 59 bd 12 e2 10 3d 30 1f a8 3c c6 c4 12 3d
       -0.053146888 0.035371847 0.020522684 0.03583219
000210 8c 10 86 bd cd 88 76 bd 9f ff 53 bd 8d 72 04 bd
       -0.06546125 -0.060189057 -0.05175745 -0.032335807
000220 9c 55 03 bc 01 27 b9 3c 3c 15 0b 3d d6 2f 5c bd
       -0.008016016 0.022601606 0.033955798 -0.053756557
000230 60 7d c6 3c 94 43 17 bd 17 2e 75 3c 82 52 89 3c
       0.024229705 -0.036929682 0.014964602 0.016762976
000240 e9 34 26 3c ed 4c 6b 3c ca ca fc bb f0 53 22 3d
       0.010144451 0.014361602 -0.007714604 0.03963083
000250 66 96 0d 3c 24 45 4a 3d 9a cd f7 3b 3f ca 1c bd
       0.008641815 0.049382344 0.0075623514 -0.038278814
000260 84 f5 1a 3d 2f 33 11 ba 20 4d 5b 3d 4c 86 60 bc
       0.0378318 -0.0005538938 0.05354035 -0.013703894
000270 bc c7 7d 3d 9f 89 1a bd 02 16 f5 3c 6b 80 44 bd
       0.06195806 -0.037728902 0.02991772 -0.04797403
000280 9b 93 1a 3d d8 66 eb 3b 35 5d 02 3d 96 53 52 bd
       0.037738424 0.007183891 0.03182717 -0.051349245
000290 18 dd 83 bd b6 06 e4 3c 91 8f cc bc 2a 0a b1 3c
       -0.06438655 0.027835231 -0.024970802 0.021611292
0002a0 d5 fb 2f bd e2 bc 9c bc a4 06 18 bb 79 70 12 3d
       -0.042964775 -0.019133035 -0.0023197317 0.035751794
0002b0 7b 1b 10 3d e2 fc c4 bb 3a 49 bd bc cd a8 a4 bb
       0.035182457 -0.0060115913 -0.023106206 -0.0050250054
0002c0 2a 99 e0 3c c5 cd 60 bd 6b 52 ae bc c3 80 83 bd
       0.027416784 -0.054883737 -0.021279534 -0.06421044
0002d0 07 95 f8 3b a3 37 0c bc d9 d3 f5 3c 2f 73 39 3d
       0.007586125 -0.008558187 0.030008243 0.045275863
0002e0 e7 56 5b bd 40 01 13 bd 48 12 6d bc 6a 39 ba bb
       -0.053549673 -0.035889864 -0.014469691 -0.005683114
0002f0 ed 0b b0 bc 8f 79 2b bd f9 70 bf bc 4e 62 86 bb
       -0.021490062 -0.041863974 -0.0233693 -0.0041010743
000300 b4 36 47 3d 0b 53 80 bc 13 43 2f 3d a3 a2 53 bd
       0.048636153 -0.015664598 0.042788576 -0.051668774
000310 a8 9b 33 3b b3 50 48 bd 37 ab 7a bd 9b 93 c6 3b
       0.002740601 -0.048905086 -0.06119844 0.0060600764
000320 01 57 0a bd a3 d8 1f 3d 75 4b 4a 3d 8e 6c 8a bd
       -0.03377438 0.03902496 0.049388368 -0.067589864
000330 10 8e c0 bb ef d9 61 bc 52 a3 17 bd a5 c7 43 bd
       -0.00587631 -0.01378487 -0.03702099 -0.047797818
000340 38 09 e9 bc f2 83 b6 3c 24 4e 52 3c 5a 78 03 3d
       -0.028446779 0.022279713 0.012836013 0.032097198
000350 2e f7 90 bb 1a 9c dc 3c 27 a3 44 3c 3e 9d a4 bc
       -0.0044239974 0.026929904 0.012001789 -0.02009451
000360 bf c1 af bb d0 9f 6d bd 04 45 8b bb 34 33 a8 bc
       -0.0053636725 -0.058013737 -0.0042501707 -0.020532228
000370 9b 78 d6 bc 07 78 05 bd 43 10 95 bc 35 5c 49 bd
       -0.026180556 -0.03258517 -0.01819623 -0.0491602
000380 b6 bd 8b 3b f3 82 48 bb 9b ad 99 bc c9 82 4b 3d
       0.0042645587 -0.003059563 -0.01875954 0.049685273
000390 fe bf 1b 3d f9 81 95 3c db 4d de bc e9 7a 85 3b
       0.038024895 0.018250452 -0.027136734 0.00407349
0003a0 44 85 31 bd 24 ef 29 3d 25 f5 60 3d e6 e1 7b bc
       -0.043339983 0.041487828 0.054921288 -0.015373683
0003b0 06 74 44 3d b4 25 68 3d eb 87 8e bb 74 1e be bc
       0.04796221 0.05667658 -0.004349699 -0.02320788
0003c0 ee c6 9f 3b 3d 4a 06 3c 1b 66 78 bd fd ed 94 bb
       0.004876009 0.008196411 -0.06064425 -0.004544972
0003d0 71 59 ed bc 22 ae 11 3d 84 02 e4 bb 03 3c 14 3d
       -0.028973313 0.035566457 -0.0069583077 0.036190044
0003e0 3b ff 53 3d e8 ce be bc d8 b0 52 3c 5b 4f b2 bb
       0.05175708 -0.02329202 0.012859546 -0.005441589
0003f0 46 8c 09 bd 66 d0 12 bd f8 4d 13 3b f9 7c 9e 3c
       -0.03358104 -0.035843275 0.0022476893 0.019346701

advantage_layer.0.bias f4 [256]
000000 be be 4a 3d bf ce e6 bc ed 50 11 3d 92 61 21 3e
       0.049498312 -0.028174756 0.035477567 0.15759876
000010 1c d2 c3 3d 38 98 a7 b8 e7 f1 1f bd 78 bf 19 bd
       0.095615596 -7.9915335e-05 -0.039049055 -0.037536114
000020 95 7b a9 bc 8f cd dc 3d 28 49 7c 3d 10 21 18 bd
       -0.020688811 0.10781395 0.061593205 -0.037140906
000030 d3 b7 b2 3d 2f 59 e0 3d df 5a e2 3c da ec dd 3d
       0.08726468 0.109545104 0.027631221 0.108361915
000040 bd 20 bd 3d 08 0b 95 bc 17 26 5b 3d 5b ca 28 3e
       0.0923476 -0.018193737 0.053503122 0.16483442
000050 4c 95 06 3e e6 f9 02 3e 63 78 d2 bc 2e 51 03 3e
       0.1314289 0.12790641 -0.02569217 0.12823936
000060 7f 64 69 bb 79 3a bb 3c 9f ec ac 3c 7a b2 27 3e
       -0.003561288 0.02285503 0.021108923 0.16376677
000070 6c b0 62 3d 91 28 e7 3d ea 56 98 3d bd 3a b9 3d
       0.05534403 0.11287034 0.074384525 0.090444066
000080 c0 3c 65 3d 23 b4 1c 3c 92 39 9e bd 05 2d 09 3d
       0.05596614 0.009564432 -0.077258244 0.0334902
000090 35 bf bb bc 8d 0e 9d 3b 0a 17 42 3d 6d 25 28 bd
       -0.022918323 0.0047929944 0.047385253 -0.041051317
0000a0 00 06 97 3d 41 c5 18 bb 18 aa ff bc b6 9e 2d 3e
       0.07374191 -0.0023310932 -0.031209037 0.16955075
0000b0 2b 35 3b 3e 68 4c d9 3d 3c 7c 91 bc 07 cf 7b 3c
       0.18282 0.106102765 -0.017759435 0.015369183
0000c0 a4 35 18 3e 18 3b 0a 3d 1e b4 0b 3d 0b 8a f8 bb
       0.14864212 0.033747762 0.03410732 -0.0075848154
0000d0 5a 58 3e 3c 11 b0 d4 3c 2e 8f 95 bd 68 d5 ec bc
       0.011617744 0.025962861 -0.073027 -0.028910354
0000e0 f0 fa fd 3c 32 38 a7 3d d6 e9 db bc 95 19 7b 3d
       0.031003445 0.08165015 -0.0268449 0.061303694
0000f0 f2 5c b4 bc db 4f 31 bd 6b f6 29 bc e6 5d 08 3e
       -0.022016976 -0.043289047 -0.010373692 0.1331707
000100 f6 a1 d5 3b 19 20 a5 3c ad 59 a9 3c b5 1f d6 3d
       0.0065195514 0.020156907 0.020672644 0.104552664
000110 c8 9b 24 3e 4e 9a 33 3d 82 a8 10 bd 52 bc 23 bd
       0.16075051 0.04384833 -0.03531695 -0.039974518
000120 92 97 d5 bc 13 4f 3a bd df 8d 6e 3d 11 d5 a5 3c
       -0.02607325 -0.045485567 0.058240768 0.0202432
000130 59 8e 5e 3c 01 ff fd bc be 20 d2 3c 81 89 31 3e
       0.013583743 -0.031005384 0.025650378 0.1733761
000140 d0 3c 83 bd 8b d7 7a 3d a7 c5 bc bc 31 fa 38 3c
       -0.064080834 0.061240714 -0.023043467 0.011290119
000150 0e f3 67 3c e5 07 85 bd 0b 53 73 bd 73 20 1b 3e
       0.01415707 -0.064956464 -0.059405368 0.15149097
000160 60 9e dc bb 0a 56 8e 3c a9 1d aa 3d c6 58 d4 3c
       -0.006732747 0.017375011 0.083064385 0.025921237
000170 0f 54 d8 3d d0 60 bc 3d c0 dd 2a 3d 4b fe 1f 3d
       0.10562908 0.09198153 0.041715384 0.039060872
000180 58 95 03 bd 18 2d cb 3b 2a 30 f6 3d d1 7e e8 3b
       -0.032124847 0.006200444 0.12020905 0.007095196
000190 b3 b7 4e 3d 69 6b cd 3c b2 ad 4e bd 5e a7 20 bc
       0.050468158 0.025075631 -0.050458618 -0.009805528
0001a0 3e b1 9c bc 7b 70 a0 3d 0d 4b b4 3d d9 bf 03 3b
       -0.019127484 0.07833954 0.08803377 0.0020103364
0001b0 03 ee 6c 3d d9 47 25 bd 06 4d ac bc 10 96 60 3a
       0.057844173 -0.040351722 -0.021032821 0.0008567283
0001c0 74 1c 8f 3c cd 18 49 3e 39 15 24 bd 14 e6 9b 3d
       0.017469622 0.19638367 -0.040059302 0.07612243
0001d0 56 0f c2 bc 8b 3d 2f bd 56 b4 3b 3c f7 8a a7 3d
       -0.023688953 -0.0427833 0.01145657 0.08180802
0001e0 c6 db 4d 3e 12 e9 a0 bc a7 1a 11 3d 34 e6 85 bd
       0.20103368 -0.019642387 0.03542581 -0.065380484
0001f0 49 f4 06 bc 21 0d 46 bb 97 30 a9 ba f2 41 02 bd
       -0.008236953 -0.0030220228 -0.0012908158 -0.03180117
000200 6a 6b e0 bc 94 3f 46 3d 84 6f 8f 3c 0f f4 3c 3c
       -0.027394969 0.048400477 0.01750923 0.0115327975
000210 bc ac 66 3d bd 64 58 3d 57 0b 27 3e 4d de 05 3d
       0.056317076 0.052830447 0.1631292 0.032682706
000220 d9 b8 e5 3d 76 44 79 bd 03 29 da bc c4 73 c9 bc
       0.112168975 -0.060856305 -0.026630884 -0.024591334
000230 63 91 4c 3e 96 be 73 bc 47 c1 22 3d ee 0a 69 3c
       0.19977336 -0.014876982 0.039735105 0.014223797
000240 b2 2e 19 3e 9b 39 b0 bb 31 d8 24 3d 89 80 16 3d
       0.14959219 -0.005377961 0.04024524 0.036743674
000250 41 64 4c bb 01 06 56 3c 70 0d 27 bd 7c ba 87 3c
       -0.0031187686 0.013062955 -0.0407843 0.016568415
000260 ee 2d 22 3d ef 0a 02 3e d9 d7 fb 3d 9b c4 04 3e
       0.039594583 0.12699483 0.12297029 0.12965624
000270 5b cb 6e 3d 9a 04 2f 3c 9c 05 81 bd cf 6a 3e 3e
       0.058299404 0.010682249 -0.06299898 0.18595432
000280 54 48 5e 3c 3f 11 5d 3d 09 53 0f 3d 0c 44 87 3d
       0.013567049 0.053971525 0.034991298 0.06604776
000290 b6 8f 83 3b bf 6f 81 3d d9 a6 ce 3c 98 90 13 3e
       0.0040149344 0.06320142 0.025226044 0.14410627
0002a0 6e a1 15 3d 99 4f dd bc 27 1f 57 3d be 36 3e 3d
       0.036530904 -0.027015494 0.052519944 0.046438925
0002b0 16 b9 fe 3d 58 db 91 3d 5c 7e d3 3c 51 4f 3f 3e
       0.12437646 0.071219146 0.025817089 0.186826
0002c0 13 8c 7d 3d 98 f9 14 3e fa ec 27 3e a3 ee e2 3c
       0.061901163 0.14548337 0.16398993 0.027701681
0002d0 63 c6 31 bd f4 de 72 3d 94 5e b4 bc 5b 45 46 3e
       -0.043402087 0.059294656 -0.022017755 0.19362395
0002e0 69 19 97 3c 9f 87 8d 3c 8a 92 9c 3c 9f a2 7f bd
       0.018444734 0.017276583 0.019112844 -0.062410947
0002f0 92 fc 02 bd e6 52 00 3d d3 a3 19 3a 9f b2 e0 3d
       -0.03197915 0.031329058 0.00058608985 0.10971569
000300 0f 3b 1d 3b cc 38 99 3c f1 d8 c2 3d e4 4e 02 3e
       0.00239915 0.01870384 0.095140345 0.12725407
000310 d1 b4 02 3c 99 3d 79 3d 89 b7 10 3e 0d 1e 37 3d
       0.00797768 0.06084976 0.14132513 0.044706393
000320 40 1a 91 bc 13 72 34 3e 70 ee 2c 3e 11 bc f0 bc
       -0.017712712 0.17621641 0.16887832 -0.029386552
000330 81 95 a6 bc 49 f2 17 bd f3 c2 dc 3b 68 eb 24 3e
       -0.02033496 -0.037096296 0.006737107 0.16105425
000340 ad 73 f7 bc 2e e9 fc bc 98 e8 dc bc 81 0d b1 bc
       -0.030206526 -0.030872907 -0.026966378 -0.021612884
000350 25 8d eb 3d 94 ad f5 3d db 41 f1 bc c1 55 f0 bc
       0.115015306 0.11995998 -0.029450348 -0.029337766
000360 f3 4d 09 3d b8 50 37 bc 4e c9 fc 3d 0c 7a 0d bd
       0.033521604 -0.011188678 0.12343083 -0.03454022
000370 e1 78 03 3d e6 40 51 bd 52 60 3e bd b2 f1 21 3d
       0.0320977 -0.051087283 -0.046478577 0.03953714
000380 3b 90 02 bd 92 5f 2b bd 70 7a 45 3b 34 ea 76 3c
       -0.03187583 -0.04183919 0.0030132793 0.015070487
000390 84 47 84 3d c1 9e 00 bd c4 6c 41 3e c3 e9 22 bb
       0.06458953 -0.0314014 0.18889147 -0.002485857
0003a0 18 44 b9 3c 14 58 f7 3d 35 e1 ce 3c 37 b4 09 3e
       0.022615477 0.120773464 0.025253871 0.13447653
0003b0 e1 de 50 bc ec 23 4a 3e b2 b5 f6 bc 30 b5 25 3d
       -0.012748451 0.19740266 -0.030115936 0.040455997
0003c0 bb 74 68 ba 32 d1 4d 3c 22 8e ca 3a 95 0d 6c 3d
       -0.0008867492 0.012562083 0.0015453736 0.05763014
0003d0 45 d3 6d bd f0 ab d3 3d f9 0c 99 3b 5b 06 8b 3c
       -0.05806281 0.10335529 0.004670736 0.016970804
0003e0 1d de 19 3e a7 ae c6 3d 1d ed a3 3d b5 ad ff 3d
       0.15026136 0.09701281 0.0800421 0.12484304
0003f0 0f 41 3b 3d c8 fd 35 bd 40 fe df bc d6 16 8c 3d
       0.04571634 -0.044431478 -0.027342916 0.06840293

advantage_layer.2.weight f4 [2, 256]
000000 23 dd 72 3d fc 62 8f bd d9 a8 6d bc 8f d4 8e 3e
       0.059292924 -0.07001302 -0.014505588 0.27896544
000010 cd 9e 59 3d 41 c3 9b bd 1b 15 38 3d b3 81 45 bd
       0.05312996 -0.07605601 0.044942003 -0.048219394
000020 20 f0 b0 bb 5e c4 dc bd 0e f7 df 3c d6 98 24 3d
       -0.005399719 -0.107796416 0.027339485 0.04018482
000030 13 8c 8f 3e a5 1c 2c 3e ec db 84 bd 02 f2 6d 3e
       0.28036556 0.16807802 -0.06487259 0.2323685
000040 61 49 e5 bb 60 ab a6 bd 1c 70 2b 3d 53 9a 71 3e
       -0.006997273 -0.08138156 0.041854963 0.23594026
000050 25 85 70 3e f1 97 72 3e a8 21 b1 3b f7 75 61 3e
       0.2348829 0.23690774 0.0054056235 0.22017656
000060 7e 52 1c 3d 0d 09 d2 3c 39 a0 7e 3d c2 29 41 3e
       0.03816461 0.025639081 0.06216452 0.18863586
000070 3d 9e fb 3b 7e ef 07 3e ef 4b 2b bd 65 03 55 3e
       0.0076787756 0.13274953 -0.041820463 0.20802076
000080 6e cc 83 bd 9b fa f3 3c 4a 70 65 bc ef 9f cd bc
       -0.06435476 0.029782584 -0.014003823 -0.025100676
000090 31 68 bc bd c1 48 ac bd 9b ef 6a bd df 80 cf 3d
       -0.091995604 -0.08412314 -0.05735741 0.10132002
0000a0 db c5 81 bd 59 d6 1d bd 5b 4f 53 3d 38 22 52 3e
       -0.06336566 -0.038534496 0.05158935 0.20520866
0000b0 1a f5 68 3e 7c 9a 6a 3e d6 fd b3 bd 0d d1 db 3c
       0.22749749 0.22910494 -0.0878865 0.026833082
0000c0 0c b0 5e 3e 3b b6 03 3d 01 79 2e 3e e5 3b 72 3d
       0.21746844 0.03215621 0.17038347 0.05913915
0000d0 8d 2d ad bd 3f 99 b6 3c af ca c4 bd a0 20 80 bd
       -0.08455954 0.02228987 -0.09608971 -0.06256223
0000e0 b2 d2 7c bd 47 99 87 bd 67 0a 2a bd 14 ca 77 3e
       -0.061724372 -0.06621032 -0.041513827 0.2419818
0000f0 32 54 0d bd 64 b4 af bd b9 b0 81 bd 24 61 56 3e
       -0.034504123 -0.08579329 -0.06332535 0.20935494
000100 f8 32 bf bd d4 3f e0 3d e1 96 36 3b 1a 88 28 3e
       -0.093358934 0.10949674 0.0027860927 0.16458169
000110 7a bb 6b 3e c5 f5 21 3c ff 46 5a 3d 7a 1f 0b 3d
       0.23020735 0.009885256 0.053290363 0.033965565
000120 3b 52 01 bd 68 d6 0a bd 70 7b 55 3e b4 39 9e bd
       -0.03157256 -0.03389588 0.20847869 -0.0772585
000130 f2 18 51 bc 9c 6d 1d bd 85 30 71 bd 2b 33 86 3e
       -0.012762295 -0.03843461 -0.058884162 0.26210913
000140 8c ff 1a 3d 27 ea d5 3d 77 20 05 3e 23 19 99 bd
       0.037841365 0.10445052 0.13000666 -0.074754976
000150 34 93 eb bd 28 0e 8a 3a a0 65 bc 3c 45 69 47 3e
       -0.11502686 0.0010532783 0.022997677 0.19473751
000160 5e 4f 0e bd dc 92 04 3c 46 1e b3 bc 70 be 54 bd
       -0.03474366 0.008091655 -0.021865021 -0.051939428
000170 e8 95 b2 3e 82 60 9b 3e da b1 2e bd f9 72 9f bd
       0.34879994 0.30347067 -0.04265008 -0.07785601
000180 57 19 de bd 12 09 b8 bd 23 78 93 3e f9 6d 25 bc
       -0.10844677 -0.08986105 0.28802595 -0.01009702
000190 a4 1e 8f bb 06 50 44 bd 31 5f 1c 3d fd 64 67 3d
       -0.0043676663 -0.04792788 0.03817672 0.056492794
0001a0 71 4a 3d 3d 70 8e 2d bc 23 2e 32 3d e1 a0 26 bd
       0.04621357 -0.010593042 0.04350103 -0.04068077
0001b0 18 f6 17 3e 30 27 9a 3c 0c f8 70 3c f3 94 41 bd
       0.14839971 0.018817514 0.0147075765 -0.04726119
0001c0 b7 ac 21 bd 19 64 44 3e e0 d3 0a 3c a0 38 44 bd
       -0.039471354 0.19178809 0.0084733665 -0.047905564
0001d0 49 9f 03 3d db fc 72 bd 5f a0 84 3d 55 6d 23 3e
       0.032134328 -0.059323173 0.06475901 0.15959676
0001e0 f7 6a 52 3e e0 4a ea 3c f8 c4 be bc 58 10 cf bd
       0.20548616 0.028600156 -0.023287281 -0.10110539
0001f0 5e 8a 19 bd 12 e3 63 3d bd ae 8a bd fb eb d3 bd
       -0.037485473 0.055636473 -0.0677161 -0.10347744
000200 19 4a 2f 3d 88 82 bf bd 1b e3 45 3d a0 40 29 3c
       0.042795274 -0.09351069 0.048312288 0.010330349
000210 85 b4 7a bc 8f 75 96 bd 3e c6 5a 3e fe d1 6a 3d
       -0.015301828 -0.07346641 0.21364686 0.05732917
000220 42 48 6a 3e e8 a6 f8 bd b8 70 72 bd 01 ba 94 bd
       0.22879127 -0.1214121 -0.05918953 -0.0726204
000230 a1 c8 66 3e be a2 d5 bd 47 6a 38 bd f4 82 0a bd
       0.22537471 -0.10431431 -0.04502323 -0.033816293
000240 91 d0 80 3e e1 70 92 bd 6b 8b a0 3c 97 fa 75 bd
       0.25159124 -0.07150436 0.01959773 -0.060053434
000250 1d 7b 5c bd 28 a3 b2 bd 37 63 44 bc 73 e4 6e bd
       -0.053828347 -0.08722526 -0.011986545 -0.058323335
000260 e5 10 8c bd 33 1f 6f 3e 8d 02 7d 3e c5 b9 4f 3e
       -0.0683916 0.23351745 0.24708004 0.20285709
000270 7e d1 9b bd 4f 1f 2e bd 7e a5 3e 3c a2 49 82 3e
       -0.07608317 -0.042510327 0.011636136 0.25446802
000280 df 31 91 3d 16 c2 70 bd 4b 24 ce bb 30 00 39 3e
       0.0708959 -0.058778845 -0.0062909476 0.18066478
000290 59 4f 64 3d 0f 28 8c 3e 9b 21 cc 3c 01 ec 60 3e
       0.055739734 0.27374312 0.024918368 0.21965028
0002a0 86 69 d1 bd d7 01 46 bd 52 d4 eb bc 78 f7 c8 bc
       -0.10225205 -0.0483416 -0.028787766 -0.024532065
0002b0 d5 44 c7 bd 9f 50 c3 bd 46 14 8a bc 85 c9 48 3e
       -0.097299255 -0.09536862 -0.01685537 0.19608124
0002c0 24 6b 6d 3e b4 d9 69 3e fc 02 3b 3e af ea 09 3e
       0.23185402 0.22836953 0.18262857 0.13468431
0002d0 02 9b 27 3d f6 48 6b 3e 46 58 b7 bd d4 5c 47 3e
       0.04091931 0.22977051 -0.08952384 0.19469005
0002e0 f9 98 c6 bc 75 89 81 bb f7 18 d6 bc fa 79 c0 bb
       -0.024242865 -0.0039531537 -0.026134951 -0.0058739157
0002f0 95 48 ce bd 58 30 2f bd cf af d2 bc 08 96 6f 3e
       -0.10072438 -0.042770714 -0.025718598 0.23397076
000300 1c 39 5c 3d ba 3e 96 3d 26 97 af 3e 69 6d 7d 3e
       0.0537654 0.07336183 0.34295005 0.24748768
000310 a2 da 10 bb 46 ea 8f 3c f3 2a 66 3e 25 9e 19 3d
       -0.0022102972 0.017567765 0.22477321 0.037504334
000320 60 34 98 bd a5 09 75 3e f6 a7 69 3e 95 92 fc bd
       -0.07431865 0.2392946 0.22817978 -0.12332646
000330 15 1e 1d bc e8 68 19 3d 23 a0 c5 bd 81 77 48 3e
       -0.009589692 0.037453562 -0.09649684 0.19576837
000340 79 7b 77 bd dd 12 77 bd 6d 2b ab bd 26 d4 87 bd
       -0.060420487 -0.060320724 -0.08357892 -0.06632261
000350 37 07 13 3e 91 87 1e 3e 56 c0 2e 3d fe 1b 88 bd
       0.14358221 0.15481402 0.042663895 -0.06645964
000360 ff a1 60 bd f4 f2 ab bd 28 79 96 3e 8d 85 02 3d
       -0.05484199 -0.08395949 0.2938931 0.031865645
000370 c3 b8 bc bd c5 4f 27 bd 4d d4 78 bc 9a 90 f4 bc
       -0.09214928 -0.04084756 -0.015187335 -0.029854108
000380 ff 49 84 bd 8a 3f e0 bc 0e 85 72 3d ad ab 62 3e
       -0.06459426 -0.027374048 0.059208922 0.22135802
000390 c5 b0 f1 3a f0 36 1c bd be 8c 2f 3e 9b 45 3f 3d
       0.0018439522 -0.03813833 0.17143533 0.04669724
0003a0 d6 c1 53 bd ac 3e 80 3e 78 47 8d bd 49 74 81 3e
       -0.05169853 0.25047815 -0.06898397 0.2528403
0003b0 b5 48 01 be a7 7b 70 3e 88 c7 9e bd f4 a6 d4 3d
       -0.12625392 0.2348467 -0.07752901 0.10383406
0003c0 8a 4c ba bd b3 9a 90 bd 13 5a a5 bb 54 d5 ca bc
       -0.0909663 -0.070607565 -0.005046138 -0.024759926
0003d0 e8 5b 22 bd 93 e9 ac bd f0 35 44 bd a1 8b 95 bd
       -0.03963843 -0.08442988 -0.047903 -0.07302023
0003e0 3d 9d 74 3e 26 df 86 3d 13 78 9f 3e 46 47 4e 3e
       0.23888107 0.06585531 0.31146297 0.20144376
0003f0 09 8a a8 bd 63 d3 87 3d 5e b7 c2 3d 03 41 6f bd
       -0.08229453 0.06632116 0.09507631 -0.05841161

advantage_layer.2.bias f4 [2]
000000 e2 55 31 3b 43 cd 00 bd
       0.0027059247 -0.031445753

value_layer.0.weight f4 [256, 256]
000000 41 f8 18 3d 82 82 ab bd d1 92 fc 3d cf cd 28 bd
       0.03734613 -0.08374502 0.123326905 -0.0412119
000010 c8 2f 33 bc 84 59 99 3d 92 06 1b be a9 5d 91 be
       -0.010936685 0.07487777 -0.15139225 -0.2839177
000020 89 9b ab 3d db 9b 2c 3d 9d 1e b9 3d f8 57 43 bd
       0.08379275 0.042140823 0.09039042 -0.047691315
000030 41 90 80 be 2c cf 8d bd 5c bd 16 be 0d 00 1f be
       -0.25110057 -0.069242805 -0.14720672 -0.15527363
000040 c9 6d c7 3c c0 a6 28 3e 39 1a e0 bd 7e 04 2b 3e
       0.024344342 0.1646986 -0.109425016 0.16700932
000050 74 fc 05 3e ef f3 a4 3c 68 24 c7 3d 9c 12 a4 39
       0.13084584 0.020135848 0.09723741 0.00031294383
000060 43 ce 5c 3d 40 e0 8d bd bb b4 3a be 1c 82 50 be
       0.053907644 -0.06927538 -0.18233006 -0.20362133
000070 bb 7b 63 3d 1d 28 d6 bb 03 ae 7e 3d cd 8d a1 3d
       0.05553792 -0.0065355436 0.06217767 0.078883745
000080 ba 27 e0 3d 0d bf c5 be 34 be 88 bd a4 16 eb 3d
       0.10945077 -0.38622323 -0.06676903 0.11478928
000090 2e d0 20 3d dc 48 5c 3d 96 eb 2d be e5 20 69 3d
       0.039261036 0.05378042 -0.169844 0.056916136
0000a0 d4 d5 a9 be 74 0c 25 bd 27 0e 9e bd 3a 6c 7a be
       -0.3317095 -0.04029508 -0.07717543 -0.24455348
0000b0 0a cc 17 be f1 1c d1 bd 17 74 7f 3d 9d 93 f6 3d
       -0.14823928 -0.10210598 0.06236657 0.12039874
0000c0 3c ef 13 bd 3e 5c 9d bb 69 59 2d bf a1 dc 14 c1
       -0.036116824 -0.004802256 -0.67714554 -9.3038645
0000d0 f8 aa 3d be ff f1 0c 3e 21 78 c3 bc 3c 72 d7 bb
       -0.1852225 0.13764189 -0.023860993 -0.006574897
0000e0 9c 4c 8e 3d b0 64 c1 3d 4a a8 fa 3d e6 65 a3 3d
       0.06948206 0.09443033 0.1223913 0.0797842
0000f0 c9 50 ba 3d 3c 57 1e 3d b1 e8 f0 3c 4e fb 68 bd
       0.0909744 0.038657412 0.02940783 -0.056880288
000100 95 ad 06 be b9 73 b8 3d e8 1b 09 3e c6 75 06 3d
       -0.13152154 0.09006447 0.13389552 0.03282716
000110 b5 fd 02 be 30 85 8e c0 1c 25 c5 3d b6 04 b1 b9
       -0.12792094 -4.4537582 0.09626219 -0.0003376358
000120 1b 75 44 be ce e3 1b bc 26 50 2e be fa 1f 23 3e
       -0.19185297 -0.009514762 -0.17022762 0.15930167
000130 91 47 1b bb a9 79 a9 3d 84 f3 e8 bd fd eb 9a be
       -0.002369378 0.08275158 -0.11374572 -0.3025817
000140 ca 88 03 be 88 26 8c 3d 93 96 0c 3e c0 bd 9e 3d
       -0.1284515 0.06843287 0.13729315 0.07751036
000150 d4 19 bf 3d e5 6a 88 3d 2a 58 e8 bf c2 b7 2a 3d
       0.09331098 0.066610135 -1.8151906 0.04167915
000160 07 d6 0d be d3 c9 9b 3d 93 de 83 bd 16 94 ce 3d
       -0.13851176 0.07606854 -0.06438937 0.10086839
000170 ea bc b2 bd 16 3b 23 be 14 97 de bd 8b fc f1 bc
       -0.08727439 -0.15940508 -0.108686596 -0.029539367
000180 c1 6b 27 3e 30 9e 86 3d 13 71 4d 3d a4 f6 c7 3d
       0.16349699 0.065731406 0.050156664 0.0976384
000190 4d 81 05 3c d2 88 b6 be 15 fc fc bd 9d d3 09 3d
       0.0081485035 -0.3565126 -0.12352768 0.033649076
0001a0 dc 31 05 bd 12 c8 0e 3e b4 ec ef 3d a4 a7 96 3d
       -0.032518253 0.13943508 0.117150694 0.07356194
0001b0 13 2e b8 bd 30 a2 09 3e a8 3c c7 c0 08 0e 4a be
       -0.08993163 0.13440776 -6.2261543 -0.19731915
0001c0 55 17 1d 3d 1d 2e e0 3c 4e b4 b5 be bd cb a5 3d
       0.03835233 0.027365739 -0.35489124 0.080955006
0001d0 14 80 c4 bd 04 6e 0d 3e e5 19 f7 3d 21 54 3f 3d
       -0.095947415 0.13811499 0.12065486 0.04671109
0001e0 61 eb 8e 3d ca 2c b2 bc a8 6b aa bd c8 e9 8f bb
       0.06978489 -0.021749873 -0.08321315 -0.0043918826
0001f0 67 91 e0 3c a9 fc 37 c0 7e a8 6e be e6 4e 53 3d
       0.027413083 -2.8747962 -0.23306462 0.051588915
000200 79 3b 5e bd 78 5e b1 bc 70 ba f3 bd 66 f1 b2 bd
       -0.054255936 -0.021651492 -0.119007945 -0.08737449
000210 df f3 50 3d af 34 2e bd ec 75 d9 bd 54 33 1e be
       0.051013824 -0.04253071 -0.10618195 -0.15449268
000220 84 a2 1e be 64 c5 2a 3e 46 23 dc 3d cd 21 9e be
       -0.15491682 0.16676861 0.107489154 -0.30885163
000230 0a 45 88 be 5f f0 ca 3d e7 c9 93 c0 94 99 f2 3d
       -0.26615173 0.099091284 -4.6183963 0.11845699
000240 f7 08 c0 c0 6d 44 5c be b1 e9 6b 3d 5e 64 94 be
       -6.0010943 -0.21510477 0.057595912 -0.28982824
000250 37 0b e8 3d 0a 0a 1b be f0 cc 25 be 32 cb 06 be
       0.11330264 -0.15140548 -0.16191459 -0.1316345
000260 4c ef 06 3e 74 fa 37 3d 0d c9 9f be be a9 0b be
       0.13177222 0.044916585 -0.31208077 -0.1363897
000270 2c e2 5e c0 4e 1c dd 3d 86 24 bc 3d a5 22 28 3e
       -3.4825544 0.10796414 0.09186654 0.16419466
000280 8b 58 61 bd b7 71 c4 3d 76 7f a7 3d c6 05 84 3d
       -0.05501608 0.09592002 0.08178608 0.06446414
000290 ca b5 f0 3d e4 ac 9e 3d 41 2d 64 3d f4 2e 67 3d
       0.117534235 0.0774782 0.05570722 0.056441262
0002a0 9a d3 c0 bd 13 16 79 be 04 3e a0 3d ab 89 2b 3d
       -0.0941536 -0.24324827 0.078243285 0.041879337
0002b0 bf 71 80 3d 82 54 05 be 76 0b fc bd 65 8f 2a 3a
       0.06271695 -0.13020518 -0.123068735 0.0006506353
0002c0 95 4d 17 3d ec eb 0c 3e 8f 5d 6c 3d b9 c7 0e 3d
       0.036939222 0.13761872 0.057706412 0.03485844
0002d0 aa f7 b4 3d 81 fb d8 bd ee c8 8a bd 61 8c 66 bd
       0.08836301 -0.105948456 -0.067766055 -0.05628622
0002e0 8a bc 8d 3c a3 15 2b be 42 eb 1e 3e 84 38 3a 3c
       0.017301816 -0.16707473 0.15519431 0.011366013
0002f0 d4 57 71 bd 24 83 d4 3d c8 bc 28 3e 13 da 09 3e
       -0.05892165 0.103765756 0.16478264 0.13462095
000300 d9 e6 25 3e c1 57 46 bc 35 a8 20 3e a0 df 81 3b
       0.16201343 -0.012105883 0.15689166 0.0039634258
000310 f0 78 4d be 6d f2 70 be ca 1e a8 be 56 79 65 3d
       -0.20065665 -0.23529978 -0.3283599 0.056023918
000320 ee 08 15 3d ef 84 53 be 14 0b 9e be 5b dc 22 be
       0.03638547 -0.20656179 -0.30867827 -0.15904371
000330 19 57 97 bd 1e 9f 43 be 0d da 95 3d 10 6d c4 3d
       -0.073896594 -0.19103667 0.073169805 0.095911145
000340 6b cb 64 3d 93 ab 92 ba 12 dd e7 3d f3 43 e9 bd
       0.055858057 -0.0011190049 0.11321463 -0.113899134
000350 ae 1a a4 bd 50 cb d8 bd 65 f5 7a be 55 81 06 be
       -0.08012901 -0.10585654 -0.24507673 -0.13135274
000360 5c 3b d9 3d 4e 5e de c0 f8 81 dd 3d 5c 86 f3 bd
       0.10607025 -6.949012 0.10815805 -0.118908614
000370 c1 0c c6 bd 08 31 05 be 91 70 e0 3d 15 fb dc 3d
       -0.09670401 -0.13006985 0.1095897 0.107900776
000380 a8 65 0a c1 19 09 c8 bd 11 8d e4 3c 84 81 85 3d
       -8.649818 -0.0976736 0.027899297 0.06518844
000390 e5 b1 d9 3d 80 d6 80 be 9d 8c 03 3d d8 4d 88 3d
       0.10629634 -0.2516365 0.03211652 0.066554725
0003a0 25 98 8a bd bd dd ec 3d b1 65 cd 3d d8 fd 17 3e
       -0.067673005 0.11565731 0.10029162 0.14842927
0003b0 d6 4f ac 3d 3d 17 08 3e d1 dd 55 bc c2 21 87 bd
       0.08413665 0.13290115 -0.013053373 -0.06598236
0003c0 10 d5 a0 3d 61 95 13 bc ba 5c d8 3d 2a b1 52 3d
       0.078531384 -0.009007783 0.10564561 0.051438488
0003d0 d2 26 3f be 12 18 6d bd 45 e0 d4 bd 28 65 50 3c
       -0.18667153 -0.057884283 -0.103943385 0.01271943
0003e0 c3 30 fd 3a 62 50 99 3d e9 de 97 be a4 95 17 bc
       0.00193169 0.07486035 -0.29662254 -0.009251986
0003f0 15 82 2d be ea 28 8c bf ea 98 7d 3d c9 c1 f9 bd
       -0.16944154 -1.0949986 0.06191341 -0.12195165

value_layer.0.bias f4 [256]
000000 56 53 2d 3e d2 e8 af bc 09 89 e9 3b 9a d8 a8 3d
       0.16926321 -0.021473322 0.0071269316 0.082444385
000010 76 29 06 3d 58 31 b8 3c 8e e7 0b 3e 8f 6d 02 3d
       0.032754384 0.022484466 0.1366255 0.031842764
000020 f2 de b7 3d ae 79 61 bd 73 0a 30 3e 43 1b 19 3e
       0.0897807 -0.055047683 0.17191486 0.14951806
000030 1b 86 a5 3c 54 db a8 3d cf 95 81 3d ea 22 02 3c
       0.020205548 0.082449585 0.06327402 0.0079428945
000040 95 10 17 3e a8 07 50 bd 28 fb 37 3e 03 38 37 3e
       0.1475242 -0.05078855 0.17966902 0.1789246
000050 7e 92 bf 3d 59 3b f8 3d 1e 65 52 3d a2 af 14 3e
       0.09354113 0.12120695 0.051365964 0.14520124
000060 e4 13 0a 3e 8a a8 9e bc 51 43 54 3d f2 0a 82 3d
       0.1348415 -0.019367475 0.05182201 0.06349744
000070 16 8c 83 3c 3c 6c ab bc fb d6 bb 3d 05 e6 2d 3e
       0.01605801 -0.020925634 0.09171864 0.16982277
000080 e0 31 54 bd f9 cf 0f 3e fb 9a 1c 3e 1c 06 28 3e
       -0.051805377 0.14044179 0.15293495 0.1640858
000090 f5 5e b3 bc b9 53 a1 3d 2d 60 94 3d 59 01 af 3d
       -0.021895865 0.07877297 0.072449066 0.08545179
0000a0 39 10 36 3e 3c a3 d8 3d 00 ed 12 3e f6 e2 96 3d
       0.17779626 0.105780095 0.14348221 0.07367508
0000b0 8d 37 c3 3d 9c 93 26 3c db 7e 38 3d d2 1e 17 3e
       0.0953208 0.010167029 0.045042854 0.14757851
0000c0 a3 af 2f 3e 75 14 98 bc 1e 4a 52 bc 16 ec 04 bd
       0.17156844 -0.018564442 -0.012835054 -0.03245171
0000d0 d9 d4 31 3e ae cf e6 3d c0 d8 07 3e bb c6 59 3d
       0.17366351 0.112700805 0.13266277 0.05316804
0000e0 f6 67 ff 3d c2 b7 0d bb 53 fb fa 3d 37 ac e1 bc
       0.12471001 -0.002162442 0.122549675 -0.027547939
0000f0 44 a8 da 3d 6c 98 11 3d 29 0e 7f bc d3 ef 13 bd
       0.10676625 0.03554575 -0.015567341 -0.036117386
000100 72 07 0a 3e b8 4d 1c 3d ec 23 77 3d ca b3 6d 3d
       0.13479403 0.038160056 0.060336992 0.05803279
000110 16 65 f5 bc 67 eb 18 3e aa 9e 39 3e 10 37 c8 3c
       -0.029955428 0.14933549 0.18126932 0.024440318
000120 66 3b 1f 3e 5b 3e 46 bd d9 0f ae 3d a9 92 2b 3e
       0.15550002 -0.04839931 0.084991165 0.16755165
000130 98 0e 2d bd d8 f9 16 bd 2a 0a af 3d 46 5a 41 3d
       -0.042250246 -0.036859363 0.085468605 0.047205232
000140 c2 94 86 3d 60 55 b0 3d 5e 79 01 3e 5e c2 cb 3d
       0.06571342 0.08610034 0.12643954 0.09949182
000150 bc 29 7c 3d f5 94 79 3b 7b bd 82 3d e4 9e 14 bd
       0.06156324 0.003808317 0.06383797 -0.036284342
000160 ae a6 03 3e 5b 93 98 3c ea 46 5b bc 1d 6a 01 3e
       0.12856552 0.018624952 -0.013383606 0.12638135
000170 45 3f 2f 3d f9 cc 08 3d f5 82 16 3e 19 7f 5f bd
       0.042784948 0.033398602 0.14698394 -0.05456457
000180 68 c1 db 3d 72 15 14 3e 33 8a 30 3e c9 e6 12 3e
       0.10730249 0.14461306 0.17240219 0.1434585
000190 f3 f1 05 3d b3 37 be 3a a3 1a 35 3a 66 aa 55 bd
       0.032701444 0.0014512449 0.0006908571 -0.052164458
0001a0 2c 2c e7 bc da f2 10 3e 38 c1 12 3e 3a 90 24 3e
       -0.028219305 0.1415514 0.1433152 0.16070643
0001b0 88 36 44 3d 9f 4b 2d 3e b8 2b 46 bc 7f f4 8f 3d
       0.047903568 0.16923378 -0.012095384 0.07029056
0001c0 83 b5 33 3e d1 d5 0b 3e 9a b8 96 3d a2 72 44 bb
       0.1754971 0.13655783 0.07359429 -0.0029975553
0001d0 b3 05 89 3d f3 c9 aa 3d 89 a7 0b 3e 29 32 03 ba
       0.0669054 0.083393 0.13638128 -0.0005004728
0001e0 64 2c 3f 3e 23 0e 9c 3d 97 17 32 3d 6b 59 8d bb
       0.18669277 0.07619884 0.04347953 -0.004313638
0001f0 3a e5 61 3d b3 10 7b 3c 3d 70 ef 3d cb 1f 00 3e
       0.055150248 0.015323806 0.1169133 0.12512128
000200 cd 8c a5 3d c5 1f 23 3e bc 8c 8b 3c df 99 60 3c
       0.08083496 0.15930088 0.01703488 0.013708561
000210 5e 7f ba 3d 95 93 f7 3d 47 6a 48 bd 95 68 8a bc
       0.091063246 0.12088696 -0.04892948 -0.016895572
000220 98 7e 16 3d d9 fb 00 bc 90 f7 8d 3d 31 37 2e bd
       0.036741823 -0.007872545 0.069319844 -0.042533103
000230 d0 f0 ad 3d c5 34 7c 3d e1 63 d9 3d 4a 25 fe 3d
       0.08493197 0.061573762 0.106147535 0.12409456
000240 04 c9 07 3e 39 80 1f 3e 63 d5 34 3e a1 bc a2 3d
       0.13260275 0.15576257 0.17659526 0.07946134
000250 24 44 2f 3e d3 b2 d4 3d 3c 91 47 bc 65 3a 0b 3e
       0.17115837 0.103856705 -0.012180623 0.13596494
000260 03 06 45 bd cb 3f b1 3c 70 ec 00 3c de d3 02 3e
       -0.048101436 0.021636864 0.007868871 0.12776133
000270 64 51 59 3d f2 ac 80 3d dc 12 ed 3d 84 da c3 3d
       0.053056136 0.06282987 0.11575863 0.09563163
000280 bb 8a 24 3c 18 d0 9a bc 84 f0 36 3e 6a c9 36 3c
       0.010042842 -0.018898055 0.17865187 0.011156419
000290 db d0 27 3d 6f ad 09 3c 6d 84 df bc 79 b5 7f 3d
       0.040970664 0.008403166 -0.027284825 0.062428925
0002a0 0d 00 eb bc 4d 16 ef 3d be dd 40 3d 22 64 5b 3d
       -0.028686548 0.116741754 0.04708647 0.05356229
0002b0 96 fd 0c 3e dc 7b 60 bd 5a 4e 4a 3d d7 ce 15 3e
       0.1376861 -0.05480562 0.049391128 0.14629684
0002c0 40 67 80 3d 30 2c b1 3d 71 0a 0d 3d db c7 98 bc
       0.062696934 0.08651006 0.034433786 -0.018649986
0002d0 c4 8b 29 3e 46 62 2f 3e 11 78 68 bd d2 07 b2 3d
       0.16557223 0.17127332 -0.05675513 0.08692898
0002e0 18 48 24 3e 86 88 4f bd 32 7c 4a 3c 14 02 4c bb
       0.16043127 -0.05066731 0.012358712 -0.0031129168
0002f0 06 81 b7 bc a1 b1 01 3e 5d b4 e4 bc 04 22 68 3d
       -0.02240039 0.12665416 -0.027918035 0.056673065
000300 9b bc 34 3e 78 1a 0e 3e a7 0a 05 3d 72 f7 00 3d
       0.17650072 0.13877285 0.032480862 0.031485982
000310 eb 2a 72 3d ea 8b cc 3d 72 ff 4d 3c f8 dd 61 3d
       0.05912296 0.09987624 0.01257311 0.055143327
000320 84 09 3a bd 18 0d 05 3e da 44 01 bd 83 b7 4c bd
       -0.04541923 0.12993276 -0.031559803 -0.049979698
000330 27 94 b8 bc ae d6 b4 bc d2 d8 0f 3d e2 0a 2c 3e
       -0.022531582 -0.022075024 0.035118885 0.16801026
000340 31 d2 90 3d e3 94 7f bd a9 b6 1a bc 79 ad 08 3e
       0.07071341 -0.06239785 -0.009442964 0.13347425
000350 c7 3e 3c 3e a3 a2 32 3d d9 8d 22 3e 8c ca bb 3c
       0.18383323 0.043612134 0.15874423 0.02292373
000360 4a e3 e3 3d c4 43 17 3e 48 12 8f 3d 2c df dd bc
       0.11127336 0.14771944 0.06985909 -0.027083956
000370 d5 c3 c5 3c a5 d3 15 3e fb 1c 6f bd d3 54 b7 3d
       0.024141232 0.14631517 -0.058377247 0.08951726
000380 69 a6 2a 3e 3d ea 2a 3e c4 74 a5 bc a9 b3 2c 3d
       0.16665043 0.16690917 -0.02019728 0.042163525
000390 81 b2 68 bc a8 02 3a 3e 83 1e ee bc e0 f9 16 3e
       -0.014202715 0.18165076 -0.029067283 0.14743757
0003a0 db 6b 0d 3b 38 53 1d 3e 44 e7 f0 3a 7a 76 a9 3d
       0.002157918 0.15363777 0.0018379469 0.08274551
0003b0 ed 9e 7a 3c be 21 46 3d 5a 07 7d 3c 15 05 e1 3d
       0.01529668 0.048372023 0.015443647 0.109872974
0003c0 d5 10 2a 3e 3d 92 12 3e 30 b2 2a 3e 70 81 20 3e
       0.16607983 0.14313598 0.16669536 0.15674376
0003d0 49 75 38 3d bc 49 17 bb b7 65 b4 3d c1 19 2e 3e
       0.045033727 -0.002308472 0.08808463 0.17002012
0003e0 0f 51 6e bd d8 03 ad 3c b6 a2 83 bd f9 96 e3 bc
       -0.058182772 0.021119997 -0.06427519 -0.02778195
0003f0 9d f9 93 3d 19 f9 fa 3d 6d 88 16 3e 2e ba 7c 3d
       0.07225344 0.12254543 0.1470048 0.061700992
