benchmarks/BipedalWalkerHardcore-v3/Test_BipedalWalkerHardcore-v3_TD3_20230507-144549/models/critic_1.pth (torch, 186847 bytes, 5 tensors)

fc1.weight f4 [200, 28]
0	0xbe6a287a	-0.22867003
1	0x3f4bd01d	0.7961443
2	0x3faae708	1.3351755
3	0xbe8cf3ef	-0.27529857
4	0x3e57b4af	0.21065019
5	0x3d06a2da	0.03287015
6	0x3c64e937	0.013971618
7	0x3c2f32fc	0.010693308
8	0xbbe9e0ff	-0.0071374173
9	0x3ea0c9aa	0.31403857
10	0x3d6958c4	0.05696942
11	0x3daa0709	0.08302123
12	0x3c9ac583	0.018893009
13	0x3d44b268	0.048021704
14	0xbe700f59	-0.23443355
15	0x3e789864	0.24276882
16	0x3ec26eb3	0.37975082
17	0x3f084fe6	0.53246915
18	0x3ec3e9d9	0.3826435
19	0xbe2ffc20	-0.17186022
20	0xbec7ea94	-0.39046156
21	0xbf2225f2	-0.6333915
22	0xbf0921eb	-0.5356738
23	0x3d9203f7	0.071296625
24	0x3d847000	0.06466675
25	0x39c61745	0.0003778284
26	0x3db1a040	0.086731434
27	0xbaa4bc19	-0.0012568265
28	0x3f39434c	0.7236831
29	0x3f7786c7	0.9669003
30	0xbf49f76e	-0.7889317
31	0x3fb743b9	1.4317542
32	0x3f0385c8	0.5137601
33	0x3d9f2e1e	0.07772468
34	0x3e6a3594	0.22872001
35	0x3c9a3af3	0.018826937
36	0x3d90c96a	0.07069667
37	0xbe70244c	-0.23451346
38	0x3daa7941	0.083239086
39	0x3e7562fc	0.23963541
40	0x3d068f55	0.032851536
41	0xbd5b1b76	-0.053492986
42	0x3cd8a3aa	0.026445229
43	0xbeb6cd80	-0.3570366
44	0x3e4fbcfb	0.20286934
45	0x3ed97485	0.4247171
46	0x3e5b7143	0.21429925
47	0xbde85f81	-0.11346341
48	0xbeb49556	-0.35270184
49	0x3f24b6dc	0.6434152
50	0x3e26adfa	0.16277304
51	0xbebd2fd0	-0.3695054
52	0x3d82b641	0.063824184
53	0xbc14ff3c	-0.009094056
54	0x3de36052	0.11102356
55	0xbd523c5b	-0.05132709
56	0xbfc9f282	-1.5777133
57	0xbec9ff1c	-0.39452446
58	0x3f814c47	1.0101403
59	0x3ea4326c	0.3206972
60	0x3e79d77c	0.24398607
61	0x3db3a522	0.08771731
62	0xbf097666	-0.53696287
63	0x3cb0a354	0.021562256
64	0x3e60416f	0.21899961
65	0xbea1d391	-0.31606725
66	0x3cd26c47	0.025686396
67	0xbf2bf2f0	-0.6716757
68	0x3d63ef92	0.055648394
69	0x3e5fcc04	0.2185517
70	0x3d5ae019	0.053436372
71	0x3d70c1bf	0.05877852
72	0xbe9de538	-0.30838943
73	0xbefdfeda	-0.496085
74	0xbe83196a	-0.25605327
75	0xbed00860	-0.4063139
76	0xbeadaeea	-0.3392251
77	0xbe4883b1	-0.19581486
78	0xbf0a07ea	-0.53918326
79	0x3ea01a3c	0.31270015
80	0x3db427c0	0.08796644
81	0xbc0b0bce	-0.008486701
82	0xbcd1a36c	-0.025590621
83	0x3de11642	0.109905735
84	0xbd583a44	-0.05278994
85	0xbe89bfd0	-0.26904154
86	0xbe61db4d	-0.22056313
87	0xbde3a2cf	-0.11115038
88	0x3d2ea7fd	0.042640675
89	0x3c27baaa	0.010237375
90	0x3d29bb3e	0.041438334
91	0xb80f65ed	-3.4188783e-05
92	0xbc92266f	-0.017840592
93	0xbdb804e9	-0.089853115
94	0xbce1f9ed	-0.027584994
95	0xbda52e19	-0.08065433
96	0xbc373f71	-0.011184559
97	0xbd808c10	-0.06276715
98	0x3f106e9b	0.5641877
99	0x3f76cd50	0.9640703
100	0x3f5582d5	0.8340276
101	0xbe4227c6	-0.18960485
102	0xbfac7c00	-1.3475342
103	0xbeeb0cfb	-0.4590834
104	0xbee7bc4c	-0.45260847
105	0x3e798c3b	0.243699
106	0x3ec30ade	0.38094229
107	0x3d104385	0.03522064
108	0x3c9b7f2e	0.018981542
109	0xbc5764d6	-0.0131466
110	0x3d47d7c9	0.048789773
111	0xbcb92317	-0.02259974
112	0xbedaf4fa	-0.42765027
113	0x3b7db4a6	0.0038712411
114	0xbeabdb80	-0.33565903
115	0xbde96b6a	-0.11397441
116	0x3f7cccce	0.9875001
117	0x3d52eea0	0.0514971
118	0xbca63b00	-0.020291805
119	0x3d13e500	0.036107063
120	0xbd86027b	-0.06543442
121	0xbfbad1d0	-1.459528
122	0xbddce813	-0.10786452
123	0xbea4b09b	-0.3216599
124	0xbc10823d	-0.008820114
125	0x3d6aecda	0.057354786
126	0x3e4c0f78	0.19927776
127	0xbe9bfee6	-0.3046791
128	0xbe80367e	-0.25041574
129	0x3de43f06	0.11144833
130	0xbd5e9b22	-0.054347165
131	0x3c809bfd	0.015699381
132	0xbebc17e4	-0.36736977
133	0xbd3c0246	-0.045900606
134	0x3e4d791f	0.20065735
135	0x3deb1c57	0.11480015
136	0xbd8856b3	-0.066571616
137	0x3d402e9b	0.046919446
138	0xbe24e959	-0.1610464
139	0xbe1470bf	-0.14496134
140	0x3e3fd23a	0.18732539
141	0xbf30b8a2	-0.6903173
142	0xbf318b55	-0.6935323
143	0xbfe716fa	-1.8053887
144	0x3ed4b57f	0.4154472
145	0x3d94cd13	0.07265677
146	0x3ca0a023	0.01960761
147	0x3ccbe079	0.02488731
148	0xbc74e04e	-0.0149460565
149	0x3dee93f1	0.11649311
150	0x3d977b8e	0.07396613
151	0xbd933a10	-0.07188809
152	0x3d924e7e	0.071438774
153	0xbc57dcd8	-0.013175212
154	0x3de31172	0.11087312
155	0x3f1d36aa	0.61411536
156	0x3e221feb	0.15832488
157	0x3e44e702	0.19228747
158	0x3d8da6d9	0.06916589
159	0x3e9574a9	0.29190567
160	0x3e7a795a	0.24460354
161	0xbf57eed9	-0.8434883
162	0x3e14700e	0.1449587
163	0x3eae4925	0.3404018
164	0x3e1b2781	0.15151788
165	0xbd49640e	-0.049167685
166	0x3e4206ba	0.18947878
167	0x3d03c82a	0.032173313
168	0xbe8783a0	-0.2646761
169	0xbf76ac29	-0.96356446
170	0xbd8a2591	-0.067454465
171	0x3f316cdc	0.6930673
172	0x3dc0dcd5	0.0941712
173	0x3d3a89ed	0.045541693
174	0x3bb09eef	0.00539004
175	0xbc8d7ca0	-0.01727134
176	0x37fcc43a	3.0132116e-05
177	0x3e35a080	0.17737007
178	0xbd8c104e	-0.06839047
179	0x3dacf794	0.08445659
180	0xbcf25792	-0.029582772
181	0x3c145e6b	0.009055714
182	0xbe47a65e	-0.19497058
183	0xbcf1e6e3	-0.02952904
184	0xbe9d81a8	-0.30762982
185	0xbe111949	-0.14169802
186	0xbc2655b9	-0.010152274
187	0xbd702197	-0.058625784
188	0x3eed675a	0.46367913
189	0x3ef146b9	0.4712427
190	0xbeffe066	-0.4997589
191	0x3e0142ea	0.12623182
192	0xbcfd2411	-0.030900987
193	0xbe121fb9	-0.14269914
194	0x3cbaaf31	0.022788616
195	0x3d7e69fc	0.062112793
196	0xbedfbe96	-0.43700093
197	0xbe4e8f4c	-0.20171851
198	0x3f2e9cdc	0.682081
199	0xbd156157	-0.036469784
200	0xbdda8530	-0.10669935
201	0xbcd5c474	-0.026094653
202	0xbbaeff37	-0.0053404826
203	0xbced653d	-0.028978938
204	0xbd78415f	-0.060609218
205	0xbe7d9510	-0.24763894
206	0x3dbb5049	0.091461726
207	0xbd579884	-0.052635685
208	0x398a1c75	0.00026342613
209	0x3e06a617	0.13149296
210	0x3d1db3c1	0.038501505
211	0x3e86e10b	0.2634357
212	0x3e71eddc	0.23625892
213	0xbcc2c2c1	-0.023774507
214	0xbd54c632	-0.051946826
215	0xbdddf771	-0.10838211
216	0xbe4363c8	-0.19081032
217	0xbdbe2ab1	-0.092854865
218	0x3ef55f4f	0.47924277
219	0x3c3af68e	0.011411322
220	0xbda30f9b	-0.07961961
221	0xbd77e766	-0.060523413
222	0x3cf45b55	0.029828707
223	0xbc482d52	-0.012217836
224	0xbe8a79e7	-0.2704613
225	0xc0034627	-2.0511568
226	0x3f2f8625	0.68564063
227	0x3f4fc10d	0.8115395
228	0xbdd4d71a	-0.1039259
229	0xbe77a4c9	-0.24183954
230	0xbb6a05d1	-0.0035709033
231	0xbdaf4b51	-0.08559287
232	0xbd97bab8	-0.07408661
233	0xbf463627	-0.7742638
234	0x3dc819e7	0.097705655
235	0x3e58558f	0.21126388
236	0xbcb6c2c0	-0.02230966
237	0x3e19d756	0.1502355
238	0xbdee228a	-0.116276816
239	0xbf0a7c24	-0.54095674
240	0xbeb1fb16	-0.34761876
241	0x3c0eca3f	0.008715211
242	0x3d44f500	0.048085213
243	0xbd4906b8	-0.049078673
244	0xbdca2a80	-0.098713875
245	0xbcbaa72d	-0.022784794
246	0x3e04e866	0.12979278
247	0x3daeb4cd	0.08530579
248	0xbe01de46	-0.12682447
249	0x3c85b446	0.016321313
250	0x3e2a2ba5	0.16618212
251	0x3cd38594	0.025820531
252	0x3f0ce954	0.5504353
253	0x40548078	3.320341
254	0xbe5ea430	-0.2174232
255	0x3f4f60e1	0.810072

fc1.bias f4 [200]
0	0xbe178704	-0.14797598
1	0xbdda8128	-0.10669166
2	0x3df3a0a3	0.118958734
3	0xbce28de0	-0.027655542
4	0xbe0d0679	-0.13772
5	0x3cd4bf44	0.025970109
6	0x3dcac50c	0.09900865
7	0x3c336aee	0.010950787
8	0x3ed21320	0.41030216
9	0xbea20436	-0.31643838
10	0xbe9eec72	-0.31039768
11	0x3e531a45	0.2061549
12	0xbdb64689	-0.08900172
13	0x3d2fdcc8	0.042935163
14	0xbee8b050	-0.45447016
15	0xbe233b70	-0.15940642
16	0xbed2f3ea	-0.41201717
17	0x3eac7148	0.33680177
18	0x3e239119	0.15973319
19	0xbec3ee2d	-0.3826765
20	0x3d80ec2f	0.062950484
21	0x3e8d08f5	0.27545896
22	0xbebea449	-0.37234715
23	0xbe8615ee	-0.26188606
24	0xbe7d15c9	-0.24715342
25	0xbe446424	-0.19178826
26	0xbd85379d	-0.06504748
27	0x3e753764	0.23946911
28	0xbed5280b	-0.41632113
29	0x3dc4ba33	0.09605827
30	0x3e29325b	0.16523115
31	0x3f18f603	0.59750384
32	0xbe6852cd	-0.22687836
33	0x3e1a0613	0.1504138
34	0xbc156d0c	-0.009120237
35	0x3eb5a255	0.35475412
36	0x3e599bef	0.2125089
37	0x3ebbbfd3	0.36669788
38	0x3e05e8da	0.13077107
39	0xbd95f953	-0.073229454
40	0xbe1dd6ac	-0.15413922
41	0x3b2e69c0	0.0026613325
42	0xbd98ed37	-0.0746712
43	0xbeb45fa7	-0.35229227
44	0x3dde0c14	0.108421475
45	0x3d3c2d5e	0.045941703
46	0x3eac4173	0.33643684
47	0x3da8814b	0.08227786
48	0x3eb8ba26	0.3607952
49	0xbdadec00	-0.08492279
50	0x3ea34b71	0.31893495
51	0x3d27397c	0.040826306
52	0x3d8c8e5d	0.06863091
53	0x3f06c231	0.5264006
54	0x3c57e6ba	0.013177568
55	0x3db86dcb	0.09005316
56	0x3d6de048	0.05807522
57	0x3e035583	0.12825589
58	0xbc152b8d	-0.009104622
59	0x3cbfaec1	0.023398759
60	0x3ebfe482	0.37479025
61	0x3c4c9724	0.012487207
62	0x3daffd64	0.08593252
63	0x3e879085	0.26477447
64	0x3d8c9c03	0.068656944
65	0xbc2087dd	-0.009798017
66	0xbd1038b9	-0.035210345
67	0xbe1dc658	-0.15407693
68	0x3f17f11b	0.5935227
69	0xbf10e1da	-0.5659462
70	0x3e0271cc	0.12738723
71	0x3dab8280	0.083745
72	0xbe29f5cd	-0.16597672
73	0xbe9f3f31	-0.311029
74	0x3eb5b577	0.3549001
75	0x3ee5e87a	0.44903928
76	0xbccf6cb5	-0.02532039
77	0x3ddaa844	0.10676625
78	0x3df169a5	0.11787728
79	0xbd714648	-0.058904916
80	0x3df5af81	0.11996365
81	0xbeb54209	-0.35401943
82	0xbf37c07b	-0.71778077
83	0xbdc498f5	-0.09599487
84	0x3e7f45d0	0.24928975
85	0xbe4c1148	-0.19928467
86	0xbe4e6408	-0.20155346
87	0x3dc93145	0.098238505
88	0xbe2b198e	-0.16708967
89	0xbf37a41d	-0.7173479
90	0xbea23137	-0.31678173
91	0xbdca1a5b	-0.09868308
92	0x3d07a31f	0.03311455
93	0xbe16fe55	-0.14745457
94	0xbe758bc8	-0.23979104
95	0xbe14b7ac	-0.1452319
96	0x3ed212c8	0.41029954
97	0x3e56254e	0.20912668
98	0x3e708956	0.2348989
99	0xbdd041f1	-0.10168827
100	0xbe69b117	-0.2282146
101	0xbea578cb	-0.3231872
102	0x3d55c3a8	0.052188545
103	0x3e074609	0.1321031
104	0x3e8cddcc	0.27512968
105	0x3f0d15fb	0.55111665
106	0xbe980e36	-0.29698342
107	0x3d0a9ea6	0.033842705
108	0xbdbdbdbb	-0.09264704
109	0xbd8ff5b0	-0.07029283
110	0xbe85582a	-0.26043826
111	0x3d6b0c0c	0.057384536
112	0xbea73906	-0.32660693
113	0xbec491bf	-0.38392445
114	0xbe5f28b1	-0.21792866
115	0xbe5dd6ff	-0.21664046
116	0xbd93078f	-0.07179176
117	0xbdbeb8c4	-0.09312585
118	0xbdc2f5bc	-0.09519526
119	0xbcfe50f4	-0.03104446
120	0xbe60370e	-0.21896002
121	0xbc97216c	-0.018448554
122	0x3e8e5836	0.27801675
123	0xbe8cad56	-0.27475995
124	0x3e3f855f	0.18703221
125	0x3f3f020d	0.74612504
126	0xbe363028	-0.17791808
127	0xbe42ae04	-0.19011694
128	0xbedfda53	-0.43721256
129	0xbe7cd0fd	-0.24689098
130	0xbe191cf4	-0.14952451
131	0x3d459479	0.048237298
132	0x3e9d9ea8	0.30785108
133	0xbf07a9d0	-0.5299349
134	0x3e669a14	0.22519714
135	0x3bcc60ac	0.00623711
136	0x3e0eeb13	0.13956861
137	0x3da7c8fb	0.08192631
138	0xbe842f57	-0.25817367
139	0x3edf6263	0.4362975
140	0xbd65d625	-0.056112427
141	0x3ee5d8db	0.4489201
142	0xbe796fa9	-0.24359001
143	0x3f089eeb	0.5336749
144	0xbf469a86	-0.77579534
145	0xbe66478b	-0.22488229
146	0x3eb2299d	0.34797373
147	0xbe500ced	-0.20317431
148	0xbb128882	-0.0022359197
149	0x3e3eeb29	0.18644394
150	0x3d76ff0d	0.06030183
151	0xbdf1a61a	-0.117992595
152	0xbf10057b	-0.5625836
153	0xbea4038c	-0.32033956
154	0x3d7d2cea	0.06181041
155	0xbd0551fc	-0.03254889
156	0xbc8e9794	-0.017406262
157	0xbe4e053a	-0.20119181
158	0x3e40b37a	0.18818465
159	0xbf08466e	-0.5323247
160	0xbce193cd	-0.027536297
161	0x3e00a038	0.12561119
162	0x3ec7ab56	0.38997906
163	0xbecefae8	-0.404258
164	0x3eab758b	0.33488116
165	0x3f24a06f	0.643073
166	0xbeaca655	-0.3372065
167	0xbe034cb1	-0.12822224
168	0x3e02265e	0.12709948
169	0xbea973f1	-0.3309627
170	0x3e204722	0.15652135
171	0xbdac3ade	-0.084096655
172	0x3eb2af0c	0.34899175
173	0xbe5dffe9	-0.21679653
174	0x3edb3a08	0.42817712
175	0xbd43b809	-0.04778293
176	0xbd9e6b20	-0.07735276
177	0xbcb9f18d	-0.022698188
178	0x3e079355	0.13239796
179	0xbeb124eb	-0.3459848
180	0x3d86f279	0.06589217
181	0xbde1ab5e	-0.11019014
182	0x3e820f34	0.25402224
183	0x3dd66095	0.1046764
184	0xbd8aa424	-0.067695886
185	0x3e18fe24	0.14940697
186	0xbe445aee	-0.19175312
187	0xbef66ee7	-0.48131487
188	0x3da4c209	0.08044822
189	0x3d9cb716	0.07652108
190	0x3e587e1a	0.21141854
191	0xbccf76f0	-0.025325269
192	0x3eb9eb46	0.36312312
193	0x3e029b04	0.12754446
194	0x3e7bc65f	0.24587391
195	0xbe06955b	-0.13142912
196	0x3f1a9e16	0.6039747
197	0x3d3ff364	0.046862975
198	0xbf20a7a1	-0.6275578
199	0xbef6becc	-0.4819244

fc2.weight f4 [200, 200]
0	0x3e7d55b2	0.24739721
1	0xbeb5d2ba	-0.35512334
2	0x3c25c541	0.01011783
3	0xbe4cef34	-0.20013124
4	0x3c284c1f	0.010272055
5	0x3d450889	0.048103843
6	0xbd10d9d5	-0.03536399
7	0x3dd9011f	0.10595917
8	0xbe2d93d1	-0.16950919
9	0xbd45d7ea	-0.048301615
10	0xbeb6fbc9	-0.35738972
11	0x3e26fde3	0.16307788
12	0x3e93f444	0.28897297
13	0xbe27e05d	-0.16394182
14	0xbe509ec5	-0.20373066
15	0xbda87d74	-0.08227053
16	0xbe812238	-0.2522142
17	0x3dec9801	0.1155243
18	0x3ead476c	0.33843553
19	0xbde37982	-0.1110716
20	0xbe276b14	-0.16349441
21	0x3e0bae95	0.13640817
22	0xbecccdfc	-0.40000904
23	0x3e02de40	0.12780094
24	0xbe103644	-0.140832
25	0xbef4f98e	-0.47846645
26	0x3da027ed	0.07820115
27	0x3f17ee2e	0.5934781
28	0x3f0d170a	0.5511328
29	0x3e676a07	0.2259904
30	0x3ebb569f	0.36589524
31	0x3ce81285	0.028329143
32	0xbf6c99aa	-0.9242197
33	0xbf6f63fe	-0.9351195
34	0x3dcb5d19	0.09929866
35	0x3e1f3c3c	0.15550321
36	0xbf4fbbe3	-0.8114607
37	0x3d87ca58	0.06630391
38	0x3e35452c	0.17702168
39	0xbddfe3a5	-0.109320916
40	0xbe623b74	-0.22092992
41	0xbe283352	-0.16425827
42	0x3ce2358c	0.027613424
43	0xbecfeb17	-0.40609047
44	0xbd8b4854	-0.06800905
45	0x3db5385c	0.0884864
46	0x3e4130a9	0.18866219
47	0xbf2ece18	-0.68283224
48	0x3d587527	0.0528461
49	0xbc84acb3	-0.01619563
50	0x3e1dc8ec	0.15408677
51	0xbe37866f	-0.17922376
52	0x3d2797df	0.04091632
53	0x3ef08cf5	0.46982542
54	0x3e24c6bb	0.16091435
55	0x3eb16077	0.3464391
56	0xbf0ce2e1	-0.5503369
57	0xbc3c5f42	-0.011497321
58	0x3deb3cef	0.114862315
59	0xbe30145a	-0.17195264
60	0x3eca1f7b	0.39477143
61	0xbe90d993	-0.28290996
62	0xbe579da1	-0.21056224
63	0x3ec1a6c7	0.37822554
64	0x3ce27bd6	0.02764694
65	0xbc3a62e0	-0.011376113
66	0x3e1dbeca	0.15404812
67	0xbe9a1b82	-0.30099112
68	0x3f06851c	0.5254686
69	0xbd684b22	-0.056712277
70	0xbd9c16f5	-0.07621566
71	0x3e45c7a4	0.19314438
72	0x3b962f14	0.004583249
73	0xbc31d269	-0.010853388
74	0x3e226596	0.15859064
75	0xbeba7386	-0.36416262
76	0x3e142a8e	0.14469358
77	0x3c940b9d	0.018071944
78	0xbe5f9703	-0.2183495
79	0x3cba0050	0.022705227
80	0x3e175e25	0.14782007
81	0x3bf07755	0.0073384442
82	0xbe1a082d	-0.15042181
83	0xbe8bf7bb	-0.2733744
84	0xbda095ee	-0.07841097
85	0xbefcf0b6	-0.49402398
86	0x3d042972	0.032266088
87	0x3e2e0ec0	0.16997814
88	0xbf44684b	-0.7672164
89	0xbd39f96f	-0.045403894
90	0xbe352c1e	-0.1769261
91	0xbf6bb282	-0.92069256
92	0xbeb9eada	-0.3631199
93	0xbddb2484	-0.10700324
94	0x3dfd1077	0.12356656
95	0x3def6aa6	0.116902635
96	0x3e520b3d	0.205121
97	0xbe19f3fa	-0.15034476
98	0x3eeeb727	0.4662411
99	0xbe415bc2	-0.18882659
100	0xbe0fa314	-0.14027053
101	0x3d8a27c1	0.06745864
102	0xbe437112	-0.19086102
103	0x3dce244f	0.10065519
104	0x3e39f1d4	0.18158656
105	0x3e051bac	0.12998837
106	0x3dd4604b	0.10369929
107	0x3c4de648	0.01256711
108	0xbdde924c	-0.10867748
109	0xbe73460e	-0.23757192
110	0xbe85ae8a	-0.26109725
111	0x3f20d8a7	0.62830585
112	0xbee13fdb	-0.4399403
113	0xbe873738	-0.26409316
114	0xbe454035	-0.19262774
115	0xbd858827	-0.065201096
116	0xbd97b4ad	-0.07407508
117	0x3d03b9d9	0.03215966
118	0x3d114607	0.035467174
119	0xbdc0d3fc	-0.09415433
120	0x3def7afb	0.116933785
121	0xbeef71c0	-0.46766472
122	0x3e8a38b3	0.26996383
123	0x3e37f2e8	0.17963755
124	0xbe0e7bf5	-0.13914473
125	0x3e7842b0	0.2424419
126	0x3e883ce7	0.26608965
127	0xbe996025	-0.29956165
128	0xbd3fed2c	-0.046857044
129	0x3dab8d3a	0.08376546
130	0xbe14ef26	-0.14544353
131	0x3eb45513	0.35221156
132	0xbf1bf31b	-0.60917825
133	0x3ebae729	0.36504486
134	0xbe044b94	-0.12919456
135	0xbe5a1986	-0.21298799
136	0x3e21ed9c	0.15813297
137	0xbf31cc3e	-0.69452274
138	0xbe9427c4	-0.2893659
139	0x3e758894	0.23977882
140	0xbe92c77a	-0.28667814
141	0xbee9bf09	-0.4565356
142	0x3e736672	0.23769549
143	0x3d1075bc	0.03526853
144	0x3e484ab8	0.19559753
145	0xbdb14f68	-0.08657724
146	0xbf0033aa	-0.50078833
147	0xbe105cc2	-0.14097884
148	0x3e1877c9	0.14889444
149	0x3ec430c8	0.38318467
150	0xbf244ad9	-0.6417671
151	0x3e9760d9	0.29566076
152	0xbd937507	-0.072000556
153	0x3e42dbb6	0.19029126
154	0x3cabee3b	0.02098762
155	0xbd4697b0	-0.048484504
156	0x3d142fe3	0.03617848
157	0x3ca5a4d7	0.020220203
158	0xbe17075e	-0.14748904
159	0x3f17f531	0.5935851
160	0xbe027401	-0.12739564
161	0x3e8e6d3c	0.27817714
162	0x3dc5a74e	0.096510515
163	0xbda44bf9	-0.08022303
164	0xbe7493cf	-0.2388451
165	0x3e0ed8d9	0.13949908
166	0x3e934794	0.28765547
167	0x3b78143b	0.0037853855
168	0x3ec52e52	0.38511902
169	0x3da21f96	0.07916181
170	0x3e8b14e0	0.27164364
171	0x3e05ff86	0.13085756
172	0x3ea23dfd	0.31687918
173	0xbda820dd	-0.08209393
174	0xbb0f02c9	-0.0021821728
175	0xbb217273	-0.0024634867
176	0x3d70ea33	0.0588171
177	0xbe580211	-0.21094538
178	0x3e72a60b	0.23696153
179	0xbe279aa5	-0.16367586
180	0xbe873160	-0.26404858
181	0xbdeec7a0	-0.11659169
182	0x3db8bfc1	0.09020949
183	0xbe617cbb	-0.22020237
184	0xbede6c00	-0.43441772
185	0x3e916eda	0.28404886
186	0x3f889632	1.0670836
187	0x3d34f69f	0.04418051
188	0xbe444e2e	-0.19170448
189	0xbd30c064	-0.043152228
190	0xbe384946	-0.17996702
191	0x3d0733f1	0.03300852
192	0xbc061b47	-0.008185214
193	0xbd228f82	-0.03968764
194	0x3df9caff	0.121969216
195	0xbe00ac8d	-0.12565823
196	0x3dcc5516	0.09977166
197	0x3cfc7b13	0.030820405
198	0xbe3cbc2c	-0.18431157
199	0xbd886282	-0.06659414
200	0x3e432319	0.19056357
201	0xbeb356d4	-0.35027182
202	0xbf36df79	-0.7143474
203	0x3ea8063f	0.32817265
204	0xbef3f39d	-0.476468
205	0x3c7e99c4	0.01553959
206	0x3eae5d43	0.34055528
207	0x3d8c6c13	0.06856551
208	0x3badcc4c	0.005303895
209	0xbe49f369	-0.1972176
210	0xbea6aea7	-0.32555124
211	0xbdaadf20	-0.08343339
212	0x3e804d18	0.25058818
213	0xbe3d33b6	-0.18476757
214	0xbcf46caf	-0.02983698
215	0x3e93624f	0.2878594
216	0xbe1be143	-0.1522265
217	0xbc9f6e81	-0.019461872
218	0xbe61d60d	-0.2205431
219	0x3e00d341	0.12580587
220	0x3dae6411	0.0851518
221	0x3eaa7dba	0.33299047
222	0xbcd7353f	-0.026270507
223	0xbee6488b	-0.4497722
224	0x3f25ff29	0.6484247
225	0xbd9ad57c	-0.0756025
226	0xbe0f3f2a	-0.13988939
227	0xbf6230e1	-0.88355833
228	0xbe31eb75	-0.17374976
229	0x3dd024c1	0.1016326
230	0xbdc71bd9	-0.097221084
231	0x3d415ac6	0.04720571
232	0xbed8ddde	-0.4235677
233	0x3fa2d1eb	1.2720312
234	0xbe4c0f9b	-0.19927828
235	0x3e8787fa	0.2647093
236	0x3f27fbc8	0.6561856
237	0xbdf7c00f	-0.12097179
238	0xbe0cc053	-0.13745241
239	0xbcdffddc	-0.02734273
240	0xbdb23b96	-0.08702771
241	0x3d009ac2	0.03139759
242	0x3e13bfbf	0.14428614
243	0xbe95e41d	-0.292756
244	0xbebaf60a	-0.36515838
245	0x3df21154	0.11819711
246	0xbf8e4da4	-1.1117444
247	0xbfb7b949	-1.435342
248	0xc00377f4	-2.0541964
249	0x3d577fe9	0.05261222
250	0x3f568029	0.83789307
251	0x3e8ac5c2	0.27104002
252	0xbe9aa4aa	-0.30203754
253	0x3db6d926	0.089281365
254	0xbec6a8c6	-0.3880064
255	0xbe5968f3	-0.21231441

fc2.bias f4 [200]
0	0x3d9a9a32	0.07548942
1	0x3d7cb8c8	0.06169966
2	0x3c013a09	0.007887372
3	0x3b60415b	0.0034218642
4	0x3b8d76b7	0.0043171304
5	0x3e7fb3ca	0.24970928
6	0x3dff07d6	0.124526665
7	0x3db7f46c	0.08982167
8	0xbe8f53d8	-0.27993655
9	0x3d643665	0.055715937
10	0x3e26576a	0.16244283
11	0x3e168b2b	0.14701526
12	0xbc17532f	-0.009236141
13	0xbd0d3c91	-0.03448159
14	0x3d936a69	0.071980305
15	0x3e11cd63	0.14238505
16	0xbd4b4eaf	-0.049635585
17	0x3dca3ab3	0.09874477
18	0x3d023d94	0.031797007
19	0x3e5ed5ea	0.21761289
20	0xbe1960d6	-0.14978346
21	0x3e50e27a	0.20398894
22	0xbd108fa6	-0.035293244
23	0x3e3b6f40	0.18304157
24	0xbb36ab44	-0.0027873078
25	0x3e381a5d	0.17978807
26	0xbdcd59ae	-0.10026871
27	0xbd9c4a6a	-0.07631381
28	0xbdb2b145	-0.08725218
29	0x3d9094c6	0.07059626
30	0xbe5b3fae	-0.2141101
31	0x3d408cbf	0.047009226
32	0x3e3a71f0	0.18207526
33	0x3e00c135	0.12573703
34	0x3db4c2ad	0.08826194
35	0x3e2a2a47	0.1661769
36	0x3d464880	0.048408985
37	0xbdb84eb0	-0.089993834
38	0xbcd7ba67	-0.026334
39	0x3e7c8c16	0.24662814
40	0x3e0e14e1	0.13875152
41	0x3c29d94a	0.010366747
42	0x3d3c1678	0.045919865
43	0xbc8e7a6b	-0.017392358
44	0x3e388a32	0.18021467
45	0x3c475771	0.012166844
46	0x3dbbcda0	0.09170079
47	0x3dd0c5e9	0.10193998
48	0xbbeb5827	-0.0071821394
49	0x3d2eaa9c	0.042643175
50	0x3d040faa	0.0322415
51	0xbd1fb516	-0.038991056
52	0x3df4432d	0.11926875
53	0x3d0febfb	0.035137158
54	0xbdaf2ade	-0.08553098
55	0xbe87c10e	-0.26514477
56	0x3e40560e	0.18782827
57	0x3d322e6b	0.0435013
58	0x3e3c77de	0.184051
59	0xbd2cb2a2	-0.042162545
60	0x3e6d0cd4	0.23149425
61	0xbcf3dfee	-0.029769864
62	0x3e792659	0.24331035
63	0x3e291237	0.16510855
64	0x3d907d09	0.070550986
65	0xbe084b15	-0.13309892
66	0x3d9c69a8	0.0763734
67	0x3cd2dad7	0.025739117
68	0x3e5729fc	0.2101211
69	0x3d04d0bc	0.032425627
70	0x3b1aa3ee	0.0023596245
71	0xbdd1fcbf	-0.102532856
72	0xbcb84298	-0.022492692
73	0xbdf5121e	-0.11966346
74	0x3e10a74f	0.14126323
75	0x3e2f5171	0.17120911
76	0xbd429dc5	-0.047513742
77	0xbe111f98	-0.14172208
78	0xbe4f0fb8	-0.2022084
79	0x3d8601b5	0.06543294
80	0xbda818cb	-0.08207854
81	0x3e0917cd	0.13387986
82	0x3defb66c	0.11704716
83	0x3e57d5cf	0.21077655
84	0xbdc34755	-0.0953509
85	0x3e525a14	0.20542175
86	0xbe0b8098	-0.13623273
87	0xbeb68975	-0.35651746
88	0x3dd1cdc4	0.10244325
89	0xbd83714e	-0.064180955
90	0xbe343ea3	-0.17602019
91	0x3e140687	0.14455615
92	0xbd814a3d	-0.06312988
93	0x3dad4ae0	0.08461547
94	0xbd67f4cb	-0.056629937
95	0xbc8fb1a2	-0.017540757
96	0x3bed2b5d	0.0072378353
97	0x3cc8a868	0.024494365
98	0xbd806b99	-0.062705226
99	0x3dfff819	0.12498493
100	0xbe463315	-0.19355424
101	0xbe097d9c	-0.13426822
102	0xbc2637ec	-0.010145169
103	0xbded659a	-0.115916446
104	0x3bffbdc4	0.0078046042
105	0x3d6ef8a6	0.0583426
106	0xbdf2cd6a	-0.11855586
107	0x3ceb45dd	0.028719837
108	0x3d5a5f7f	0.05331373
109	0x3e1ab6f6	0.15108857
110	0xbdf9d7f9	-0.12199397
111	0x3d30d9be	0.043176405
112	0xbdaac842	-0.083389774
113	0xbd976404	-0.07392123
114	0x3d157e4a	0.03649739
115	0x3d0373b9	0.032092784
116	0xba99eb62	-0.0011743123
117	0xbd10e0b8	-0.03537056
118	0x3e2ca240	0.16858768
119	0x3d1fe60f	0.03903776
120	0x3e4a914f	0.19781993
121	0xbd3e79a3	-0.04650272
122	0x3e09f0a1	0.13470699
123	0x3e657917	0.22409473
124	0x3de5c452	0.11219086
125	0xbd61c54a	-0.05511979
126	0xbdc8630b	-0.09784516
127	0xbe0bda3c	-0.13657469
128	0x3e1948a6	0.1496912
129	0xbdd96788	-0.1061545
130	0x3de7269b	0.1128666
131	0x3de41ef9	0.1113872
132	0xbe1a3490	-0.15059114
133	0xbe5b23d1	-0.21400382
134	0x3e3c6791	0.18398882
135	0x3e4391e9	0.19098629
136	0x3e2d336d	0.16914149
137	0x3c67f230	0.014156863
138	0x3d39166e	0.045187406
139	0xbd82adc3	-0.06380799
140	0x3d730c7a	0.05933807
141	0x3c81457e	0.015780207
142	0xbeafc0e2	-0.34326845
143	0xbba5db1a	-0.0050615193
144	0x3e10eb6d	0.14152308
145	0xbab4fdbe	-0.0013808531
146	0x3e0e3933	0.13889007
147	0x3dd2df0d	0.1029645
148	0xbdb32a84	-0.087483436
149	0x3deff99a	0.117175296
150	0xbdbd7ed8	-0.09252709
151	0xbe30fdc9	-0.17284311
152	0xbda2d79d	-0.07951281
153	0x3d946ac9	0.0724693
154	0xbdc8508a	-0.097809866
155	0xbdaef83a	-0.08543439
156	0xbd9ab3ba	-0.07553811
157	0xbe21fd70	-0.15819335
158	0x3df57787	0.11985689
159	0x3db1ac0b	0.08675393
160	0xbd2bcfcf	-0.04194623
161	0x3e1082e8	0.14112437
162	0xbc4d7135	-0.012539198
163	0x3d8b4fe5	0.06802348
164	0xbe1ba41c	-0.15199322
165	0xbe0d838a	-0.1381971
166	0x3bf9e034	0.007625604
167	0x3e5e225a	0.21692792
168	0xbddcbb0c	-0.10777864
169	0x3dae9741	0.08524943
170	0x3a55cee4	0.0008156134
171	0x3df5543e	0.119789585
172	0xbe08c473	-0.1335619
173	0x3e18cd33	0.14922027
174	0x3dea6d01	0.11446572
175	0x3e1bce51	0.15215422
176	0x3eb5cdec	0.35508668
177	0x3e1ac06d	0.15112467
178	0xbe87c381	-0.26516345
179	0x3d75f615	0.060049135
180	0xbe9d3d1a	-0.3071068
181	0x3cba1d1d	0.02271896
182	0x3c89610e	0.016769912
183	0x3dd1db21	0.10246874
184	0xbda667c4	-0.081252605
185	0xbe38e275	-0.18055137
186	0x3de04a7b	0.10951706
187	0x3d23e13c	0.040009722
188	0x3e8d035c	0.27541625
189	0x3cf3c76f	0.029758183
190	0x3d29a655	0.041418392
191	0x3d1c990a	0.038231887
192	0x3c482ec5	0.012218182
193	0xbd79448f	-0.0608564
194	0x3d9c9b8b	0.07646855
195	0xbcbb7187	-0.022881282
196	0xbd5d297d	-0.053994644
197	0x3daa7de0	0.0832479
198	0xbd8a3e94	-0.06750217
199	0xbd677893	-0.056511473

fc3.weight f4 [1, 200]
0	0xbf72e11a	-0.9487473
1	0xbfcbae75	-1.5912615
2	0xbf5537ee	-0.83288467
3	0xc071846b	-3.7737072
4	0x3f3e15f2	0.74252236
5	0xc0a95995	-5.2921853
6	0x3f29c6c4	0.6631892
7	0x3e0f1bc4	0.13975435
8	0xbfed1e74	-1.8524919
9	0xc0feea87	-7.966129
10	0xbfb4c22f	-1.412176
11	0x3f590c48	0.84784365
12	0x3f178822	0.591921
13	0xbffbe03c	-1.9677806
14	0x3f2980e6	0.6621231
15	0x3f36b863	0.713751
16	0xc030b87e	-2.7612605
17	0xc092e935	-4.5909677
18	0x3f8514a1	1.039692
19	0x3e1bcc5f	0.1521468
20	0xbff8c305	-1.9434515
21	0x3ec92a3a	0.3929003
22	0x40ae16b6	5.4402723
23	0x3eefc3d3	0.4682909
24	0xc08f0aa5	-4.4700494
25	0x3f17a6af	0.59238714
26	0xc03f6c2e	-2.9909778
27	0xbfd6a287	-1.676835
28	0xbfd4896a	-1.6604435
29	0x3f060313	0.5234844
30	0xbf6a1cd0	-0.91450214
31	0x409f40fb	4.976682
32	0x3f0279db	0.50967187
33	0xbfec07db	-1.8439897
34	0x3f416b45	0.75554305
35	0xc0a6a9ab	-5.2082114
36	0xc0661102	-3.594788
37	0xbf8988af	-1.0744838
38	0x3f9bd5eb	1.2174658
39	0xc08862eb	-4.262075
40	0x3f706156	0.9389852
41	0xc095781a	-4.670911
42	0x40313499	2.7688353
43	0xbf9564d6	-1.1671398
44	0xc07d9fa7	-3.9628694
45	0x3f5a4a5e	0.85269725
46	0x3f4e8656	0.8067373
47	0x3ef14247	0.47120878
48	0xc0a94f4e	-5.2909307
49	0x3fa9277c	1.3215175
50	0xc0f375e0	-7.608139
51	0xbfa5d397	-1.2955197
52	0x3f71a44a	0.9439131
53	0x3f383667	0.7195801
54	0x3f5176a4	0.81821656
55	0x3f9f61e7	1.2451752
56	0x3f285f74	0.6577065
57	0xc02b1a83	-2.6734931
58	0x3f2106aa	0.62900794
59	0xbf5cb474	-0.8621285
60	0x3e5a9ee1	0.2134967
61	0x3f575399	0.84111935
62	0x3f9624e9	1.1730014
63	0x3ed41b4e	0.41427082
64	0xbf827e17	-1.019473
65	0xbf4bcba1	-0.7960759
66	0x3fb15f68	1.3857241
67	0xc0396e2f	-2.89735
68	0xbfe58162	-1.793011
69	0x3f2a6463	0.6655943
70	0x409bc858	4.868206
71	0xbfc16636	-1.5109317
72	0x3f0640ba	0.52442515
73	0xbf4375ef	-0.7635183
74	0x3fb01350	1.3755894
75	0x3ee72b2c	0.45150125
76	0x408fefa1	4.4980016
77	0xc097b292	-4.740548
78	0xc05cc632	-3.449597
79	0xc0f49f63	-7.6444564
80	0xc014bd3c	-2.32405
81	0x3f688b93	0.90837973
82	0xbf1d68ec	-0.61488223
83	0x3f04173c	0.5159795
84	0xbf777a94	-0.96671414
85	0x3f180e69	0.5939699
86	0xbf707361	-0.93926054
87	0xc0306336	-2.7560554
88	0x3f083199	0.5320068
89	0x3febc34a	1.8418972
90	0x4002d056	2.0439658
91	0x3f022ba7	0.5084786
92	0x3f64b314	0.8933575
93	0xc0b46b2b	-5.638082
94	0x4088a5a2	4.270219
95	0x4072fa91	3.7965434
96	0xc0ba4c41	-5.8218083
97	0x4000833b	2.0080097
98	0xc04641a8	-3.0977573
99	0xc0c9d84d	-6.307654
100	0x400aaf72	2.1669583
101	0x3f9ab141	1.2085344
102	0xbfbd5b25	-1.479344
103	0x4051968e	3.2748141
104	0xc0a50bda	-5.1576967
105	0x3d669687	0.056295898
106	0xbfdc50d3	-1.7212166
107	0xc0ab96f8	-5.362179
108	0x3f151993	0.5824215
109	0x3e5f1bd0	0.21787953
110	0xbfda23a0	-1.7042122
111	0x3f91fbed	1.1405007
112	0xbf87ab3e	-1.0599134
113	0xc0b46d5b	-5.638349
114	0xbfc16c47	-1.5111169
115	0x3f17ab6e	0.59245956
116	0xbd3edeae	-0.046599083
117	0x3fe3ad82	1.7787325
118	0x3f2b7565	0.66976005
119	0xbfa41999	-1.2820312
120	0xbfdc691d	-1.7219578
121	0xbfcec12f	-1.6152705
122	0x3f599376	0.8499063
123	0xc012028b	-2.2814052
124	0x3f3fa44c	0.7486007
125	0xbfd5a758	-1.6691694
126	0xbf75ca9b	-0.96012276
127	0x4021c979	2.527922
128	0x3f4c0487	0.7969441
129	0xc07e399c	-3.9722662
130	0x3f7597fb	0.9593503
131	0xc0e1d3a9	-7.0570874
132	0xc01fba83	-2.4957588
133	0x40337eef	2.8046224
134	0x3f0db10e	0.5534829
135	0x3f2207ef	0.63293356
136	0x3f321c6d	0.69574624
137	0xbf793dfa	-0.97360194
138	0xbf3b5649	-0.73178536
139	0xbf40bcb6	-0.7528795
140	0xc0150641	-2.3285067
141	0x3f58d846	0.8470501
142	0x40078692	2.1175885
143	0xc0a83235	-5.256129
144	0x3f385665	0.7200683
145	0x3f3be41c	0.7339494
146	0x3f06e8cf	0.5269899
147	0x40132bc2	2.2995458
148	0x400875d9	2.1321929
149	0x3ee27d24	0.442361
150	0xbfa30c62	-1.2738154
151	0xbfbd4a69	-1.4788333
152	0x40afdbe9	5.4955945
153	0xbfb67366	-1.4253967
154	0x40a019ce	5.00315
155	0xbfb0f286	-1.3824012
156	0xbfa8e110	-1.3193684
157	0xc01e704c	-2.475604
158	0x3f442a7d	0.7662733
159	0xc05e6dcf	-3.4754522
160	0x3f26ea9d	0.6520174
161	0x3f072af5	0.5279992
162	0xbf8565f9	-1.0421745
163	0x3f5b6fae	0.85717285
164	0xc023937a	-2.5558763
165	0x407219e3	3.78283
166	0x3f7fc954	0.9991658
167	0x3e523515	0.20528062
168	0xbfb1886a	-1.3869755
169	0x40aca216	5.394786
170	0x3f33ca72	0.7023078
171	0x3f1fba26	0.62393415
172	0xbf7ef931	-0.99598986
173	0x3e97b5da	0.2963093
174	0x3eea0261	0.4570494
175	0x3f060440	0.52350235
176	0x3fe63245	1.7984091
177	0x3e4626b7	0.19350706
178	0x3fe93c4e	1.8221529
179	0xbf3f9512	-0.7483684
180	0x400eea8c	2.2330656
181	0x3fc26fd1	1.5190374
182	0x400bc2d5	2.1837666
183	0x3f2886f0	0.658309
184	0xc015868a	-2.3363366
185	0xbf483b43	-0.78215426
186	0xbf1ace74	-0.6047127
187	0x40147784	2.3197947
188	0xbf90a14d	-1.1299225
189	0x3f7d9b3e	0.99065006
190	0xbfab84e8	-1.3399935
191	0xbfce4f61	-1.6117975
192	0x3f3a2904	0.72718835
193	0xbf69ce88	-0.91330767
194	0xbf516be3	-0.8180525
195	0xbf9e62d1	-1.2373906
196	0xbfe38c03	-1.7777103
197	0x3f13d4f5	0.5774682
198	0x3f835e8f	1.0263232
199	0x3e85c8a4	0.2612964
